model_zoo/team04_rcn.pth (torch, 983266 bytes, 94 tensors)

conv_1.weight f4 [40, 3, 3, 3]
0.02995793 -0.02928963 0.00943102 0.014899181 -0.13004833 -0.011429528 0.0111154 0.06561185
0.026952391 -0.011202884 -0.08534526 0.00196166 -0.03809258 0.34610882 -0.054268803 -0.030907912
-0.0077982666 -0.035247788 0.058311358 0.0042801416 0.052082486 -0.00015376638 -0.15929571 0.050310638
-0.025841244 -0.0041369325 -0.0117806075 0.0054724724 -0.018657804 -0.0067430106 0.012706328 0.015528525
0.023683315 -0.030233456 0.038696907 -0.04131812 -0.020382358 0.031411175 -0.01882802 -0.0111268405
-0.046097413 -0.010852886 0.046783715 0.0001293824 0.014519461 0.002200844 0.015647946 -0.0074719074
0.0077935657 0.00891342 0.03132174 -0.01299839 -0.026882695 0.0062089544 -0.013320739 -0.10699389
0.04478347 -0.04315155 0.097034924 -0.0076773698 0.013052848 -0.04400781 0.072431795 0.002511738
-0.016817385 -0.00855187 0.055032704 -0.003619698 0.012803778 0.037587788 -0.03506308 -0.054201007
-0.0065642097 0.13485543 -0.05144929 -0.019520264 -0.08805258 0.008324355 -0.020786798 0.06333481
-0.014420057 0.015652463 0.025180642 -0.025978412 -0.014011598 0.01957507 -0.015251259 -0.028604465
0.032482434 0.016561605 -0.020160032 0.001001457 -0.008849749 0.006063594 0.023483064 -0.01083962
-0.010865107 0.010037687 -0.011664305 -0.011726912 -0.009034288 0.0074713924 0.032176487 -0.000900189
0.011101159 0.0015684072 0.004320307 -0.025078127 -0.0001342695 -0.02158799 0.036442246 0.004222406
-0.026114339 0.014837825 0.0029396075 -0.0018025148 0.00797484 -0.011543466 -0.022082917 0.0376187
-0.0024927636 -0.022305496 0.015669314 0.01282149 -0.0021918316 -0.008544468 0.0028915196 -0.02139104
0.042869136 0.0051186816 -0.04447738 0.010995673 0.02481733 -0.00232055 -0.003190892 -0.08667202
-0.06563714 0.060337886 -0.013857332 -0.020300603 0.08124075 -0.07040297 -0.0026425936 0.09442197
0.012133021 0.010307607 -0.046628065 0.012032367 0.159623 -0.012245962 -0.028533967 0.052230097
-0.02726996 0.09182349 0.07643425 -0.0064640157 0.06281798 -0.124067396 -0.15647921 0.0103526255
0.039594114 -0.060335115 0.045361698 0.09721546 0.051061917 0.09926025 0.18505229 0.10042573
0.046736207 0.1013385 0.04797689 0.0024788957 0.0060047866 0.0023076832 0.007510218 0.011454851
0.0068381997 -0.0010209064 0.00324643 0.0026262137 -0.048655644 -0.09855316 -0.053045325 -0.09448147
-0.17011526 -0.09617608 -0.052332465 -0.1039865 -0.057508443 0.021437014 0.01760352 -0.052143764
0.063036494 -0.4006597 -0.009019223 0.099162586 0.040220104 0.06215464 0.010416031 0.05232476
0.07731858 -0.012936878 0.15766905 0.057884496 -0.13078746 -0.07729737 -0.044075657 -0.04135957
-0.047600057 -0.03001695 -0.017866263 0.18732709 -0.03976335 0.02112629 0.06114622 -0.009602727
-0.046836298 -0.06893963 -0.039841875 -0.07026554 -0.092509404 -0.06745919 -0.040420186 -0.07137479
-0.044048563 0.08592416 0.11540636 0.08541495 0.114316925 0.1741313 0.11651305 0.08354665
0.12694855 0.08924998 -0.0372901 -0.047169354 -0.03899881 -0.054422013 -0.06324355 -0.05871896
-0.04122085 -0.056503415 -0.04864352 0.035363153 -0.049482577 -0.009019933 -0.07174526 0.15141284
0.014656536 -0.06456695 0.064166516 0.0033573683 0.10993487 -0.025081392 0.027699832 0.06550729
00000000: 556a f53c cef0 efbc 9184 1a3c b21b 743c
00000010: 642b 05be ea42 3bbc 5e1d 363c 815f 863d
00000020: 43cb dc3c 4d8c 37bc 7fc9 aebd 328f 003b
00000030: f706 1cbd 2d35 b13e f748 5ebd 9732 fdbc
00000040: 9a88 ffbb fc5f 10bd e4d7 6e3d 6e40 8c3b
00000050: 7254 553d 593c 21b9 6a1e 23be 8712 4e3d
00000060: 04b1 d3bc 1b8f 87bb 7303 41bc 6d52 b33b
00000070: 40d8 98bc 79f4 dcbb 342e 503c 5b6b 7e3c
00000080: 8303 c23c 27ac f7bc a680 1e3d 303d 29bd
00000090: e7f8 a6bc 01a9 003d 383d 9abc 5a4d 36bc
000000a0: a4d0 3cbd 4ed0 31bc 48a0 3f3d d3aa 0739
000000b0: 09e3 6d3c 093c 103b 1f30 803c e7d6 f4bb
000000c0: 2b61 ff3b 9809 123c 3a4b 003d 33f7 54bc
000000d0: 1939 dcbc 7c74 cb3b 3b3f 5abc 9d1f dbbd
000000e0: df6e 373d aebf 30bd 3fba c63d 7292 fbbb
000000f0: 9ddb 553c 8941 34bd 1f57 943d f99b 243b
00000100: 9dc4 89bc 241d 0cbc f969 613d 7538 6dbb
00000110: f0c6 513c a7f5 193d 4e9e 0fbd e001 5ebd
00000120: 9518 d7bb 8b17 0a3e 7ebc 52bd f6e8 9fbc
00000130: e954 b4bd e062 083c 1349 aabc aeb5 813d
00000140: 1a42 6cbc 9839 803c a247 ce3c aed0 d4bc
00000150: e790 65bc e65b a03c 6be0 79bc e953 eabc
00000160: 4d0c 053d 34ac 873c a726 a5bc 5243 833a
00000170: 8afe 10bc 1db1 c63b 8e5f c03c a998 31bc
00000180: 9003 32bc 1c75 243c a41b 3fbc 3c22 40bc
00000190: 8d04 14bc 95d2 f43b 7ecb 033d a9fa 6bba
000001a0: a3e1 353c 0393 cd3a 5d91 8d3b a570 cdbc
000001b0: b2ca 0cb9 4cd9 b0bc 7744 153d 1c5c 8a3b
000001c0: bded d5bc 591a 733c 6ea6 403b 5c42 ecba
000001d0: e7a8 023c ce20 3dbc 3ce7 b4bc 1116 1a3d
000001e0: a25d 23bb 04ba b6bc ef5c 803c 3a11 523c
000001f0: d5a4 0fbb 19fe 0bbc a67f 3d3b 433c afbc
00000200: 8c97 2f3d 9dba a73b ea2d 36bd 3227 343c
00000210: b74d cb3c 5e14 18bb 491e 51bb 1a81 b1bd
00000220: c46c 86bd dc24 773d dd09 63bc 734d a6bc
00000230: 8d61 a63d 6f2f 90bd 5d2f 2dbb 4e60 c13d
00000240: 94c9 463c 3de1 283c 12fd 3ebd 6823 453c
00000250: 3674 233e 4aa3 48bc 11c0 e9bc 3aef 553d
00000260: 4065 dfbc f40d bc3d 8f89 9c3d 18d0 d3bb
00000270: b7a6 803d 0c17 febd 163c 20be 0f9e 293c
00000280: 702d 223d f421 77bd 30cd 393d e618 c73d
00000290: 4d26 513d f548 cb3d 597e 3d3e 01ac cd3d
000002a0: 776e 3f3d 8f8a cf3d 6a83 443d f874 223b
000002b0: cdc3 c43b 803c 173b 4618 f63b 21ad 3b3c
000002c0: fa12 e03b efcf 85ba 0fc2 543b 8e1c 2c3b
000002d0: 244b 47bd 3dd6 c9bd 0e46 59bd 807f c1bd
000002e0: b232 2ebe f7f7 c4bd 915a 56bd e0f6 d4bd
000002f0: f98d 6bbd ad9c af3c 4235 903c b394 55bd
00000300: 4719 813d 4523 cdbe 5dc5 13bc c115 cb3d
00000310: d6bd 243d dd95 7e3d 00a8 2a3c 7d52 563d
00000320: 3459 9e3d 33f5 53bc ff73 213e 4b18 6d3d
00000330: 26ed 05be 154e 9ebd ad88 34bd a768 29bd
00000340: 47f8 42bd 1be6 f5bc 455c 92bc acd2 3f3e
00000350: e5de 22bd 0b11 ad3c 7574 7a3d c254 1dbc
00000360: 6bd7 3fbd 3930 8dbd 3c31 23bd 61e7 8fbd
00000370: 9275 bdbd 0b28 8abd a38f 25bd f22c 92bd
00000380: 446c 34bd 02f9 af3d 2b5a ec3d 09ee ae3d
00000390: fe1e ea3d 7a4f 323e 659e ee3d 821a ab3d
000003a0: cdfe 013e b2c8 b63d 81bd 18bd a734 41bd
000003b0: 37bd 1fbd 9ee9 5ebd d685 81bd 4b83 70bd
000003c0: 32d7 28bd 2070 67bd 6d3e 47bd f4d8 103d
000003d0: 3eae 4abd 57c8 13bc 2eef 92bd f80b 1b3e
000003e0: f821 703c ad3b 84bd bc69 833d 4b07 5c3b
000003f0: 8825 e13d 7e77 cdbc c2ea e23c b028 863d

conv_1.bias f4 [40]
-0.010066624 -0.03185672 -0.03580139 -0.0073639145 -0.027307084 -0.004436481 -0.008628524 -0.062085833
-0.005000859 -0.028322252 -0.04264046 -0.06083602 -0.044736303 0.023496019 0.024194408 0.10265936
-0.03630493 -0.00929272 -0.028287621 -0.053209145 -0.033581767 -0.008028439 -0.0342411 -0.051096827
-0.023057982 -0.1028569 0.30094627 -0.029910173 -0.030247549 -0.039142236 -0.035390772 -0.043914713
-0.08386718 0.08919415 -0.14459036 -0.022843782 -0.04373802 -0.06269403 -0.039003927 -0.053510636
00000000: 7bee 24bc 317c 02bd 7aa4 12bd fe4c f1bb
00000010: 1bb3 dfbc e65f 91bb a75e 0dbc b74d 7ebd
00000020: 3fde a3bb 1104 e8bc c3a7 2ebd 312f 79bd
00000030: 6a3d 37bd b97a c03c 5a33 c63c 123f d23d
00000040: 7ab4 14bd 7e40 18bc 71bb e7bc d5f1 59bd
00000050: 098d 09bd b789 03bc 6540 0cbd e84a 51bd
00000060: 18e4 bcbc a3a6 d2bd a115 9a3e 2e06 f5bc
00000070: b5c9 f7bc 9c53 20bd eaf5 10bd eadf 33bd
00000080: 8ec2 abbd 6cab b63d 7f0f 14be e222 bbbc
00000090: a326 33bd ba65 80bd 95c2 1fbd f82d 5bbd

block_1.ln1.weight f4 [40]
0.33456084 0.11067365 0.14805833 -0.003762162 0.006227224 0.0043170624 0.3460894 0.19050874
0.2545554 0.098503806 0.1483902 0.1774856 0.15025152 0.30350456 0.18698537 0.22615615
0.20114039 -0.00050954096 0.09294174 0.22129801 0.1489417 0.19940855 0.22367258 0.15132721
0.0012586077 0.22687453 0.2918507 0.129264 0.60010743 0.12843809 0.1354745 0.22269389
0.09258955 0.26043367 0.18174905 0.7387421 0.22644603 0.13448143 0.17497702 0.16843025
00000000: 8f4b ab3e dea8 e23d 9a9c 173e 9b8e 76bb
00000010: be0d cc3b 2576 8d3b a132 b13e b914 433e
00000020: 1655 823e 5dbc c93d 9af3 173e c9be 353e
00000030: 89db 193e f364 9b3e 1879 3f3e 7a95 673e
00000040: bff7 4d3e b792 05ba 3d58 be3d f29b 623e
00000050: 2c84 183e c131 4c3e 6d0a 653e 85f5 1a3e
00000060: def7 a43a cc51 683e 746d 953e c85d 043e
00000070: a4a0 193f 4685 033e d4b9 0a3e de09 643e
00000080: 979f bd3d 9057 853e 6c1c 3a3e 341e 3d3f
00000090: 78e1 673e 80b5 093e 2d2d 333e fb78 2c3e

block_1.ln1.bias f4 [40]
0.0012796321 0.032685753 0.04457325 0.005526011 -0.00038452414 -0.0013317491 -0.12126617 0.11442362
0.016359437 0.01879439 0.062286 0.09913183 0.06293872 0.028677026 -0.074912354 -0.072156034
0.049820293 -0.002905652 0.023878656 0.09031611 0.043903 -0.003133388 0.06384699 0.066493765
-0.0001798639 0.20209959 -0.04127137 0.030516073 0.06279303 0.045031525 0.041219637 0.081339024
0.092241615 -0.12446753 0.15771657 0.049288686 -0.10407355 0.0792011 0.059248358 0.07657251
00000000: 54b9 a73a 7fe1 053d 7192 363d 8a13 b53b
00000010: f599 c9b9 168e aeba 665a f8bd ee56 ea3d
00000020: 3a04 863c b1f6 993c 9b1f 7f3d a105 cb3d
00000030: 04e6 803d 15ec ea3c a66b 99bd 8bc6 93bd
00000040: 5d10 4c3d c06c 3ebb 2c9d c33c a7f7 b83d
00000050: a2d3 333d 8759 4dbb 36c2 823d e22d 883d
00000060: d999 3cb9 32f3 4e3e 2b0c 29bd d8fc f93c
00000070: a299 803d fa72 383d ecd5 283d 1395 a63d
00000080: 2ce9 bc3d d5e8 febd 7480 213e efe2 493d
00000090: 8324 d5bd 3034 a23d 68ae 723d 0cd2 9c3d

block_1.conv1_r.weight f4 [40, 40, 3, 3]
0.07536752 -0.05153272 -0.011220128 -0.046616428 -0.12884295 0.056306552 0.018658932 0.101528116
0.0457023 -0.042281747 0.24550374 -0.17690416 0.13050672 0.53354615 -0.22576669 -0.16177623
-0.15167858 -0.021409703 0.074864015 0.20057984 -0.22241205 0.044731114 0.28536624 -0.10203138
-0.29011932 0.07108745 -0.037096974 -0.01930601 -0.0022174753 0.006349725 0.014676499 0.009026188
0.019551795 0.021463351 0.039811052 0.029806795 0.00524531 0.031124542 -0.033778768 0.0076140543
0.046697233 0.0023877313 -0.023851776 -0.0020553542 -0.037431747 0.016322777 0.023081463 0.024886705
-0.016779043 -0.054688774 -0.009867881 0.005135986 0.031082861 -0.016965145 -0.030644862 0.0082656685
-0.021541739 -0.103119664 -0.18286182 -0.066057295 -0.0442929 -0.06760562 -0.06390412 0.012275221
0.2121995 0.059197005 -0.19003811 0.0942584 0.06664857 -0.14907059 -0.24092023 -0.06433359
-0.3882536 -0.31479666 -0.15910585 -0.26365826 -0.49193037 -0.20693946 -0.16541822 -0.25722736
-0.07718401 0.10819212 0.33937255 -0.12474487 0.0896168 0.3556789 0.0096528875 -0.18594702
-0.079546325 -0.11285748 0.06993105 0.12793776 -0.058201242 -0.021535577 0.6496854 -0.0018260627
-0.16965252 -0.16439047 -0.14777957 0.12935437 0.15741551 -0.039225414 0.0022998273 0.48572764
-0.092950635 -0.25963008 0.088088974 -0.021356994 -0.12664345 0.33236748 -0.12439021 0.1258812
-0.55386496 0.29468092 -0.2108413 0.22070734 -0.19521499 0.02214113 0.018897839 -0.045750193
0.04914398 0.06483666 0.03180635 -0.02490005 -0.026284289 -0.051977098 -0.005455815 -0.094847694
0.005175172 0.077068254 -0.06794802 -0.016917035 -0.04769611 -0.025780004 -0.048541788 0.01256848
0.09045615 0.029613959 0.006480708 0.015743122 0.03727453 -0.054028586 0.034216274 -0.032418218
-0.034462515 -0.042146515 0.13278393 -0.08242058 0.33073732 0.006287065 0.00955456 -0.17220645
-0.101167455 0.019401858 -0.017258836 -0.025004668 0.002430043 0.018567724 -0.03667586 -0.031757038
-0.04767211 -0.034428373 -0.017007545 0.080868505 -0.15225492 0.25125825 0.25557944 -0.060582403
-0.17647865 -0.011691723 -0.10267905 0.10870984 0.14058249 -0.08468491 0.026360506 -0.6537815
-0.08624816 -0.036137544 -0.010093305 -0.079935044 0.0841751 0.19242483 -0.22236562 0.13641192
0.18007118 -0.16888319 0.017483203 -0.032740206 -0.16850144 0.038798146 0.10417693 -0.05213622
-0.03505423 0.19650535 0.017331144 -0.024871225 0.05380299 -0.045762267 0.12511794 -0.14892437
0.097400516 -0.20431426 0.61296284 -0.3208985 -0.03380906 -0.19609198 0.03810292 -0.016634822
0.14865614 -0.17343442 0.039503 0.28078243 0.04971346 -0.21691394 0.051226642 -0.15214708
-0.004797408 0.022789216 0.056133986 0.043208286 0.058245458 0.031249028 0.012591262 0.016608024
-0.00630727 0.02445037 0.08543998 -0.0150942085 0.120272696 0.4368556 -0.021917608 -0.0773626
0.015661716 -0.075907215 -0.04122577 0.07846989 -0.063326985 0.038400274 0.18519059 0.020987893
-0.09694838 0.027111221 -0.039905258 -0.2059677 0.31243318 0.010672101 0.028196838 0.2788662
-0.018252183 -0.1340149 -0.028502304 0.11141698 -0.05347899 0.055174336 -0.039998002 0.11250293
00000000: 495a 9a3d f913 53bd a1d4 37bc def0 3ebd
00000010: 68ef 03be b3a1 663d 9eda 983c f9ed cf3d
00000020: 5632 3b3d a02f 2dbd 5565 7b3e 5d26 35be
00000030: 8ea3 053e 7b96 083f 622f 67be aba8 25be
00000040: a151 1bbe 6763 afbc 4e52 993d cd64 4d3e
00000050: fcbf 63be f937 373d 861b 923e d4f5 d0bd
00000060: 858a 94be 4c96 913d fff2 17bd a327 9ebc
00000070: 1053 11bb 5b11 d03b b375 703c 94e2 133c
00000080: 162b a03c e9d3 af3c ea10 233d 612d f43c
00000090: d9e0 ab3b e5f8 fe3c 9b5b 0abd 517f f93b
000000a0: 9945 3f3d 7c7b 1c3b cd64 c3bc 1fb3 06bb
000000b0: 0852 19bd 58b7 853c 5615 bd3c 34df cb3c
000000c0: 3474 89bc 5601 60bd e5ac 21bc c64b a83b
000000d0: 7ca1 fe3c 7dfa 8abc ef0a fbbc ba6c 073c
000000e0: 4d78 b0bc 6730 d3bd 2140 3bbe 0c49 87bd
000000f0: 796c 35bd d174 8abd 2ae0 82bd 021e 493c
00000100: d34a 593e 8f78 723d 5a99 42be 8c0a c13d
00000110: 0c7f 883d f6a5 18be cbb3 76be 54c1 83bd
00000120: 2dc9 c6be 072d a1be a5ec 22be 37fe 86be
00000130: 4cde fbbe f0e7 53be 6563 29be 4eb3 83be
00000140: a612 9ebd d593 dd3d 3dc2 ad3e 3d7a ffbd
00000150: 0389 b73d 8b1b b63e 2527 1e3c e568 3ebe
00000160: 2fe9 a2bd d321 e7bd 0338 8f3d 1e02 033e
00000170: 6d64 6ebd 616b b0bc c851 263f 7f58 efba
00000180: 64b9 2dbe fa55 28be 8753 17be 7975 043e
00000190: 8831 213e d4aa 20bd b3b8 163b 4bb1 f83e
000001a0: e75c bebd 3cee 84be fe67 b43d ddf4 aebc
000001b0: d2ae 01be 122c aa3e 4bc0 febd 00e7 003e
000001c0: 18ca 0dbf 6be0 963e c8e6 57be 1b01 623e
000001d0: 70e6 47be 5161 b53c a4cf 9a3c 8e64 3bbd
000001e0: 334b 493d 15c9 843d 6047 023d 31fb cbbc
000001f0: 2652 d7bc f0e5 54bd b1c6 b2bb 823f c2bd
00000200: 7d94 a93b f6d5 9d3d 5528 8bbd 9895 8abc
00000210: ff5c 43bd 9630 d3bc c1d3 46bd 07ec 4d3c
00000220: 1341 b93d f998 f23c 1e5c d43b b8f7 803c
00000230: 2dad 183d 144d 5dbd 5d26 0c3d f7c8 04bd
00000240: 9128 0dbd d3a1 2cbd 83f8 073e 1fcc a8bd
00000250: 6756 a93e b903 ce3b bb8a 1c3c e356 30be
00000260: e230 cfbd a5f0 9e3c 6762 8dbc 97d6 ccbc
00000270: 5b41 1f3b 571b 983c 6d39 16bd ab13 02bd
00000280: d543 43bd c404 0dbd 6853 8bbc 639e a53d
00000290: b7e8 1bbe eca4 803e 4fdb 823e 4125 78bd
000002a0: d2b6 34be a48e 3fbc 6549 d2bd 44a3 de3d
000002b0: dbf4 0f3e 486f adbd fdf1 d73c 395e 27bf
000002c0: e0a2 b0bd f604 14bd 645e 25bc fcb4 a3bd
000002d0: ff63 ac3d 040b 453e d0b3 63be 91af 0b3e
000002e0: 9464 383e b7ef 2cbe ef38 8f3c 981a 06bd
000002f0: a48b 2cbe ceea 1e3d b75a d53d ca8c 55bd
00000300: 0695 0fbd b338 493e 0bfa 8d3c bdbe cbbc
00000310: 8660 5c3d 3771 3bbd eb1e 003e a17f 18be
00000320: ec79 c73d c237 51be 22eb 1c3f cf4c a4be
00000330: 5e7b 0abd 56cc 48be cf11 1c3d c045 88bc
00000340: 5139 183e cb98 31be e6cd 213d b7c2 8f3e
00000350: 57a0 4b3d b01e 5ebe 07d3 513d 72cc 1bbe
00000360: 9333 9dbb 73b0 ba3c c0ec 653d 2cfb 303d
00000370: ca92 6e3d f6fd ff3c 954b 4e3c 8d0d 883c
00000380: 37ad cebb 244c c83c 28fb ae3d b34d 77bc
00000390: 8851 f63d 8aab df3e 8e8c b3bc 4870 9ebd
000003a0: 004d 803c 3e75 9bbd 5adc 28bd d2b4 a03d
000003b0: 94b1 81bd 9b49 1d3d 9aa2 3d3e cdee ab3c
000003c0: df8c c6bd 5a18 de3c b273 23bd 32e9 52be
000003d0: 3ef7 9f3e 09da 2e3c 0efd e63c 8dc7 8e3e
000003e0: 9a85 95bc 343b 09be aa7d e9bc 962e e43d
000003f0: c90c 5bbd 7cfe 613d f2d4 23bd f067 e63d

block_1.conv1_r.bias f4 [40]
0.15418848 -1.7011853 -0.7416084 -0.962457 -1.414532 -1.1076075 -0.08145721 -0.44159022
-1.0673796 -2.036596 -0.113025546 -2.2546413 -2.3952491 -0.8486101 -0.36222845 -0.0138379745
-1.9680322 -0.006180033 0.10720832 -0.7114499 -0.87277544 -2.2865286 -0.010012835 -0.29141018
0.15611482 -0.2220853 -1.2340534 0.24932 -1.4048342 0.15221193 0.20960255 0.088129826
-1.1255448 -0.8995121 -1.7576785 -1.5878303 0.12851016 -0.28422132 -0.17305526 -0.9107747
00000000: 96e3 1d3e 71c0 d9bf 0cda 3dbf 9563 76bf
00000010: 620f b5bf 15c6 8dbf 0ad3 a6bd 1d18 e2be
00000020: e59f 88bf 9757 02c0 f079 e7bd 0b4c 10c0
00000030: c34b 19c0 833e 59bf 0276 b9be acb8 62bc
00000040: 7be8 fbbf e081 cabb 0990 db3d 9521 36bf
00000050: 366e 5fbf 7c56 12c0 e00c 24bc b733 95be
00000060: 90dc 1f3e 546a 63be 76f5 9dbf be4d 7f3e
00000070: 9bd1 b3bf 72dd 1b3e 0da2 563e 697d b43d
00000080: da11 90bf 6d46 66bf 9cfb e0bf 063e cbbf
00000090: 2b98 033e 7585 91be 6635 31be 8828 69bf

block_1.conv2_r.weight f4 [40, 40, 3, 3]
-0.055464063 0.055944137 -0.011327934 0.01754567 0.008243918 0.018795013 0.0073695187 0.017347842
0.017245615 -0.26000154 -0.740939 0.088506065 -0.18887919 3.7398953 -1.024941 -0.05470183
-2.117172 -0.04034294 0.050765432 0.024691954 -0.0022239343 -0.003950041 0.24952582 0.09780244
-0.021607662 -0.097538516 -0.024868188 -0.0017284071 -0.093368486 0.026281018 -0.01378097 -0.34354678
0.06055744 0.057224326 -0.02780037 -0.01712811 0.6933604 -0.0045431927 -0.041833922 0.2742392
0.5269757 -0.064544454 0.60235834 0.017386049 -0.05731406 0.05041594 0.020420117 0.0052028364
-0.004859494 -0.13938932 -0.0047833044 -0.008677385 0.13853224 0.062348876 0.087060824 0.06443335
0.12096915 -0.03115964 -0.07702656 0.09182195 0.0026925278 0.0018508947 0.0577452 0.021088108
0.03603386 -0.023055013 -0.017154062 -0.10162615 -0.022989111 1.2570399e-05 -0.0457488 -0.10665928
-0.02337289 -0.07657793 0.09988301 -0.099183224 0.054273285 -0.23554187 -0.045544636 -0.15990284
-0.034522455 -0.068043984 -0.109879 0.07489469 -0.02509056 -2.0708609 0.31227946 0.5833407
2.0467713 0.14631572 -0.02055872 -0.044932805 -0.01769418 -0.01597565 0.08799107 0.053641908
-0.005084493 -0.068422206 -0.071060225 -0.38649544 -2.6413531 -0.055627517 -0.36469793 11.476854
-1.2524613 -0.6299918 -2.7704675 -0.39836523 0.25092846 0.3736474 0.17426623 -0.61911035
6.4210663 -0.12547398 -0.056234255 -0.14148873 0.1614001 0.18506001 -0.040496245 -0.1038822
-0.20284908 0.33931386 0.038666386 -0.46936804 0.640609 0.1410111 -0.011810546 0.041417494
-0.019160228 -0.057522427 0.009482034 -0.042109467 -0.021298302 -0.06398349 -0.034726534 0.04407263
0.019526733 0.01744571 -0.09803116 -0.18354794 0.5275501 -0.07070306 0.31775537 -0.020443218
-0.34447232 -0.64025295 -0.033488426 -0.2524244 0.16990185 0.39021075 -0.3238658 -0.32065487
-0.011938169 0.0032490145 -0.003423613 -0.0027534182 0.011700204 -0.010095731 0.0083254315 -0.010049284
-0.001349742 0.016625566 0.0011650391 -0.047010317 0.011649329 -0.00049212575 0.082816064 -0.01916665
-0.01648979 0.04211145 0.003935384 0.09139602 -0.29090837 0.018987782 0.17947832 -0.21508764
0.13588612 0.053072978 -0.03007456 -0.019509155 0.03763472 -0.050142523 0.023928862 -0.020677816
-0.0386342 -0.046851374 0.020246806 -0.013594757 0.057872538 -0.13711919 -0.34291354 -0.53402513
0.14707984 1.3930272 -0.51221853 -0.5280269 -0.5964052 -0.48426175 0.003106911 -0.02037143
0.017900841 0.0003440911 0.007060785 -0.0116876345 -0.01893417 -0.04605845 -0.07458072 0.00013697216
0.18516839 0.46018255 0.070279606 -0.39643905 -0.23525351 -0.20104696 0.22476228 0.22563422
-0.053651277 0.056871686 -0.09274068 0.012071788 -0.22901003 0.0652101 0.057261016 -0.12054747
-0.0561738 0.0042084786 -0.0201142 -0.023606544 -0.005828848 -0.05805222 0.11375568 -0.040360898
-0.06103377 0.013093358 -0.06906397 -0.11921079 0.13813536 -0.024305727 0.36499155 -0.1680549
0.055108983 -0.119376905 0.053982574 -0.011085949 0.012985617 -0.14011751 0.12706286 -0.74162805
0.06222146 0.06453788 0.40591595 -0.09866659 0.45876962 0.57249767 0.19615458 0.8459053
00000000: 492e 63bd ae25 653d cd98 39bc f0bb 8f3c
00000010: 8011 073c 00f8 993c 017c f13b 101d 8e3c
00000020: ad46 8d3c ec1e 85be 2eae 3dbf ab42 b53d
00000030: 8c69 41be 725a 6f40 4431 83bf 070f 60bd
00000040: bf7f 07c0 a33e 25bd 6aef 4f3d c846 ca3c
00000050: 6dbf 11bb 586f 81bb b283 7f3e a54c c83d
00000060: 8d02 b1bc 46c2 c7bd 5fb8 cbbc b88b e2ba
00000070: fa37 bfbd 4a4b d73c 94c9 61bc 5de5 afbe
00000080: 140b 783d 0e64 6a3d 9abd e3bc 4050 8cbc
00000090: 1180 313f 10df 94bb 0c5a 2bbd 1569 8c3e
000000a0: e1e7 063f e22f 84bd 2834 1a3f 306d 8e3c
000000b0: 26c2 6abd f280 4e3d 1748 a73c 8e7c aa3b
000000c0: 643c 9fbb 13bc 0ebe 44bd 9cbb 972b 0ebc
000000d0: 65db 0d3e 8961 7f3d f24c b23d a2f5 833d
000000e0: acbe f73d 8042 ffbc 1ac0 9dbd 260d bc3d
000000f0: 1f75 303b b899 f23a 3b86 6c3d f8c0 ac3c
00000100: 3e98 133d dedd bcbc ad86 8cbc 5f21 d0bd
00000110: a953 bcbc 74e5 5237 1863 3bbd 2e70 dabd
00000120: 8178 bfbc e4d4 9cbd 778f cc3d 9320 cbbd
00000130: aa4d 5e3d e331 71be 038d 3abd 92bd 23be
00000140: 6b67 0dbd a55a 8bbd 3e08 e1bd 6362 993d
00000150: b88a cdbc fc88 04c0 18e3 9f3e d155 153f
00000160: 4dfe 0240 cad3 153e c36a a8bc 760b 38bd
00000170: 63f3 90bc 5edf 82bc a934 b43d 9eb7 5b3d
00000180: d29b a6bb f120 8cbd 0688 91bd bbe2 c5be
00000190: ee0b 29c0 aed9 63bd b0b9 babe 32a1 3741
000001a0: a750 a0bf 2547 21bf 574f 31c0 87f6 cbbe
000001b0: b279 803e b64e bf3e d972 323e 047e 1ebf
000001c0: 6079 cd40 407c 00be e455 66bd 6ce2 10be
000001d0: 1146 253e 5f80 3d3e 64df 25bd 31c0 d4bd
000001e0: abb7 4fbe 8cba ad3e a560 1e3d 0251 f0be
000001f0: f4fe 233f 3765 103e 0581 41bc 64a5 293d
00000200: e9f5 9cbc a39c 6bbd 885a 1b3c fa7a 2cbd
00000210: c779 aebc c709 83bd 693d 0ebd 8185 343d
00000220: 87f6 9f3c 4eea 8e3c 90c4 c8bd fef3 3bbe
00000230: 860d 073f c4cc 90bd d5b0 a23e 8978 a7bc
00000240: ad5e b0be 9ee7 23bf 292b 09bd c53d 81be
00000250: c0fa 2d3e b4c9 c73e bdd1 a5be e02c a4be
00000260: 4f98 43bc 6bed 543b b25e 60bb b172 34bb
00000270: 36b2 3f3c 9168 25bc 6467 083c c1a5 24bc
00000280: d3e9 b0ba 5732 883c 3ab4 983a e48d 40bd
00000290: d4dc 3e3c 0002 01ba 789b a93d 6103 9dbc
000002a0: 9915 87bc 0e7d 2c3d 65f4 803b d62d bb3d
000002b0: f1f1 94be 448c 9b3c 2ac9 373e ef3f 5cbe
000002c0: bb25 0b3e 0d63 593d ec5e f6bc aad1 9fbc
000002d0: dd26 1a3d 3f62 4dbd 7606 c43c 8664 a9bc
000002e0: e53e 1ebd 3ae7 3fbd a1dc a53c 8bbc 5ebc
000002f0: c10b 6d3d f968 0cbe 5d92 afbe dfb5 08bf
00000300: 199c 163e b74e b23f c120 03bf c52c 07bf
00000310: 03ae 18bf 28f1 f7be 519d 4b3b fce1 a6bc
00000320: c9a4 923c 2067 b439 285e e73b 7e7d 3fbc
00000330: d51b 9bbc c9a7 3cbd c7bd 98bd 2fa0 0f39
00000340: c89c 3d3e 0c9d eb3e c1ee 8f3d 0ffa cabe
00000350: 4ce6 70be 41df 4dbe 1528 663e a80c 673e
00000360: 71c1 5bbd 49f2 683d d3ee bdbd c0c8 453c
00000370: 9b81 6abe df8c 853d 878a 6a3d 98e1 f6bd
00000380: 8016 66bd 47e7 893b 89c6 a4bc 8362 c1bc
00000390: ecff bebb 2ac8 6dbd bdf8 e83d 7851 25bd
000003a0: 8cfe 79bd 8685 563c 6971 8dbd c924 f4bd
000003b0: 5b73 0d3e ce1c c7bc 2ce0 ba3e 9516 2cbe
000003c0: f5b9 613d e17b f4bd d51c 5d3d d7a1 35bc
000003d0: a0c1 543c f77a 0fbe c41c 023e 56db 3dbf
000003e0: eedb 7e3d 702c 843d 37d4 cf3e b611 cabd
000003f0: dae3 ea3e 358f 123f bfdc 483e 408d 583f

block_1.conv2_r.bias f4 [40]
0.04343974 0.23838288 0.024455808 -2.7230318 0.0565143 -0.20355655 -0.095233835 0.141225
-0.025963042 -0.49861735 -0.09730355 0.019522447 0.2751491 -0.37062895 -0.19943684 -1.9212248
-0.5781171 -0.0001558112 -0.13751136 0.27036116 -0.033281572 0.19687821 -0.5204007 -1.3408937
0.14829887 -0.8281752 0.40871602 0.17367944 0.010062962 -1.2889466 -0.6537873 0.093198225
-0.32950097 -0.2601284 -0.44271377 -0.33764213 0.1346423 -0.3377738 0.23119506 -0.35462204
00000000: deed 313d a41a 743e 8c57 c83c 2746 2ec0
00000010: 8a7b 673d 2171 50be f509 c3bd 499d 103e
00000020: 72b0 d4bc c64a ffbe 1547 c7bd 8aed 9f3c
00000030: 58e0 8c3e 14c3 bdbe 2c39 4cbe b2ea f5bf
00000040: 7bff 13bf 4061 23b9 c7cf 0cbe c76c 8a3e
00000050: 4252 08bd 719a 493e fb38 05bf 68a2 abbf
00000060: a9db 173e 4a03 54bf 3a43 d13e 06d9 313e
00000070: 1fdf 243c 34fc a4bf 9b5e 27bf b6de be3d
00000080: 5ab4 a8be 8d2f 85be 61ab e2be 6edf acbe
00000090: acdf 093e b0f0 acbe 66be 6c3e 0591 b5be

block_1.conv3_r.weight f4 [40, 40, 3, 3]
-0.049313787 -0.06699204 -0.10051642 0.038478997 0.05456096 0.018330004 -0.082164474 -0.22772817
-0.121631265 -0.23244423 -0.31861058 -0.07734656 -0.44428995 0.50338215 -0.20439918 -0.14406134
-0.49602994 -0.112740986 -0.048063427 0.10801207 -0.013813876 0.09417092 0.013556023 0.11198337
0.03999254 0.06747782 -0.042522475 0.012677339 -0.1053396 -0.06861411 0.20603023 0.20535497
-0.010204556 0.07070409 0.002305168 0.035120968 -0.060698632 0.03952618 -0.089030154 -0.10472663
-0.074949935 -0.08581495 -0.056096185 -0.031099334 -0.051679432 0.08513269 0.04525947 -0.02105718
0.07104411 0.037761614 0.031122243 0.09069538 0.078982145 0.06187404 0.0044907155 -0.012028722
0.061495997 -0.13433109 -0.2042543 -0.1622877 0.06748449 -0.08053492 0.02751934 0.009221762
0.09726293 -0.0060385694 0.02905319 0.17274505 0.13678776 -0.030180229 0.1032332 0.009308526
-0.014749757 -0.09530702 -0.0039601573 -0.033202264 -0.07936559 0.049448237 -0.092311665 -0.17503665
-0.080007516 0.03104703 -0.036196142 0.054176077 0.05193368 0.051326368 0.061500605 -0.019820668
-0.018697452 -0.018769821 -0.026363434 0.14849736 0.020073855 0.044665914 0.050016426 0.11133508
-0.03713871 0.09204469 0.16060834 0.15108924 0.04241055 0.086392224 0.10040651 0.19944817
0.08408426 0.055320494 0.013745949 -0.050873417 -0.0631014 0.14710248 0.07380002 -0.02220608
0.087913014 0.074706666 0.00500147 -0.117168896 0.032070313 -0.022063073 0.039980147 0.030187136
-0.0075654923 -0.040995676 0.04145364 -0.004177744 0.052100968 -0.03311511 -0.030748554 -0.0067565283
0.015938694 0.032456 0.108963095 -0.078522675 0.01763355 -0.00074710045 0.029386854 -0.2968245
-0.17459393 -0.111164905 -0.6197221 -0.64326376 -0.4956442 -0.15488018 -0.5018235 -0.11668245
-0.021362957 0.016910184 0.0034767748 -0.027604755 -0.059360992 -0.023660233 -0.008590055 0.0067888456
-0.009564199 -0.022117404 -0.116703786 -0.12232897 -0.030584363 -1.000487 -0.05375252 -0.10372098
-0.03284754 -0.09082538 0.035928417 0.037504654 0.058321837 0.042797808 -0.082411356 -0.008861317
-0.008468554 -0.013738665 0.07224415 -0.0059454786 0.03845155 -0.017143814 0.05740874 -0.033286713
0.016490625 0.055043057 -0.062158488 0.054111067 0.13078469 0.27907604 0.028060583 -0.086443044
-0.13131496 -0.08851745 -0.0036927643 0.020928606 0.020278048 -0.010306702 -0.047529195 -0.020953594
0.006824915 0.10761541 0.031583898 -0.0052365055 -0.05039277 -0.054741558 -0.07553235 -0.06007807
-0.008426213 -0.04942454 -0.078206494 0.063919336 -0.05503971 0.050030682 -0.02397322 -0.03165313
-0.17024137 -0.1632188 0.14314018 0.04491099 0.116026826 -0.12499725 0.043036748 0.059844293
0.15202744 0.11935369 -0.013427517 -0.02757681 -0.082255 -0.07305845 0.021171741 -0.19522583
-0.041311797 -0.15100572 -0.0016164917 -0.030489577 -0.043260626 0.13851696 0.047675073 -0.10882823
0.034882482 -0.10927554 0.0516842 -0.17769897 -0.028517272 -0.07217282 0.010742875 0.023911987
0.05294797 0.07125886 -0.030425906 0.046478983 -0.12839645 -0.0011181345 0.010984942 0.08977893
0.00069635967 0.03921685 0.035524726 -0.039097544 0.07499776 -0.014098028 0.22147197 0.113555804
00000000: 41fd 49bd 1f33 89bd 8edb cdbd 279c 1d3d
00000010: 507b 5f3d ce28 963c d945 a8bd 9331 69be
00000020: d019 f9bd dc05 6ebe ed20 a3be e067 9ebd
00000030: f979 e3be a7dd 003f 054e 51be d184 13be
00000040: a3f7 fdbe bfe4 e6bd 28de 44bd 6f35 dd3d
00000050: 9853 62bc afdc c03d 151a 5e3c 8957 e53d
00000060: 38cf 233d d031 8a3d 0c2c 2ebd 9db4 4f3c
00000070: 4abc d7bd 8e85 8cbd 97f9 523e 9348 523e
00000080: 0331 27bc 4ecd 903d 4d12 173b 01db 0f3d
00000090: 219f 78bd 34e6 213d 7155 b6bd ea7a d6bd
000000a0: 5a7f 99bd c0bf afbd 1dc5 65bd 08c4 febc
000000b0: d0ad 53bd 0c5a ae3d fe61 393d 1b80 acbc
000000c0: 937f 913d ecab 1a3d 13f4 fe3c 80be b93d
000000d0: 64c1 a13d a26f 7d3d da26 933b 1e14 45bc
000000e0: 3ae3 7b3d 178e 09be 0a28 51be bf2e 26be
000000f0: 4f35 8a3d 7eef a4bd 3d70 e13c e016 173c
00000100: c931 c73d 31df c5bb f500 ee3c 14e4 303e
00000110: 1712 0c3e 873c f7bc ee6b d33d ca82 183c
00000120: f7a8 71bc 5430 c3bd 35c4 81bb 19ff 07bd
00000130: 6d8a a2bd 3c8a 4a3d e60d bdbd cf3c 33be
00000140: fbda a3bd 5756 fe3c 6842 14bd bce7 5d3d
00000150: 69b8 543d 993b 523d 0fe8 7b3d f45e a2bc
00000160: 662b 99bc 2bc3 99bc 21f8 d7bc b10f 183e
00000170: ed71 a43c 9bf3 363d 06de 4c3d a503 e43d
00000180: c31e 18bd ed81 bc3d 8376 243e 23b7 1a3e
00000190: afb6 2d3d 68ee b03d eea1 cd3d 243c 4c3e
000001a0: 5e34 ac3d be97 623d b036 613c a560 50bd
000001b0: 4f3b 81bd 08a2 163e 7724 973d 86e9 b5bc
000001c0: bd0b b43d cfff 983d 5fe3 a33b 3ff6 efbd
000001d0: 295c 033d 9ebd b4bc 39c2 233d 034b f73c
000001e0: f3e7 f7bb 15eb 27bd 4bcb 293d 75e5 88bb
000001f0: d367 553d b6a3 07bd 64e4 fbbc de65 ddbb
00000200: dd91 823c 95f0 043d 0b28 df3d 7fd0 a0bd
00000210: 3c74 903c 10d9 43ba b3bc f03c 62f9 97be
00000220: c0c8 32be 6daa e3bd 1ca6 1ebf efac 24bf
00000230: 14c5 fdbe e998 1ebe 8177 00bf 35f7 eebd
00000240: 5e01 afbc 3a87 8a3c 9ada 633b 5e23 e2bc
00000250: 8324 73bd 1bd3 c1bc 4dbd 0cbc f774 de3b
00000260: 28b3 1cbc 8f2f b5bc 6502 efbd 9c87 fabd
00000270: 0f8c fabc f50f 80bf 9a2b 5cbd aa6b d4bd
00000280: 248b 06bd a802 babd ad29 133d 7b9e 193d
00000290: e1e2 6e3d c14c 2f3d 49c7 a8bd 0f2f 11bc
000002a0: b1bf 0abc 2318 61bc bef4 933d 4ad2 c2bb
000002b0: 5f7f 1d3d 2f71 8cbc 6d25 6b3d a657 08bd
000002c0: 5917 873c d474 613d e699 7ebd 91a3 5d3d
000002d0: 6cec 053e 0ee3 8e3e 4fdf e53c 0d09 b1bd
000002e0: 6e77 06be a348 b5bd 4e02 72bb 7872 ab3c
000002f0: 261e a63c 71dd 28bc f9ad 42bd dfa6 abbc
00000300: 89a3 df3b 7865 dc3d 1e5e 013d fe96 abbb
00000310: a668 4ebd af38 60bd b4b0 9abd 6c14 76bd
00000320: 190e 0abc 6371 4abd ba2a a0bd 24e8 823d
00000330: 5271 61bd f9ec 4c3d 7c63 c4bc b6a6 01bd
00000340: c153 2ebe d422 27be 5793 123e 96f4 373d
00000350: 799f ed3d 8ffe ffbd 4d47 303d 4a1f 753d
00000360: 15ad 1b3e b56f f43d 17ff 5bbc c3e8 e1bc
00000370: 4f75 a8bd ab9f 95bd 5c70 ad3c 48e9 47be
00000380: 8f36 29bd 3ea1 1abe 76e0 d3ba 47c5 f9bc
00000390: 0e32 31bd 64d7 0d3e f046 433d 56e1 debd
000003a0: efe0 0e3d dbcb dfbd d0b2 533d b8f6 35be
000003b0: 0e9d e9bc 58cf 93bd e202 303c 12e3 c33c
000003c0: f8df 583d 2af0 913d c03f f9bc bf60 3e3d
000003d0: 5c7a 03be 5e8e 92ba 30fa 333c 04de b73d
000003e0: e88b 363a d9a1 203d 6082 113d bf24 20bd
000003f0: 6d98 993d 6afb 66bc 8cc9 623e f28f e83d

block_1.conv3_r.bias f4 [40]
-1.5891556 0.5265003 0.5660373 0.33109236 0.35861266 1.2468156 0.19940497 -0.40933973
-0.47518343 0.3071522 -1.0706477 0.94792736 -0.24658841 -1.2156979 -1.1581258 -0.6962061
-0.23181286 0.9817928 0.43651965 -0.6604437 -0.5220239 -1.2755696 0.36313692 0.037778005
0.23469345 -0.58876914 -0.6256756 0.5726366 -0.88341194 1.141882 2.3962243 0.24861035
-0.3688899 -2.122063 -0.82867527 -0.40490696 -1.181322 -0.1331942 0.36507094 -0.43402025
00000000: 7369 cbbf b9c8 063f d2e7 103f f084 a93e
00000010: 149c b73e a797 9f3f d130 4c3e fa94 d1be
00000020: 3e4b f3be 0e43 9d3e fc0a 89bf 5eab 723f
00000030: ac81 7cbe fd9b 9bbf 773d 94bf 903a 32bf
00000040: 5a60 6dbe c656 7b3f 817f df3e d712 29bf
00000050: 5ca3 05bf dd45 a3bf 15ed b93e 1cbd 1a3d
00000060: 7b53 703e 93b9 16bf 472c 20bf 5098 123f
00000070: 4927 62bf 3029 923f bd5b 1940 b693 7e3e
00000080: 23df bcbe e1cf 07c0 1024 54bf f74f cfbe
00000090: 8f35 97bf 0f64 08be 94ea ba3e e737 debe

block_1.ln2.weight f4 [40]
0.2577965 0.100937605 0.1168167 0.11155147 0.11734136 0.08810231 0.103879735 0.1134233
0.11309236 0.14750339 0.077624805 0.113962516 0.15357387 0.3445521 0.28960618 0.37546435
0.10662247 0.12294818 0.1284321 0.13720815 0.11838846 0.24704891 0.107745625 0.117745675
0.098187774 0.27219534 0.44851434 0.11927704 0.19568887 0.11544405 0.10303713 0.12467026
0.13716777 0.40236875 0.29249105 0.2244366 0.2704818 0.12641875 0.118134014 0.13515209
00000000: e7fd 833e 60b8 ce3d 983d ef3d 1975 e43d
00000010: ab50 f03d fc6e b43d e6be d43d 7a4a e83d
00000020: f89c e73d 210b 173e c1f9 9e3d 2e65 e93d
00000030: 7842 1d3e 2269 b03e 4347 943e dd3c c03e
00000040: e25c da3d 41cc fb3d b483 033e 4b80 0c3e
00000050: a675 f23d 64fa 7c3e bda9 dc3d a524 f13d
00000060: ac16 c93d 305d 8b3e aca3 e53e 8547 f43d
00000070: aa62 483e ee6d ec3d 2105 d33d 1f53 ff3d
00000080: b575 0c3e 4703 ce3e 63c1 953e b5d2 653e
00000090: 977c 8a3e eb73 013e 3ff0 f13d 4f65 0a3e

block_1.ln2.bias f4 [40]
0.14926681 -0.024520483 -0.055166174 0.03774255 -0.0316195 -0.092961855 0.015173222 0.045434013
0.072977714 -0.024419706 0.035079215 -0.066669375 0.030680297 0.11904506 0.14132962 0.08460542
0.0021943082 -0.1283239 0.012820072 0.035956528 0.038070526 0.13813177 0.007567561 -0.015824998
0.0071275304 0.15837437 0.007340597 -0.0024107944 0.13872875 -0.041156486 -0.23573478 0.0180463
0.040412363 0.07234467 0.101625875 0.12564594 -0.046024613 0.0086058155 -0.012660767 0.0609847
00000000: 66d9 183e 2edf c8bc edf5 61bd ef97 1a3d
00000010: 7383 01bd c962 bebd 1b99 783c 0419 3a3d
00000020: 5775 953d d60b c8bc 39af 0f3d f489 88bd
00000030: 3f55 fb3c e5cd f33d b6b8 103e 9b45 ad3d
00000040: 62ce 0f3b 5767 03be 470b 523c 2747 133d
00000050: d7ef 1b3d 6a72 0d3e 4ef9 f73b 6da3 81bc
00000060: 0f8e e93b e42c 223e 6489 f03b 6bfe 1dbb
00000070: e90e 0e3e b493 28bd 7564 71be d6d5 933c
00000080: 6f87 253d 7129 943d 3a21 d03d 54a9 003e
00000090: 4e84 3cbd 68ff 0c3c 1b6f 4fbc 18cb 793d

block_1.c5.weight f4 [40, 40, 1, 1]
0.0909263 2.971618e-05 0.06280492 0.02062747 0.12096018 -0.023695342 0.14156695 0.099036455
0.08634699 -0.08596674 0.50437677 -0.28133175 0.40943718 0.025653455 0.24748804 -0.021218507
0.13015416 -0.16229688 -0.45886117 0.178516 0.12475295 0.15014012 -0.04870784 -0.068112284
0.016436739 0.098660365 0.039402783 0.06523938 0.05727089 -0.06446814 -0.59048384 -0.058576956
0.16974986 0.014605348 0.20734227 0.079311766 -0.07764361 -0.042910535 0.07216178 0.04472907
-0.1563152 -0.76862895 -0.18891647 0.24421504 -0.53544104 0.22592577 -0.06353123 0.58330846
0.18573505 -0.62034225 0.13057375 0.16670264 0.20209847 0.06919707 -0.029876081 0.027733652
-0.046791766 0.18673252 -0.059098586 0.2544488 0.2586868 -0.061608322 -0.45361304 0.24103864
0.1827722 -0.13300979 0.22338797 -0.13894811 -0.37025753 0.09009071 0.1814934 0.06109778
-0.10395754 -0.034779903 6.090626e-05 -0.101974994 0.14156796 -0.078104496 -0.062886804 0.17347816
0.033572856 -0.024114406 0.01794042 0.012341728 -0.0030212172 0.024804512 -0.007798714 0.06540387
0.017314617 0.042866975 -0.025449965 0.008780796 0.02724891 0.08984478 0.07791481 -0.3826222
-0.0074850414 0.00427649 0.017471025 -0.00041218835 -0.103648625 -0.022387946 0.024763629 -0.07060961
0.02165208 -0.29201293 -0.20729339 0.035602003 0.05671617 0.02366465 -0.007959611 0.018094884
0.21194752 0.7866754 -0.373581 -0.008289737 -0.04703707 -0.023881368 0.0070665674 -0.024546722
0.025266727 0.05880598 -0.009303916 -0.15200554 -0.15386136 0.23719771 0.017422864 0.05375274
-0.11522972 0.113473035 -0.0140356645 0.07690868 0.1524527 0.04909454 0.18454492 -0.04323599
0.06440187 -0.22915752 -0.22234003 0.16173294 0.0042492854 0.02484122 0.23136911 0.015636008
0.08190862 0.15089193 -0.035051465 0.16141866 -0.09556507 0.03326606 -0.27352864 0.1643716
-0.1611914 -0.04220005 0.26384857 -0.07274519 -0.10211223 0.06598049 0.065484785 0.075223364
-0.45619732 0.09669781 0.034815542 -0.53353155 -0.23684783 0.28169793 -0.49282372 -0.028787462
-0.4574786 0.10393821 0.23792997 0.0009319165 0.082501836 -0.04613662 -0.08704588 -0.03508371
0.4763197 -0.066171825 -0.092692666 -0.16640371 0.04370516 0.009399583 0.7358592 -0.16230503
-1.1200451 0.00071970123 -0.012861979 -0.01517853 -0.20265447 0.016104423 0.05202649 0.43475792
-0.024695404 -0.012927633 0.0153377615 0.5309944 -0.121260054 -0.5885616 0.15447445 0.23737916
-0.15154843 0.7330759 -0.027285133 0.034249645 -0.10130326 0.13301347 -0.32317078 0.15157655
-0.5972965 -0.54845905 0.08784485 0.06154082 -0.061051097 -0.0113766575 0.045941994 -0.10238435
0.063220784 -0.11610855 -0.13755843 -0.0036014754 0.02365403 -0.067298956 -0.030501412 0.41668445
-0.35126328 -0.20006406 0.018206606 -0.04213509 0.326601 -0.104480356 -0.20915452 -0.33057296
0.09880709 0.029372722 -0.12287215 -0.05968515 0.0878438 -0.03102193 0.055813465 0.040216543
0.39345422 -0.12278377 0.10565869 -0.30726668 0.021849804 0.05274718 -0.0059116865 -0.41730532
0.22429462 0.21781056 0.38851184 0.41143328 -0.08383639 0.0676872 0.16481134 -0.15704423
00000000: 9137 ba3d 0347 f937 de9f 803d f1fa a83c
00000010: f9b9 f73d bc1c c2bc edf6 103e a0d3 ca3d
00000020: b1d6 b03d 550f b0bd d61e 013f b70a 90be
00000030: c0a1 d13e 3227 d23c 816d 7d3e 6fd2 adbc
00000040: 2247 053e 2731 26be daef eabe e6cc 363e
00000050: 7a7e ff3d 55be 193e df81 47bd 747e 8bbd
00000060: 57a6 863c 720e ca3d d064 213d 399c 853d
00000070: e194 6a3d df07 84bd f329 17bf 64ee 6fbd
00000080: e8d2 2d3e 454b 6f3c 8851 543e 356e a23d
00000090: 9d03 9fbd f5c2 2fbd 8ec9 933d d435 373d
000000a0: 1711 20be dec4 44bf 5273 41be 8213 7a3e
000000b0: aa12 09bf 1659 673e a91c 82bd b453 153f
000000c0: 5431 3e3e c0ce 1ebf 20b5 053e 19b4 2a3e
000000d0: e7f2 4e3e 32b7 8d3d afbe f4bc af31 e33c
000000e0: b9a8 3fbd cf36 3f3e 5c11 72bd 1d47 823e
000000f0: 9972 843e 0259 7cbd f83f e8be d5d2 763e
00000100: a328 3b3e b833 08be d1bf 643e 6a48 0ebe
00000110: 6592 bdbe 7a81 b83d 68d9 393e aa41 7a3d
00000120: b1e7 d4bd 5f75 0ebd 9975 7f38 44d8 d0bd
00000130: 31f7 103e 40f5 9fbd ccca 80bd 42a4 313e
00000140: b183 093d 938b c5bc caf7 923c f634 4a3c
00000150: 9dff 45bb d532 cb3c 5b8c ffbb 77f2 853d
00000160: 62d7 8d3c 4895 2f3d 727c d0bc 54dd 0f3c
00000170: 1b39 df3c 8a00 b83d cd91 9f3d 0fe7 c3be
00000180: 1445 f5bb cc21 8c3b 651f 8f3c fc1a d8b9
00000190: bb45 d4bd ed66 b7bc 18dd ca3c c59b 90bd
000001a0: b45f b13c b882 95be b844 54be 68d3 113d
000001b0: 374f 683d 5edc c13c 0769 02bc b93b 943c
000001c0: c508 593e 8f63 493f 0246 bfbe add1 07bc
000001d0: f1a9 40bd dca2 c3bc aa8e e73b 3516 c9bc
000001e0: 2bfc ce3c 8ade 703d 746f 18bc 57a7 1bbe
000001f0: d58d 1dbe f5e3 723e 65ba 8e3c d52b 5c3d
00000200: 8ffd ebbd 8d64 e83d d8f5 65bc 4c82 9d3d
00000210: 901c 1c3e 5b17 493d 58f9 3c3e 3918 31bd
00000220: 21e5 833d 45a8 6abe 1bad 63be 529d 253e
00000230: 973d 8b3b d07f cb3c 06ec 6c3e 1617 803c
00000240: b5bf a73d 6a83 1a3e 2092 0fbd ef4a 253e
00000250: 9fb7 c3bd fe41 083d f20b 8cbe 0751 283e
00000260: 5c0f 25be f6d9 2cbd 2917 873e 6efb 94bd
00000270: 3820 d1bd c720 873d e31c 863d b50e 9a3d
00000280: b292 e9be 8009 c63d be9a 0e3d 8695 08bf
00000290: 3d88 72be b63a 903e 6453 fcbe afd3 ebbc
000002a0: a33a eabe 8edd d43d eaa3 733e dc4b 743a
000002b0: b9f6 a83d c1f9 3cbd 1c45 b2bd f0b3 0fbd
000002c0: 2de0 f33e 1885 87bd a7d5 bdbd bc65 2abe
000002d0: 2f04 333d b500 1a3c 4561 3c3f 4a33 26be
000002e0: a35d 8fbf 55aa 3c3a 0dbb 52bc 5eaf 78bc
000002f0: a784 4fbe 6ced 833c bb19 553d 9798 de3e
00000300: 044e cabc 6cce 53bc 3c4b 7b3c 40ef 073f
00000310: 3157 f8bd f9ab 16bf 8d2e 1e3e 8613 733e
00000320: 832f 1bbe ddaa 3b3f 1285 dfbc 5b49 0c3d
00000330: 1578 cfbd af34 083e a476 a5be e236 1b3e
00000340: 6ce8 18bf d067 0cbf 00e8 b33d 3a12 7c3d
00000350: b710 7abd 2965 3abc ac2d 3c3d e3ae d1bd
00000360: e679 813d 52ca edbd 1edc 0cbe bb06 6cbb
00000370: 19c6 c13c 09d4 89bd 19de f9bc aa57 d53e
00000380: c8d8 b3be 98dd 4cbe 0526 953c d895 2cbd
00000390: 3f38 a73e ccf9 d5bd 9a2c 56be dc40 a9be
000003a0: 5f5b ca3d 109f f03c 65a4 fbbd 6a78 74bd
000003b0: 73e7 b33d b421 febc a99c 643d 1aba 243d
000003c0: d572 c93e 0f76 fbbd 9563 d83d 0f52 9dbe
000003d0: 5cfe b23c 6d0d 583d d2b6 c1bb 0ba9 d5be
000003e0: 7dad 653e bb09 5f3e 06eb c63e 62a7 d23e
000003f0: 6ab2 abbd 969f 8a3d 4ec4 283e 34d0 20be

block_1.c5.bias f4 [40]
-0.29277977 -0.022011615 0.013932752 -0.08094565 -0.009196839 -0.019741606 0.0041151587 -0.03752321
-0.0010373569 0.10262057 -0.05152915 0.08970201 -0.0076426314 -0.06421204 0.11978672 -0.045990583
-0.04330842 0.09550228 -0.031093653 0.032522786 0.08691953 0.01938505 0.043427095 0.09982265
0.053745773 0.11422465 0.025638206 -0.038526066 0.037871566 0.13017139 -0.14918853 0.0010959564
0.006343008 -0.0026533573 0.012619627 -0.070271656 -0.032768834 0.013714655 -0.03725016 0.026558228
00000000: 3be7 95be b451 b4bc 3346 643c d5c6 a5bd
00000010: 57ae 16bc 26b9 a1bc 74d8 863b f0b1 19bd
00000020: ecf7 87ba bc2a d23d 3b10 53bd b0b5 b73d
00000030: 0a6f fabb 9a81 83bd bd52 f53d 9f60 3cbd
00000040: 2b64 31bd b396 c33d 1eb8 febc 9d36 053d
00000050: de02 b23d 65cd 9e3c 9ce0 313d d16f cc3d
00000060: 8724 5c3d 9dee e93d 3707 d23c 82cd 1dbd
00000070: 371f 1b3d a64b 053e e1c4 18be 32a6 8f3a
00000080: 02d9 cf3b f3e3 2dbb 8dc2 4e3c 96ea 8fbd
00000090: 9d38 06bd 6fb3 603c a093 18bd a490 d93c

block_1.esa.conv1.weight f4 [16, 40, 1, 1]
0.08395365 0.004041813 -0.025600608 -0.08718755 0.07200801 0.2656867 -0.29939923 -0.0024616932
0.07434249 -0.023853358 0.1967684 0.2116927 -0.027499208 0.08080446 0.19784315 0.18896212
-0.19157927 -0.13436262 -0.16432327 0.06023421 -0.2596003 -0.1254275 0.007935787 0.071825854
0.24361555 0.040612794 0.26792222 0.1849861 0.03409554 0.09149476 -0.06964711 -0.076848544
-0.10802642 -0.10700914 -0.6444679 0.24945676 -0.037893947 -0.24461687 -0.06592257 0.3168939
-0.12635295 0.47738972 -0.067579016 0.30885452 0.20385918 0.15463845 0.10408696 0.16560498
0.053205043 -0.17016964 0.21457309 -0.29573083 -0.22540517 0.2847538 0.06059034 -0.25509676
-0.014391311 0.13234568 -0.32371676 -0.010293537 -0.19553114 -0.14042002 -0.030389069 -0.32081404
0.124494255 0.10934794 -0.13933007 -0.07899547 0.033133358 0.19630948 -0.12738186 0.39035976
-0.33150685 0.018936276 0.6780661 -0.19362539 0.030628832 0.13556574 -0.4121614 0.16553684
0.1907156 -0.26720777 -0.15095118 0.13434616 -0.042772904 0.12554567 0.026191292 -0.04316558
-0.36060178 -0.12738283 -0.14471523 0.02788002 -0.016363317 0.18608305 0.04804675 0.25185955
-0.14788093 -0.0318631 -0.3073311 0.06883011 -0.19323482 0.21636018 -0.08698671 0.15756859
-0.07592746 -0.06546458 -0.19539927 -0.04666741 -0.22291017 0.12022458 0.018860508 -0.3053607
-0.061602276 -0.10664933 -0.0060975607 0.16805823 0.027312063 -0.14418054 0.17593294 0.65483373
0.12166569 -0.06770007 0.1011354 0.17843278 0.15166041 -0.23867513 -0.23841079 0.08890842
-0.0814366 -0.13150118 -0.45031813 0.05365494 -0.08525934 0.09024906 -0.08449427 0.027925966
-0.15520307 0.059612606 -0.18663591 0.07324039 -0.089890055 -0.039996695 0.011725286 -0.07562652
0.027190551 0.055675708 -0.14375648 0.067152664 0.21417062 -0.0060319006 0.07557391 0.02379709
-0.19409415 -0.097450435 -0.06552388 -0.08740616 0.3860708 0.16504158 0.14202584 -0.22232167
-0.1903813 -0.11868127 0.18487963 -0.019912586 0.18794306 -0.079118975 -0.045279127 -0.34496665
0.16062959 0.3162845 0.076405376 -0.29739633 -0.01514166 -0.06254912 -0.0045139086 0.44181746
-0.09480224 -0.2201582 -0.1271328 -0.21488965 0.34858677 -0.15275668 -0.373294 0.18938981
-0.11009957 -0.04120716 -0.051458254 0.044909757 -0.11116996 0.18169902 0.02607993 -0.12658796
0.09291669 -0.11630927 -0.058790613 0.1905641 -0.06608586 -0.29813132 0.105932295 0.031009862
0.008735982 -0.12006372 0.13565665 0.20850949 -0.21980637 0.045156557 -0.17885984 -0.47074944
-0.040795695 -0.24339311 -0.061420742 0.3567549 0.033639845 0.24251017 -0.30452344 -0.03390687
-0.33007956 0.17613164 -0.042404365 0.19790846 -0.41237292 -0.2173441 -0.18131924 -0.25712663
-0.12702638 0.26124874 0.62338614 0.110442325 -0.13929155 -0.045427136 0.17624712 0.112514466
-0.19106586 0.32431522 0.22952265 -0.22380301 -0.054714773 0.13637546 0.15289825 0.39133072
-0.11081427 -0.07327924 0.117039695 0.1121816 0.08458981 -0.11134988 -0.106082305 -0.24722798
-0.07322797 -0.018011613 0.36064357 0.17745014 0.13434604 0.19135368 0.059804436 -0.11007592
00000000: e4ef ab3d 2f71 843b 5eb8 d1bc 638f b2bd
00000010: f078 933d 1608 883e db4a 99be 5c54 21bb
00000020: e040 983d 1e68 c3bc a87d 493e f9c5 583e
00000030: 0546 e1bc cf7c a53d 6597 4a3e 497f 413e
00000040: 5b2d 44be 5b96 09be 5c44 28be 26b8 763d
00000050: 55ea 84be 1170 00be 1a05 023c 6f19 933d
00000060: 5b76 793e 9a59 263d 1a2d 893e ff6c 3d3e
00000070: c4a7 0b3d 9b61 bb3d 25a3 8ebd c562 9dbd
00000080: f53c ddbd 9c27 dbbd d9fb 24bf 9871 7f3e
00000090: af36 1bbd d87c 7abe 6a02 87bd eb3f a23e
000000a0: ab62 01be 6d6c f43e de66 8abd 2e22 9e3e
000000b0: 76c0 503e 8b59 1e3e 8b2b d53d 5a94 293e
000000c0: 88ed 593d f340 2ebe 0cb9 5b3e 086a 97be
000000d0: 9dd0 66be 40cb 913e 942d 783d 0b9c 82be
000000e0: 89c9 6bbc a085 073e 34be a5be 39a6 28bc
000000f0: 5139 48be 44ca 0fbe 7ff2 f8bc bd41 a4be
00000100: d8f6 fe3d d0f1 df3d 8bac 0ebe 61c8 a1bd
00000110: d8b6 073d 5a05 493e 6470 02be 3cdd c73e
00000120: 44bb a9be 4020 9b3c bd95 2d3f bc45 46be
00000130: 51e9 fa3c bfd1 0a3e d206 d3be 7d82 293e
00000140: f34a 433e 75cf 88be f292 1abe 0a92 093e
00000150: a432 2fbd 0b8f 003e 1f8f d63c 64ce 30bd
00000160: cca0 b8be a570 02be 3b30 14be a464 e43c
00000170: 5d0c 86bc 8e8c 3e3e abcc 443d bcf3 803e
00000180: 196e 17be e282 02bd 805a 9dbe cdf6 8c3d
00000190: 59df 45be 868d 5d3e 1726 b2bd a959 213e
000001a0: db7f 9bbd 4b12 86bd bf16 48be 5326 3fbd
000001b0: 9042 64be 4e38 f63d 5a81 9a3c 3d58 9cbe
000001c0: ab52 7cbd f76a dabd 0cce c7bb 7517 2c3e
000001d0: 8cbd df3c 10a4 13be c427 343e 2fa3 273f
000001e0: dc2b f93d 56a6 8abd 1420 cf3d 15b7 363e
000001f0: de4c 1b3e 4167 74be f521 74be 9e15 b63d
00000200: 3bc8 a6bd 3fa8 06be 1990 e6be 48c5 5b3d
00000210: 739c aebd 80d4 b83d 550b adbd ffc4 e43c
00000220: 8eed 1ebe 592c 743d 7c1d 3fbe 0fff 953d
00000230: 4718 b8bd 93d3 23bd 6a1b 403c 14e2 9abd
00000240: b8be de3c 360c 643d e634 13be 5687 893d
00000250: 8b4f 5b3e 40a7 c5bb 7ec6 9a3d 1df2 c23c
00000260: 9ec0 46be 1894 c7bd 6231 86bd 0002 b3bd
00000270: 12ab c53e a900 293e 396f 113e 4ba8 63be
00000280: 51f3 42be 2a0f f3bd 1651 3d3e b81f a3bc
00000290: 2574 403e 2109 a2bd 9b76 39bd 789f b0be
000002a0: 157c 243e 0bf0 a13e 6c7a 9c3d 5544 98be
000002b0: ba14 78bc c119 80bd 69e9 93bb e635 e23e
000002c0: ad27 c2bd 2771 61be 1a2f 02be 080c 5cbe
000002d0: f779 b23e 3f6c 1cbe 6420 bfbe 67ef 413e
000002e0: e27b e1bd d7c8 28bd e4c5 52bd 4bf3 373d
000002f0: 13ad e3bd 4f0f 3a3e 94a5 d53c 46a0 01be
00000300: 1b4b be3d 8e33 eebd 6dce 70bd 3c23 433e
00000310: 0658 87bd aba4 98be 08f3 d83d 6508 fe3c
00000320: 5d21 0f3c f8e3 f5bd 94e9 0a3e 8383 553e
00000330: ec14 61be 15f6 383d 0927 37be 1206 f1be
00000340: 6319 27bd 0b3c 79be 5194 7bbd 94a8 b63e
00000350: efc9 093d 9654 783e 7fea 9bbe eee1 0abd
00000360: 3000 a9be da5b 343e 33b0 2dbd 84a8 4a3e
00000370: 8b22 d3be 748f 5ebe c0ab 39be 1aa6 83be
00000380: 3413 02be 65c2 853e 3c96 1f3f 962f e23d
00000390: 72a2 0ebe ce11 3abd 207a 343e fc6d e63d
000003a0: c5a6 43be a50c a63e fc07 6b3e 9e2c 65be
000003b0: 991c 60bd 02a6 0b3e 5c91 1c3e 805c c83e
000003c0: 98f2 e2bd 6d13 96bd 82b2 ef3d 77bf e53d
000003d0: 6c3d ad3d 680b e4bd ae41 d9bd 5529 7dbe
000003e0: 8cf8 95bd 178d 93bc 46a6 b83e 7db5 353e
000003f0: 0292 093e 38f2 433e 7ff5 743d 7c6f e1bd

block_1.esa.conv1.bias f4 [16]
0.10399548 0.07555855 0.09784421 0.16249557 -0.071560636 0.1867116 -0.035716172 0.1147241
0.036471087 0.18754312 -0.103301205 -0.081983104 -0.12467694 0.13444687 0.041882522 0.046902716
00000000: 95fb d43d 71be 9a3d 8c62 c83d 3d65 263e
00000010: 628e 92bd 5331 3f3e 1f4b 12bd 78f4 ea3d
00000020: b562 153d 4e0b 403e 958f d3bd c2e6 a7bd
00000030: a056 ffbd 71ac 093e 028d 2b3d 101d 403d
