model_zoo/team10_SMRN.pth (torch, 686507 bytes, 78 tensors)

conv_1.weight f4 [48, 3, 3, 3]
0.00038790866 -0.032437015 -0.014249852 0.01396436 0.07667945 -0.041633617 0.004526706 -0.0344507
0.024734681 0.036124516 -0.066747256 0.0335449 -0.085731626 0.11869797 -0.09525859 -0.002933391
-0.0022864244 0.022988958 -0.04886225 0.08626534 -0.028081678 0.07332949 -0.1344839 0.079179816
0.009267885 0.043753516 -0.036196228 -0.03905248 -0.062598385 0.02560556 -0.16567428 0.15609172
0.05328096 0.020622464 -0.042725075 0.05054551 0.011032831 0.1483209 -0.12525903 0.24854353
-0.035678986 -0.115315594 -0.07366344 -0.004699678 -0.07643338 -0.020810757 -0.08288158 0.070734344
-0.025414359 -0.155164 0.11309951 0.012086248 0.10980132 0.014050943 0.033633534 -0.0065530194
-0.00517207 0.05268309 -0.1802188 0.10603639 -0.020150386 0.009960494 -0.004380118 -0.0562442
-0.059286617 0.0077245748 0.05373399 0.08559264 0.035657868 0.016867416 -0.062611125 -0.035842195
0.023166444 -0.0108800065 -0.015577002 -0.06497849 0.03859508 0.027763022 -0.0009834622 0.03743047
-0.0068373755 0.0031486119 0.09595818 -0.050551295 -0.15120508 0.047005348 -0.029741494 0.0026158788
0.033384122 0.02763049 -0.005064818 -0.24057858 0.16131887 0.17711091 -0.1307208 0.04024401
0.02695273 0.02917842 -0.011208925 -0.009948284 0.105079345 -0.05239598 0.0096897185 0.05252954
-0.030879334 -0.06685969 -0.06837403 0.03167043 0.04311804 0.013646669 -0.12310092 0.1715173
-0.13287714 0.14544326 -0.08092427 -0.03586676 0.032982744 -0.024960618 -0.03205823 0.24957371
0.02381899 0.05549213 -0.28503898 0.12100329 -0.16333269 0.013401637 0.008500333 0.028038654
-0.07225571 -0.26952967 0.06527808 0.11582437 0.0071609532 0.13767919 0.0009801496 0.053915396
-0.028339164 -0.06502806 0.13155879 0.2221755 -0.00787354 -0.08707036 0.03663563 0.015650146
-0.08803018 -0.10163981 0.062089935 0.07613839 -0.4565473 -0.03688369 0.1526401 -4.937472e-05
-0.03586853 0.0015820805 0.18336722 -0.051964626 0.15163176 -0.24315521 0.13466719 -0.08094521
0.12230488 -0.028904248 -0.053459972 -0.05974559 0.026372395 0.2051206 -0.11552595 -0.0029044563
-0.007377664 -0.015805984 0.012039975 0.053157426 0.09333746 -0.06645986 -0.31687438 0.20134386
0.11105538 0.033063415 -0.094694704 -0.016106384 -0.00076334743 -0.05986762 0.04195262 0.10881137
-0.049139023 -0.042575296 -0.039099652 0.026752014 0.02564183 0.016157178 -0.027445562 -0.09158994
0.1886761 0.0008499914 -0.04137489 0.00055703707 -0.026622964 -0.043143846 0.0074600535 -0.01941358
0.07386219 0.13289969 -0.16454598 -0.0592028 0.0021531687 0.041678436 0.02425781 0.0356864
0.01571879 -0.024749171 -0.04206494 0.10157619 -0.027288185 -2.3982127e-05 -0.041208416 -0.014110541
-0.09483008 0.043044746 -0.055962965 0.06379481 0.05590086 -0.06265922 0.12576441 -0.16239333
0.04018623 0.100746185 -0.054622065 0.09955774 -0.19509682 0.044131894 0.08567129 -0.1361703
0.12999617 -0.00019100965 -0.006977754 -0.00339376 -0.028268104 0.057017293 -0.04280476 -0.018644402
0.040305424 0.030405799 -0.051989634 0.019398766 0.09520078 -0.06216588 0.085219815 0.050560165
-0.12187978 -0.054669067 0.032602187 -0.033326447 -0.04103706 -0.021650262 0.068002425 -0.13803813
00000000: 3860 cb39 addc 04bd 3678 69bc c5ca 643c
00000010: 1e0a 9d3d 0388 2abd c354 943b 2d1c 0dbd
00000020: 63a0 ca3c 4df7 133d c9b2 88bd 6166 093d
00000030: 1094 afbd ec17 f33d f016 c3bd 223e 40bb
00000040: d6d7 15bb 5753 bc3c c823 48bd e2ab b03d
00000050: 8c0b e6bc c62d 963d 26b6 09be 0729 a23d
00000060: 54d8 173c e336 333d 7f42 14bd 7ef5 1fbd
00000070: 9533 80bd c0c2 d13c 85a6 29be 82d6 1f3e
00000080: 233d 5a3d 71f0 a83c 7d00 2fbd cf08 4f3d
00000090: 0cc3 343c 6fe1 173e e743 00be 3282 7e3e
000000a0: 2124 12bd 952a ecbd dcdc 96bd c2ff 99bb
000000b0: 1b89 9cbd 527b aabc d1bd a9bd 2bdd 903d
000000c0: c631 d0bc 50e3 1ebe b7a0 e73d 6605 463c
000000d0: 84df e03d ed35 663c 51c3 093d b6ba d6bb
000000e0: 787a a9bb 39ca 573d 478b 38be 9b29 d93d
000000f0: 6c12 a5bc 5731 233c 1887 8fbb 5160 66bd
00000100: 86d6 72bd 6e1e fd3b 2c18 5c3d 324b af3d
00000110: fc0d 123d 892d 8a3c 433a 80bd 44cf 12bd
00000120: 8ec7 bd3c 0e42 32bc af36 7fbc 7113 85bd
00000130: e015 1e3d 476f e33c 84e7 80ba b150 193d
00000140: 100c e0bb f158 4e3b b985 c43d e00e 4fbd
00000150: 81d5 1abe ae88 403d 6fa4 f3bc 2a6f 2b3b
00000160: cabd 083d 5659 e23c c6f6 a5bb 3b5a 76be
00000170: c630 253e 905c 353e acdb 05be e7d6 243d
00000180: f9cb dc3c 9507 ef3c a4a5 37bc 21fe 22bc
00000190: d733 d73d 2b9d 56bd a0c1 1e3c 3729 573d
000001a0: a8f6 fcbc bced 88bd af07 8cbd dab8 013d
000001b0: 8b9c 303d 4796 5f3c 561c fcbd 3ba2 2f3e
000001c0: f210 08be 14ef 143e a0bb a5bd 06e9 12bd
000001d0: ea18 073d 367a ccbc 7e4f 03bd 4090 7f3e
000001e0: 0b20 c33c b74b 633d a1f0 91be 93d0 f73d
000001f0: af40 27be 8a92 5b3c fb44 0b3c 52b1 e53c
00000200: cdfa 93bd cbff 89be 84b0 853d 5435 ed3d
00000210: 6ea6 ea3b c6fb 0c3e 5d78 803a 64d6 5c3d
00000220: 8927 e8bc 6e2d 85bd 59b7 063e f981 633e
00000230: 0500 01bc f251 b2bd 3e0f 163d bc34 803c
00000240: 2b49 b4bd 8828 d0bd 0452 7e3d 72ee 9b3d
00000250: 91c0 e9be 5a13 17bd b04d 1c3e b417 4fb8
00000260: e1ea 12bd d05d cf3a 9ec4 3b3e dcd8 54bd
00000270: 5b45 1b3e aefd 78be 32e6 093e 9ac6 a5bd
00000280: fb7a fa3d 9ac8 ecbc d8f8 5abd cbb7 74bd
00000290: ec0a d83c 220b 523e df98 ecbd b158 3ebb
000002a0: 55c0 f1bb 8d7b 81bc 5143 453c 9abb 593d
000002b0: b627 bf3d 1b1c 88bd 5c3d a2be 162d 4e3e
000002c0: 0171 e33d 816d 073d 4cef c1bd 89f1 83bc
000002d0: 611b 48ba c037 75bd 83d6 2b3d 7fd8 de3d
000002e0: 0046 49bd 6f63 2ebd f526 20bd 0a27 db3c
000002f0: d10e d23c 0f5c 843c 84d5 e0bc 8293 bbbd
00000300: 4f34 413e f5d1 5e3a b778 29bd 2006 123a
00000310: 6718 dabc 9ab7 30bd 7773 f43b 3a09 9fbc
00000320: 0f45 973d db16 083e be7e 28be a37e 72bd
00000330: 2d1c 0d3b 02b7 2a3d 51b8 c63c e72b 123d
00000340: b1c4 803c c6be cabc 494c 2cbd 2d07 d03d
00000350: 798b dfbc 3a2d c9b7 28ca 28bd e62f 67bc
00000360: 4636 c2bd b04f 303d 6c39 65bd daa6 823d
00000370: 4df8 643d 7a53 80bd 63c8 003e 704a 26be
00000380: 519a 243d 0454 ce3d 63bb 5fbd eee4 cb3d
00000390: 76c7 47be a5c3 343d 6e74 af3d 3a70 0bbe
000003a0: b71d 053e c349 48b9 a5a5 e4bb d869 5ebb
000003b0: 8392 e7bc f78a 693d 0b54 2fbd 25bc 98bc
000003c0: 4d17 253d 9515 f93c 15f3 54bd 29ea 9e3c
000003d0: a0f8 c23d a6a1 7ebd ba87 ae3d 2d18 4f3d
000003e0: 1b9c f9bd acec 5fbd df89 053d 5081 08bd
000003f0: 7a16 28bd e45b b1bc db44 8b3d de59 0dbe

block_1.c1_r.pw.weight f4 [48, 48, 1, 1]
-0.48495638 0.2863239 -0.72217727 -0.049032748 -0.6647939 0.26706445 -0.49481016 -0.18031341
-0.6930028 0.22554906 0.39150384 1.1120718 -1.1885695 -0.46090525 0.21517207 -0.6229091
-1.0002266 0.8791917 0.6854384 -0.53557205 -0.6420207 -0.1138673 -1.0634929 0.5801867
0.31675485 1.7162578 0.051276535 0.15803891 0.35763985 0.25774026 0.33502385 0.2500965
-2.0660603 -0.22640295 0.50307375 -0.5790558 -0.07533435 0.20055726 -0.4906704 -0.10471437
-0.03616603 0.50517213 0.26799852 0.9617888 0.6312843 0.084891275 1.0827618 1.5688548
0.060166575 -0.2573743 0.3055248 -0.19995478 -0.27675393 -0.52381915 0.19219352 0.54204255
-0.09675299 0.18452826 -1.056831 -1.3509374 1.5725925 -0.38566452 -0.35248595 -0.64181674
0.48338795 -1.1907912 0.066302575 0.3546566 0.26512164 -0.52362204 0.88078535 -0.23838724
0.07029764 -1.079087 -0.32917032 -1.1963264 -0.7256757 -0.16459788 -0.045098815 -0.49442944
2.1464288 0.5970045 -0.65108305 -0.44362548 0.8943456 -0.27549934 -0.26779136 0.053426072
-0.36685544 -0.17717852 0.2520643 -1.0416195 -0.75254905 -0.07954966 0.2717299 0.21701929
-0.082524315 -0.09658596 0.0022947192 -0.3178864 -0.38339218 -0.10509019 0.18382867 0.14752601
0.032893278 0.18275176 -0.24773622 -0.598616 1.1057918 0.13711327 -0.27278918 -0.09816693
0.05987002 -0.24868098 -0.22697224 0.21611169 0.2714112 0.0417895 0.31578884 0.07715741
-0.032133676 0.035608485 -0.5097041 -0.5043669 -0.7427992 0.06319085 0.0072910376 0.03794207
0.9770676 0.23169665 0.046950936 -0.4292042 0.67356634 -0.13522553 -0.35162473 0.12084441
-0.055363562 -0.37270862 -0.026221357 -0.27390432 -0.1867746 -0.070828244 -0.15330866 -0.08325778
-0.0318203 0.00054322527 -0.33817455 -0.6221777 0.0052029816 0.12282314 0.014052716 0.16518809
-0.16597152 0.22956875 0.12789844 -0.34453624 1.2084901 -0.30598065 -0.22709425 -0.61682916
0.030476145 -0.08044428 -0.098522864 0.20774965 0.17674126 -0.019154873 0.2182305 -0.024728829
-0.09043172 -0.069786735 0.48777893 -0.039181754 -1.2277651 -0.24778248 -0.16147164 0.5460586
0.92926526 -0.14156336 0.19313955 -1.148734 -0.21813597 -0.35571072 0.18894991 0.13969995
-0.12646477 -0.28393462 0.106455475 -0.9236846 0.56518275 0.024293194 0.17928927 -0.038505465
-0.030788958 -0.19443113 0.1259375 -0.24945597 0.051377594 0.70302784 -0.042723335 0.21825886
-0.097849175 0.48001206 0.16928488 0.021902801 -0.17467414 0.05573542 -0.07428709 0.0023385168
-0.15979348 0.081428066 0.13406624 -0.020258153 0.1124106 -0.10288834 0.1388758 0.22893323
-0.02645314 -0.10955362 0.36442336 0.16393836 -0.4948705 -0.07244793 0.04942863 0.24075289
0.23517545 0.004215098 0.72475284 0.6638089 -0.66976094 -0.23141766 0.15066147 -0.16180187
-0.23726137 0.5312442 -0.048690733 -0.059292383 -0.0013301627 0.07703155 0.3188348 0.18284537
1.0882725 -0.29809338 -0.12006956 -0.06407303 0.33890438 0.6220036 -0.65369636 -0.17281467
-0.56961554 0.004260855 -0.76846194 0.27661657 0.05242616 0.09123035 0.52709806 0.15021527
00000000: 344c f8be 0c99 923e 9ce0 38bf 90d6 48bd
00000010: ef2f 2abf acbc 883e c257 fdbe 14a4 38be
00000020: a268 31bf 55f6 663e 3173 c83e 5e58 8e3f
00000030: 0c23 98bf c6fb ebbe 1156 5c3e f976 1fbf
00000040: 6d07 80bf b512 613f e478 2f3f 401b 09bf
00000050: 785b 24bf 4233 e9bd 8920 88bf 1e87 143f
00000060: b12d a23e 56ae db3f 5807 523d f4d4 213e
00000070: 921c b73e 88f6 833e 3f88 ab3e a60c 803e
00000080: 553a 04c0 2dd6 67be 71c9 003f 003d 14bf
00000090: e548 9abd e25e 4d3e 2739 fbbe 7d74 d6bd
000000a0: d522 14bd f652 013f 1a37 893e ca37 763f
000000b0: d99b 213f 7adb ad3d f097 8a3f 3cd0 c83f
000000c0: 3a71 763d 90c6 83be bf6d 9c3e f2c0 4cbe
000000d0: b1b2 8dbe 0319 06bf 61ce 443e 4dc3 0a3f
000000e0: 6e26 c6bd faf4 3c3e 3d46 87bf 84eb acbf
000000f0: b64a c93f d275 c5be 0a79 b4be 1a4e 24bf
00000100: a07e f73e d96b 98bf a5c9 873d 8d95 b53e
00000110: 06be 873e 180c 06bf 267b 613f c91b 74be
00000120: 36f8 8f3d 861f 8abf 0389 a8be 3921 99bf
00000130: e2c5 39bf 598c 28be 89b9 38bd db25 fdbe
00000140: 175f 0940 49d5 183f 61ad 26bf e122 e3be
00000150: d5f3 643f 400e 8dbe f31b 89be 4cd5 5a3d
00000160: 7ad4 bbbe 496e 35be 920e 813e ca53 85bf
00000170: 0ea7 40bf efea a2bd 2e20 8b3e 4e3a 5e3e
00000180: 8202 a9bd dcce c5bd 0063 163b 02c2 a2be
00000190: fb4b c4be 8739 d7bd 953d 3c3e 0f11 173e
000001a0: 1abb 063d 4723 3b3e 90ae 7dbe e63e 19bf
000001b0: 968a 8d3f 6c67 0c3e 06ab 8bbe be0b c9bd
000001c0: 443a 753d 3aa6 7ebe 696b 68be 624c 5d3e
000001d0: 69f6 8a3e 772b 2b3d 13af a13e b404 9e3d
000001e0: 9a9e 03bd 34da 113d f87b 02bf 301e 01bf
000001f0: 1728 3ebf 346a 813d a8e9 ee3b 2569 1b3d
00000200: 1a21 7a3f e341 6d3e a04f 403d a7c0 dbbe
00000210: d86e 2c3f 9078 0abe 2808 b4be 467d f73d
00000220: e7c4 62bd aad3 bebe 2cce d6bc 303d 8cbe
00000230: d741 3fbe 660e 91bd f2fc 1cbe 0e83 aabd
00000240: 0156 02bd 3b67 0e3a 3725 adbe 0a47 1fbf
00000250: c67d aa3b b38a fb3d 5d3d 663c 1127 293e
00000260: 70f4 29be 1214 6b3e cff7 023e 0e67 b0be
00000270: ceaf 9a3f 7fa9 9cbe 658b 68be 84e8 1dbf
00000280: 1ca9 f93c f8bf a4bd 5bc6 c9bd 53bc 543e
00000290: a9fb 343e aeea 9cbc d177 5f3e 1d94 cabc
000002a0: 4434 b9bd 59ec 8ebd 29be f93e 0c7d 20bd
000002b0: 6827 9dbf b1ba 7dbe d258 25be 7fca 0b3f
000002c0: 54e4 6d3f fcf5 10be 60c6 453e b709 93bf
000002d0: 095f 5fbe b71f b6be 167c 413e 810d 0f3e
000002e0: fb7f 01be e15f 91be 5405 da3d 9876 6cbf
000002f0: d1af 103f 8502 c73c 9b97 373e e8b7 1dbd
00000300: 2039 fcbc f418 47be c3f5 003e 6371 7fbe
00000310: 5071 523d a2f9 333f aafe 2ebd 407f 5f3e
00000320: 2665 c8bd 24c4 f53e 0459 2d3e 816d b33c
00000330: c7dd 32be d34a 643d d423 98bd cd41 193b
00000340: e7a0 23be c2c3 a63d a948 093e 6df4 a5bc
00000350: 8737 e63d 1fb7 d2bd 7535 0e3e 796d 6a3e
00000360: 41b4 d8bc a65d e0bd b395 ba3e 75df 273e
00000370: ab5f fdbe 955f 94bd ad75 4a3d ed87 763e
00000380: d5d1 703e ce1e 8a3b 6789 393f 61ef 293f
00000390: 7475 2bbf c0f8 6cbe 0047 1a3e 64af 25be
000003a0: a5f4 72be 9fff 073f ef6f 47bd 92dc 72bd
000003b0: db58 aeba b8c2 9d3d 513e a33e d13b 3b3e
000003c0: 834c 8b3f b29f 98be 08e7 f5bd b938 83bd
000003d0: e084 ad3e a13b 1f3f a558 27bf 54f6 30be
000003e0: 53d2 11bf a49e 8b3b ecb9 44bf b0a0 8d3e
000003f0: d0bc 563d fad6 ba3d e6ef 063f 08d2 193e

block_1.c1_r.dw.weight f4 [48, 1, 3, 3]
-0.93481773 -0.98537153 0.86816853 -1.3236285 2.0291219 0.4005814 1.0843178 0.30263516
-0.947565 -0.44764516 -0.5156531 0.49189737 -0.26473352 3.3990297 0.07641776 0.88103265
-0.57330316 -0.6521345 0.22037986 1.0300817 0.09471031 0.88322186 -0.14456189 -0.15412726
-0.045246992 -0.09437537 0.033318967 -0.13756263 0.14013964 0.12556566 -0.16415375 2.4475167
-0.26422086 -0.04156694 0.03883228 0.046218432 -0.009686959 -0.04719856 0.052568097 -0.11753994
1.9947042 0.008057105 0.031868927 0.27604422 0.070310324 -0.26938033 -3.1308694 -0.2272354
-0.032414656 3.3531463 -0.2067334 0.26158804 0.07977789 0.23979802 0.21191067 -0.06712416
0.9527115 -0.8059001 12.171914 -0.408886 0.35491446 -0.27489454 -1.208435 0.18201283
-0.042322524 -0.13719861 -0.47377598 4.7577634 -0.1805876 0.11546895 -0.20500337 0.3063363
0.013910843 0.5518841 -1.4518663 -1.64056 0.98933494 0.5787181 1.5092847 -1.7722013
0.25486624 0.0044631 -0.022815583 0.11232233 0.0077278404 2.276938 -0.016656907 0.041096956
0.013304297 -0.25674418 -0.1762999 -1.2707936 -0.16770303 -0.23005337 2.090725 -0.2322321
0.20426492 -0.14947581 0.13689667 -0.087150656 0.009543181 0.055634 -1.9498149 1.9874976
0.009857756 -0.16835871 0.14279695 0.016373143 -0.09779463 -5.6634307 -0.027464278 -0.51470464
6.100134 0.25520924 0.6354725 -0.23529874 -0.40838668 -0.014564155 -0.096598856 0.0023403096
-0.113486014 2.6258583 -0.27210113 0.0005808417 0.034247458 0.008184228 0.1491985 -0.022362141
0.09074549 -0.17247067 1.6701547 -0.110224806 0.092094876 -0.21012805 0.100660086 0.07699358
0.2603192 0.050916344 0.12527813 2.850164 0.14580737 0.08434295 0.113226466 0.07562557
0.0929282 -0.1795225 0.08169767 0.026268505 2.0516417 -0.32662678 0.13077432 0.6466933
-0.03603978 0.004554721 0.057059415 0.09717646 -0.07099055 1.8013495 0.19245036 0.009700574
-0.121320195 -0.0672645 0.060290273 -0.21167102 0.016785674 -0.26037967 2.0525246 -0.4803233
-0.03504534 0.12592663 -0.03342564 -0.034283377 -0.6120297 -0.050203416 -0.2748231 2.3288078
-0.57912683 0.10724399 -0.13277355 0.106193036 0.067632735 -0.3723787 0.17325863 -0.51169
2.0927072 -0.57452416 0.031359244 -0.10380218 0.08260175 0.36051944 -0.24536043 -0.3690099
-0.10234802 3.3312843 -0.18500182 -0.54961914 -0.33239228 0.37880117 -0.0137001965 -0.32854283
0.15605335 -0.210004 2.7343464 -0.20594865 0.08892736 -0.19693565 -0.19674234 -0.08071494
0.6800403 -0.047556363 0.047986146 0.08587581 0.050985653 -0.06039095 0.4613894 0.046630893
0.056955937 0.100233324 -0.049898487 -0.063735805 5.660088 0.10167935 0.075417995 -0.088725545
-0.08045261 -0.19512649 -1.2465734 -0.14181693 -0.37742335 2.516941 -0.42400402 0.18423748
-0.27864003 0.14948328 -0.038418476 -0.3538259 -0.024936529 0.014144258 2.065511 -0.2736276
0.033749226 -0.18806186 0.010732385 0.14247829 0.15069696 -0.13179004 0.21854363 3.7448854
0.06640759 -0.020595882 0.09111279 0.0015345699 0.062538676 0.106444396 0.058303893 0.11160826
00000000: 3750 6fbf 4f41 7cbf 4b40 5e3f a96c a9bf
00000010: 22dd 0140 0119 cd3e edca 8a3f fff2 9a3e
00000020: 9f93 72bf bf31 e5be d701 04bf f9d9 fb3e
00000030: 278b 87be b489 5940 ea80 9c3d 5b8b 613f
00000040: ffc3 12bf 49f2 26bf 42ab 613e b8d9 833f
00000050: 7bf7 c13d d41a 623f 0808 14be 89d3 1dbe
00000060: e954 39bd e047 c1bd 7879 083d 38dd 0cbe
00000070: c480 0f3e 4994 003e ec17 28be 1da4 1c40
00000080: f547 87be 1842 2abd 990e 1f3d 8a4f 3d3d
00000090: 0db6 1ebc 4753 41bd a551 573d c8b8 f0bd
000000a0: 7852 ff3f f301 043c fe88 023d ab55 8d3e
000000b0: dcfe 8f3d 38ec 89be 2a60 48c0 66b0 68be
000000c0: 3bc5 04bd f399 5640 ecb1 53be deee 853e
000000d0: 9762 a33d 9d8d 753e 1cff 583e 6478 89bd
000000e0: e7e4 733f 784f 4ebf 29c0 4241 8159 d1be
000000f0: 59b7 b53e fabe 8cbe 00ae 9abf 9261 3a3e
00000100: 625a 2dbd cb7d 0cbe c492 f2be 993f 9840
00000110: f5eb 38be fc7a ec3d 67ec 51be 1dd8 9c3e
00000120: 4eea 633c 4748 0d3f c1d6 b9bf dffd d1bf
00000130: 0e45 7d3f df26 143f 3e30 c13f 7ed7 e2bf
00000140: d47d 823e 323f 923b bfe7 babc 4009 e63d
00000150: d339 fd3b 5ab9 1140 1174 88bc 4855 283d
00000160: 44fa 593c f973 83be f687 34be 5da9 a2bf
00000170: 58ba 2bbe 1c93 6bbe 70ce 0540 40ce 6dbe
00000180: d32a 513e 3010 19be a42e 0c3e 0b7c b2bd
00000190: 015b 1c3c 7ae0 633d 8993 f9bf 5266 fe3f
000001a0: 6d82 213c 3a66 2cbe 5d39 123e f820 863c
000001b0: 8d48 c8bd d33a b5c0 c4fc e0bc afc3 03bf
000001c0: 4c34 c340 c9aa 823e 53ae 223f 27f2 70be
000001d0: 0f18 d1be 7e9e 6ebc 9fd5 c5bd e15f 193b
000001e0: 5b6b e8bd 100e 2840 d750 8bbe a043 183a
000001f0: 1047 0c3d 2417 063c 7ec7 183e cf30 b7bc
00000200: c5d8 b93d 279c 30be a1c7 d53f 8bbd e1bd
00000210: 3d9c bc3d cf2b 57be e026 ce3d cfae 9d3d
00000220: 8f48 853e a88d 503d e948 003e 1669 3640
00000230: 874e 153e ffbb ac3d 47e3 e73d 94e1 9a3d
00000240: 2451 be3d bfd4 37be 1c51 a73d 0c31 d73c
00000250: 194e 0340 a03b a7be b4e9 053e b18d 253f
00000260: 739e 13bd c53f 953b 22b7 693d 7404 c73d
00000270: 7e63 91bd 9f92 e63f b511 453e 28ef 1e3c
00000280: b976 f8bd f8c1 89bd eff2 763d 4ac0 58be
00000290: 1c82 893c 7c50 85be 905c 0340 f0ec f5be
000002a0: b48b 0fbd e9f2 003e 53e9 08bd ba6c 0cbd
000002b0: faad 1cbf 19a2 4dbd 9db5 8cbe 300b 1540
000002c0: a841 14bf bda2 db3d caf5 07be bc7b d93d
000002d0: 0883 8a3d 6ca8 bebe b66a 313e 1efe 02bf
000002e0: eaee 0540 0414 13bf 8d72 003d 3d96 d4bd
000002f0: 1b2b a93d 0196 b83e c43f 7bbe deee bcbe
00000300: d79b d1bd c333 5540 1e71 3dbe d7b3 0cbf
00000310: 522f aabe 3af2 c13e ca76 60bc c436 a8be
00000320: 73cc 1f3e 4a0b 57be 88ff 2e40 34e4 52be
00000330: 8c1f b63d 80a9 49be d376 49be e04d a5bd
00000340: 1f17 2e3f 76ca 42bd 1f8d 443d a8df af3d
00000350: 55d6 503d 805c 77bd 3b3b ec3e 0900 3f3d
00000360: a14a 693d 2147 cd3d 5b62 4cbd eb87 82bd
00000370: 711f b540 433d d03d c074 9a3d bdb5 b5bd
00000380: 57c4 a4bd 3dcf 47be b88f 9fbf 7538 11be
00000390: a23d c1be 9015 2140 0e17 d9be c0a8 3c3e
000003a0: e8a9 8ebe 2512 193e b15c 1dbd ab28 b5be
000003b0: b147 ccbc 51bd 673c 5531 0440 eb18 8cbe
000003c0: a13c 0a3d 4a93 40be e3d6 2f3c d4e5 113e
000003d0: 4e50 1a3e f8f3 06be e7c9 5f3e 34ac 6f40
000003e0: b400 883d b2b8 a8bc 5899 ba3d 9f23 c93a
000003f0: 4714 803d 85ff d93d 10d0 6e3d df92 e43d

block_1.c1_r.dw.bias f4 [48]
-0.43255472 -1.0757947 0.43650356 -0.33749628 -0.27680486 0.21547842 -0.02046156 0.12478368
-1.6100674 -0.002113074 0.0981103 0.07056519 -0.027732916 0.23495418 1.179573 -1.9507475
-0.092193894 0.42208433 0.043088228 -0.0029320717 0.61668295 -0.88719815 -0.04757306 0.046785265
-0.17842454 -0.061918683 0.0061472803 -0.25199288 -1.9990243 0.03912224 0.16929168 0.02843596
-0.54553485 0.22030558 -1.6056381 -0.28634095 0.13950533 0.41678286 -0.6136194 -1.7202308
-0.13568406 -1.8447943 0.22043398 -1.0591245 0.013440281 0.12902944 0.09131557 -0.043807793
00000000: d077 ddbe a4b3 89bf 657d df3e 50cc acbe
00000010: 5eb9 8dbe 60a6 5c3e 009f a7bc 968e ff3d
00000020: b016 cebf 807b 0abb 0eee c83d 7b84 903d
00000030: 2430 e3bc d497 703e 40fc 963f 18b2 f9bf
00000040: 27d0 bcbd 701b d83e 487d 303d 0028 40bb
00000050: efde 1d3f 6b1f 63bf f8db 42bd e8a1 3f3d
00000060: ecb4 36be 729e 7dbd 206f c93b 3605 81be
00000070: 07e0 ffbf a43e 203d cc5a 2d3e 88f2 e83c
00000080: 2ca8 0bbf c997 613e 8d85 cdbf 489b 92be
00000090: 7cda 0e3e 9064 d53e 2916 1dbf 8630 dcbf
000000a0: c3f0 0abe 3822 ecbf 72b9 613e 6491 87bf
000000b0: a034 5c3c 4b20 043e a803 bb3d cd6f 33bd

block_1.c2_r.weight f4 [48, 48, 3, 3]
-0.025838623 -0.0010334196 0.008452037 0.010346997 0.022442458 -0.025261175 0.008373729 0.03846868
-0.024201905 -0.017823828 -0.07421572 0.005647987 -0.09036204 0.0015412541 -0.010880918 0.03974001
-0.048219446 -0.060336303 0.087409385 0.13592912 -0.0633544 0.09759742 -0.7787605 -0.23348118
0.106342345 -0.20322964 -0.1106978 0.13121286 -0.033209592 -0.07803406 0.034593202 -0.26646635
0.004704515 -0.072144225 -0.11336699 -0.027116183 -0.2143896 -0.86046445 0.5756688 -0.28439972
-0.078880645 -0.05631991 -0.07885646 0.08502979 -0.032101676 0.06833064 0.0914588 0.043331552
0.111685544 0.7251189 0.15132317 0.08732585 0.17799976 0.070871994 0.0061715543 0.023703426
0.01974436 0.018307049 -0.00968316 0.018223545 0.009279218 0.0060525555 0.008304085 0.03551371
0.09696115 0.055167705 -0.07681037 0.11442948 0.09867763 -0.0065190573 -0.03785975 -0.030556388
-0.53350604 -1.2297535 -0.51587605 -0.6550389 -0.48300055 0.18551604 0.1350385 -0.317746
-0.2171447 -0.08063616 -0.24775378 -0.17308693 -0.14194803 -0.064377576 -0.23019548 -0.10277081
0.033684064 -0.08463513 -0.114732385 -0.09494834 0.08403176 -0.42672703 -1.1964078 0.24216941
-0.13967091 0.21520263 0.03494078 0.06907577 0.17743884 -0.4039178 0.0008450596 -0.18150714
0.049162373 0.14529213 -0.0847999 0.18673392 0.0048305397 0.014276034 0.012834902 -0.0031154088
-0.043079406 -0.0037197857 -0.0014495691 -0.003923369 0.00093087635 -0.3820389 -2.4652104 -0.4594588
0.39245272 0.70551157 0.2941213 -0.119830094 0.30168298 -0.0764418 0.017497813 -0.5907848
0.21536236 0.43767205 0.17588924 -0.13256729 -0.46301615 -0.36895782 -0.10023429 -0.6480032
-1.4962372 -0.44702473 0.41526157 2.073263 0.37918952 0.12884834 0.38562486 0.04005428
-0.75447 0.53523135 0.8280294 0.06592445 -0.81749934 0.23667805 0.14495294 -0.3563464
-0.22643243 -0.5930567 -1.3790641 0.279176 0.16401675 -0.13409854 0.28751358 0.46508273
0.7112975 0.041331884 -0.11306813 -0.33317894 -0.07544023 0.017160172 0.8947323 0.37464055
0.0740122 -0.15922911 -0.18996754 -0.2147249 0.108444706 -0.21715796 -0.14601423 0.059805628
-0.012949024 -0.21034653 -0.3487226 -0.15688823 0.2818919 -0.20870376 -0.44541642 -0.40616828
-0.572806 0.11839887 0.30859762 0.9272458 0.18419734 0.059058163 0.006499 -0.0058563664
-0.012111373 -0.028570011 -0.08234304 -0.042748306 -0.03731949 0.01587833 -0.05312839 -0.15551092
-0.029411599 0.014538677 -0.042850588 -0.05970314 -0.060961057 -0.017856319 -0.00070333475 0.13112997
1.0990468 -0.3901353 0.9064981 -0.49656945 -0.9133969 0.8386527 2.5038881 0.41601866
-0.01858804 0.016984023 0.021581305 -0.0065060165 0.039995328 0.041843597 -0.040040363 -0.004668725
-0.022753019 0.14953366 0.60615706 0.122285835 0.16400903 0.7159573 0.08286981 0.18353786
0.013911257 0.18525435 0.04243293 -0.75913155 -0.78506863 0.20359296 0.75969267 -0.11436215
-0.19387664 0.16506734 -0.035024773 -0.16083391 0.9134863 -0.2279556 -0.0774124 -0.23346336
0.06029336 -0.055107765 -0.04260435 0.068507805 0.7045527 3.9782743 0.6120494 -0.530593
00000000: 85ab d3bc cf73 87ba 6a7a 0a3c 7386 293c
00000010: 3fd9 b73c 86f0 cebc f731 093c 5691 1d3d
00000020: 1343 c6bc 4703 92bc 69fe 97bd c012 b93b
00000030: bc0f b9bd e803 ca3a e145 32bc 6cc6 223d
00000040: c181 45bd 3323 77bd b103 b33d 0131 0b3e
00000050: f4bf 81bd 28e1 c73d d95c 47bf b115 6fbe
00000060: 04ca d93d 6e1b 50be 87b5 e2bd aa5c 063e
00000070: c806 08bd 52d0 9fbd 9ab1 0d3d 476e 88be
00000080: 5528 9a3b 5ac0 93bd f42c e8bd c222 debc
00000090: f388 5bbe 6647 5cbf 085f 133f d79c 91be
000000a0: 2d8c a1bd b5af 66bd 7f7f a1bd 1924 ae3d
000000b0: 0c7d 03bd eff0 8b3d c04e bb3d 6d7c 313d
000000c0: 64bb e43d 64a1 393f 76f4 1a3e e5d7 b23d
000000d0: 9245 363e 5625 913d c03a ca3b b02d c23c
000000e0: edbe a13c aaf8 953c 1ea6 1ebc 8b49 953c
000000f0: dc07 183c 8454 c63b db0d 083c d376 113d
00000100: 9193 c63d 88f7 613d c14e 9dbd 015a ea3d
00000110: 7f17 ca3d d19d d5bb d312 1bbd 6451 fabc
00000120: da93 08bf 9068 9dbf 7410 04bf a1b0 27bf
00000130: d94b f7be ebf7 3d3e 8847 0a3e 9baf a2be
00000140: 2e5b 5ebe 9224 a5bd 2bb3 7dbe b33d 31be
00000150: d35a 11be 64d8 83bd 5db8 6bbe 8179 d2bd
00000160: 4df8 093d 2f55 adbd d0f8 eabd 4674 c2bd
00000170: d818 ac3d f77b dabe e423 99bf 42fb 773e
00000180: e405 0fbe 145e 5c3e 101e 0f3d 9977 8d3d
00000190: 87b2 353e 50ce cebe fd86 5d3a 02dd 39be
000001a0: 7c5e 493d 76c7 143e 92ab adbd 2d37 3f3e
000001b0: 8149 9e3b 07e6 693c 7b49 523c e32b 4cbb
000001c0: 0874 30bd a6c7 73bb 78ff bdba 9b8f 80bb
000001d0: 0e06 743a 9a9a c3be 02c6 1dc0 2f3e ebbe
000001e0: 90ef c83e 689c 343f 1197 963e 7b69 f5bd
000001f0: 3176 9a3e 858d 9cbd 9357 8f3c ac3d 17bf
00000200: f387 5c3e 8d16 e03e 4f1c 343e b8bf 07be
00000210: 7410 edbe 0ae8 bcbe a347 cdbd 8ae3 25bf
00000220: b384 bfbf 6de0 e4be 2a9d d43e 57b0 0440
00000230: 2125 c23e d2f0 033e 9f70 c53e f50f 243d
00000240: f224 41bf ec04 093f bcf9 533f 6603 873d
00000250: a347 51bf bb5b 723e 8b6e 143e 0973 b6be
00000260: e7dd 67be 90d2 17bf 2c85 b0bf 28f0 8e3e
00000270: 02f4 273e 2151 09be fb34 933e 531f ee3e
00000280: 9817 363f 9f4b 293d 4490 e7bd 6e96 aabe
00000290: 6880 9abd 7d93 8c3c 2d0d 653f e3d0 bf3e
000002a0: b593 973d f50c 23be da86 42be d8e0 5bbe
000002b0: 4218 de3d a85e 5ebe c184 15be bff6 743d
000002c0: 2528 54bc 1565 57be c58b b2be 4fa7 20be
000002d0: 2354 903e 70b6 55be 9f0d e4be 4af5 cfbe
000002e0: 6aa3 12bf 1b7b f23d 8200 9e3e fb5f 6d3f
000002f0: 3a9e 3c3e f9e6 713d 90f5 d43b c3e6 bfbb
00000300: c86e 46bc a80b eabc 78a3 a8bd d918 2fbd
00000310: 52dc 18bd 4613 823c 289d 59bd 413e 1fbe
00000320: 98f0 f0bc a233 6e3c 1984 2fbd 488b 74bd
00000330: 4db2 79bd 6a47 92bc ff5f 38ba ef46 063e
00000340: 91ad 8c3f d0bf c7be 4210 683f 5a3e febe
00000350: 61d4 69bf f1b1 563f b43f 2040 6600 d53e
00000360: f245 98bc 1422 8b3c 47cb b03c 6c30 d5bb
00000370: 24d2 233d 3164 2b3d 5d01 24bd 1bfc 98bb
00000380: 8a64 babc 5a1f 193e 1c2d 1b3f ff70 fa3d
00000390: fcf1 273e fa48 373f a6b7 a93d 59f1 3b3e
000003a0: 0aec 633c 51b3 3d3e 27ce 2d3d 7256 42bf
000003b0: 42fa 48bf ac7a 503e 387b 423f b436 eabd
000003c0: 9987 46be 6a07 293e 2376 0fbd a5b1 24be
000003d0: 3dda 693f 316d 69be 648a 9ebd 0511 6fbe
000003e0: 2cf6 763d aeb8 61bd e681 2ebd d24d 8c3d
000003f0: 915d 343f 0c9c 7e40 45af 1c3f f1d4 07bf

block_1.c3_r.pw.weight f4 [48, 48, 1, 1]
0.0032165647 -0.011179304 0.16947906 0.10212621 0.37010658 -0.20813677 0.68640393 0.10409844
-0.043470725 0.41010928 -0.21885805 0.07382264 0.18713379 -0.722282 -0.49154004 -0.27359658
-0.15648024 0.0005448387 0.07941882 0.09874342 -0.4860682 0.18615706 0.08311606 -0.019006167
-0.46895048 0.31845832 -0.29593396 -0.090741195 -0.052093823 0.9995678 0.22650012 -0.103679925
-0.45079818 -0.07608699 -0.08986511 -0.2644793 -0.06890712 -0.042660195 -0.04968293 -0.027993074
-0.12811108 0.045728263 0.011506858 0.44247773 0.32431263 0.19033943 -0.15164584 -0.26885998
0.02042741 1.2981952 -0.0063210777 -0.119935885 0.025097718 -0.39764914 -0.033144273 -0.0110529885
0.55728686 -0.0015758846 0.046829 -0.37522173 -0.21832642 0.74591887 -0.038226195 0.051763635
0.061635736 0.007799971 -0.26451412 0.005489929 0.0433799 -0.14682762 -0.06636691 -0.95884883
0.042714905 0.0844917 0.051568232 -0.031942304 0.04252372 -0.09734587 0.14621876 -0.0839016
-0.008833954 0.009738637 0.03261019 0.07333308 -0.08966091 0.13012613 0.6358906 -0.024191275
-1.5488657e-05 -0.30861065 -0.07683166 0.08564921 -0.09870789 0.033196572 -0.26470065 0.0020919133
0.055238727 0.03113943 0.021538913 0.07918282 0.076596074 0.07931907 0.025534857 -0.0031218573
0.009030554 0.12499479 0.6761564 0.07988186 -0.07281919 -0.43002647 -0.3416102 0.043917347
-0.06585973 0.11776208 0.023973837 -0.01885704 -0.07383335 0.07628852 0.0410677 -0.037208814
0.27724373 -0.11977184 -0.019800868 -0.07410401 -0.2481845 -0.035389617 -0.003245182 -0.27464
-0.08615637 0.26500383 -0.008002378 -0.07791311 0.005134057 -0.03165856 0.023424968 -1.1359279
0.078172505 0.06942174 0.009299518 -0.43320322 0.04614788 -0.15939747 -0.040084895 0.05232456
1.2017386 0.03943835 0.16249505 0.20760345 0.5161487 0.4458884 -0.07847556 -0.030355081
0.008252314 -0.116045095 -0.052073717 0.24516962 -0.19935974 0.69645464 0.6712858 -0.15973297
-0.92025644 -0.07297707 -0.013736509 0.005874279 -0.11009006 -0.08661787 -0.13633831 0.016177105
-0.61814237 0.17273009 -0.0063890642 0.20643365 0.16703162 -0.45045516 -0.37359318 0.019723017
0.3266061 -0.43584454 0.020233875 0.082505204 0.0171649 -0.11360439 -0.033196785 0.05412164
-0.12114986 0.10207331 0.007915023 -0.000489125 -0.102805704 -0.43924204 -0.01773242 -0.08135705
0.053009257 0.043324176 -0.35735157 0.011470486 0.22444522 -0.010101551 -0.0051505975 -0.028302819
-0.021411927 0.033184223 0.27943683 0.023165617 0.0027817204 -0.35680524 -0.15614352 0.014800445
0.012873209 0.067308225 -0.0750905 -0.032184575 0.008844869 0.043796014 0.024149455 -0.027431265
0.6307395 -0.023896977 -0.01656444 -0.018710554 0.010772878 0.058833197 -0.1959948 -0.09320847
-0.048506234 0.12274945 0.020148637 0.052742496 0.06413493 0.14904532 0.0004323726 -0.23811053
0.016434178 0.038787507 0.008570708 -0.19229065 0.016262615 -0.24796394 -0.0988244 -0.009124207
-0.1258785 -0.0897048 0.15507726 -0.012069981 -0.15208757 0.27254826 -0.030866051 1.1818695
0.038938157 -0.051822424 -0.2553312 -0.030101389 -0.06803319 -0.069147386 -0.011652937 -0.099624954
00000000: 00cd 523b 6629 37bc eb8b 2d3e 8c27 d13d
00000010: 9c7e bd3e ce21 55be 2bb8 2f3f 9031 d53d
00000020: 5c0e 32bd d8f9 d13e 531c 60be 5330 973d
00000030: 00a0 3f3e 79e7 38bf 23ab fbbe da14 8cbe
00000040: 5b3c 20be 82d3 0e3a 56a6 a23d fd39 ca3d
00000050: eedd f8be f59f 3e3e c138 aa3d d2b2 9bbc
00000060: 471a f0be f80c a33e a884 97be 85d6 b9bd
00000070: 5560 55bd ade3 7f3f a6ef 673e 2456 d4bd
00000080: 05cf e6be 7fd3 9bbd 330b b8bd d569 87be
00000090: 2d1f 8dbd 75bc 2ebd 5480 4bbd bb51 e5bc
000000a0: 8d2f 03be 8f4d 3b3d 4387 3c3c 718c e23e
000000b0: 4e0c a63e 57e8 423e 0c49 1bbe 04a8 89be
000000c0: 6257 a73c 432b a63f 0b21 cfbb f2a0 f5bd
000000d0: bb99 cd3c ab98 cbbe 4ac2 07bd 9817 35bc
000000e0: 5aaa 0e3f ea8d ceba c4cf 3f3d 101d c0be
000000f0: f690 5fbe 8af4 3e3f 1293 1cbd 1b06 543d
00000100: c175 7c3d e696 ff3b 656e 87be dde4 b33b
00000110: 1faf 313d fb59 16be 60eb 87bd 1e77 75bf
00000120: d3f5 2e3d fc09 ad3d 3639 533d efd5 02bd
00000130: 5a2d 2e3d 465d c7bd 5fba 153e 9ad4 abbd
00000140: 4abc 10bc ce8e 1f3c 4392 053d a72f 963d
00000150: 24a0 b7bd c93f 053e bac9 223f c82c c6bc
00000160: a3ed 81b7 3702 9ebe eb59 9dbd da68 af3d
00000170: 5d27 cabd 21f9 073d d886 87be 7b18 093b
00000180: 0142 623d 1e18 ff3c 6072 b03c 9a2a a23d
00000190: 67de 9c3d 0972 a23d 7a2e d13c 1398 4cbb
000001a0: e4f4 133c 45fd ff3d 9618 2d3f 1a99 a33d
000001b0: 3a22 95bd 6e2c dcbe 88e7 aebe ade2 333d
000001c0: 77e1 86bd 3f2d f13d c864 c43c 147a 9abc
000001d0: f035 97bd 283d 9c3d 9b36 283d 4568 18bd
000001e0: e4f2 8d3e f04a f5bd 6e35 a2bc d8c3 97bd
000001f0: 1424 7ebe b4f4 10bd 1fad 54bb 9d9d 8cbe
00000200: c072 b0bd 95ae 873e 681c 03bc e990 9fbd
00000210: 973b a83b 68ac 01bd b8e5 bf3c 1666 91bf
00000220: e818 a03d fc2c 8e3d 015d 183c d0cc ddbe
00000230: 8f05 3d3d 1739 23be 0f30 24bd 4752 563d
00000240: 92d2 993f 1b8a 213d 1a65 263e 0096 543e
00000250: 5222 043f 7c4b e43e cbb7 a0bd 38ab f8bc
00000260: b734 073c 0da9 edbd 404b 55bd bf0d 7b3e
00000270: f624 4cbe da4a 323f 63d9 2b3f 0a91 23be
00000280: ed95 6bbf 0175 95bd 180f 61bc 067d c03b
00000290: e676 e1bd b664 b1bd 459c 0bbe d985 843c
000002a0: 943e 1ebf 28e0 303e 5b5b d1bb 5863 533e
000002b0: 560a 2b3e 0fa2 e6be 9b47 bfbe 2a92 a13c
000002c0: ea38 a73e 0427 dfbe 83c1 a53c 7df8 a83d
000002d0: 689d 8c3c 6ba9 e8bd 5af9 07bd a7ae 5d3d
000002e0: 6b1d f8bd d00b d13d 03ae 013c a038 00ba
000002f0: cc8b d2bd 55e4 e0be 9443 91bc 869e a6bd
00000300: 3c20 593d b174 313d c9f6 b6be b5ee 3b3c
00000310: f8d4 653e fa80 25bc 58c6 a8bb 50db e7bc
00000320: 1168 afbc 2eec 073d 5812 8f3e d2c5 bd3c
00000330: 864d 363b 2daf b6be 16e4 1fbe 917d 723c
00000340: 27ea 523c e5d8 893d 0cc9 99bd f9d3 03bd
00000350: 12ea 103c 7363 333d 14d5 c53c 88b7 e0bc
00000360: 2578 213f 98c3 c3bc 26b2 87bc e046 99bc
00000370: ba80 303c 14fb 703d dcb2 48be 15e4 bebd
00000380: 79ae 46bd 1064 fb3d c10e a53c 8408 583d
00000390: 2d59 833d 569f 183e 11b0 e239 3fd3 73be
000003a0: f8a0 863c a6df 1e3d 286c 0c3c d7e7 44be
000003b0: 2d39 853c 42ea 7dbe 7264 cabd b37d 15bc
000003c0: 4be6 00be 26b7 b7bd 93cc 1e3e 2bc1 45bc
000003d0: d8bc 1bbe 728b 8b3e cdda fcbc 8047 973f
000003e0: 9e7d 1f3d c043 54bd c5ba 82be 3097 f6bc
000003f0: fc54 8bbd 259d 8dbd f6eb 3ebc 2b08 ccbd

block_1.c3_r.dw.weight f4 [48, 1, 3, 3]
0.010550858 0.016096119 0.013451875 0.017348943 0.036943138 0.022554632 0.015056979 0.027398417
0.018340008 0.0008410908 -0.0026573145 -0.0047719474 -0.0009256274 0.25538036 -0.00034646937 -0.0021952514
-0.011817349 -0.0042897156 0.00046240917 -0.0036768408 0.01909379 0.018435027 0.14856303 0.021565203
-0.015655492 0.16152836 -0.013050175 -0.008563118 0.025302175 -0.006267164 0.009927344 0.15245812
0.04913198 0.0003544135 -0.47043738 -0.016079169 -0.0031231195 0.0067589246 -0.012141895 -0.035101682
0.34753942 -0.015192383 0.010053947 -0.25416565 0.013489341 0.031355374 -0.016038567 -0.03327034
-0.025243672 0.07397494 0.09043208 -0.027566923 0.09302088 0.14701958 0.0040279655 0.0074885925
-0.011091141 0.016160183 0.07464868 -0.23816022 0.00020835336 -0.00029457753 -0.007235929 0.001410686
0.009908774 0.0056856633 0.03626989 0.10772395 0.0006374305 0.0035925203 0.012590281 0.00055176875
-0.006493907 0.0069098044 -0.012537638 -0.0044812984 0.27432963 -0.019903766 -0.018343948 -0.023577444
-0.011339031 0.011398314 0.020251518 0.008825645 0.005776412 0.17701522 0.012254428 0.0041027954
0.008508954 0.010111597 -0.014725151 0.0558846 -0.005956114 -0.012902176 0.49932253 -0.011244346
0.009781962 -0.016437193 0.009016798 0.004081772 0.0075286925 0.0066463267 -0.0015477893 0.31337318
0.013061125 0.0055125835 -0.0031217053 0.0031201027 -0.015016612 -0.0013148979 0.002936933 -0.038897492
0.1832043 0.0453671 -0.012477307 0.0095707895 0.0052565243 0.0077548865 0.030582454 0.0019098173
0.030504307 0.19441895 0.016744904 -0.0032875957 0.013408101 -0.0002564929 0.0036073285 -0.025889553
-0.0029420434 0.0078123207 0.61090505 0.02608247 -0.010015944 0.092317715 -0.022869736 -0.026530406
0.025439553 -0.0057770917 -0.2079884 0.22445548 0.019827291 -0.041580252 0.05621603 0.0036339837
-0.0021245454 -0.025048891 0.0023279232 -0.008819979 0.65062964 0.006736682 -0.0044705756 -0.008363121
-0.018176138 -0.0034278966 -0.018726239 -0.0048715244 0.0018281606 0.15278256 -0.0015790657 -0.0026538053
0.0017464667 -0.0013853235 -0.0010544905 -0.018329928 -0.004094149 -0.019884316 0.32237515 -0.01519006
0.0068996903 -0.022738114 -0.005742433 -0.018476425 -0.0015708843 -0.04327216 -0.025817752 0.6480216
-0.47120744 -0.018381981 -0.048544265 -0.004838933 0.015205646 0.027007619 0.011220065 0.02636052
0.099686325 0.030547054 0.013111293 0.021272292 0.008121571 -0.004938358 -0.016185453 -0.008608504
0.0053884946 0.26177835 -0.005330776 4.4768636e-05 0.0051292223 -0.0033009946 -0.0035353645 0.01951268
0.005151447 -0.29345754 0.009006262 0.012277717 -0.014624472 0.021428661 0.0052921837 -0.00022200357
0.024430493 -0.0015303695 0.05001699 0.087163836 0.031577766 -0.0052252472 0.026007768 -0.0022103002
0.023553697 -0.1577646 0.025204163 0.0166482 0.2901337 0.008700744 -0.014282978 0.10201862
0.0007673411 0.015488482 0.026318476 0.01673091 0.025385845 0.046503365 0.0269443 0.016027695
0.023969075 0.016479347 -0.004831623 -0.016484434 -0.011867967 -0.03571828 0.26161626 0.018974751
0.0061565703 -0.017565912 -0.0080160955 -0.00040833483 0.062450014 -0.0012916885 0.00016599563 0.106962144
-0.00074851484 -0.0017804992 0.00067029655 -0.003151399 0.0012944551 -0.002652349 0.0053386483 -0.018837132
00000000: 82dd 2c3c 02dc 833c 4165 5c3c 5f1f 8e3c
00000010: b051 173d 7ec4 b83c 8cb1 763c a572 e03c
00000020: c93d 963c a67c 5c3a 5726 2ebb ff5d 9cbb
00000030: cea5 72ba 37c1 823e 55a6 b5b9 35de 0fbb
00000040: 8e9d 41bc be90 8cbb 826f f239 27f7 70bb
00000050: 946a 9c3c 0e05 973c e820 183e 82a9 b03c
00000060: f23f 80bc b167 253e 67d0 55bc 524c 0cbc
00000070: 8246 cf3c c85c cdbb 4ca6 223c fb1d 1c3e
00000080: 9d3e 493d 93d0 b939 2bdd f0be 76b8 83bc
00000090: 40ad 4cbb f879 dd3b ccee 46bc c8c6 0fbd
000000a0: b0f0 b13e 79e9 78bc 4fb9 243c 0022 82be
000000b0: 6602 5d3c 7e6e 003d 5063 83bc 7b46 08bd
000000c0: d1cb cebc 2c80 973d 7434 b93d 07d4 e1bc
000000d0: bb81 be3d 4d8c 163e 06fd 833b de62 f53b
000000e0: 9eb7 35bc 5c62 843c 68e1 983d 46e0 73be
000000f0: 6e79 5a39 8771 9ab9 5f1b edbb c4e6 b83a
00000100: 6958 223c cd4e ba3b bc8f 143d 609e dc3d
00000110: 3d19 273a 7d70 6b3b 7747 4e3c 93a4 103a
00000120: d7ca d4bb a46b e23b aa6a 4dbc dbd7 92bb
00000130: ef74 8c3e 390d a3bc 0c46 96bc 7c25 c1bc
00000140: 58c7 39bc febf 3a3c 83e6 a53c 7099 103c
00000150: 0e48 bd3b 7a43 353e ccc6 483c be70 863b
00000160: 2469 0b3c 1dab 253c c241 71bc 40e7 643d
00000170: 812b c3bb a663 53bc 34a7 ff3e 353a 38bc
00000180: 8644 203c 4ba7 86bc 31bb 133c 63c0 853b
00000190: 40b3 f63b 6ec9 d93b 31df caba 7372 a03e
000001a0: 54fe 553c e7a2 b43b 8695 4cbb a37a 4c3b
000001b0: 3c08 76bc a758 acba 8f79 403b fa52 1fbd
000001c0: e899 3b3e dad2 393d 9e6d 4cbc cdce 1c3c
000001d0: ec3e ac3b b41c fe3b 0e88 fa3c d652 fa3a
000001e0: 2be4 f93c c315 473e 9c2c 893c b474 57bb
000001f0: a7ad 5b3c e579 86b9 ee68 6c3b 5416 d4bc
00000200: 4ccf 40bb 7ffe ff3b 4664 1c3f e7aa d53c
00000210: ea19 24bc 1211 bd3d 5059 bbbc 4b56 d9bc
00000220: 9c66 d03c c24d bdbb e9fa 54be a8d7 653e
00000230: d86c a23c 0e50 2abd c842 663d 2128 6e3b
00000240: f53b 0bbb 5533 cdbc 1290 183b ac81 10bc
00000250: aa8f 263f 62bf dc3b e87d 92bb 7905 09bc
00000260: 20e6 94bc 90a6 60bb c567 99bc 4fa1 9fbb
00000270: e49e ef3a 0873 1c3e a7f8 ceba 77eb 2dbb
00000280: b3e9 e43a be93 b5ba d436 8aba a528 96bc
00000290: 3628 86bb 6fe4 a2bc 5b0e a53e bbdf 78bc
000002a0: cc16 e23b 4845 babc 052b bcbb df5b 97bc
000002b0: 21e6 cdba 263e 31bd c07f d3bc bee4 253f
000002c0: 1a42 f1be cf95 96bc 5ad6 46bd e98f 9ebb
000002d0: 1a21 793c 153f dd3c 5dd4 373c 04f2 d73c
000002e0: 5828 cc3d d13d fa3c c0d0 563c 3b43 ae3c
000002f0: 5610 053c f3d1 a1bb 5b97 84bc af0a 0dbc
00000300: f891 b03b d007 863e caad aebb f5c5 3b38
00000310: 0913 a83b 8055 58bb 93b1 67bb 0ed9 9f3c
00000320: 78cd a83b 1140 96be 008f 133c 7a28 493c
00000330: 7b9b 6fbc 298b af3c 0e6a ad3b a1c9 68b9
00000340: 7522 c83c ae96 c8ba 9ede 4c3d f482 b23d
00000350: b057 013d 8d38 abbb 3e0e d53c afda 10bb
00000360: aff3 c03c 0b8d 21be f678 ce3c ce61 883c
00000370: 688c 943e 918d 0e3c 2703 6abc 23ef d03d
00000380: 6427 493a 67c3 7d3c d899 d73c 430f 893c
00000390: faf5 cf3c 507a 3e3d 4bba dc3c 834c 833c
000003a0: cb5a c43c b2ff 863c 9752 9ebb 5d0a 87bc
000003b0: dd71 42bc 554d 12bd 91f2 853e f070 9b3c
000003c0: 0ebd c93b 63e6 8fbc f155 03bc c615 d6b9
000003d0: 96cb 7f3d e04d a9ba 1d0f 2e39 f80e db3d
000003e0: fb37 44ba a45f e9ba d7b6 2f3a b487 4ebb
000003f0: b5aa a93a 08d3 2dbb d4ef ae3b 5450 9abc

block_1.c3_r.dw.bias f4 [48]
0.4745134 -0.039804623 -1.6657239 -0.264292 0.39951238 0.025854945 0.3982787 0.32508296
0.20544143 0.25713432 -0.18054487 -0.692976 0.1527966 0.75883865 0.9365816 0.9155647
-0.2015445 0.8884697 1.2390292 0.106854916 0.19824219 0.22995818 -0.2252836 0.15353763
-0.10830881 0.54560196 -0.15137738 0.43417877 1.3294266 -3.8745713 0.33057028 0.07552141
0.13547838 0.7478959 -0.110919654 0.09991002 -3.1554456 -0.7317865 0.17429104 0.35251325
0.45028123 0.65466577 0.24923371 -4.1670804 0.580337 0.36690086 -0.80781436 0.6482777
00000000: 6cf3 f23e 2c0a 23bd 7136 d5bf 4851 87be
00000010: e38c cc3e c0cd d33c 30eb cb3e 4671 a63e
00000020: 3d5f 523e 1ca7 833e c1e0 38be e066 31bf
00000030: b676 1c3e 4043 423f d0c3 6f3f 7362 6a3f
00000040: ae61 4ebe c072 633f 8298 9e3f c0d6 da3d
00000050: 0000 4b3e 287a 6b3e beb0 66be f838 1d3e
00000060: 02d1 ddbd 92ac 0b3f ac02 1bbe ae4c de3e
00000070: a72a aa3f faf8 77c0 8240 a93e f8aa 9a3d
00000080: d8ba 0a3e 1b76 3f3f d829 e3bd a09d cc3d
00000090: d2f2 49c0 5c56 3bbf 5a79 323e 9e7c b43e
000000a0: 438b e63e 2d98 273f 1f37 7f3e b958 85c0
000000b0: f790 143f 6eda bb3e eccc 4ebf 87f5 253f

block_1.c5.weight f4 [48, 48, 1, 1]
0.23583871 -0.09212521 -0.07529616 -0.008687113 0.042676415 0.15328754 0.013669463 -0.37493807
-0.24520846 0.10215684 0.16625306 -0.2550305 0.0834068 0.52876294 0.014778028 0.0461005
-0.014383283 -0.014116712 0.24227159 0.0433888 -0.024316482 0.027607452 0.00017005803 -0.31364736
0.10596616 -0.29323813 0.19274113 -0.07307892 0.11850291 0.048011348 -0.07930718 0.44626415
-0.04954039 0.16313364 0.14073762 -0.06405821 0.05583896 1.4533947 0.253172 0.03559208
0.19195803 -0.20423596 0.061946467 1.0716964 -0.19222535 0.19539022 -1.0482804 -0.052943606
0.302565 0.09321505 -0.15432632 0.07516563 -0.05971354 -0.11890353 -0.18793696 1.370293
-0.11403957 0.111919865 -0.12038224 -0.0932794 -0.08808899 -0.009399057 0.058526844 -0.008296421
0.07000361 -0.0043416233 -0.013754108 0.008047945 0.54516613 -0.061855953 0.04996284 0.6775003
-0.14189613 1.1428915 -0.87429196 0.13978086 -0.12862816 -0.109531865 -0.041760985 -0.82210684
0.10038952 0.030973671 -0.51195186 -0.16697183 -0.066950336 0.17500429 0.041094676 -0.036576606
-0.7527963 -0.073601834 -0.021666711 0.47703224 0.13657025 -0.35142416 -0.46920434 0.28311613
-0.62449396 0.6025414 0.41456097 0.06684742 -0.119629815 0.24359944 -0.108395964 -0.28185862
0.4373709 -0.6219567 -0.030061344 0.15711762 -0.2124632 0.21355957 -0.08462171 0.023405954
-0.13517612 0.80356735 -0.05483314 -0.040766034 0.583079 -0.77525395 -0.45755154 0.08484197
0.1513413 0.34636092 0.11596952 0.14472573 -0.09268083 -0.26666325 -0.03585397 0.09211868
-0.14072508 0.14216082 0.06571803 0.38495216 0.6121474 0.85811454 0.2531511 0.15329902
-0.68178 -0.008103016 -0.11072667 -0.36003435 -0.5690456 0.37402725 0.33237016 0.1864612
0.31839132 -0.038302258 0.79627216 -0.241028 -0.120762944 0.046278093 -0.11160615 0.016263943
0.59085786 0.05759478 0.023599735 0.13791442 0.46682075 -0.20140216 -0.04056605 0.5274462
-0.016499687 0.10294706 -0.12625968 -0.18289535 0.016464997 -0.13885869 -0.017372092 0.22369604
-0.09131359 -0.9896777 -0.16989246 -0.21274811 0.042967673 -0.48800015 -0.066078275 -0.466287
-0.7143085 0.8263672 0.1570424 -0.05517732 0.8570099 -0.61715907 -0.16330232 0.020260653
-0.5425096 0.12596433 -0.38095772 0.41239798 -0.06534809 0.26383486 -0.04102402 0.13611501
-0.24206898 0.030453002 -0.4574543 -0.046154458 0.20867221 -0.13396451 0.29362747 1.2226231
0.11198317 -0.14676835 0.114448644 0.13403296 0.26037025 -0.16622132 -0.00012855335 -0.016323313
0.019111563 0.2003729 0.029512282 -0.06852154 -0.21643056 -0.081521966 -0.08449575 -0.7128018
0.060039148 -0.2962357 0.7063171 -0.10267752 0.103930235 0.2610015 -0.40609342 -0.154871
-0.028092839 -0.044578683 -0.21468301 -0.04570548 0.2168355 0.5205112 0.34132674 -0.016448133
-0.5197067 0.16035168 -0.4049134 0.515353 -0.30384195 0.13212393 0.56103224 0.034579717
0.19316988 -0.01386323 0.08445944 -0.032807127 -0.101084165 -0.07280326 -0.1054827 0.32595786
0.06562841 -0.1180841 -0.13556829 -0.00082567515 -0.053340174 -0.048402548 -0.026414203 -0.049893808
00000000: b47f 713e 24ac bcbd e034 9abd 6554 0ebc
00000010: 77cd 2e3d 69f7 1c3e e2f5 5f3c e2f7 bfbe
00000020: ed17 7bbe 9b37 d13d 3e3e 2a3e 5c93 82be
00000030: 2fd1 aa3d 025d 073f 8b1f 723c e1d3 3c3d
00000040: dda7 6bbc c849 67bc 0b16 783e 74b8 313d
00000050: 5c33 c7bc 0629 e23c 9b51 3239 6396 a0be
00000060: c904 d93d 4f23 96be ee5d 453e 67aa 95bd
00000070: a7b1 f23d 8ca7 443d ce6b a2bd bc7c e43e
00000080: ddea 4abd 810c 273e 861d 103e f330 83bd
00000090: 65b7 643d d608 ba3f c39f 813e 00c9 113d
000000a0: a590 443e 3b23 51be 94bb 7d3d 592d 893f
000000b0: b9d6 44be 6014 483e 0d2e 86bf 65db 58bd
000000c0: cde9 9a3e 88e7 be3d b807 1ebe 70f0 993d
000000d0: 2f96 74bd b283 f3bd 8c72 40be c365 af3f
000000e0: 948d e9bd 3e36 e53d f78a f6bd 4509 bfbd
000000f0: 0068 b4bd 81fe 19bc d8b9 6f3d b6ed 07bc
00000100: 0d5e 8f3d 2d44 8ebb e958 61bc 87db 033c
00000110: 0290 0b3f ab5c 7dbd d6a5 4c3d a970 2d3f
00000120: 384d 11be 454a 923f 99d1 5fbf b722 0f3e
00000130: 1ab7 03be 3e52 e0bd 910d 2bbd 9875 52bf
00000140: 0599 cd3d 7fbc fd3c 470f 03bf aafa 2abe
00000150: 421d 89bd 5334 333e e452 283d 5ad1 15bd
00000160: 42b7 40bf 8fbc 96bd 637e b1bc 923d f43e
00000170: 12d9 0b3e deed b3be 8d3b f0be 99f4 903e
00000180: d6de 1fbf 2740 1a3f 5641 d43e 4de7 883d
00000190: 7a00 f5bd 2272 793e b4fe ddbd c64f 90be
000001a0: 14ef df3e 8e38 1fbf 3543 f6bc 71e3 203e
000001b0: f48f 59be 5caf 5a3e 264e adbd d8bd bf3c
000001c0: 9c6b 0abe 97b6 4d3f b798 60bd 49fa 26bd
000001d0: aa44 153f 0b77 46bf 3244 eabe a0c1 ad3d
000001e0: 37f9 1a3e 3856 b13e 6d81 ed3d fb32 143e
000001f0: 72cf bdbd 1688 88be 9ddb 12bd b8a8 bc3d
00000200: 3c1a 10be 9b92 113e 2d97 863d 7318 c53e
00000210: b1b5 1c3f 65ad 5b3f 059d 813e 6bfa 1c3e
00000220: 2289 2ebf 83c2 04bc aac4 e2bd 6c56 b8be
00000230: f9ac 11bf 8080 bf3e 6c2c aa3e afef 3e3e
00000240: 3004 a33e d4e2 1cbd 7ed8 4b3f 0bd0 76be
00000250: 9052 f7bd 198e 3d3d c491 e4bd f63b 853c
00000260: 7642 173f 81e8 6b3d 3b54 c13c 7039 0d3e
00000270: 2103 ef3e 5e3c 4ebe 9628 26bd b706 073f
00000280: 5a2a 87bc e8d5 d23d 384a 01be eb48 3bbe
00000290: 9ae1 863c f930 0ebe eb4f 8ebc 9310 653e
000002a0: 9f02 bbbd 855b 7dbf 4af8 2dbe a4da 59be
000002b0: dffe 2f3d 28db f9be 0c54 87bd 2bbd eebe
000002c0: ecdc 36bf cd8c 533f b9cf 203e 9d01 62bd
000002d0: 0065 5b3f 23fe 1dbf b938 27be abf9 a53c
000002e0: e9e1 0abf cbfc 003e e40c c3be d425 d33e
000002f0: 38d5 85bd 5d15 873e ce08 28bd bc61 0b3e
00000300: eee0 77be 9378 f93c 7337 eabe 750c 3dbd
00000310: 2bae 553e fe2d 09be 5756 963e ea7e 9c3f
00000320: 6f57 e53d 714a 16be 0d64 ea3d f03f 093e
00000330: 404f 853e ec35 2abe 47cc 06b9 78b8 85bc
00000340: da8f 9c3c 8e2e 4d3e bec3 f13c 0555 8cbd
00000350: f99f 5dbe fdf4 a6bd 1c0c adbd 2e7a 36bf
00000360: 9ceb 753d 35ac 97be 33d1 343f 9748 d2bd
00000370: 60d9 d43d fda1 853e 7aeb cfbe 8196 1ebe
00000380: f422 e6bc 2398 36bd ddd5 5bbe ab35 3bbd
00000390: 200a 5e3e 3940 053f 61c2 ae3e 3cbe 86bc
000003a0: 800b 05bf 3b33 243e cf50 cfbe 2dee 033f
000003b0: 2c91 9bbe 7f4b 073e cf9f 0f3f 76a3 0d3d
000003c0: 53ce 453e 9a22 63bc 12f9 ac3d c460 06bd
000003d0: 3705 cfbd e019 95bd 5007 d8bd f3e3 a63e
000003e0: 3068 863d 14d6 f1bd 6ad2 0abe 1f72 58ba
000003f0: 3a7b 5abd c041 46bd 9962 d8bc 735d 4cbd
