model_zoo/team43_EGFMN.pth (torch, 822869 bytes, 246 tensors)

to_feat.weight f4 [36, 3, 3, 3]
0.012599705 -0.01441564 0.006725263 -0.01581921 0.12330254 -0.0029724764 0.010445747 -0.019164056
-5.6888664e-05 -0.0031278073 -0.007754278 -0.011152901 -0.013764758 0.11826076 -0.020491809 0.0020561747
-0.021330934 0.00842277 -0.002766932 -0.02738882 0.0046455506 -0.027066665 0.16584742 -0.021747159
-0.005495107 -0.013405497 -0.012320583 -0.022327749 0.08295519 -0.022430267 0.0851405 -0.38437653
0.08907562 -0.022737648 0.085028574 -0.03317369 -0.007758396 -0.098600045 -0.026277078 -0.10181069
0.8860789 -0.106712274 -0.0064905416 -0.11157079 0.0010451481 0.0383686 0.016216805 0.052150138
0.010913155 -0.50520396 0.019083077 0.036991645 0.026475865 0.029579382 -0.05641155 -0.03363134
-0.056354318 -0.0440793 0.5396024 -0.031238547 -0.06239298 -0.04335137 -0.0679277 -0.021536287
0.034145534 -0.030277118 0.0334596 0.13571955 0.010054529 -0.0088224895 0.013059985 -0.003227663
0.07413526 0.0070311693 0.07204991 0.011456061 -0.57938987 0.030813321 0.0727259 0.029398007
0.060531866 0.02216624 0.017394722 0.022933336 0.020827588 -0.09159901 0.04779021 0.021628685
0.020447021 0.015089493 -0.040903047 0.2310587 -0.041366145 0.22638968 -0.6935744 0.20084196
-0.018218081 0.20532194 -0.02854466 0.023020072 -0.21613766 0.022451023 -0.22012581 0.72320825
-0.21224084 0.009944733 -0.19881213 0.012599582 0.010948586 -0.06594304 0.011259384 -0.07251126
0.3714364 -0.062762946 0.014456099 -0.06321954 0.0013030872 -0.012951904 -0.01500486 -0.023686424
-0.015969256 0.310431 -0.029610476 -0.011954798 -0.03253694 -0.0027244685 -0.014261417 -0.053016957
-0.013991644 -0.05924499 0.43688932 -0.042540923 -0.016526574 -0.043370306 -0.028521506 0.019758442
0.09965341 0.020743666 0.09922528 -0.539582 0.11528846 0.023360442 0.10016631 0.00629027
-0.013026899 0.014574355 -0.01817417 0.013308787 0.04519386 -0.011775923 -0.0008281163 -0.0055189263
0.0050775283 -0.010567774 -0.20103349 -0.016287068 -0.19851889 0.87689185 -0.18554908 -0.026913304
-0.18154001 -0.028801126 0.0038263157 -0.028076224 0.0026555888 -0.034764368 0.0015598629 -0.019982379
0.0055303955 -0.026192948 -0.0012981814 -0.017571904 0.008179275 -0.023648746 -0.00090512936 -0.011393064
-0.01592859 -0.011442267 -0.019449852 -0.00072903343 0.010152222 -0.02383453 0.015202323 -0.011708712
-0.1384638 -0.006910286 0.007451548 0.0030370853 -0.002981488 0.024117673 -0.061078273 0.029571136
-0.06589331 0.023162609 -0.055728864 0.033908088 -0.06732779 0.020122537 -0.014739954 0.037473768
-0.02590263 0.02652374 -0.07156976 0.015655724 -0.01014043 0.01627867 -0.0020129792 0.009926136
-0.069718 0.013365046 -0.05937234 -0.014755819 -0.047184825 0.0018867617 -0.05186794 0.0015426192
-0.011233228 -0.010318776 -0.011633036 -0.016667964 0.20905425 -0.0002732112 -0.009760201 -0.012857639
-0.018707596 -0.003310482 -0.0033481717 -0.015018775 -0.00027748718 0.077240795 -0.016919512 0.005714447
-0.01864839 0.010217509 -0.019465977 0.050778266 -0.024228128 0.03819117 -0.051700376 0.05664222
-0.034881044 0.06251827 -0.035649683 0.040360577 0.06450837 0.044875905 0.065433815 -0.49074697
0.06781644 0.042956695 0.06137087 0.0373071 -0.006889946 0.08584931 -0.0165663 0.097025454
00000000: fe6e 4e3c 942f 6cbc 985f dc3b 4a97 81bc
00000010: 0b86 fc3d e1cd 42bb a324 2b3c f0fd 9cbc
00000020: bd9b 6eb8 e6fb 4cbb 9917 febb a8ba 36bc
00000030: 9485 61bc b332 f23d 70de a7bc e3c0 063b
00000040: 36be aebc a8ff 093c 6a55 35bb 855e e0bc
00000050: b439 983b e9ba ddbc e8d3 293e 1927 b2bc
00000060: 4c10 b4bb bba2 5bbc 45dc 49bc afe8 b6bc
00000070: 69e4 a93d aebf b7bc 245e ae3d 00cd c4be
00000080: 476d b63d 4e44 babc 7623 ae3d 23e1 07bd
00000090: 253a febb d2ee c9bd 0743 d7bc 1f82 d0bd
000000a0: 11d6 623f f78b dabd 9cae d4bb 3a7f e4bd
000000b0: 5afd 883a 6528 1d3d 1bd9 843c 629b 553d
000000c0: 17cd 323c 0c55 01bf 1d54 9c3c 8d84 173d
000000d0: eae3 d83c 7650 f23c cc0f 67bd 04c1 09bd
000000e0: c9d3 66bd 7f8c 34bd 6223 0a3f fbe7 ffbc
000000f0: c88f 7fbd 3591 31bd ae1d 8bbd de6c b0bc
00000100: 30dc 0b3d b807 f8bc ef0c 093d 11fa 0a3e
00000110: c0bb 243c 348c 10bc 8cf9 553c 3387 53bb
00000120: 3ad4 973d b965 e63b e78e 933d 34b2 3b3c
00000130: e552 14bf 386c fc3c 51f1 943d 17d4 f03c
00000140: 43f0 773d f995 b53c 607f 8e3c b1de bb3c
00000150: 9e9e aa3c 4398 bbbd abbf 433d a42e b13c
00000160: 8380 a73c ec39 773c f489 27bd a79a 6c3e
00000170: 8c6f 29bd b2d2 673e 188e 31bf 84a9 4d3e
00000180: 163e 95bc ea3f 523e 7ed6 e9bc 9794 bc3c
00000190: 3153 5dbe 35eb b73c a968 61be 2d24 393f
000001a0: aa55 59be 3cef 223c 6895 4bbe 7a6e 4e3c
000001b0: b361 333c 250d 87bd 4879 383c c980 94bd
000001c0: e92c be3e dc89 80bd 46d9 6c3c 3f79 81bd
000001d0: 5acc aa3a 3934 54bc f2d6 75bc 080a c2bc
000001e0: f5d1 82bc d0f0 9e3e ab91 f2bc 0fde 43bc
000001f0: 7445 05bd ff8c 32bb b8a8 69bc 4f28 59bd
00000200: 353d 65bc e0aa 72bd f5af df3e 643f 2ebd
00000210: bd62 87bc 10a5 31bd efa5 e9bc 75dc a13c
00000220: 1617 cc3d 9fee a93c a036 cb3d 0c22 0abf
00000230: 5b1c ec3d 665e bf3c ff23 cd3d 9c1e ce3b
00000240: c66e 55bc 47c9 6e3c ffe1 94bc 190d 5a3c
00000250: 321d 393d cdef 40bc f215 59ba 1cd8 b4bb
00000260: 6561 a63b 7524 2dbc b9db 4dbe 756c 85bc
00000270: 8948 4bbe fc7b 603f 9400 3ebe 4a79 dcbc
00000280: a0e5 39be 57f0 ebbc edc2 7a3b 1c00 e6bc
00000290: 6309 2e3b 1565 0ebd 5074 cc3a 16b2 a3bc
000002a0: 5238 b53b 9892 d6bc bd27 aaba f4f2 8fbc
000002b0: 5e02 063c 04bb c1bc 3446 6dba f9a9 3abc
000002c0: ad7c 82bc 5978 3bbc 4c55 9fbc 9b1c 3fba
000002d0: 8155 263c a240 c3bc 2a13 793c e6d5 3fbc
000002e0: 74c9 0dbe ae6f e2bb 1d2c f43b d609 473b
000002f0: 1165 43bb 6d92 c53c 362d 7abd 2b3f f23c
00000300: 12f3 86bd 83bf bd3c f343 64bd 35e3 0a3d
00000310: 27e3 89bd 05d8 a43c d97f 71bc 187e 193d
00000320: c131 d4bc 5048 d93c 2b93 92bd 6f40 803c
00000330: 0c24 26bc d85a 853c 30ec 03bb 3ba1 223c
00000340: 50c8 8ebd 11f9 5a3c 6930 73bd 64c2 71bc
00000350: e044 41bd 384d f73a 7a73 54bd b631 ca3a
00000360: 930b 38bc 1510 29bc 7d98 3ebc 418b 88bc
00000370: 5112 563e c93d 8fb9 40e9 1fbc d9a8 52bc
00000380: ac40 99bc acf4 58bb 006d 5bbb 4f11 76bc
00000390: b37b 91b9 6c30 9e3d ca9a 8abc 4140 bb3b
000003a0: 82c4 98bc 5767 273c 1d77 9fbc dffc 4f3d
000003b0: 117a c6bc 586e 1c3d c6c3 53bd ac01 683d
000003c0: 6ddf 0ebd 9409 803d 6705 12bd 2251 253d
000003d0: f71c 843d cccf 373d 2a02 863d 3043 fbbe
000003e0: 58e3 8a3d 5cf3 2f3d 0560 7b3d 54cf 183d
000003f0: 0ec5 e1bb c3d1 af3d 0db6 87bc 48b5 c63d

to_feat.bias f4 [36]
-0.4979536 -0.026644967 -0.16409977 -0.06879398 0.28344873 -0.2528191 0.2254678 0.027143376
-0.040691905 -0.14448673 -0.07772632 0.93683225 -0.40437096 -0.15883164 -0.0680758 -0.054804605
0.055809036 -0.1983238 0.44294715 -0.10448128 -0.10472561 -0.10343198 -0.0008439497 0.1276465
-0.16324891 -0.16831559 0.1336908 -0.06241109 0.0047956025 -0.09877805 0.064678304 -0.30853498
0.03130532 -0.45792046 -0.07001117 -0.04532002
00000000: c6f3 febe 8c46 dabc c509 28be dce3 8cbd
00000010: 3120 913e 8171 81be 08e1 663e c95b de3c
00000020: 8eac 26bd 54f4 13be fa2e 9fbd 3dd4 6f3f
00000030: b609 cfbe c3a4 22be 536b 8bbd cb7a 60bd
00000040: 0498 643d 6515 4bbe f8c9 e23e 48fa d5bd
00000050: 617a d6bd 25d4 d3bd 813c 5dba c4b5 023e
00000060: b92a 27be ec5a 2cbe 3ee6 083e c5a2 7fbd
00000070: 6e24 9d3b 254c cabd 0f76 843d 4cf8 9dbe
00000080: 023a 003d 8d74 eabe 0462 8fbd 7ca1 39bd

feats.0.norm1.weight f4 [36]
1.2927588 1.696077 0.5079805 0.87945545 0.289081 0.7768397 2.0202055 1.2908736
1.7162411 0.15378179 0.45724863 0.4999452 1.1514138 1.0433251 1.5674236 1.2333596
1.6609156 1.2719699 1.3219701 1.6402969 0.9876096 1.3021488 1.5868893 1.5434163
1.5977647 1.7706163 1.7355156 0.7969299 1.65677 1.7297975 1.7406006 1.7891121
1.6054833 1.0801601 0.8869827 2.668294
00000000: 1f79 a53f 0d19 d93f 030b 023f fe23 613f
00000010: 6d02 943e f7de 463f 0c4b 0140 593b a53f
00000020: caad db3f f978 1d3e 7e1c ea3e d1f8 ff3e
00000030: 8761 933f ad8b 853f 56a1 c83f bade 9d3f
00000040: e298 d43f e9cf a23f 5136 a93f 40f5 d13f
00000050: fcd3 7c3f d0ac a63f 301f cb3f aa8e c53f
00000060: 8e83 cc3f 8ea3 e23f 6025 de3f 9903 4c3f
00000070: 0a11 d43f 016a dd3f 00cc de3f a001 e53f
00000080: 7a80 cd3f b042 8a3f 4c11 633f 54c5 2a40

feats.0.norm1.bias f4 [36]
0.24405383 -0.012190251 0.37834993 0.44275808 -0.33820853 0.72643524 -0.33774963 -0.2754691
-1.071458 0.3777397 0.1399304 -1.1535699 0.62036204 0.28397825 -0.042288806 0.09741613
0.0156177 0.14953905 -0.1315956 0.4945496 -0.119994186 0.55250114 -0.10678175 -0.8451466
0.8252068 -0.3340167 -0.72614974 -0.07719456 0.04190521 -0.0124017345 0.1699052 0.74545306
0.34740388 0.39949253 0.09817105 0.007849134
00000000: 3fe9 793e 9eb9 47bc 15b7 c13e 30b1 e23e
00000010: ab29 adbe a9f7 393f 85ed acbe 490a 8dbe
00000020: 8925 89bf 1967 c13e ea49 0f3e 2ea8 93bf
00000030: 0cd0 1e3f 9965 913e 0737 2dbd 1c82 c73d
00000040: 62e1 7f3c c420 193e ffc0 06be 9b35 fd3e
00000050: 83bf f5bd b770 0d3f 64b0 dabd 875b 58bf
00000060: c140 533f 3d04 abbe f3e4 39bf 2e18 9ebd
00000070: cca4 2b3d a530 4bbc a1fb 2d3e 03d6 3e3f
00000080: ecde b13e 498a cc3e e70d c93d a799 003c

feats.0.norm2.weight f4 [36]
0.53669107 1.2745184 0.26794586 0.2615578 0.11410576 0.3487849 0.5477782 0.23415433
0.64544207 0.06283675 0.20533447 0.24281883 0.5401047 0.20732513 0.8307181 0.24897759
0.87538886 0.65845376 0.49940184 0.5350363 0.16071393 0.53126484 0.63490653 0.66412944
0.62154955 0.82714367 0.8664877 0.31424192 1.0026841 0.5523478 0.93653184 0.5173635
0.66197926 0.2507903 0.29041886 0.38207978
00000000: 9664 093f 6b23 a33f 3330 893e e7ea 853e
00000010: 48b0 e93d ef93 b23e 313b 0c3f 27c6 6f3e
00000020: b13b 253f 8eb0 803d 3343 523e 80a5 783e
00000030: 4d44 0a3f 0a4d 543e f1a9 543f fbf3 7e3e
00000040: 7c19 603f 6d90 283f 99b1 ff3e 24f8 083f
00000050: 3192 243e f900 083f 3c89 223f 6304 2a3f
00000060: df1d 1f3f b0bf 533f 23d2 5d3f 51e4 a03e
00000070: f457 803f aa66 0d3f 8dc0 6f3f ef71 043f
00000080: 7977 293f 9667 803e c8b1 943e f69f c33e

feats.0.norm2.bias f4 [36]
0.10939669 -0.07701121 0.03958049 -0.0107206125 -0.25860113 0.20560475 -0.051316492 -0.079188436
-0.3358138 -0.11506059 -0.0059572128 -0.79270405 0.19416755 0.028995855 -0.05204115 -0.026667925
-0.036919463 0.02661033 -0.042133447 0.051587086 0.6071488 0.028818104 -0.083279185 -0.32911432
0.18664147 -0.16607949 -0.3523164 -0.0041202707 -0.04959214 -0.02781846 0.03414265 0.13373716
0.07205169 0.10564046 -0.013096359 -0.02362603
00000000: 5f0b e03d 0eb8 9dbd 271f 223d 82a5 2fbc
00000010: 5e67 84be 0d8a 523e 3e31 52bd 8c2d a2bd
00000020: c9ef abbe e3a4 ebbd b934 c3bb a7ee 4abf
00000030: dcd3 463e b788 ed3c 1a29 55bd b176 dabc
00000040: dd38 17bd e8fd d93c 1f94 2cbd fb4c 533d
00000050: 1b6e 1b3f f213 ec3c 478e aabd ac81 a8be
00000060: f11e 3f3e be10 2abe d162 b4be 5603 87bb
00000070: 2121 4bbd 8ae3 e3bc 2ad9 0b3d 65f2 083e
00000080: d68f 933d 075a d83d 1c92 56bc 608b c1bc

feats.0.safm.mfr.0.weight f4 [9, 1, 3, 3]
0.010639571 0.02777737 0.011731035 0.02682192 -0.81059986 0.023791486 0.015009499 0.029740937
0.012472281 -0.019599076 0.09508963 -0.014273376 0.09147856 0.09320455 0.088536076 -0.019459669
0.095409974 -0.019640446 0.108891554 0.051889904 0.11126317 0.039548837 0.48976764 0.04511273
0.110770024 0.03952186 0.10796481 -0.030757165 -0.2253605 -0.027086195 -0.23276381 -0.1200259
-0.21724117 -0.02774601 -0.22791646 -0.029711513 0.048363443 0.20150794 0.045758788 0.20492665
1.1327893 0.19835792 0.05021887 0.20147717 0.043880776 -0.07595362 -0.21089645 -0.077365704
-0.2243497 -0.0544281 -0.21579053 -0.08075946 -0.21289003 -0.07897835 -0.028892735 -0.26421818
-0.021527419 -0.26871416 0.82150376 -0.27285203 -0.028742084 -0.26642844 -0.026781542 -0.06077716
-0.10719672 -0.06633825 -0.11844593 0.20058365 -0.11411755 -0.06011433 -0.10774007 -0.06906158
0.16115068 -0.054121934 0.14043444 -0.06764399 -0.3538829 -0.05309437 0.1501634 -0.06664616
0.1639545
00000000: 9851 2e3c 5e8d e33c 8733 403c a5b9 db3c
00000010: 7983 4fbf 5de6 c23c 67ea 753c 44a3 f33c
00000020: 8a58 4c3c 3e8e a0bc 5abe c23d e1da 69bc
00000030: 1c59 bb3d 07e2 be3d 6752 b53d e269 9fbc
00000040: 4e66 c33d 00e5 a0bc 8902 df3d 828a 543d
00000050: f2dd e33d f6fd 213d d3c2 fa3e 20c8 383d
00000060: 65db e23d ade1 213d a81c dd3d 73f6 fbbc
00000070: e7c4 66be dee3 ddbc a359 6ebe 24d0 f5bd
00000080: 7874 5ebe 9a4b e3bc ef62 69be 8f65 f3bc
00000090: bf18 463d 1958 4e3e 916d 3b3d 4bd8 513e
000000a0: 3dff 903f 571e 4b3e 4db2 4d3d 0850 4e3e
000000b0: 54bc 333d 928d 9bbd 3df5 57be e971 9ebd
000000c0: eebb 65be 00f0 5ebd 31f8 5cbe 3765 a5bd
000000d0: d8ff 59be 67bf a1bd 75b0 ecbc 9b47 87be
000000e0: 455a b0bc e794 89be 124e 523f 43b3 8bbe
000000f0: 8574 ebbc 4f69 88be f764 dbbc 79f1 78bd
00000100: f489 dbbd 59dc 87bd c893 f2bd cd65 4d3e
00000110: 76b6 e9bd 723a 76bd d3a6 dcbd 2870 8dbd
00000120: af04 253e f6ae 5dbd 0cce 0f3e ef88 8abd
00000130: 2430 b5be 7b79 59bd 6fc4 193e c87d 88bd
00000140: b0e3 273e

feats.0.safm.mfr.0.bias f4 [9]
-1.119546 -0.070338815 -0.26922673 0.55332935 -0.5471356 0.07459341 0.3348944 -0.2981325
-0.02394294
00000000: 494d 8fbf cc0d 90bd 16d8 89be fea6 0d3f
00000010: 1411 0cbf 6ec4 983d 4777 ab3e d3a4 98be
00000020: fc23 c4bc

feats.0.safm.mfr.1.weight f4 [9, 1, 3, 3]
-0.07818435 -0.28579646 -0.06989899 -0.2949164 -0.7942847 -0.30076236 -0.071459934 -0.29401746
-0.07495461 0.10879976 0.22475238 0.10323478 0.23021622 0.6087034 0.2231497 0.103546366
0.22684376 0.10727188 -0.06518045 -0.23823105 -0.06248585 -0.24238105 0.071723714 -0.25346985
-0.07070481 -0.24622995 -0.062086564 -0.00075292547 0.02234307 -0.0020157495 0.017200368 0.33264074
0.015201322 -0.0021342032 0.016923998 -0.0058015822 0.005357376 0.024027903 0.0071291598 0.019118657
0.11290497 0.022174347 0.0052076955 0.022480056 0.006694255 -0.030377373 -0.047457833 -0.03331991
-0.048951797 -0.10216469 -0.05500975 -0.031864535 -0.048990823 -0.032059252 -0.02779035 -0.06877519
-0.029834636 -0.07032281 -0.20769726 -0.06806149 -0.03107137 -0.07107603 -0.030191252 -0.033758033
-0.08633694 -0.03300016 -0.08829941 -0.20182589 -0.09298114 -0.034832057 -0.08794389 -0.034692988
-0.01107065 -0.038849104 -0.010481241 -0.03217538 -0.1992001 -0.038354274 -0.005529666 -0.038245637
-0.007152572
00000000: 1e1f a0bd ea53 92be 3427 8fbd 48ff 96be
00000010: 3e56 4bbf 86fd 99be 9659 92bd 7589 96be
00000020: cd81 99bd 69d2 de3d 7d25 663e c26c d33d
00000030: cdbd 6b3e fcd3 1b3f 5b81 643e 1e10 d43d
00000040: bb49 683e 5cb1 db3d 547d 85bd d7f2 73be
00000050: 2af1 7fbd bd32 78be e2e3 923d cdc6 81be
00000060: afcd 90bd b423 7cbe 7b4e 7ebd f95f 45ba
00000070: d008 b73c aa1a 04bb c9e7 8c3c e34f aa3e
00000080: f70e 793c fddd 0bbb 32a4 8a3c 331b bebb
00000090: ed8c af3b 2ad6 c43c ba9b e93b bb9e 9c3c
000000a0: b93a e73d faa6 b53c 51a5 aa3b 1828 b83c
000000b0: 7b5b db3b f8d9 f8bc 2563 42bd 757a 08bd
000000c0: ae81 48bd b93b d1bd e751 61bd 6384 02bd
000000d0: 9aaa 48bd 9050 03bd 97a8 e3bc 02da 8cbd
000000e0: c467 f4bc 6805 90bd 97ae 54be d363 8bbd
000000f0: 6389 febc 4f90 91bd a553 f7bc dd45 0abd
00000100: 6cd1 b0bd 2d2b 07bd 52d6 b4bd 72ab 4ebe
00000110: e56c bebd 0fac 0ebd ed1b b4bd 3c1a 0ebd
00000120: ac61 35bc 3d20 1fbd 83b9 2bbc 55ca 03bd
00000130: 1cfb 4bbe 5f19 1dbd 3332 b5bb 75a7 1cbd
00000140: 1f60 eabb

feats.0.safm.mfr.1.bias f4 [9]
0.75134176 -0.30155578 1.1105525 0.02751933 0.010262023 0.07389998 0.15930344 0.5829275
0.005826016
00000000: ef57 403f 8565 9abe 9626 8e3f 3870 e13c
00000010: 0b22 283c df58 973d 7120 233e bd3a 153f
00000020: 2ae8 be3b

feats.0.safm.mfr.2.weight f4 [9, 1, 3, 3]
0.004714645 0.025421606 0.0065931524 0.0235409 0.15793331 0.021098569 0.0050006113 0.023601511
0.00808652 0.025176467 0.07598059 0.021533642 0.07544007 0.21716408 0.0747061 0.022805808
0.07571019 0.02257289 -0.00036163098 0.012697069 -0.0003253407 0.010473022 0.45110092 0.010861552
-0.0010594309 0.012707919 -0.00073863124 -0.017211331 -0.098484576 -0.011871732 -0.09699148 -0.3275331
-0.09327669 -0.014941732 -0.09101819 -0.012715667 -0.02867873 -0.0773867 -0.02935828 -0.07784058
-0.262426 -0.07490152 -0.02893425 -0.07292284 -0.030026335 -0.033240817 -0.07755951 -0.033552438
-0.08564458 -0.19158559 -0.08765873 -0.03461217 -0.08471105 -0.034631692 0.029788531 0.06515577
0.031168722 0.06281329 0.16392016 0.06501128 0.032618396 0.061722413 0.031562597 -0.02850865
-0.03414472 -0.042474236 -0.04241995 -0.024399204 -0.03609357 -0.03834598 -0.03692061 -0.040334955
0.026249452 0.09251298 0.027116895 0.09263921 0.22284715 0.093216516 0.024011755 0.09060389
0.022717025
00000000: 4f7d 9a3b f940 d03c 5f0b d83b d8d8 c03c
00000010: 45b9 213e e8d6 ac3c 2bdc a33b f557 c13c
00000020: 537d 043c e13e ce3c b69b 9b3d 5267 b03c
00000030: 5380 9a3d 4360 5e3e 83ff 983d 3fd3 ba3c
00000040: f20d 9b3d c8ea b83c 4a99 bdb9 5e07 503c
00000050: 7d92 aab9 0a97 2b3c b3f6 e63e a7f4 313c
00000060: 9adc 8aba e034 503c b4a0 41ba c7fe 8cbc
00000070: 48b2 c9bd a781 42bc 78a3 c6bd 6bb2 a7be
00000080: d907 bfbd 2bce 74bc bf67 babd 5f55 50bc
00000090: a8ef eabc eb7c 9ebd c780 f0bc e26a 9fbd
000000a0: b35c 86be f865 99bd 8507 edbc 9258 95bd
000000b0: caf9 f5bc 8627 08bd 85d7 9ebd 486e 09bd
000000c0: 6d66 afbd 032f 44be 6c86 b3bd 7ec5 0dbd
000000d0: fd7c adbd f6d9 0dbd 1407 f43c 6370 853d
000000e0: 8c55 ff3c 41a4 803d b0da 273e a224 853d
000000f0: de9a 053d a4d0 7c3d c847 013d f98a e9bc
00000100: 55db 0bbd 77f9 2dbd 8bc0 2dbd d7e0 c7bc
00000110: dad6 13bd ad10 1dbd 113a 17bd 4436 25bd
00000120: 1709 d73c 7277 bd3d 4024 de3c a0b9 bd3d
00000130: 0b32 643e 4de8 be3d 4db4 c43c 888e b93d
00000140: 0e19 ba3c

feats.0.safm.mfr.2.bias f4 [9]
-0.40027884 -0.5935411 0.48622164 0.5830591 0.2567283 0.46840152 -0.4867551 -0.20851782
-0.55991626
00000000: 59f1 ccbe 4ff2 17bf 0bf2 f83e 5c43 153f
00000010: e471 833e 53d2 ef3e f737 f9be b285 55be
00000020: ac56 0fbf

feats.0.safm.mfr.3.weight f4 [9, 1, 3, 3]
0.028580982 0.072358266 0.027896509 0.07016424 0.19267146 0.07019829 0.028716935 0.074304745
0.0325082 0.034265313 0.09065176 0.033231538 0.09141703 0.23427674 0.09051466 0.038689468
0.091163956 0.03927485 -0.015874771 -0.05325565 -0.020301921 -0.053327806 -0.19917352 -0.059274808
-0.021374313 -0.050962538 -0.026436452 -0.025511187 -0.07686602 -0.028105842 -0.07271934 -0.21657534
-0.075953275 -0.024262771 -0.07295573 -0.027201774 0.02492305 0.04647244 0.025003437 0.039330613
0.08658582 0.03800575 0.022279609 0.0414798 0.011756869 0.079081975 0.06994087 0.08196411
0.06633078 -0.4612132 0.072167866 0.076414675 0.0682024 0.07616446 0.0044768834 0.019141497
0.0035588623 0.018836841 0.31390816 0.018525394 0.003684328 0.016051278 0.004417058 0.018374464
0.027932802 0.016757473 0.026178228 0.10606928 0.022939913 0.014749511 0.029658547 0.017672874
0.007774482 0.027824523 0.007818128 0.0230304 0.09525299 0.027610652 0.008177204 0.026704187
0.010704374
00000000: aa22 ea3c 9230 943d 3887 e43c 45b2 8f3d
00000010: ab4b 453e 1fc4 8f3d c73f eb3c 162d 983d
00000020: 5127 053d c959 0c3d a1a7 b93d cb1d 083d
00000030: da38 bb3d 3ee6 6f3e c05f b93d d978 1e3d
00000040: 2bb4 ba3d aade 203d cf0b 82bc 9922 5abd
00000050: 3750 a6bc 426e 5abd 25f4 4bbe 24ca 72bd
00000060: 2f19 afbc 18be 50bd 4291 d8bc d6fc d0bc
00000070: ef6b 9dbd 393e e6bc e1ed 94bd edc5 5dbe
00000080: 648d 9bbd b8c2 c6bc d069 95bd 41d6 debc
00000090: 6d2b cc3c e359 3e3d 02d4 cc3c 2319 213d
000000a0: e853 b13d ebab 1b3d ba83 b63c b9e6 293d
000000b0: e29f 403c bbf5 a13d 293d 8f3d cddc a73d
000000c0: 6fd8 873d 2324 ecbe bfcc 933d 4c7f 9c3d
000000d0: b3ad 8b3d 1dfc 9b3d d2b2 923b a1ce 9c3c
000000e0: cd3b 693b b84f 9a3c 92b8 a03e 91c2 973c
000000f0: c474 713b f87d 833c f8bc 903b 0b86 963c
00000100: 55d3 e43c f846 893c b973 d63c da3a d93d
00000110: 7cec bb3c efa7 713c 7bf6 f23c b4c6 903c
00000120: 15c1 fe3b 41f0 e33c 9b17 003c 40aa bc3c
00000130: 0014 c33d bc2f e23c aef9 053c bdc2 da3c
00000140: 6661 2f3c

feats.0.safm.mfr.3.bias f4 [9]
-0.032846007 -0.43457013 -0.07241663 0.8193376 0.024800884 -0.054210957 0.06727312 -0.10027484
-0.117333345
00000000: 8989 06bd fa7f debe 2c4f 94bd 1cc0 513f
00000010: 392b cb3c 4f0c 5ebd 7dc6 893d e55c cdbd
00000020: 774c f0bd

feats.0.safm.aggr.weight f4 [36, 36, 1, 1]
-0.43129185 -0.05245164 -0.50687474 0.1635225 0.27340066 0.02489258 0.12852068 -0.20998059
0.12736158 0.08077414 -0.10400981 0.0038403342 -0.079493515 0.010923843 0.061162848 0.21083191
-0.21210748 -0.30505168 0.003953337 -0.076092586 0.016634258 -0.04703809 -0.027420208 -0.17760022
-0.10041501 0.050900925 -0.116381384 -0.099753596 0.07690252 0.06295496 -0.01710915 0.057566404
-0.054879587 -0.013889947 0.02168394 0.05106162 -0.29252908 -0.29107258 -0.2699042 -0.027145704
-0.16387439 0.053590808 0.076511234 0.14416192 -0.11085514 -0.21962129 -0.022259837 0.11737357
0.11254034 0.017914953 0.20727348 0.34900638 -0.19113232 -0.013170169 0.06164752 0.12512822
-0.017097654 -0.05002458 0.10045907 -0.16103019 -0.031953897 -0.13065378 -0.07459325 0.5745696
-0.0796086 0.1323627 -0.01453701 -0.3799837 -0.052569583 0.059594456 -0.03587425 0.06626264
0.010562822 -0.06467129 -1.0338385 -0.3153654 0.44569734 0.35186553 -0.13813378 -0.1210906
0.15123115 -0.1648092 -0.34432873 0.044751648 0.1767742 -0.26096085 -0.658557 -0.01730785
-0.06737203 0.29263616 0.26401454 0.3527217 -0.20100157 0.3213424 -0.32811052 0.36339566
0.2846746 0.03282795 -0.15490462 -0.90227646 0.6538139 0.51268744 0.07603409 0.24952549
-0.21940933 -0.32913202 0.2983542 -0.17710045 0.42460236 -0.17830934 -0.84970933 0.36820254
0.76791567 -0.26171234 -0.08674353 0.28723842 0.2225323 -0.20786853 0.052417874 -0.029341228
-0.22490393 -0.47728598 -0.22167528 -0.12821977 0.07127829 -0.54104286 0.04884588 -0.0041712974
-0.093042925 0.13957824 0.33861548 -0.06695726 -0.05466346 0.17064118 -0.004409374 0.08554328
-0.024991212 0.48391318 -0.1557679 0.19088988 -0.10174693 -0.07562036 -0.08483501 -0.024122257
-0.19715255 0.3999375 -0.52207494 -0.40839317 -0.37564337 -0.018388817 -0.4319823 0.26959333
-0.15766077 0.13058282 0.039938327 -0.061081983 0.0065742913 0.045145646 0.14378847 -0.118806146
-0.010848637 0.3066332 -0.029158128 -0.105668716 -0.011460613 -0.10497811 -0.051107448 -0.07702819
-0.18698055 -0.07695519 0.076132834 0.19560488 -0.039828174 0.060569175 -0.082989186 -0.14984107
-0.027784925 -0.057613615 -0.06434891 0.010165486 0.20119967 -0.28849444 -0.12575091 0.10281651
-0.5785289 -0.24369462 -0.23326907 0.077736884 -0.066749 0.11654721 -0.075674355 -0.09739038
-0.07419218 -0.010567201 0.088084325 -0.06397129 -0.02922064 0.09108731 -0.15935777 -0.042288072
-0.049404547 -0.0067232293 -0.016080223 -0.00147962 0.14597681 0.02391523 -0.24038275 0.12617135
-0.099198766 -0.005604526 0.026386758 0.08182017 0.05529246 -0.070755534 -0.06384794 0.06808002
0.03440093 0.013709005 0.021449335 0.07542689 -0.798261 -0.15288651 -0.06575095 -0.24575499
0.040150918 -0.072404705 -0.013565324 0.012499338 -0.011907962 0.017016595 0.0017274274 -0.04786399
0.028148418 -0.059753213 -0.04335379 0.014089136 0.019825354 -0.005427533 -0.011611667 -0.015420337
0.025650537 0.007553129 -0.008666611 -0.040310755 -0.005518047 -0.03879906 -0.0036932305 0.042238824
0.016263824 0.010552069 -0.018291324 0.03020892 -0.8903747 0.08120825 0.08556163 0.016051373
00000000: 49d2 dcbe 88d7 56bd 8bc2 01bf 7172 273e
00000010: 2cfb 8b3e 86eb cb3c ed9a 033e 2705 57be
00000020: 136b 023e ea6c a53d 1803 d5bd 1eae 7b3b
00000030: 7fcd a2bd ebf9 323c e585 7a3d 52e4 573e
00000040: b432 59be bc2f 9cbe ff8a 813b 6ed6 9bbd
00000050: 9144 883c 03ab 40bd 58a0 e0bc d5dc 35be
00000060: 62a6 cdbd 7d7d 503d 5d59 eebd 9d4b ccbd
00000070: 127f 9d3d 88ee 803d 7d28 8cbc c0ca 6b3d
00000080: 6bc9 60bd a992 63bc 85a2 b13c fd25 513d
00000090: 5fc6 95be 7707 95be e230 8abe ab60 debc
000000a0: b0ce 27be 0982 5b3d ecb1 9c3d 2f9f 133e
000000b0: 0508 e3bd 67e4 60be 435a b6bc 8e61 f03d
000000c0: 8d7b e63d 61c2 923c 803f 543e f7b0 b23e
000000d0: 31b8 43be b1c7 57bc 1c82 7c3d 9d21 003e
000000e0: 6110 8cbc 93e6 4cbd 7cbd cd3d 19e5 24be
000000f0: 17e2 02bd 1bca 05be 59c4 98bd fe16 133f
00000100: d509 a3bd 168a 073e a42c 6ebc 398d c2be
00000110: 3453 57bd 5119 743d e1f0 12bd b5b4 873d
00000120: b00f 2d3c 6272 84bd d254 84bf 9377 a1be
00000130: 7132 e43e b827 b43e f172 0dbe 59fe f7bd
00000140: 57dc 1a3e bec3 28be db4b b0be 814d 373d
00000150: 4c04 353e a99c 85be 3197 28bf 31c9 8dbc
00000160: 59fa 89bd 68d4 953e ea2c 873e f097 b43e
00000170: 5bd3 4dbe fe86 a43e 1afe a7be ff0e ba3e
00000180: dfc0 913e 9a76 063d 519f 1ebe 97fb 66bf
00000190: 5960 273f 7c3f 033f c3b7 9b3d 9c83 7f3e
000001a0: d7ac 60be fe83 a8be e2c1 983e d259 35be
000001b0: 7b65 d93e b996 36be 8d86 59bf 0b85 bc3e
000001c0: 1f96 443f 29ff 85be 98a6 b1bd ea10 933e
000001d0: 82df 633e 7ddb 54be 20b4 563d 045d f0bc
000001e0: 374d 66be d45e f4be d8fe 62be 0b4c 03be
000001f0: 5afa 913d c981 0abf 9e12 483d 61af 88bb
00000200: 4a8d bebd 99ed 0e3e 025f ad3e e320 89bd
00000210: cbe6 5fbd 90bc 2e3e 837c 90bb 5131 af3d
00000220: 5fba ccbc 78c3 f73e 9f81 1fbe a378 433e
00000230: b260 d0bd d9de 9abd fabd adbd 0a9c c5bc
00000240: 5ce2 49be 9cc4 cc3e b4a6 05bf e918 d1be
00000250: 5454 c0be 25a4 96bc c92c ddbe 2308 8a3e
00000260: d371 21be 81b7 053e 5f96 233d 1a31 7abd
00000270: 276d d73b a4ea 383d 493d 133e a350 f3bd
00000280: 7bbe 31bc 07ff 9c3e 07dd eebc d768 d8bd
00000290: 4cc5 3bbc c3fe d6bd 0b56 51bd f5c0 9dbd
000002a0: d477 3fbe af9a 9dbd 88eb 9b3d a54c 483e
000002b0: de22 23bd 6217 783d 3cf6 a9bd f06f 19be
000002c0: 369d e3bc 41fc 6bbd 5cc9 83bd 238d 263c
000002d0: 4907 4e3e 8bb5 93be d9c4 00be 7691 d23d
000002e0: 781a 14bf 158b 79be 16de 6ebe 8434 9f3d
000002f0: b3b3 88bd 4eb0 ee3d 28fb 9abd 9c74 c7bd
00000300: 12f2 97bd 0e22 2dbc 8e65 b43d 6103 83bd
00000310: 2060 efbc fc8b ba3d af2e 23be 4236 2dbd
00000320: 6c5c 4abd 894e dcbb acba 83bc cfef c1ba
00000330: f27a 153e dfe9 c33c e526 76be 1033 013e
00000340: b928 cbbd 2ca6 b7bb 0b29 d83c 5591 a73d
00000350: 597a 623d 47e8 90bd b5c2 82bd 8a6d 8b3d
00000360: fde7 0c3d bc9b 603c 84b6 af3c 6a79 9a3d
00000370: d55a 4cbf 488e 1cbe 6fa8 86bd 32a7 7bbe
00000380: 4a75 243d eb48 94bd 1841 5ebc 06ca 4c3c
00000390: 9d19 43bc 6366 8b3c d86a e23a 080d 44bd
000003a0: 8397 e63c c9bf 74bd be93 31bd 1fd6 663c
000003b0: c868 a23c 72d9 b1bb dd3e 3ebc 95a5 7cbc
000003c0: 1321 d23c 3d80 f73b 67fe 0dbc e41c 25bd
000003d0: bcd0 b4bb c3eb 1ebd 200a 72bb 9e02 2d3d
000003e0: b63b 853c 96e2 2c3c b0d7 95bc b278 f73c
000003f0: 99ef 63bf 8350 a63d f03a af3d 2b7e 833c

feats.0.safm.aggr.bias f4 [36]
-0.6659048 -1.0895957 -0.031264484 -0.13060802 0.44772533 -0.4269888 -0.8399224 -0.63474447
-0.58155566 1.1075743 0.305518 0.09225871 -0.4977001 -0.5173102 -0.41420203 0.14871994
-0.54431176 -0.5597977 -0.7080244 -0.303872 1.0625468 -0.18015085 -0.24697198 -0.3627494
-0.3979275 -0.41720906 -1.3442124 0.016608588 -0.38040766 -0.39914924 -0.48325127 -0.34660405
-0.5664533 -0.3981318 -0.50402886 -0.08669357
00000000: bd78 2abf df77 8bbf 300f 00bd 1cbe 05be
00000010: 413c e53e 479e dabe 2805 57bf 9d7e 22bf
00000020: d5e0 14bf ffc4 8d3f db6c 9c3e 22f2 bc3d
00000030: 8cd2 febe 716e 04bf 4a12 d4be 0a4a 183e
00000040: 0458 0bbf e74e 0fbf 1641 35bf 1c95 9bbe
00000050: 8901 883f 7779 38be 39e6 7cbe 4aba b9be
00000060: 27bd cbbe 6d9c d5be 270f acbf bc0e 883c
00000070: cbc4 c2be 4a5d ccbe b66c f7be 1676 b1be
00000080: 1503 11bf eed7 cbbe 0908 01bf 668c b1bd

feats.0.ffd.project_in.weight f4 [144, 36, 1, 1]
1.471965 -0.54054064 -1.4888062 1.3438678 0.75066906 -0.65524375 0.28481537 -0.45169038
-0.23410349 -0.20980531 -2.2138858 0.9660807 -0.7403026 0.27024782 -0.8147417 1.8712767
-0.13383105 0.4844937 -0.1985521 0.40385136 0.07189613 0.4807442 -1.1571673 -0.95737135
-0.6273027 0.23669012 0.3443792 0.4699799 1.9476453 -0.03257769 2.0524673 1.1865252
-0.14119048 -0.124323614 0.21931805 0.7204108 0.3662747 0.294226 0.92423856 0.56806016
0.34268618 -0.900956 0.7928681 0.1268516 0.14169285 -0.083203554 -0.0075269355 -0.8740923
0.2476727 -0.43018377 0.07394983 0.1459756 0.4277301 -0.7982472 -0.3651611 0.22552408
-0.263773 -0.1701413 -0.111583956 0.3431265 -0.46650654 0.44245595 -0.21794985 1.280301
0.45785102 -0.07185286 -0.20714961 -0.37913612 1.1566259 -1.483304 0.56630427 0.11470173
-0.8618574 -0.21210141 0.49341148 -2.0255468 -0.2668655 1.7034969 -0.56205845 -0.27440742
0.08201172 0.059440453 0.3838562 0.15789305 -0.40998495 -0.6874705 -0.26779312 0.29510924
-0.98859006 0.26921594 0.25016102 1.6721044 0.10837833 0.80035186 0.1298603 -0.29160386
-1.6910566 -0.76414496 0.33819187 1.1160231 0.29944745 1.4589754 -0.42412123 -0.34195247
-0.196813 0.14868546 0.13597618 -0.4989901 -1.5438086 0.11468582 0.31497538 0.7654088
-0.47286367 0.04667631 -0.9189607 0.017350137 -0.33770004 -1.0566761 -0.9127151 0.28788435
0.82898027 -0.40509602 0.33185667 0.313589 -0.5881079 -0.03305325 0.19854744 0.6398317
-0.031198412 -0.388009 0.51970786 -0.227195 0.27544454 0.067247 0.61616826 1.1268564
0.013975256 0.07592534 0.057975564 0.10010931 -0.025716167 0.06421694 -0.034749545 -0.42984742
0.12953703 -0.0062600817 -0.07520394 0.4201155 0.06986755 -0.2815623 -0.07809571 -0.38568208
-0.5932209 0.30907333 -0.9982702 0.103749044 1.0231831 -1.3058112 0.20134482 -0.63606924
-1.2697788 -0.47411296 0.7356465 -0.10444104 0.017620943 1.3075129 0.015824595 0.67607456
0.19380425 -0.0983211 0.044720598 0.7582218 0.9720894 -0.38710144 -0.18064903 0.119165115
-0.64519864 -0.4198983 -0.28223363 -0.194039 0.39408195 -0.06204556 -0.6462807 -0.5118616
-0.29846102 0.2694981 0.036521304 0.40643984 -0.12766859 0.026830684 -0.15656531 0.49098966
0.1048354 1.6167414 0.15637784 -0.75309706 0.72836685 -0.838197 -0.14121048 -0.50370306
0.1620357 0.023018794 -0.029910954 -0.2857509 0.46899787 -0.30087075 0.34341592 -0.53469867
-1.3458514 0.39337265 0.4189576 0.083319284 0.39161515 0.12192539 -0.5350975 0.2875035
-0.24596912 0.25019166 -0.2937801 -0.30462667 0.11727166 -0.24304795 -1.0449802 1.1235852
-0.6663012 -0.12645352 -0.36937377 0.088237815 -0.18442678 0.3466984 0.2208079 -0.69473904
0.97864395 0.11498813 0.35430482 -0.024907198 -0.19992617 -0.3278077 -0.051878337 -0.24818945
0.37945378 -0.14094186 0.13916981 -0.5527768 -0.50846916 0.31025875 -0.25826588 -0.28473523
0.34238416 -0.512046 0.17021649 -0.14796397 -0.36722526 0.23112194 -0.0484081 0.2618742
00000000: 5969 bc3f df60 0abf 3491 bebf dc03 ac3f
00000010: d92b 403f 0ebe 27bf 52d3 913e f643 e7be
00000020: d3b8 6fbe 34d7 56be 4eb0 0dc0 1151 773f
00000030: 7984 3dbf ec5d 8a3e e992 50bf ff85 ef3f
00000040: 020b 09be 8f0f f83e 3e51 4bbe 9bc5 ce3e
00000050: 473e 933d 1b24 f63e 0f1e 94bf 4a16 75bf
00000060: e996 20bf e55e 723e 7852 b03e 35a1 f03e
00000070: 714c f93f 2f70 05bd a05b 0340 0fe0 973f
00000080: 3d94 10be 619d febd e994 603e d86c 383f
00000090: 5c88 bb3e caa4 963e e69a 6c3f 646c 113f
000000a0: 9074 af3e 0da5 66bf 67f9 4a3f 63e5 013e
000000b0: ee17 113e a066 aabd 83a4 f6bb 83c4 5fbf
000000c0: ea9d 7d3e 0c41 dcbe 0273 973d a17a 153e
000000d0: 71ff da3e ee59 4cbf 65f6 babe c9ef 663e
000000e0: 410d 87be 8539 2ebe 2186 e4bd 47ae af3e
000000f0: f2d9 eebe 9689 e23e 3f2e 5fbe e7e0 a33f
00000100: 736b ea3e 9827 93bd 071f 54be 211e c2be
00000110: 510c 943f e8dc bdbf 51f9 103f bee8 ea3d
00000120: b0a2 5cbf 1d31 59be 6ea0 fc3e 8fa2 01c0
00000130: 98a2 88be 300c da3f 10e3 0fbf 217f 8cbe
00000140: c3f5 a73d d577 733d cd88 c43e b7ae 213e
00000150: 8ce9 d1be 11fe 2fbf 2e1c 89be 8f18 973e
00000160: 3d14 7dbf acd6 893e 1b15 803e 8407 d63f
00000170: 75f5 dd3d dce3 4c3f 19fa 043e 1a4d 95be
00000180: 8b74 d8bf 019f 43bf 7c27 ad3e d8d9 8e3f
00000190: 2d51 993e b5bf ba3f 6b26 d9be 6514 afbe
000001a0: 5989 49be 0041 183e 573d 0b3e a17b ffbe
000001b0: 859b c5bf 66e0 ea3d 7444 a13e d5f1 433f
000001c0: 301b f2be a92f 3f3d 0241 6bbf e021 8e3c
000001d0: 05e7 acbe 2a41 87bf b2a7 69bf 9465 933e
000001e0: 0d38 543f bf68 cfbe 1ee9 a93e bd8e a03e
000001f0: 3d8e 16bf d862 07bd 0550 4b3e 03cc 233f
00000200: d093 ffbc 1ea9 c6be 930b 053f cea5 68be
00000210: 1107 8d3e ccb8 893d 34bd 1d3f d53c 903f
00000220: 79f8 643c bf7e 9b3d c977 6d3d 1c06 cd3d
00000230: b6aa d2bc 2c84 833d 8a55 0ebd f614 dcbe
00000240: 5ba5 043e 5f21 cdbb 8604 9abd 6119 d73e
00000250: b816 8f3d ef28 90be a5f0 9fbd 1f78 c5be
00000260: 53dd 17bf dc3e 9e3e a38e 7fbf 617a d43d
00000270: aaf7 823f d224 a7bf 562d 4e3e 6fd5 22bf
00000280: 1d88 a2bf efbe f2be 5453 3c3f 2fe5 d5bd
00000290: cc59 903c 955c a73f 95a2 813c 3913 2d3f
000002a0: 9f74 463e 935c c9bd f22c 373d d31a 423f
000002b0: dada 783f 2932 c6be 0ffc 38be d70c f43d
000002c0: bd2b 25bf e9fc d6be ed80 90be 29b2 46be
000002d0: 1cc5 c93e 7c23 7ebd a772 25bf 5d09 03bf
000002e0: e2cf 98be a8fb 893e 5d97 153d e218 d03e
000002f0: 8ebb 02be 06cc db3c a852 20be ff62 fb3e
00000300: f1b3 d63d 62f1 ce3f 8321 203e f8ca 40bf
00000310: 4076 3a3f 1494 56bf 7b99 10be aff2 00bf
00000320: b0ec 253e e991 bc3c d107 f5bc f14d 92be
00000330: 7d20 f03e bb0b 9abe 36d4 af3e 03e2 08bf
00000340: dc44 acbf 2468 c93e 9c81 d63e 4da3 aa3d
00000350: c881 c83e 05b4 f93d 26fc 08bf a933 933e
00000360: 54df 7bbe 1f19 803e 586a 96be 07f8 9bbe
00000370: 202c f03d 90e1 78be e9c1 85bf a4d1 8f3f
00000380: b792 2abf 087d 01be 8f1e bdbe 07b6 b43d
00000390: 60da 3cbe 7482 b13e 771b 623e 6bda 31bf
000003a0: 6988 7a3f e67e eb3d 7167 b53e 2e0a ccbc
000003b0: 72b9 4cbe 69d6 a7be 617e 54bd 6025 7ebe
000003c0: c447 c23e 1053 10be 8882 0e3e c882 0dbf
000003d0: 092b 02bf 3cda 9e3e 6d3b 84be d1c8 91be
000003e0: fa4c af3e 7215 03bf 3b4d 2e3e de83 17be
000003f0: f304 bcbe 3bab 6c3e 9247 46bd 6014 863e

feats.0.ffd.dwconv.weight f4 [144, 1, 3, 3]
-0.07676704 -0.2553328 -0.076192975 -0.19476022 0.006104666 -0.2112461 -0.085049756 -0.2495144
-0.07736403 0.03599235 0.37902296 0.020031966 0.36976963 -1.7327439 0.3635852 0.021313274
0.40368387 0.039818592 0.049776748 0.15824585 0.046165083 0.16718017 0.30608582 0.15797503
0.051829606 0.16233142 0.05041242 0.062498823 0.024477543 0.05141937 0.010265947 0.5984766
-0.0023119042 0.036821086 -0.0027760435 0.036362156 -0.027356422 -0.0121387625 -0.020131633 -0.055146597
1.0876403 -0.047927815 -0.021929722 -0.025319407 -0.030828761 -0.021337071 -0.27371815 -0.017291794
-0.26458845 0.26029646 -0.25590616 -0.015800854 -0.26777425 -0.01731054 -0.019459212 -0.66692317
0.0012890181 0.01480389 -0.016297378 0.008624691 0.0041506747 0.68396384 -0.014831617 -0.080772795
0.19351675 -0.09597448 0.10396795 -1.0407135 0.11526095 -0.0931469 0.16573052 -0.10104057
-0.037432354 -0.07327974 -0.03473951 -0.053578824 -0.43949768 -0.080239885 -0.03842936 -0.084624454
-0.031788528 0.03615781 0.41201437 0.004266587 0.39772466 -0.68740636 0.43540558 0.01793099
0.4074829 0.014531753 0.05360715 0.07862036 0.052834377 0.057125892 0.30506337 0.06211832
0.047922384 0.08130582 0.049647354 0.03421597 0.10882657 0.021999206 0.12598251 0.4738819
0.1470202 0.016932152 0.107385956 0.014935743 0.014999084 -0.07568079 0.03520907 -0.029849766
-0.7530786 0.041880287 0.021381728 -0.07690011 0.032823473 -0.040242303 -0.08908376 -0.0534336
-0.08497653 -0.21847655 -0.10002893 -0.059513576 -0.086096495 -0.06554348 0.020059902 -0.09931617
0.032708656 -0.09336992 0.9036044 -0.106441855 0.013847277 -0.08711409 0.024382612 -0.041807275
-0.14834552 -0.034647226 -0.15939681 -0.20617487 -0.14345789 -0.012351232 -0.15646496 -0.04775023
0.017206328 0.017687589 -0.037020735 0.95762885 -0.04540749 -0.9445401 0.056328245 0.0021764843
-0.020046754 0.49979722 -0.010884884 -0.5149382 0.05006969 -0.00884902 -0.034161996 -0.53511494
0.01092304 0.5412594 0.23678079 -0.12367355 -0.09189307 0.9419669 -0.8355001 -0.13922374
0.23539616 -0.120874144 -0.0874183 -0.0031106775 0.6183503 -0.007309405 -0.6007622 -0.0001330047
-0.59178907 0.012300614 0.6083913 -0.015154408 0.002375366 -0.09283698 -0.0043051187 -0.07369738
-0.47565907 -0.08663791 0.0055532344 -0.07708068 -0.011824514 0.10882128 -0.55764264 0.11784893
0.0038910927 0.004162018 -0.011923742 -0.12821421 0.5661809 -0.12432878 0.13622096 0.14006159
0.1354476 0.13855578 -0.38294944 0.12696198 0.12095731 0.14713256 0.1276278 0.026117133
0.09587143 0.020981515 0.09907795 -1.1115787 0.100452185 0.019670691 0.112453215 0.025708182
-0.45891058 1.1058291 -0.5738181 -0.050613318 7.7154036e-05 0.030450856 0.5111781 -1.111306
0.5056998 0.099485174 0.67945933 0.09609229 0.014505143 -0.04618315 -0.0049446044 -0.055068027
-0.751409 -0.037829805 -0.003237806 0.10464741 0.0034788908 0.115820535 0.75710714 0.09021558
0.012282054 0.100230195 -0.012423148 0.45039192 -0.01100919 -0.3879459 -0.26719916 -0.014526845
0.26033908 0.38615295 0.010497807 -0.41249987 -0.0051959916 0.13795173 -0.006095503 0.1465524
00000000: 0a38 9dbd fbba 82be 100b 9cbd 396f 47be
00000010: a609 c83b e650 58be 912e aebd b480 7fbe
00000020: 0871 9ebd b76c 133d 4c0f c23e 141a a43c
00000030: 7252 bd3e 8dca ddbf d727 ba3e 2d99 ae3c
00000040: a7af ce3e d218 233d b4e2 4b3d 330b 223e
00000050: 9917 3d3d 4731 2b3e 48b7 9c3e 35c4 213e
00000060: 484b 543d 353a 263e 417d 4e3d c4fe 7f3d
00000070: 2185 c83c 1e9d 523d 8132 283c c335 193f
00000080: 5183 17bb b5d1 163d 48ee 35bb 7cf0 143d
00000090: 931a e0bc a9e1 46bc 18eb a4bc 66e1 61bd
000000a0: cc37 8b3f f54f 44bd f6a5 b3bc a56a cfbc
000000b0: 998c fcbc 15cb aebc c924 8cbe 85a7 8dbc
000000c0: 2378 87be 9445 853e 2206 83be cb70 81bc
000000d0: b519 89be d5ce 8dbc ed68 9fbc 7abb 2abf
000000e0: 45f4 a83a 048c 723c 1482 85bc 934e 0d3c
000000f0: 6202 883b 4118 2f3f 4f00 73bc 356c a5bd
00000100: 4129 463e 458e c4bd 26ed d43d 1a36 85bf
00000110: ef0d ec3d cdc3 bebd 43b5 293e 5cee cebd
00000120: ab52 19bd b013 96bd 044b 0ebd 7875 5bbd
00000130: d705 e1be cf54 a4bd 1b68 1dbd 964f adbd
00000140: b034 02bd 361a 143d 8cf3 d23e bace 8b3b
00000150: 91a2 cb3e ddf9 2fbf 7bed de3e 03e4 923c
00000160: 99a1 d03e 9716 6e3c 2c93 5b3d b603 a13d
00000170: dc68 583d d7fc 693d 4431 9c3e c86f 7e3d
00000180: 434a 443d aa83 a63d 065b 4b3d 0c26 0c3d
00000190: 77e0 de3d ae37 b43c 8f01 013e a6a0 f23e
000001a0: 778c 163e 4cb5 8a3c 2bed db3d 0cb5 743c
000001b0: b8be 753c 88fe 9abd 6337 103d 7f87 f4bc
000001c0: c2c9 40bf aa8a 2b3d bc28 af3c ce7d 9dbd
000001d0: e871 063d 1dd5 24bd 8c71 b6bd 31dd 5abd
000001e0: 2d08 aebd 51b8 5fbe f8db ccbd 82c4 73bd
000001f0: 5c53 b0bd a93b 86bd aa54 a43c 4766 cbbd
00000200: 83f9 053d bb38 bfbd 9e52 673f 30fe d9bd
00000210: b0df 623c df68 b2bd 0bbe c73c 1b3e 2bbd
00000220: e3e7 17be 40ea 0dbd eb38 23be 811f 53be
00000230: a0e6 12be d25c 4abc 5a38 20be bf95 43bd
00000240: 49f4 8c3c 90e5 903c 0ea3 17bd 2a27 753f
00000250: 34fd 39bd 61cd 71bf 72b8 663d 59a3 0e3b
00000260: 1739 a4bc 6ce5 ff3e 8356 32bc fdd2 03bf
00000270: e015 4d3d 7bfb 10bc 73ed 0bbd 4bfd 08bf
00000280: 8df6 323c fa8f 0a3f aa76 723e 8f48 fdbd
00000290: 6f32 bcbd be24 713f 56e3 55bf ab90 0ebe
000002a0: b10b 713e dd8c f7bd 5e08 b3bd 82dc 4bbb
000002b0: 354c 1e3f bc83 efbb 8dcb 19bf 2d77 0bb9
000002c0: 7d7f 17bf 8488 493c 88bf 1b3f 324a 78bc
000002d0: 07ac 1b3b 5121 bebd f411 8dbb a7ee 96bd
000002e0: 9689 f3be 376f b1bd e8f7 b53b 7adc 9dbd
000002f0: 9bbb 41bc b1dd de3d abc1 0ebf c85a f13d
00000300: b401 7f3b 8a61 883b cc5b 43bc 964a 03be
00000310: 3bf1 103f 16a0 febd 827d 0b3e 4e6c 0f3e
00000320: c7b2 0a3e 91e1 0d3e f311 c4be 5202 023e
00000330: 77b8 f73d eba9 163e ddb0 023e 99f3 d53c
00000340: 3e58 c43d 6de1 ab3c 61e9 ca3d 3648 8ebf
00000350: e0b9 cd3d 6e24 a13c df4d e63d f799 d23c
00000360: 54f6 eabe cf8b 8d3f bee5 12bf e94f 4fbd
00000370: c2cd a138 1374 f93c 91dc 023f 463f 8ebf
00000380: 8b75 013f e2be cb3d 0cf1 2d3f 09cc c43d
00000390: fba6 6d3c 8b2a 3dbd 5906 a2bb 038f 61bd
000003a0: 575c 40bf 6df3 1abd 5f31 54bb 6251 d63d
000003b0: 1afe 633b 5133 ed3d c6d1 413f f2c2 b83d
000003c0: ab3a 493c 7d45 cd3d 768a 4bbc c599 e63e
000003d0: e45f 34bc d8a0 c6be 54ce 88be 0102 6ebc
000003e0: 2a4b 853e d7b5 c53e fefe 2b3c 2f33 d3be
000003f0: 2343 aabb 3843 0d3e c9bc c7bb d511 163e

feats.0.ffd.project_out.weight f4 [36, 72, 1, 1]
-0.07311189 0.11450217 -0.16435832 0.46102002 -0.15995714 -0.23909906 0.36647642 -0.10474782
-0.5479013 0.12361134 -0.052648544 -0.06748189 -0.13693464 -0.12268946 0.61790425 0.46321693
-0.1484594 0.030611781 0.14154904 0.20760383 -0.037311338 -0.15353966 -0.17631923 -1.8885773
-0.19157326 0.022310887 -0.2011444 -0.13390401 0.4873032 0.15246859 0.437825 -0.791885
-0.0023750784 0.12554902 0.31989625 0.4209491 0.21107829 0.18309051 0.23691241 0.10783106
0.055745766 -0.22747084 -0.5960157 0.007152272 -0.058215484 -0.3082806 0.4807854 -0.40121827
-0.224441 0.0149012925 0.03322345 0.044932134 0.22072266 -0.53327405 1.4384705 -0.35763672
0.3448677 0.03607755 0.11267352 -0.09581018 -0.040215015 0.121412255 -1.0212319 0.058366947
0.50812525 0.15151863 -0.32705405 0.038310003 -0.026146252 0.17552195 -0.043417614 0.06714509
-0.20417123 0.07813387 0.016850103 -0.3408684 0.021499086 0.17074937 1.5731742 -0.16632421
0.04377609 0.08878302 -0.045482934 0.15716437 -0.30638522 0.15446302 -0.14352223 -0.10012838
-1.0611198 0.23712148 -0.17661393 0.054657295 -0.22602314 0.16204046 -0.07060109 0.037303142
0.33638588 1.5395572 0.1172412 -1.0032439 -0.013860894 -0.0076903324 -0.07802371 0.053124934
-2.2906551 -2.0025806 0.062346667 -0.005505926 0.026865037 -2.5545163 0.1683606 -2.2791846
-0.056759402 0.21510059 -0.15333119 1.2420806 -1.4674608 -0.07900883 0.095038295 -0.10054637
-1.3435967 0.18933111 -0.06199162 -0.103922 -1.0541508 -0.138547 -0.13638389 -0.010481613
0.8033319 -2.3555856 0.14971304 -0.06722734 -0.3421897 0.038178038 -0.030070229 0.40836215
-0.0494504 -0.12809077 -0.023064582 -0.998147 1.444028 0.0290258 -0.057652496 -0.85031193
1.4769361 -0.24461491 1.2781938 -0.5105368 0.37849754 0.49938485 0.64906096 -0.46030924
0.40150154 0.559735 -0.8710609 2.1320806 0.79289144 0.76515144 0.48205584 -0.86046076
1.7005639 -0.010102709 -0.15270731 0.6611861 0.4433834 0.49521363 0.7251124 -0.84389013
0.996301 -0.6088472 -0.11914446 1.2408738 -1.020858 -1.3134816 -0.23472542 -1.0977899
0.7511422 -1.5348114 0.064401284 -0.5776252 -0.1779274 -2.2873452 -0.76863647 -0.002519991
0.800066 0.39655465 -0.24930231 -1.5492198 -1.5213208 -0.6503358 -0.32025394 -0.395995
2.8387225 0.9273325 -0.23226206 -0.301028 1.7606806 1.7769957 0.68138003 0.18118021
1.0415266 -0.87471366 0.105616935 0.17799369 0.10235132 0.02310691 1.2573594 -0.2553466
-0.24602686 -1.2345227 0.8761345 -0.039870586 -0.09248036 -0.043671373 0.7675163 -0.24282615
-0.48304814 0.059522454 0.21239579 -0.33496273 -0.27688706 0.44458136 -0.4285194 0.00010162673
0.31737262 0.039025236 0.46184734 0.6443898 -0.17007078 -1.8514372 0.8878155 -0.35982063
-0.39766967 -0.9490589 0.05161312 0.9211979 0.60191905 0.5929107 -0.3435903 0.39799982
1.0803404 -1.0695329 -0.86379576 1.2221785 0.80617476 0.010299534 -0.72989637 0.29822195
1.1658237 0.32296482 -0.2946067 0.5176197 -0.15554361 0.50997126 -0.6543189 1.4144377
00000000: b0bb 95bd 1d80 ea3d 8c4d 28be d10a ec3e
00000010: cecb 23be 62d6 74be cca2 bb3e 0686 d6bd
00000020: 4243 0cbf f127 fd3d 00a6 57bd f233 8abd
00000030: 9838 0cbe 9d44 fbbd f92e 1e3f c52a ed3e
00000040: be05 18be 8fc5 fa3c 3bf2 103e 1996 543e
00000050: c6d3 18bd 8039 1dbe 078d 34be e7bc f1bf
00000060: c82b 44be 52c5 b63c ccf8 4dbe 221e 09be
00000070: ce7f f93e ba20 1c3e 992a e03e fab8 4abf
00000080: 34a7 1bbb ec8f 003e 71c9 a33e a486 d73e
00000090: e824 583e 147c 3b3e 2b99 723e 88d6 dc3d
000000a0: ac55 643d 1eee 68be 7c94 18bf 9b5d ea3b
000000b0: 5c73 6ebd f4d6 9dbe 8129 f63e 7b6c cdbe
000000c0: ddd3 65be 8d24 743c 5015 083d c20a 383d
000000d0: 1f05 623e a684 08bf cd1f b83f 291c b7be
000000e0: 8092 b03e 0ec6 133d 60c1 e63d 2138 c4bd
000000f0: 80b8 24bd fda6 f83d bab7 82bf 2e12 6f3d
00000100: 7f14 023f b327 1b3e a173 a7be f3ea 1c3d
00000110: aa30 d6bc 07bc 333e abd6 31bd 5d83 893d
00000120: 4312 51be a704 a03d 3a09 8a3c 4e86 aebe
00000130: da1e b03c ecd8 2e3e c65d c93f e550 2abe
00000140: 8f4e 333d dfd3 b53d 504c 3abd b2ef 203e
00000150: 86de 9cbe 8e2b 1e3e 7ef7 12be 1c10 cdbd
00000160: c6d2 87bf f9cf 723e 48da 34be 54e0 5f3d
00000170: 9c72 67be efed 253e 4e97 90bd 2ecb 183d
00000180: c53a ac3e 3610 c53f 271c f03d 4c6a 80bf
00000190: ce18 63bc 2fff fbbb e5ca 9fbd 8899 593d
000001a0: 189a 12c0 482a 00c0 385f 7f3d 0e6b b4bb
000001b0: 1114 dc3c 327d 23c0 b966 2c3e 29de 11c0
000001c0: 8c7c 68bd 5443 5c3e da02 1dbe 7ffc 9e3f
000001d0: c1d5 bbbf 62cf a1bd 70a3 c23d 41eb cdbd
000001e0: fafa abbf 04e0 413e edea 7dbd 0fd5 d4bd
000001f0: 6aee 86bf 44df 0dbe 38a8 0bbe 12bb 2bbc
00000200: 29a7 4d3f eac1 16c0 604e 193e 7dae 89bd
00000210: 7d33 afbe 9360 1c3d d755 f6bc d814 d13e
00000220: 818c 4abd 3a2a 03be eff1 bcbc 9086 7fbf
00000230: e9d5 b83f 84c7 ed3c 0625 6cbd 0bae 59bf
00000240: 3e0c bd3f 557c 7abe db9b a33f 8ab2 02bf
00000250: 6eca c13e 5faf ff3e dc28 263f a7ad ebbe
00000260: 9c91 cd3e cb4a 0f3f d9fd 5ebf 0274 0840
00000270: effa 4a3f f7e0 433f 06d0 f63e 2847 5cbf
00000280: 14ac d93f d585 25bc 4e5f 1cbe 7e43 293f
00000290: 2603 e33e a48c fd3e f7a0 393f 2f09 58bf
000002a0: 950d 7f3f 69dd 1bbf 0302 f4bd f4d4 9e3f
000002b0: 7aab 82bf 2a20 a8bf dc5b 70be 6184 8cbf
000002c0: db4a 403f b374 c4bf d2e4 833d 3fdf 13bf
000002d0: 9a32 36be dd63 12c0 5cc5 44bf 6f26 25bb
000002e0: 20d1 4c3f 3609 cb3e 1b49 7fbe d64c c6bf
000002f0: a4ba c2bf 687c 26bf 53f8 a3be dbbf cabe
00000300: a1ad 3540 aa65 6d3f 1bd6 6dbe 5820 9abe
00000310: fb5d e13f 9874 e33f ec6e 2e3f 4e87 393e
00000320: be50 853f 3ced 5fbf b14d d83d fa43 363e
00000330: 929d d13d b44a bd3c 27f1 a03f cabc 82be
00000340: 77ee 7bbe d704 9ebf 5a4a 603f 574f 23bd
00000350: 5866 bdbd c1e0 32bd f37b 443f 6ba7 78be
00000360: 1652 f7be d1cd 733d 487e 593e 3c80 abbe
00000370: 24c4 8dbe 2ba0 e33e e566 dbbe 6f20 d538
00000380: aa7e a23e edd8 1f3d 4177 ec3e bbf6 243f
00000390: 0927 2ebe e5fb ecbf e047 633f 693a b8be
000003a0: 5c9b cbbe 86f5 72bf 4768 533d a0d3 6b3f
000003b0: 5e17 1a3f ffc8 173f 11eb afbe a2c6 cb3e
000003c0: 9848 8a3f 74e6 88bf b821 5dbf 5870 9c3f
000003d0: 7861 4e3f 60bf 283c 7dda 3abf 8cb0 983e
000003e0: b639 953f a55b a53e b0d6 96be ba82 043f
000003f0: d346 1fbe 7a8d 023f 7281 27bf 4b0c b53f

feats.1.norm1.weight f4 [36]
1.3161497 1.3274041 0.9282761 1.8397626 0.35752055 0.7383753 2.2822676 0.45351958
1.9433596 0.131746 1.7707705 0.6923792 2.4952729 1.855181 1.2831533 1.5745882
1.4819916 1.6596689 1.3124384 1.421463 -0.116317116 2.1250856 1.6702211 0.8513398
2.0114746 2.2576032 1.86411 2.2684953 2.290299 2.4352374 1.8192917 2.011604
1.6227229 1.5622565 1.5256757 1.7624363
00000000: 9877 a83f 61e8 a93f 81a3 6d3f 577d eb3f
00000010: ef0c b73e 2a06 3d3f ac10 1240 b833 e83e
00000020: 02c0 f83f 6ce8 063e 9ca8 e23f c33f 313f
00000030: 8db2 1f40 9276 ed3f 5e3e a43f 1b8c c93f
00000040: e7b1 bd3f 0870 d43f fbfd a73f 80f2 b53f
00000050: ab37 eebd 6701 0840 cec9 d53f 68f1 593f
00000060: 00bc 0040 927c 1040 289b ee3f 072f 1140
00000070: 4294 1240 eeda 1b40 8dde e83f 1fbe 0040
00000080: 62b5 cf3f 05f8 c73f 5749 c33f 8397 e13f

feats.1.norm1.bias f4 [36]
-0.20338486 -0.11773814 -0.48705533 -0.32106814 -0.39533007 0.54661477 -0.2506801 -0.292822
-0.42999098 -0.1430255 -0.14302737 -0.7573426 0.65364635 0.22732246 -0.08896825 0.072882
-0.19307289 -0.13385782 -0.37434015 -0.35691896 -0.99046093 -0.063070655 -0.22908427 -0.1480101
0.04076072 -0.71630806 -0.53339976 -0.41365016 -0.074779645 -0.27957988 -0.15862907 -0.19032522
-0.35764927 -0.22588754 -0.09942679 -0.058416434
00000000: 1f44 50be b220 f1bd 515f f9be 0b63 a4be
00000010: b468 cabe f2ee 0b3f 2459 80be c4ec 95be
00000020: c727 dcbe 4775 12be c475 12be 34e1 41bf
00000030: 5e55 273f 38c7 683e fc34 b6bd 2843 953d
00000040: e6b4 45be 0612 09be 83a9 bfbe 15be b6be
00000050: d98e 7dbf 302b 81bd 1195 6abe f68f 17be
00000060: b6f4 263d f75f 37bf e38c 08bf f4c9 d3be
00000070: 1226 99bd 1825 8fbe a96f 22be 9de4 42be
00000080: ce1d b7be 104f 67be 46a0 cbbd 1246 6fbd

feats.1.norm2.weight f4 [36]
0.7515119 0.27277577 0.30677626 0.92013913 0.14579815 0.3882585 0.84840643 0.1678479
0.57560694 0.03903144 0.5128747 0.22683717 0.3803896 0.3664342 0.32485622 0.25483447
0.62780815 0.40675187 0.4286059 0.45249277 0.15967768 0.55229646 0.54233104 0.6399308
0.456442 0.6556585 0.76121885 0.46140924 0.49459845 0.6552432 0.61154217 0.43584213
0.5184783 0.24808782 0.40015593 0.91259843
00000000: 1563 403f 44a9 8b3e c711 9d3e 3d8e 6b3f
00000010: 1c4c 153e d1c9 c63e 2a31 593f 52e0 2b3e
00000020: fa5a 133f 6edf 1f3d c24b 033f 0148 683e
00000030: 6dc2 c23e 439d bb3e 8e53 a63e aa79 823e
00000040: 09b8 203f c841 d03e 3c72 db3e 22ad e73e
00000050: 8c82 233e 4d63 0d3f 35d6 0a3f 81d2 233f
00000060: c4b2 e93e 3cd9 273f 3ddf 423f d53d ec3e
00000070: 023c fd3e 05be 273f 078e 1c3f b326 df3e
00000080: feba 043f bc0a 7e3e 3de1 cc3e 0da0 693f

feats.1.norm2.bias f4 [36]
0.046873588 -0.025410522 -0.04428427 -0.08208515 -0.25184008 0.134901 -0.06592783 -0.020403923
-0.12818286 -0.1536918 0.002526376 -0.6002884 0.11809949 0.06879227 -0.015795687 -0.00711064
-0.039326925 0.019337155 -0.027239423 -0.0026453114 0.6878528 0.012820932 -0.050012477 -0.26471093
0.07034233 -0.15393089 -0.18839757 -0.03978419 -0.035112936 -0.038646955 0.02228143 0.0034971216
-0.022232303 0.011336703 -0.013018014 -0.00898616
00000000: 85fe 3f3d ba29 d0bc 6c63 35bd 421c a8bd
00000010: 2ff1 80be 7d23 0a3e 2c05 87bd 2126 a7bc
00000020: 5e42 03be 6261 1dbe 8e91 253b 80ac 19bf
00000030: 25de f13d f6e2 8c3d f565 81bc 5f00 e9bb
00000040: 4515 21bd f468 9e3c 3625 dfbc f65c 2dbb
00000050: 1f17 303f e30e 523c e2d9 4cbd 3188 87be
00000060: a40f 903d 0fa0 1dbe 4beb 40be bff4 22bd
00000070: 95d2 0fbd 454c 1ebd 8c87 b63c f72f 653b
00000080: 8520 b6bc 94bd 393c 8249 55bc b03a 13bc
