model_zoo/team26_RDEN.pth (torch, 828574 bytes, 55 tensors)

conv_1.weight f4 [37, 3, 3, 3]
-0.0044532106 -0.074448004 0.022314275 0.17451692 -0.2866466 0.13656507 -0.03403805 0.066113055
-0.03450242 -0.06452769 0.09347862 0.007089729 0.03969042 0.012028551 0.038592298 -0.012364556
-0.0314188 -0.08405415 0.104294665 0.011072639 0.023556123 -0.12079023 -0.25818253 -0.087984495
0.0063390317 0.10540289 0.13680422 0.103102244 -0.1900553 0.11048452 0.018283658 0.3848343
0.08080614 -0.1193562 -0.31756473 -0.08487517 0.043595776 0.03263593 -0.021396752 -0.0634975
0.34947047 -0.16787498 0.13212956 -0.0012837405 -0.061726872 0.008984491 -0.13804577 0.041088644
-0.040792104 -0.091421284 -0.20249906 -0.025185596 0.14042506 0.069539905 0.00667025 0.07775227
-0.15921101 -0.11121807 0.124589145 0.032617416 -0.042880848 0.0197016 0.03587538 0.05273958
-0.13898219 0.1024802 0.001409345 -0.14474234 -0.10835958 0.0065288204 0.18216093 0.055258315
-0.0049309228 0.07652617 0.085721076 -0.015783725 0.100611046 0.04524339 -0.12763366 -0.027600847
-0.15937714 -0.16580217 -0.07584019 -0.03341939 0.023194931 -0.264203 -0.19084965 0.08003956
-0.06570074 0.08221428 0.1168187 -0.14557716 0.05616231 0.056400213 -0.1348006 -0.042980324
0.08789282 0.048416756 -0.06477405 -0.0110101765 0.2075389 0.009822622 0.13788173 0.21245179
-0.024802132 -0.12849492 0.22159499 0.0448569 0.05204634 0.001142085 -0.045782723 0.12458027
0.23640384 -0.29729906 0.009096868 -0.025934696 -0.03689725 0.10728388 -0.09315249 -0.11311861
-0.10085696 0.072529264 0.14817475 -0.08115077 0.052068636 -0.08748484 -0.15329643 0.031861402
0.17373976 0.107759215 -0.37958917 0.07631752 0.062247522 0.031698246 0.09886532 0.049708806
0.20382147 0.07860743 -0.11529318 -0.23027208 -0.097949974 0.015317475 -0.10039135 0.09360779
-0.025002189 -0.05112253 -0.019907197 0.08500402 0.20591457 0.010653772 -0.05855406 0.19774571
-0.15012246 -0.017309258 -0.14749114 -0.052172665 -0.022684237 -0.06678329 0.16125056 0.035243135
-0.100150205 0.082084745 0.004150051 0.09809208 -0.06241853 0.021706931 -0.08237651 -0.05498482
-0.0940875 -0.08778154 -0.075011395 0.0647762 0.02206681 0.022769952 0.20946802 0.29535207
0.13364574 0.052599423 -0.12209101 0.09510192 -0.075574376 -0.029470585 -0.120877236 -0.0369351
-0.14091067 0.18775801 -0.093753174 -0.12853567 -0.03818791 -0.15589121 0.09894799 -0.1339555
-0.033175338 -0.15966237 0.19259703 -0.11625132 0.088286266 0.1174175 0.23687935 -0.061930623
0.059601687 -0.10281713 0.29838836 -0.10618737 0.069263116 -0.15678674 -0.10611201 -0.086620525
-0.08961912 0.0948958 0.037991814 0.028750941 -0.19109704 0.089989096 0.035678238 0.019209916
0.044169277 -0.17841296 -0.04766454 0.12747097 -0.215452 0.24558671 -0.0773355 -0.056229133
-0.031222247 -0.17018639 -0.091043 -0.012745335 0.07424614 0.53101003 -0.06428868 -0.14202563
0.2329905 -0.110781856 -0.13361754 0.047721222 -0.06968937 0.13351601 0.3546842 -0.1832607
-0.073843434 -0.10091208 0.06294873 -0.00023201121 -0.108946525 -0.009239021 -0.11600411 -0.27163762
-0.083862394 0.12547226 0.21124984 -0.032152485 0.01697803 0.16302896 -0.04786684 -0.082527965
00000000: 3dec 91bb 3278 98bd 6dcc b63c 90b4 323e
00000010: 58c3 92be b7d7 0b3e 7b6b 0bbd 4866 873d
00000020: 6952 0dbd 1827 84bd b871 bf3d f550 e83b
00000030: 6c92 223d 6613 453c f512 1e3d b594 4abc
00000040: 00b1 00bd 9524 acbd 7198 d53d 046a 353c
00000050: c5f8 c03c de60 f7bd 8030 84be 3731 b4bd
00000060: a7b7 cf3b 78dd d73d 6816 0c3e 4527 d33d
00000070: db9d 42be b545 e23d 9cc7 953c 0009 c53e
00000080: b17d a53d 0671 f4bd d897 a2be 08d3 adbd
00000090: 7c91 323d 41ad 053d 3e48 afbc fa0a 82bd
000000a0: cbed b23e 6be7 2bbe f94c 073e 2f43 a8ba
000000b0: 51d5 7cbd b033 133c df5b 0dbe 914c 283d
000000c0: 9f15 27bd 153b bbbd ea5b 4fbe 0652 cebc
000000d0: 96cb 0f3e f06a 8e3d 1d92 da3b 953c 9f3d
000000e0: 3608 23be 4dc6 e3bd 9828 ff3d d799 053d
000000f0: d4a3 2fbd 4065 a13c 10f2 123d 7505 583d
00000100: 5951 0ebe 24e1 d13d c5b9 b83a 5637 14be
00000110: a1eb ddbd b7ef d53b 6588 3a3e 8b56 623d
00000120: 9493 a1bb c1b9 9c3d 888e af3d df4c 81bc
00000130: 2a0d ce3d 2251 393d 66b2 02be 2c1b e2bc
00000140: c333 23be 0bc8 29be 1a52 9bbd c5e2 08bd
00000150: 4c03 be3c 9e45 87be 176e 43be c8eb a33d
00000160: 1c8e 86bd f65f a83d a53e ef3d 2e12 15be
00000170: 730a 663d e903 673d 2b09 0abe 230c 30bd
00000180: 2701 b43d a650 463d 42a8 84bd 0764 34bc
00000190: 1485 543e 10ef 203c de30 0d3e f68c 593e
000001a0: d72d cbbc 2c94 03be cce9 623e debb 373d
000001b0: 8b2e 553d 03b2 953a aa86 3bbd f123 ff3d
000001c0: d913 723e 9537 98be 080b 153c 0075 d4bc
000001d0: 9221 17bd a7b7 db3d bcc6 bebd bbaa e7bd
000001e0: 188e cebd 398a 943d 1fbb 173e 6032 a6bd
000001f0: ec45 553d 402b b3bd bdf9 1cbe 1a81 023d
00000200: d6e8 313e ddb0 dc3d 8359 c2be 5c4c 9c3d
00000210: 42f7 7e3d 05d6 013d e779 ca3d 769b 4b3d
00000220: 93b6 503e effc a03d d51e ecbd 72cc 6bbe
00000230: ff99 c8bd 26f6 7a3c fb99 cdbd 71b5 bf3d
00000240: 64d1 ccbc dc65 51bd 6b14 a3bc 9616 ae3d
00000250: 45db 523e 298d 2e3c 62d6 6fbd da7d 4a3e
00000260: b4b9 19be 25cc 8dbc eb07 17be 01b3 55bd
00000270: 4bd4 b9bc adc5 88bd de1e 253e 1b5b 103d
00000280: 8d1b cdbd 0c1c a83d 27fd 873b 80e4 c83d
00000290: 93aa 7fbd bcd2 b13c 04b5 a8bd c337 61bd
000002a0: f2b0 c0bd cfc6 b3bd 939f 99bd 62a9 843d
000002b0: 74c5 b43c 0d88 ba3c c97e 563e 6338 973e
000002c0: 6eda 083e 7e72 573d da0a fabd ccc4 c23d
000002d0: bdc6 9abd 4c6c f1bc 7c8e f7bd 4249 17bd
000002e0: e34a 10be a343 403e aa01 c0bd db9e 03be
000002f0: ed6a 1cbd f2a1 1fbe 3ea5 ca3d a12b 09be
00000300: dde2 07bd 887e 23be 2838 453e 2c15 eebd
00000310: 6ecf b43d 9678 f03d 8090 723e f7aa 7dbd
00000320: e620 743d ca91 d2bd 5cc6 983e c478 d9bd
00000330: d2d9 8d3d b48c 20be 4151 d9bd 1a66 b1bd
00000340: 3b8a b7bd bb58 c23d 4e9d 1b3d 1887 eb3c
00000350: f1ae 43be 344c b83d 5823 123d 1d5e 9d3c
00000360: d8ea 343d e3b1 36be e53b 43bd c087 023e
00000370: 739f 5cbe 157b 7b3e 1362 9ebd 8550 66bd
00000380: ccc5 ffbc 5745 2ebe c174 babd cfd1 50bc
00000390: 5c0e 983d 46f0 073f c9a9 83bd 2b6f 11be
000003a0: 1095 6e3e 99e1 e2bd 09d3 08be 5477 433d
000003b0: 4db9 8ebd 6cb8 083e 2b99 b53e b1a8 3bbe
000003c0: 3a3b 97bd feaa cebd 44eb 803d 0948 73b9
000003d0: 5b1f dfbd 435f 17bc 9093 edbd 1614 8bbe
000003e0: 0cc0 abbd cd7b 003e e151 583e 53b2 03bd
000003f0: 8215 8b3c 10f1 263e 0510 44bd 6c04 a9bd

block_1.c1_r.conv_infer.weight f4 [37, 37, 3, 3]
-0.09592836 -0.15648189 0.012640761 0.278877 0.7082148 0.089268245 0.07287624 0.053576745
-0.25064453 -0.029627485 -0.022227896 0.033062883 -0.021071034 0.10508785 -0.04463178 0.1482787
0.07201944 0.02951376 0.1693957 0.06963394 0.29043195 0.06503494 -0.20978035 0.2049455
-0.03290246 -0.047360975 0.04545553 -0.15528755 -0.22513404 -0.020567795 -0.027845426 -0.3290565
-0.26598653 -0.09465325 -0.29534718 -0.1992957 -0.0042502293 -0.14104822 -0.059065863 -0.21225388
0.41591227 -0.09139296 -0.106714204 0.053590663 0.022637384 0.2929203 0.09951587 -0.040879026
-0.037067123 0.7340196 -0.1799044 -0.014333741 0.099575736 -0.11373872 0.011172291 0.24495636
0.09841763 -0.38236374 0.20764801 -0.22046632 0.0050239745 0.123866856 -0.12511624 0.12746662
-0.1849295 0.039646413 0.11071306 0.13102967 0.12869929 -0.005004528 0.033510827 -0.07006934
0.11552978 -0.08072372 0.13336203 -0.07011162 -0.19048488 -0.2688436 0.108942404 0.06446692
0.14095867 0.20548294 -0.017164554 -0.09292308 -0.27828044 0.4761802 -0.23021822 0.15368713
0.14703743 0.013397112 0.04536158 -0.09762232 -0.099135205 -0.13995537 -0.37258908 -0.060705267
0.03632178 -0.08710371 -0.051134124 -0.028381767 0.054371994 -0.015305198 -0.12623872 -0.34313965
-0.09198054 -0.089947775 -0.112482116 0.042095255 0.24122912 -0.18274486 -0.05792937 0.002316624
0.49713886 -0.20107307 0.062828556 -0.32534313 0.3997145 -0.06285915 0.18220457 -0.036247063
-0.10024306 0.14225224 -0.008608809 -0.17040499 0.2745247 -0.087117985 -0.00047703894 0.019815024
0.07889516 -0.09319621 0.22981828 0.04769071 0.14662008 0.22485965 -0.12376688 0.111839116
-0.0401369 0.033172045 -0.13481021 0.5955464 -0.17949447 0.10893836 0.061054684 -0.14417565
0.15462762 0.08796259 0.15460232 -0.080082335 -1.1032892 -0.124324165 -0.054769035 0.18291126
-0.010272421 -0.19843082 -0.06388226 0.0606759 -0.054713175 -0.010814276 0.059976432 -0.06571742
0.00361194 -0.052461866 0.14165065 -0.105730236 0.09477707 -0.11181003 -0.017942332 -0.021358343
-0.018893693 0.09734832 -0.12822369 0.016328227 -0.0067204684 0.116908774 -0.056688223 0.7435006
0.05920632 0.32151204 -0.051541634 0.043493114 0.118791446 -0.16230232 0.04297935 0.010341619
0.14268501 0.090118885 0.06221659 -0.15781133 -0.1089885 -0.023357123 -0.13366745 -0.17604259
0.07590196 -0.7007787 -0.2448729 -0.20340258 -0.054455042 -0.10905206 -0.20914584 -0.4025883
-0.25632983 -0.3946607 -0.5533435 -0.35959426 -0.23687282 -0.22825456 -0.2494565 -0.036033105
0.1573922 -0.07880181 0.023718212 -0.6023711 0.00994508 0.10033405 0.045311503 -0.22830388
0.046178877 -0.1331573 -0.093327284 0.058621366 -0.019414946 0.071856126 0.29096854 0.15169473
-0.16484857 -0.039653532 0.10637695 -0.1427653 -0.29478008 0.34706393 -0.08152805 0.07686554
0.20298448 -0.012805563 0.16162902 -0.014011998 0.11915199 0.20626171 -0.35708386 0.2628836
0.23583828 -0.27322996 -0.10509471 -0.31951147 -0.3854223 -0.066816695 -0.46182823 -0.73627305
-0.1696759 -0.051319323 -0.31687015 -0.2107302 -0.08523661 0.04638753 0.0013280022 0.15016402
00000000: 1776 c4bd ca3c 20be 321b 4f3c f7c8 8e3e
00000010: 914d 353f 45d2 b63d 2340 953d 4a73 5b3d
00000020: 7b54 80be 57b5 f2bc 4717 b6bc f26c 073d
00000030: 299d acbc 4c38 d73d d0cf 36bd 5fd6 173e
00000040: ee7e 933d d7c6 f13c 1176 2d3e 3d9c 8e3d
00000050: 7fb3 943e 0a31 853d a9d0 56be 3cdd 513e
00000060: bbc4 06bd 95fd 41bd 942f 3a3d b303 1fbe
00000070: 8a89 66be cb7d a8bc 171c e4bc 187a a8be
00000080: 632f 88be 90d9 c1bd bf37 97be 2c14 4cbe
00000090: 8245 8bbb f26e 10be 0cef 71bd 1559 59be
000000a0: 74f2 d43e 3b2c bbbd fa8c dabd e281 5b3d
000000b0: 0972 b93c a6f9 953e face cb3d c470 27bd
000000c0: b2d3 17bd b5e8 3b3f dc38 38be 11d8 6abc
000000d0: 5dee cb3d d9ef e8bd fc0b 373c d7d5 7a3e
000000e0: 2f8f c93d 2ec5 c3be aea1 543e ecc1 61be
000000f0: 27a0 a43b e8ad fd3d 791e 00be 9c86 023e
00000100: 295e 3dbe 4764 223d 87bd e23d a42c 063e
00000110: bfc9 033e 06fd a3bb a642 093d 8480 8fbd
00000120: e19a ec3d 7a52 a5bd 0e90 083e ae96 8fbd
00000130: 780e 43be dea5 89be 321d df3d 3c07 843d
00000140: 7857 103e 1f6a 523e ae9c 8cbc 754e bebd
00000150: c67a 8ebe e4cd f33e 53be 6bbe 2960 1d3e
00000160: fb90 163e 8f7f 5b3c 10cd 393d 36ee c7bd
00000170: 6607 cbbd 7650 0fbe ffc3 bebe 16a6 78bd
00000180: 26c6 143d 6e63 b2bd 0472 51bd e180 e8bc
00000190: 2bb5 5e3d a7c2 7abc b944 01be 00b0 afbe
000001a0: 4b60 bcbd 8a36 b8bd 065d e6bd 136c 2c3d
000001b0: c404 773e 7821 3bbe 5947 6dbd 80d2 173b
000001c0: fc88 fe3e 19e6 4dbe 42ac 803d 6093 a6be
000001d0: 61a7 cc3e 4cbc 80bd d693 3a3e cd77 14bd
000001e0: 3c4c cdbd 92aa 113e f60b 0dbc a57e 2ebe
000001f0: 808e 8c3e ea6a b2bd 151b fab9 1e53 a23c
00000200: c993 a13d a8dd bebd 7c55 6b3e 5557 433d
00000210: 9323 163e 9c41 663e 7d79 fdbd e80b e53d
00000220: 9766 24bd 69df 073d b00b 0abe bb75 183f
00000230: 66cd 37be 131b df3d 7a14 7a3d c8a2 13be
00000240: b456 1e3e bb25 b43d 1250 1e3e 3502 a4bd
00000250: 9538 8dbf ab9d febd 7f55 60bd 174d 3b3e
00000260: a84d 28bc 7331 4bbe b4d4 82bd 4b87 783d
00000270: ec1a 60bd 5c2e 31bc d9a9 753d db96 86bd
00000280: 4cb6 6c3b 41e2 56bd de0c 113e 1889 d8bd
00000290: 7b1a c23d a8fc e4bd ccfb 92bc b1f7 aebc
000002a0: f2c6 9abc 8e5e c73d 124d 03be c6c2 853c
000002b0: 6037 dcbb de6d ef3d e931 68bd 0e56 3e3f
000002c0: 5482 723d 3a9d a43e 521d 53bd d625 323d
000002d0: ee48 f33d 9432 26be 1d0b 303d e56f 293c
000002e0: 051c 123e 4090 b83d d3d6 7e3d 4b99 21be
000002f0: 5d35 dfbd 7057 bfbc 1fe0 08be 8244 34be
00000300: 7d72 9b3d 3c66 33bf f6bf 7abe c448 50be
00000310: 400c 5fbd b056 dfbd 542a 56be 0e20 cebe
00000320: aa3d 83be f810 cabe eba7 0dbf bd1c b8be
00000330: ca8e 72be 90bb 69be 8671 7fbe 7397 13bd
00000340: 6c2b 213e d862 a1bd b24c c23c fe34 1abf
00000350: b0f0 223c f07b cd3d 8e98 393d 7ec8 69be
00000360: 1026 3d3d 635a 08be 6022 bfbd f51c 703d
00000370: 180c 9fbc 4e29 933d d4f9 943e dd55 1b3e
00000380: 10ce 28be be6b 22bd 29dc d93d 1131 12be
00000390: 6aed 96be 5db2 b13e 2ef8 a6bd ae6b 9d3d
000003a0: 2adb 4f3e 6dce 51bc 1482 253e 9492 65bc
000003b0: f505 f43d 4536 533e b2d3 b6be ae98 863e
000003c0: 977f 713e cce4 8bbe e53b d7bd 0297 a3be
000003d0: 1256 c5be 31d7 88bd c074 ecbe 647c 3cbf
000003e0: 85bf 2dbe 3634 52bd ce3c a2be a8c9 57be
000003f0: 8890 aebd da00 3e3d 5c10 ae3a 99c4 193e

block_1.c2_r.conv_infer.weight f4 [37, 37, 3, 3]
-0.013136376 0.024100052 0.15043859 0.07803025 -0.28576496 0.10510337 0.17058507 -0.33815297
0.12479008 0.07651227 0.04669971 0.018276826 -0.09829178 -0.046634875 -0.07676758 0.066658534
0.11815726 0.032692462 -0.0011155884 -0.00492756 0.0017118399 0.0017746228 0.0043811416 0.0061397245
0.010910518 0.0010840634 0.008997744 -0.010557868 -0.1326519 -0.055835586 -0.1000903 -0.08321458
-0.25363213 0.061253686 0.017196 0.0646078 0.00079815136 0.0013586618 0.0007834646 -0.0019710844
-0.0022966606 0.0006483237 0.0005118352 0.0056985104 0.0046918085 0.039003063 -0.062004793 -0.029265946
0.06204518 -0.34374768 -0.28623202 0.26684043 -0.3317623 0.013192775 0.00823481 0.0020964153
0.01136497 0.009480357 0.01787339 0.013905191 -0.0017350558 0.0014286148 -0.011289826 0.01312208
0.05984246 0.009818192 -0.06078177 -0.13398258 0.037296664 0.14167921 -0.009608071 -0.03939832
-0.11745804 0.048862495 -0.068744116 -0.19715722 -0.048407223 -0.007304561 -0.28367564 -0.59033847
0.15375856 -0.028661704 0.031600222 0.0147216255 0.06009968 0.042599656 0.035433944 -0.12840536
-0.18817022 -0.10051691 -0.0558819 0.009828743 -0.040867426 -0.045503568 -0.089438036 -0.08106319
0.039483268 0.110163756 0.06964973 0.020619784 0.022211635 0.032839373 0.014496364 -0.04966223
0.0036403688 0.0027254403 0.021652408 -0.005249857 0.07433154 -0.019724097 0.0454312 0.017801264
0.1020777 -0.0039495714 0.08498825 1.4249811 -0.04168521 -0.0134583665 -0.0031047193 -0.05442182
-0.01034465 -0.1598397 0.15476425 0.094233714 0.1021621 0.07444558 0.047530673 0.0047654337
0.064066075 0.0146546215 0.09000377 0.022352835 0.082366414 0.101483524 0.21537052 -0.01371828
-0.022715824 -0.015448222 -0.049899578 0.0036203917 -0.004710521 -0.020374808 0.05643812 0.040377464
0.20665391 -0.0874947 -0.010753623 0.5971749 0.97340924 0.36647806 0.180255 0.049537513
0.10335618 -0.0011580714 0.03203972 0.04214545 0.052963875 0.05896042 -0.085989326 0.021710072
-0.090793714 -0.08700883 -0.0047328095 0.045146592 -0.0080964435 -0.054775726 0.07744719 -0.006382184
0.0007544889 -0.29826385 -0.044337116 -0.0071039894 0.30554435 0.050235044 -0.071030356 0.05653428
0.046265315 -0.6715671 1.5433888 -0.40364793 -0.042472273 -0.074910104 -0.10376493 -0.06317373
0.1610777 -0.04280901 -0.028063567 0.030049907 0.0218105 0.057666864 0.24020812 0.097272195
0.14840282 0.5406704 0.1447826 0.3721733 1.2804208 0.40054983 0.022937765 0.06316547
-0.03232592 0.14732231 0.5086801 0.5522853 0.081923984 0.58636796 0.08542773 -0.15287687
-0.0034425533 -0.1799378 0.12935737 -0.10231426 -0.04205113 0.14773735 0.20589854 0.031771574
-0.000561999 5.549437e-05 0.0029072792 0.0050586546 -0.006240204 -0.0071269404 -0.0020693596 0.008804718
0.0123317875 -0.026778264 0.09013443 -0.03208998 8.566771e-06 0.25734687 0.038973536 0.06730623
0.14897239 -0.0140622035 -0.08439474 0.0836143 -0.008106724 0.08994545 -0.2724587 0.28031683
-0.019949889 -0.018379044 -0.0800641 -0.009499379 0.022754345 -0.015445955 -0.014809646 -0.036731016
0.011385158 -0.0069750277 0.072493866 -0.008633571 0.053789333 -0.085404195 -0.040482465 0.019999929
00000000: f439 57bc 796d c53c 930c 1a3e 53ce 9f3d
00000010: c94f 92be 7040 d73d daad 2e3e 6322 adbe
00000020: f191 ff3d 77b2 9c3d 3248 3f3d 48b9 953c
00000030: 334d c9bd 3604 3fbd 5238 9dbd 4584 883d
00000040: 6ffc f13d 88e8 053d ef38 92ba 5f77 a1bb
00000050: d15f e03a 769a e83a ae8f 8f3b be2f c93b
00000060: 07c2 323c 2217 8e3a 466b 133c e8fa 2cbc
00000070: e6d5 07be dbb3 64bd 25fc ccbd 686c aabd
00000080: 12dc 81be 25e5 7a3d a0de 8c3c 1851 843d
00000090: 083b 513a 2015 b23a 6b61 4d3a 4f2d 01bb
000000a0: 9283 16bb 44f4 293a ae2c 063a 92ba ba3b
000000b0: bebd 993b adc1 1f3d bdf8 7dbd 23bf efbc
000000c0: 1623 7e3d b2ff afbe 018d 92be 4f9f 883e
000000d0: c0dc a9be 8226 583c 4ceb 063c 0364 093b
000000e0: 2434 3a3c 8053 1b3c 376b 923c 99d2 633c
000000f0: d06a e3ba 5c40 bb3a f6f8 38bc fefd 563c
00000100: 5e1d 753d 7bdc 203c 4ef6 78bd bb32 09be
00000110: 63c4 183d 5b14 113e 2c6b 1dbc 2260 21bd
00000120: d78d f0bd 0a24 483d b7c9 8cbd 95e3 49be
00000130: a746 46bd 195b efbb ef3d 91be 6c20 17bf
00000140: e272 1d3e f3cb eabc 3c6f 013d f932 713c
00000150: 152b 763d fa7c 2e3d 2f23 113d b27c 03be
00000160: b2af 40be cfdb cdbd 6be4 64bd bc08 213c
00000170: 9a64 27bd f361 3abd 4a2b b7bd 7504 a6bd
00000180: 35b9 213d 899d e13d 85a4 8e3d d2ea a83c
00000190: 2df5 b53c 9482 063d 2882 6d3c 9f6a 4bbd
000001a0: 4193 6e3b 4d9d 323b 6460 b13c fe06 acbb
000001b0: 223b 983d 6e94 a1bc 1116 3a3d f5d3 913c
000001c0: 1d0e d13d 686b 81bb 520e ae3d c865 b63f
000001d0: 1cbe 2abd 7b80 5cbc 8c78 4bbb 6ae9 5ebd
000001e0: 9b7c 29bc 05ad 23be 857a 1e3e 9bfd c03d
000001f0: 5d3a d13d ed76 983d 86af 423d 5b27 9c3b
00000200: 1335 833d f019 703c e653 b83d 4b1d b73c
00000210: b9af a83d 98d6 cf3d 178a 5c3e a3c2 60bc
00000220: 8916 babc 8a1a 7dbc 8063 4cbd 1844 6d3b
00000230: b75a 9abb 12e9 a6bc a82b 673d d762 253d
00000240: 159d 533e 6c30 b3bd f72f 30bc 74e0 183f
00000250: 5931 793f 03a3 bb3e c494 383e d9e7 4a3d
00000260: 68ac d33d 6eca 97ba 153c 033d b5a0 2c3d
00000270: a6f0 583d 7b80 713d 2c1b b0bd 52d9 b13c
00000280: 0ef2 b9bd af31 b2bd af15 9bbb a2eb 383d
00000290: f2a6 04bc 835c 60bd a29c 9e3d a421 d1bb
000002a0: e5c8 453a 0ab6 98be d69a 35bd 95c8 e8bb
000002b0: 4f70 9c3e 43c3 4d3d 5d78 91bd 7d90 673d
000002c0: b380 3d3d d2eb 2bbf c48d c53f f1aa cebe
000002d0: 68f7 2dbd 786a 99bd b582 d4bd 3b61 81bd
000002e0: 8df1 243e 8058 2fbd 91e5 e5bc 392b f63c
000002f0: efab b23c 1734 6c3d 1ef9 753e a536 c73d
00000300: e9f6 173e 6069 0a3f e441 143e 808d be3e
00000310: d4e4 a33f de14 cd3e fbe7 bb3c e65c 813d
00000320: 2f68 04bd a9db 163e dc38 023f 9262 0d3f
00000330: c3c7 a73d 361c 163f bcf4 ae3d c18b 1cbe
00000340: 769c 61bb 9d41 38be 4276 043e 248a d1bd
00000350: ce3d 2cbd 7648 173e 11d7 523e e922 023d
00000360: 1d53 13ba a0c2 6838 0d88 3e3b 12c3 a53b
00000370: a07a ccbb 1c89 e9bb 189e 07bb aa41 103c
00000380: 440b 4a3c 175e dbbc 6698 b83d c870 03bd
00000390: 00ba 0f37 f8c2 833e b7a2 1f3d d9d7 893d
000003a0: 388c 183e 2865 66bc 26d7 acbd f93d ab3d
000003b0: 11d2 04bc 5235 b83d b57f 8bbe b085 8f3e
000003c0: f36d a3bc a68f 96bc a6f8 a3bd 49a3 1bbc
000003d0: 5267 ba3c 0811 7dbc 28a4 72bc 4373 16bd
000003e0: d088 3a3c c68e e4bb aa77 943d d273 0dbc
000003f0: 3452 5c3d 65e8 aebd f1d0 25bd e4d6 a33c

block_1.c3_r.conv_infer.weight f4 [37, 37, 3, 3]
0.55817604 4.4850535 0.17222993 -0.21362495 -0.086419344 0.23082642 -0.028988566 0.8173362
-0.21474713 -0.036204483 -0.065849304 -0.032463256 0.06787193 -0.16749562 -0.14182131 0.015676808
-0.07714986 -0.100519694 0.011323988 0.031043582 -0.007182974 -0.13079414 -0.049210437 -0.038333297
-0.009155094 0.0023856172 -0.018622097 -0.12917711 -0.102941126 -0.09323951 -0.12371575 -0.0109111965
0.018652296 -0.14944915 -0.18388689 -0.13371707 0.07340251 -0.05104503 0.1017663 -0.13737303
-0.85691893 0.057561345 0.11491641 -0.09162649 0.13363661 -0.03526174 -0.015455306 -0.05053802
-0.04831776 -1.1266539 -0.022894546 -0.004446114 -0.07023279 -0.044425137 0.028407786 -0.10930236
0.024255505 0.06406717 0.21358356 0.07021265 0.0047285394 -0.035630275 0.009392041 -0.014865766
0.12029287 0.04084634 -0.011259824 -0.044243414 -0.060542256 -0.0082524605 -0.15265888 -0.022077624
-0.026267782 0.02561457 0.00014559671 0.008495011 0.20181614 0.070635505 -0.022446698 0.015867762
-0.0062909517 -0.033548743 0.142112 0.06158916 0.0117312595 -0.2441585 0.2546742 0.12900802
0.38229704 -0.161472 0.024209501 0.013720013 -0.0042896615 0.08427179 0.033094436 0.0078009404
0.029660454 -0.00052077696 0.0057363207 -0.26152205 0.10762611 -0.20551503 -0.12253931 2.2480338
-0.004226595 -0.2742493 -0.032117456 -0.08140674 0.11524501 0.22662109 -0.05835451 0.33925298
-0.81796706 0.29056168 0.008673438 0.052499622 0.19281358 0.05563369 -0.049898133 0.02256117
-0.06596199 -0.03716813 0.13382965 0.03882768 -0.16939262 -0.048523083 0.012039939 0.002499666
0.028869294 -0.03386467 -0.8570813 -0.005629383 0.011477355 0.0169764 0.028520646 0.11227624
0.017464403 0.10379545 0.0015536323 -0.68852067 -0.12539446 0.022061953 -0.055692546 0.12258081
0.024857251 -0.13150659 0.00025848037 -0.029709654 -0.56063575 -0.074982114 -0.13548762 -0.22933522
-0.1697592 -0.08866919 0.19680026 -0.036910884 0.07087386 0.43320346 -0.0367348 -0.042490885
-0.0744292 -0.0029814371 -0.09060835 -0.41852573 -0.13917838 -0.5767554 4.2029877 -0.045808345
-0.0634272 -0.28625754 -0.15952557 -0.026449222 0.005600616 0.03598534 0.11422258 0.17161521
-0.004832615 0.049318604 -0.015958771 0.03765028 0.037841447 0.29569378 0.06272699 0.2011159
2.1790488 0.25780743 0.07846098 0.24549006 0.057668835 -0.115000024 -0.03869219 0.028178379
-0.016538205 -0.03277135 -0.20133378 0.0018262039 0.43104205 -0.20188065 0.071422875 0.1882827
0.0011577669 0.119776286 0.06500557 0.14989205 -0.06928725 -0.017119313 0.033099726 -0.33974567
-1.7387128 -0.21601066 0.48980543 -1.2797807 -1.3041869 0.19169922 -0.67908037 0.39870733
-0.047218177 0.03253645 -0.06912972 -0.0109265745 -0.045601703 -0.062525734 -0.047023922 -0.03373082
-0.020696431 0.02873011 -0.040244997 0.029543906 -0.00911072 0.0949783 -0.11909386 0.09391501
0.020180017 -0.0062263873 0.02523856 0.13407984 0.008007707 -0.07974331 0.17303938 0.16714324
-0.03834762 0.0877541 0.062140122 -0.054177724 0.085059166 -0.03557042 0.1305793 0.35415256
0.074671485 -0.041200913 0.06702085 -0.036682136 0.0023450651 0.028866332 0.017798765 0.0044768527
00000000: a0e4 0e3f 8f85 8f40 0b5d 303e 80c0 5abe
00000010: a0fc b0bd c35d 6c3e 6e79 edbc f23c 513f
00000020: ace6 5bbe 274b 14bd 00dc 86bd 31f8 04bd
00000030: 7000 8b3d f983 2bbe 9b39 11be a66c 803c
00000040: bf00 9ebd 45dd cdbd 4088 393c 1c4f fe3c
00000050: 275f ebbb e6ee 05be e290 49bd 6003 1dbd
00000060: 3fff 15bc 0458 1c3b 5e8d 98bc 0147 04be
00000070: ccd2 d2bd 5bf4 bebd af5e fdbd e0c4 32bc
00000080: b3cc 983c 3309 19be d84c 3cbe 21ed 08be
00000090: 0e54 963d 9814 51bd da6a d03d 84ab 0cbe
000000a0: 0a5f 5bbf 72c5 6b3d 4b59 eb3d aba6 bbbd
000000b0: 09d8 083e 9d6e 10bd 4038 7dbc f400 4fbd
000000c0: d8e8 45bd 3236 90bf 588d bbbc b5b0 91bb
000000d0: 36d6 8fbd 22f7 35bd 72b7 e83c ead9 dfbd
000000e0: 7bb3 c63c a635 833d a6b5 5a3e a6cb 8f3d
000000f0: ddf1 9a3b 0df1 11bd 13e1 193c 8b8f 73bc
00000100: 1c5c f63d 7e4e 273d 207b 38bc 9538 35bd
00000110: 28fb 77bd 5435 07bc 9c52 1cbe 22dc b4bc
00000120: 882f d7bc a6d5 d13c 52ab 1839 a92e 0b3c
00000130: e4a8 4e3e 59a9 903d 23e2 b7bc 1cfd 813c
00000140: 5424 cebb 686a 09bd cf85 113e ea44 7c3d
00000150: 7834 403c b004 7abe a864 823e ae1a 043e
00000160: 70bc c33e ea58 25be 0153 c63c e8c9 603c
00000170: 4a90 8cbb b096 ac3d 088e 073d 089f ff3b
00000180: 7bfa f23c c084 08ba bff7 bb3b 38e6 85be
00000190: 146b dc3d 8872 52be e4f5 fabd c9df 0f40
000001a0: 407f 8abb 676a 8cbe 988d 03bd 94b8 a6bd
000001b0: 9305 ec3d 5c0f 683e 2405 6fbd 91b2 ad3e
000001c0: 4a66 51bf 80c4 943e 091b 0e3c d809 573d
000001d0: ec70 453e 27e0 633d fc61 4cbd 34d2 b83c
000001e0: 1417 87bd 9c3d 18bd a40a 093e c609 1f3d
000001f0: 4275 2dbe 24c0 46bd 2a43 453c 70d1 233b
00000200: 4c7f ec3c aeb5 0abd ae69 5bbf b076 b8bb
00000210: 840b 3c3c 1712 8b3c 21a4 e93c 16f1 e53d
00000220: 8211 8f3c b592 d43d 40a3 cb3a e442 30bf
00000230: 6867 00be 45bb b43c de1d 64bd a60b fb3d
00000240: 6fa1 cb3c aaa9 06be a684 8739 a961 f3bc
00000250: d385 0fbf 3990 99bd 44bd 0abe dad6 6abe
00000260: 5bd5 2dbe 3198 b5bd 0286 493e de2f 17bd
00000270: 5026 913d d8cc dd3e 3b77 16bd ec0a 2ebd
00000280: 566e 98bd 3764 43bb df90 b9bd 0149 d6be
00000290: c784 0ebe 3ea6 13bf e07e 8640 88a1 3bbd
000002a0: 1fe6 81bd 5990 92be ac5a 23be 0aac d8bc
000002b0: 5f85 b73b 5d65 133d 87ed e93d e6bb 2f3e
000002c0: ea5a 9ebb 4e02 4a3d f8bb 82bc 2e37 1a3d
000002d0: a2ff 1a3d 2d65 973e 0277 803d 54f1 4d3e
000002e0: 8975 0b40 56ff 833e 26b0 a03d bf61 7b3e
000002f0: 2836 6c3d 2285 ebbd b47b 1ebd 58d6 e63c
00000300: 217b 87bc 403b 06bd 712a 4ebe 3c5d ef3a
00000310: 8bb1 dc3e cdb9 4ebe 2846 923d 2ecd 403e
00000320: 36c0 973a 454d f53d a421 853d 4d7d 193e
00000330: 79e6 8dbd cd3d 8cbc 9493 073d 25f3 adbe
00000340: 248e debf e631 5dbe c7c7 fa3e dbcf a3bf
00000350: 99ef a6bf cd4c 443e 36d8 2dbf 5e23 cc3e
00000360: d967 41bd f144 053d e293 8dbd 6005 33bc
00000370: dac8 3abd 7e0d 80bd 289c 40bd 5429 0abd
00000380: 908b a9bc 685b eb3c f0d7 24bd 1006 f23c
00000390: 2145 15bc fc83 c23d 7be7 f3bd 8356 c03d
000003a0: 9050 a53c b906 ccbb 19c1 ce3c 3a4c 093e
000003b0: c232 033c 7650 a3bd 3c31 313e 9927 2b3e
000003c0: 6512 1dbd 6cb8 b33d a486 7e3d 76e9 5dbd
000003d0: 8033 ae3d 4ab2 11bd 94b6 053e 7c53 b53e
000003e0: 5ded 983d 4ac2 28bd 3a42 893d 0240 16bd
000003f0: aaaf 193b 1679 ec3c b7ce 913c 90b2 923b

block_1.esa.conv1.weight f4 [16, 37, 1, 1]
0.21961674 -0.07751743 -0.048240934 0.16006002 -0.16182141 -0.11814 0.06528327 0.03759746
0.020451114 0.09639737 0.08016512 -0.10455502 -0.22823918 -0.08754581 0.016756048 0.08697653
0.011200163 -0.19352481 -0.094822146 0.15936136 0.02918386 0.005330481 -0.045868818 0.023365887
0.042421676 -0.2585455 0.013066501 -0.005364876 -0.08588126 0.052071586 -0.13122824 -0.11704472
0.13886753 0.035082344 0.06420131 0.23231551 0.04629764 0.16062655 0.0664745 0.17226553
-0.0015463788 0.009560678 0.043388944 -0.12905067 0.01815624 -0.004862108 -0.030939162 0.1218848
-0.03180794 -0.23847516 0.16430354 0.14145392 0.02884344 -0.04582923 -0.08869005 -0.051362894
0.3299568 0.11276689 -0.019461056 -0.21233538 -0.046543 0.14830956 -0.07120662 -0.13535772
0.13163209 0.081780285 -0.053394396 -0.0012532044 0.06255604 0.09219311 -0.016929517 -0.14648274
0.07771204 -0.20153908 0.2266659 -0.0119266845 0.014835582 -0.01197322 -0.093693644 -0.023013186
0.10298929 0.010289807 0.063736625 -0.12878545 -0.06180566 0.050853208 0.07407009 0.031630747
-0.06554786 -0.10425666 0.15200002 -0.15897155 -0.07823501 0.003964646 -0.06864628 0.04182402
-0.08138565 -0.09395745 -0.07902172 0.11483408 -0.06276337 -0.19379742 0.020756476 -0.17037313
-0.044209175 0.030352296 -0.1287182 0.0004522318 -0.10935627 0.14840032 -0.008761578 -0.509337
0.029044889 -0.11467497 -0.097584724 -0.07354703 -0.035533454 0.058744684 -0.034671742 0.14325362
-0.14269216 -0.21500795 -0.17709999 -0.091019556 -0.20042521 0.16785973 -0.04423652 -0.082870714
-0.058882415 0.01028214 -0.087145984 0.034428198 0.0079029165 -0.14253858 0.05841892 -0.10971605
0.09326829 0.11787061 -0.20034465 -0.05369694 -0.029967602 0.051128093 -0.5179439 0.097948976
0.07009528 0.09807977 -0.10558839 -0.24217479 0.110486075 0.12516208 -0.08805344 0.02685378
0.4105562 -0.006811263 0.09272899 0.0026214528 -0.032407794 0.20773053 -0.23160255 0.11591063
-0.18086049 -0.0996891 0.21518248 -0.090026595 -0.28272247 0.004455389 0.050450113 -0.016654031
-0.10399927 0.08277156 -0.038607117 -0.07023358 0.014473518 -0.13560784 0.0727004 -0.14368093
0.06682161 0.10868584 -0.10674717 -0.25881064 -0.015323715 -0.07149151 0.009155838 -0.094703324
-0.20563538 -0.6876231 -0.000981659 -0.17083058 -0.13567053 -0.017149094 -0.0047873105 0.037643354
-0.0629846 -0.09181824 -0.16631271 -0.1293236 -0.00018316213 0.023839394 -0.27179146 0.12976426
0.022788525 -0.04510268 -0.06750999 0.058506213 0.07434056 0.017267015 -0.0026401174 -0.63949007
-0.06404748 0.25651994 0.01222464 0.031010106 0.1250423 0.035311103 -0.058127545 0.0070146266
0.24567965 0.052821238 -0.07807115 -0.025487257 0.023176625 -0.025606835 0.5313837 0.0041790493
0.105832614 0.06750301 -0.06271788 -0.012480029 -0.084045954 0.052364435 0.008123945 0.26323628
0.5032996 -0.017924616 -0.051612303 0.04711341 0.17494677 0.0707444 -0.2042242 -0.13113408
0.063727185 0.045417786 0.13940926 -0.08687764 -0.004810591 -0.06371774 0.07001048 0.06383669
-0.047135033 -0.07948663 0.0021796175 -0.097642116 0.21413332 0.3029 -0.035090588 -0.03550468
00000000: 36e3 603e 75c1 9ebd 4998 45bd c6e6 233e
00000010: 83b4 25be 62f3 f1bd 3cb3 853d cbff 193d
00000020: 1889 a73c fc6b c53d 9c2d a43d f120 d6bd
00000030: 88b7 69be 384b b3bd fb43 893c c020 b23d
00000040: e380 373c 5e2b 46be 1d32 c2bd a02f 233e
00000050: fe12 ef3c 51ab ae3b f1e0 3bbd d169 bf3c
00000060: 5ac2 2d3d 1360 84be e114 563c d7cb afbb
00000070: 84e2 afbd 0449 553d b260 06be 24b5 efbd
00000080: 4a33 0e3e 81b2 0f3d fa7b 833d 1ee4 6d3e
00000090: 98a2 3d3d 497b 243e c823 883d 6066 303e
000000a0: ddaf caba 64a4 1c3c 9bb8 313d dc25 04be
000000b0: 65bc 943c 5152 9fbb 2074 fdbc bd9e f93d
000000c0: 0b49 02bd d532 74be 303f 283e 4cd9 103e
000000d0: 1449 ec3c 6eb7 3bbd 21a3 b5bd e661 52bd
000000e0: 19f0 a83e 54f2 e63d cb6c 9fbc 726e 59be
000000f0: dfa3 3ebd 76de 173e c7d4 91bd 379b 0abe
00000100: 90ca 063e 6c7c a73d 15b4 5abd 9042 a4ba
00000110: 621d 803d becf bc3d c5af 8abc 92ff 15be
00000120: 7d27 9f3d 4360 4ebe 1b1b 683e 2468 43bc
00000130: f110 733c 532b 44bc 74e2 bfbd 2686 bcbc
00000140: 0dec d23d 9496 283c 5988 823d 55e0 03be
00000150: ef27 7dbd 744b 503d 0fb2 973d 3e8f 013d
00000160: f53d 86bd 8484 d5bd e5a5 1b3e 70c9 22be
00000170: ad39 a0bd dce9 813b 6c96 8cbd aa4f 2b3d
00000180: 85ad a6bd c36c c0bd 24d6 a1bd 212e eb3d
00000190: 158a 80bd d572 46be 7c09 aa3c 4b76 2ebe
000001a0: ae14 35bd 61a5 f83c b4ce 03be 8619 ed39
000001b0: 2ef6 dfbd 41f6 173e b98c 0fbc e963 02bf
000001c0: 8cef ed3c b6da eabd 80da c7bd d39f 96bd
000001d0: 878b 11bd 449e 703d f503 0ebd 14b1 123e
000001e0: e51d 12be 0b2b 5cbe b359 35be 7668 babd
000001f0: 443c 4dbe 6ce3 2b3e 5a31 35bd 1fb8 a9bd
00000200: b02e 71bd 6c76 283c 9879 b2bd 9504 0d3d
00000210: 3c7b 013c a2f5 11be ad48 6f3d cfb2 e0bd
00000220: 7203 bf3d 2566 f13d 2627 4dbe 53f1 5bbd
00000230: 9e7e f5bc b16b 513d f997 04bf 7999 c83d
00000240: 1d8e 8f3d 0cde c83d ba3e d8bd abfc 77be
00000250: 8646 e23d 7d2a 003e 5d55 b4bd 75fc db3c
00000260: 6c34 d23e 0431 dfbb b2e8 bd3d aecc 2b3b
00000270: 09be 04bd 50b7 543e 3829 6dbe 8d62 ed3d
00000280: 7e33 39be cd29 ccbd cc58 5c3e dd5f b8bd
00000290: 00c1 90be 83fe 913b c7a4 4e3d 096e 88bc
000002a0: 92fd d4bd 2384 a93d 7f22 1ebd a0d6 8fbd
000002b0: 5622 6d3c c8dc 0abe f3e3 943d 1821 13be
000002c0: c5d9 883d af96 de3d 439e dabd d482 84be
000002d0: 5210 7bbc 246a 92bd 5e02 163c d1f3 c1bd
000002e0: 1592 52be 1108 30bf 03ab 80ba 36ee 2ebe
000002f0: 37ed 0abe 427c 8cbc dfde 9cbb eb2f 1a3d
00000300: 12fe 80bd 340b bcbd e14d 2abe 686d 04be
00000310: 360f 40b9 d54a c33c 4028 8bbe ece0 043e
00000320: 00af ba3c 96bd 38bd ad42 8abd 36a4 6f3d
00000330: dd3f 983d 8e73 8d3c d205 2dbb 9fb5 23bf
00000340: 532b 83bd 9556 833e db49 483c e808 fe3c
00000350: 170b 003e 60a2 103d 2617 6ebd f4da e53b
00000360: 7293 7b3e 155b 583d c4e3 9fbd a7ca d0bc
00000370: e8dc bd3c 6dc5 d1bc c308 083f 68f0 883b
00000380: c5be d83d 053f 8a3d 3b72 80bd 0979 4cbc
00000390: 4920 acbd 177c 563d 4c1a 053c e8c6 863e
000003a0: 3ed8 003f a5d6 92bc 6c67 53bd fef9 403d
000003b0: 3f25 333e 71e2 903d 2620 51be 0348 06be
000003c0: 6683 823d 0008 3a3d 4dc1 0e3e e7ec b1bd
000003d0: 2aa2 9dbb 727e 82bd a861 8f3d cfbc 823d
000003e0: aa10 41bd e3c9 a2bd ead7 0e3b 97f8 c7bd
000003f0: c445 5b3e b515 9b3e 26bb 0fbd 5b6d 11bd

block_1.esa.conv1.bias f4 [16]
-0.13335778 0.16403893 -0.25315747 -0.053363144 -0.064503714 0.24440067 -0.07969047 -0.15937005
-0.29457402 0.23943605 0.19353302 -0.4762459 -0.07008343 -0.10917363 0.4989949 0.19754574
00000000: f18e 08be d2f9 273e db9d 81be 5093 5abd
00000010: 861a 84bd 2b44 7a3e c234 a3bd e731 23be
00000020: 68d2 96be b92e 753e 852d 463e 81d6 f3be
00000030: e787 8fbd 6d96 dfbd 427c ff3e 6e49 4a3e

block_1.esa.conv_f.weight f4 [16, 16, 1, 1]
-0.24986051 -0.43527752 -0.10687129 -0.26647037 0.39047942 0.09585515 -0.1508188 0.039683145
-0.08243959 -0.63475287 -0.29277375 -0.0751743 0.38391045 0.49448532 0.61182964 0.24863543
-0.016366096 0.2283931 -0.32433164 0.46513158 0.16494156 -0.46940252 0.001115617 0.7384171
0.1994789 -0.410912 -0.45004293 0.7614941 -0.19188362 -0.008512086 -0.36916858 -0.0022294316
0.13670327 -0.22774883 -0.25101313 0.30347794 0.0018443262 0.1159279 -0.19905993 -0.14609055
0.037842657 -0.46597502 0.070162 0.10826741 -0.16300334 0.38025346 0.4564941 0.1207785
0.30049774 -0.13855785 0.086670786 0.07481402 0.22218658 -0.2566449 -0.38702548 0.49075338
0.10246793 -0.67290354 -0.310543 0.30169418 0.20414051 0.22796945 -0.2286936 -0.2164901
0.044630453 -0.1669827 -0.48912868 0.045320757 -0.14195807 -0.15072174 0.37693706 -0.01940565
0.31783152 -0.24881013 -0.26752338 -0.019672837 0.003020277 0.39382917 -0.07309193 0.11822645
0.2610761 -0.30825418 0.48505622 0.19699675 -0.0753155 0.06560246 0.014857823 -0.25934973
0.026957098 0.092566945 0.37774855 -0.22001688 0.3789809 -0.24192075 0.07317714 0.060476705
0.21385388 0.0035283666 0.49990934 0.5150752 -0.12435406 -0.26679358 -0.31417856 0.038561102
-0.09523637 -0.15725733 -0.1653553 -0.005224402 0.056502428 -0.21309274 -0.4406584 -0.07549644
-0.10678263 0.29708496 -0.15577398 0.22605999 0.1365347 0.18893173 -0.029244334 0.12373812
0.018489523 0.23385897 0.72829866 -0.3525538 -0.30800623 -0.20534095 0.07592185 0.15388419
-0.52972555 0.17617983 -0.38967103 -0.27076092 0.23108606 0.081137486 0.21519943 0.12519534
0.19147444 -0.08328127 0.13717291 -0.026376452 -0.124025635 -0.07990853 0.2011655 0.23317327
0.37985924 0.010890798 0.010404167 -0.3551143 -0.042720966 0.42273158 0.12265543 0.13359553
-0.13590664 -0.19368522 0.08581197 -0.04207646 0.0022077705 0.19688785 0.22274673 0.56609905
-0.16323839 0.23456222 0.35505566 -0.19617364 0.3808703 0.7296363 -0.26877567 -0.66826165
0.2044969 -0.41446286 -0.21282104 -0.09947822 0.6895023 -0.12520131 -0.69401205 0.20561086
0.09610988 0.20653023 -0.17951947 -0.35229316 0.1823784 -0.114886366 0.08818955 -0.16410354
0.028446168 0.03198264 0.24914993 0.05731612 0.034969997 0.028584652 0.78738475 0.22249658
0.23452868 -0.09314585 0.09687627 0.4586112 0.035991233 -0.2862428 -0.24540985 0.10461309
-0.38632756 -0.014150611 -0.1818612 0.18850787 0.34310845 -0.0045052767 -0.006918348 -0.28040624
-0.16804908 0.03181879 -0.3357211 -0.25475883 0.110299334 -0.3781967 0.68124 0.26854798
-0.23592786 -0.060070656 -0.39659807 0.6279733 0.2950733 -0.37035048 -0.58153826 -0.29899362
-0.012259676 0.1709652 0.48939303 -0.46310928 -0.21654162 -0.4647316 0.38818723 0.0087905815
0.4187836 0.34992224 -0.42349282 0.36347562 -0.2926889 0.3931572 0.50791055 -0.09547079
0.34814215 -0.19435832 0.6352647 0.1772595 0.19012411 -0.3699238 -0.17753197 -0.012183979
0.03606768 -0.23456725 -0.1586637 0.32504892 0.0048588156 -0.21729006 -0.62706417 0.03621992
00000000: 6fdb 7fbe b2dc debe 56df dabd ce6e 88be
00000010: ebec c73e b44f c43d 3e70 1abe cb8a 223d
00000020: 16d6 a8bd 2a7f 22bf 71e6 95be fcf4 99bd
00000030: e98f c43e 2e2d fd3e dea0 1c3f 499a 7e3e
00000040: 3112 86bc e1df 693e cc0e a6be ba25 ee3e
00000050: 71e6 283e 8755 f0be e539 923a e708 3d3f
00000060: 3244 4c3e 0f63 d2be 076c e6be 47f1 423f
00000070: 247d 44be 4776 0bbc aa03 bdbe a81b 12bb
00000080: f1fb 0b3e fd36 69be cb84 80be 7661 9b3e
00000090: 51bd f13a 9b6b ed3d 5ed6 4bbe c398 15be
000000a0: e700 1b3d 4794 eebe 18b1 8f3d 4ebb dd3d
000000b0: 59ea 26be 95b0 c23e 98b9 e93e b85a f73d
000000c0: d7da 993e 1ce2 0dbe 7480 b13d 1838 993d
000000d0: e184 633e f666 83be 3428 c6be 0744 fb3e
000000e0: b5da d13d 6843 2cbf 7eff 9ebe a977 9a3e
000000f0: 360a 513e d370 693e a82e 6abe 95af 5dbe
00000100: 6cce 363d 83fd 2abe 136f fabe 42a2 393d
00000110: 755d 11be cd56 1abe e5fd c03e 99f8 9ebc
00000120: d0ba a23e 15c8 7ebe d3f8 88be ee28 a1bc
00000130: d7ef 453b faa3 c93e 39b1 95bd b620 f23d
00000140: c4ab 853e 7ed3 9dbe 4a59 f83e 84b9 493e
00000150: 033f 9abd 955a 863d 3a6e 733c 7dc9 84be
00000160: 22d5 dc3c bd93 bd3d 4268 c13e 1b4c 61be
00000170: c909 c23e 13ba 77be e5dd 953d 6cb6 773d
00000180: 83fc 5a3e 2b3c 673b 1ef4 ff3e f8db 033f
00000190: 57ad febd 2b99 88be 03dc a0be 3ff2 1d3d
000001a0: 490b c3bd 1108 21be e652 29be 7631 abbb
000001b0: 176f 673d fc34 5abe fa9d e1be e19d 9abd
000001c0: dab0 dabd 851b 983e 3783 1fbe 457c 673e
000001d0: c1cf 0b3e 5277 413e d091 efbc 696a fd3d
000001e0: 5777 973c ba78 6f3e c871 3a3f ef81 b4be
000001f0: feb2 9dbe e644 52be ea7c 9b3d d193 1d3e
00000200: 189c 07bf 7c68 343e f682 c7be 2da1 8abe
00000210: d3a1 6c3e 692b a63d 3d5d 5c3e 3533 003e
00000220: e011 443e 5f8f aabd 0e77 0c3e 6e13 d8bc
00000230: 2701 febd 15a7 a3bd 54fe 4d3e f9c4 6e3e
00000240: e97c c23e 516f 323c 3d76 2a3c 8bd1 b5be
00000250: 2efc 2ebd 4670 d83e c532 fb3d 44cd 083e
00000260: 1c2b 0bbe 6b55 46be 30be af3d 5e58 2cbd
00000270: 3eb0 103b f89c 493e b817 643e deeb 103f
00000280: f727 27be 1431 703e dbc9 b53e bee1 48be
00000290: 6f01 c33e 72c9 3a3f f79c 89be 3213 2bbf
000002a0: a367 513e 7a34 d4be c2ed 59be 3dbb cbbd
000002b0: 3983 303f c634 00be c6aa 31bf a78b 523e
000002c0: 42d5 c43d a97c 533e f4d3 37be c55f b4be
000002d0: 67c1 3a3e 8b49 ebbd b99c b43d c20a 28be
000002e0: f007 e93c 3b00 033d 2921 7f3e 4fc4 6a3d
000002f0: b33c 0f3d 5c2a ea3c 0c92 493f 25d6 633e
00000300: 4928 703e 40c3 bebd 1167 c63d 16cf ea3e
00000310: 8b6b 133d 6b8e 92be b84c 7bbe 633f d63d
00000320: bacc c5be f7d7 67bc d339 3abe 3508 413e
00000330: e9ab af3e 00a1 93bb 4fb3 e2bb 6891 8fbe
00000340: 0f15 2cbe 6b54 023d a3e3 abbe c06f 82be
00000350: 9ee4 e13d ffa2 c1be bf65 2e3f 1f7f 893e
00000360: 1397 71be a60c 76bd e70e cbbe dcc2 203f
00000370: d913 973e 949e bdbe b1df 14bf b115 99be
00000380: cfdc 48bc 8011 2f3e b991 fa3e a91c edbe
00000390: 16bd 5dbe 4df1 edbe 7ac0 c63e 5f06 103c
000003a0: ce6a d63e 0229 b33e 0dd4 d8be 7a19 ba3e
000003b0: 52db 95be e74b c93e 6d06 023f 3186 c3bd
000003c0: b03f b23e de05 47be b5a0 223f 8483 353e
000003d0: e5af 423e a766 bdbe f1ca 35be 509f 47bc
000003e0: b4bb 133d 6632 70be bd78 22be d06c a63e
000003f0: b336 9f3b 4981 5ebe 4787 20bf 575b 143d

block_1.esa.conv_f.bias f4 [16]
-0.47241384 -0.24026954 -0.39989203 0.4783049 0.41971904 -0.5965972 -0.7153203 0.29694557
0.7288356 0.57664585 -0.2163606 -0.5434352 0.698179 -0.12034722 -0.2668568 -0.73940086
00000000: 3ae0 f1be 3809 76be a6be ccbe 61e4 f43e
00000010: 6ae5 d63e 98ba 18bf 3b1f 37bf 4009 983e
00000020: f894 3a3f 109f 133f a28d 5dbe 921e 0bbf
00000030: dcbb 323f 9a78 f6bd 74a1 88be 6049 3dbf

block_1.esa.conv2.weight f4 [16, 16, 3, 3]
-0.016793469 -0.03676576 -0.08163318 0.026304595 0.68274236 0.022941137 -0.010119513 0.07706998
-0.023796989 -0.005821567 -0.14728835 0.047264513 -0.13893126 0.5018703 -0.100767545 0.06388502
-0.1007541 0.031879395 -0.024730526 0.1186497 -0.052221913 0.13411343 0.20477208 0.16650827
-0.05178404 0.109206885 -0.053611003 -0.015154741 0.020560803 -0.0011682314 -0.06174894 0.2737544
0.0777669 -0.026445424 0.034983806 0.004712232 0.08840742 0.061463375 0.01516594 0.08815866
-0.38124835 -0.045638807 0.017044377 0.08577802 0.055753008 -0.017782059 0.030851673 0.010035273
0.01165683 0.26659232 -0.051593203 0.0201499 -0.057553064 -0.0060283896 -0.1101476 -0.009731903
-0.039240047 -0.012775193 -0.06957524 -0.050041247 0.03284063 -0.06206036 -0.019666253 0.045356516
-0.079726405 0.067076616 -0.17623124 -0.1659329 -0.08125116 0.06793802 -0.05307556 0.084660694
0.006264822 0.034293756 0.035864234 -0.042713415 -0.19395533 0.06499043 0.021048062 0.02110343
0.037930068 -0.072605476 -0.03362115 0.0020459553 -0.044349127 0.619599 -0.043516006 -0.0058715204
-0.039778423 -0.033465914 -0.03354556 0.082219765 0.0062767286 0.04120251 -0.36637193 -0.010560911
0.055991895 0.112693675 0.031912193 0.02962294 -0.07686373 -0.016413521 -0.09160781 0.43459967
0.060830943 -0.0038386967 -0.0434426 0.009386991 -0.072746016 -0.06666832 -0.0761252 -0.039546855
0.6596018 -0.110247746 -0.041792978 -0.08574447 -0.044944886 -0.0073263384 0.03277874 -0.03892621
-0.07081337 0.44603792 -0.13022955 0.026519036 -0.12282957 0.0108310245 -0.012655957 0.13381803
0.05098336 0.038402893 -0.25207868 -0.041380305 0.033768475 -0.005804021 0.041284103 -0.06623176
0.014089415 0.014290238 -0.02735819 0.33081317 -0.085629165 0.0155603085 0.02632156 0.018377146
0.20206702 0.058476597 -0.037804157 -0.011243656 0.060015056 0.06798438 0.032683216 -0.012254787
0.046548042 0.059369158 0.0783876 0.014033963 0.15563765 0.2611031 -0.05047568 -0.020748865
-0.0017018762 -0.015391011 0.014203147 0.045354318 -0.11116548 0.05858557 -0.075228326 -0.020511476
-0.020487616 -0.09235243 0.051864266 -0.00410328 0.2840038 -0.06489298 0.20132138 0.22738849
-0.05720917 0.0057869926 0.0027579616 0.037838705 0.057349894 0.059146732 -0.03888798 -0.14869413
-0.1097531 0.0006474106 0.0031476982 -0.034696985 0.0034427252 0.115884654 -0.11411452 0.011913265
0.00033245434 -0.0017356012 0.0035884066 -0.04066857 -0.06645347 -0.0029763237 0.007123356 -0.16915557
0.08379901 -0.04314169 -0.043816887 0.047996644 0.0005181692 0.012550205 0.012015081 -0.08923705
-0.010252806 0.051298227 -0.043055687 0.023154857 -0.051946014 0.031657897 0.05846116 -0.0023286322
0.0074731903 0.07470716 -0.019928323 -0.016378675 0.04501381 -0.046360534 0.02460641 0.020689609
0.04211443 -0.10972327 -0.005000408 -0.013543989 0.013021234 -0.021898452 -0.09752553 -0.086056694
-0.058164757 -0.03642047 -0.08821812 -0.06966388 -0.036274314 -0.007561569 0.019248767 -0.01631405
-0.07508555 0.01303195 0.0476787 -0.091380134 0.14557554 0.04037994 0.06295448 0.1108086
0.1011685 0.054984607 0.115729444 0.0025595895 0.07487485 -0.19430237 0.00032158248 -0.015283768
00000000: 7592 89bc b297 16bd 4c2f a7bd bc7c d73c
00000010: 34c8 2e3f 0def bb3c 50cc 25bc ded6 9d3d
00000020: e7f1 c2bc d8c2 bebb c2d2 16be 6f98 413d
00000030: ff43 0ebe 927a 003f 375f cebd 26d6 823d
00000040: 2a58 cebd f893 023d ac97 cabc 9dfe f23d
00000050: a5e6 55bd 0855 093e c6af 513e 2581 2a3e
00000060: 801b 54bd dca7 df3d 3697 5bbd 974b 78bc
00000070: 216f a83c 571f 99ba 75ec 7cbd 8929 8c3e
00000080: 4144 9f3d 13a4 d8bc 2e4b 0f3d 1169 9a3b
00000090: f30e b53d 05c1 7b3d 907a 783c 878c b43d
000000a0: fc32 c3be c2ef 3abd a6a0 8b3c 63ac af3d
000000b0: 445d 643d aeab 91bc a6bc fc3c fc6a 243c
000000c0: 4afc 3e3c ca7e 883e 6553 53bd 6711 a53c
000000d0: c3bc 6bbd cc89 c5bb 1195 e1bd 8f72 1fbc
000000e0: 2cba 20bd 0b4f 51bc 777d 8ebd 0df8 4cbd
000000f0: e583 063d 0133 7ebd 1f1b a1bc c1c7 393d
00000100: 9947 a3bd 775f 893d f675 34be 50ea 29be
00000110: 0267 a6bd 1723 8b3d c265 59bd 9662 ad3d
00000120: 2349 cd3b 9c77 0c3d 60e6 123d 43f4 2ebd
00000130: 3a9c 46be b419 853d fc6c ac3c 1ae1 ac3c
00000140: 8f5c 1b3d 2eb2 94bd 55b6 09bd 6f15 063b
00000150: 6ea7 35bd 0a9e 1e3f d73d 32bd e265 c0bb
00000160: b3ee 22bd 8e13 09bd 1267 09bd d662 a83d
00000170: 04ad cd3b f7c3 283d 1a95 bbbe ac07 2dbc
00000180: c257 653d f1cb e63d 5cb6 023d cfab f23c
00000190: bb6a 9dbd a675 86bc e09c bbbd d983 de3e
000001a0: de29 793d a592 7bbb def0 31bd e5cb 193c
000001b0: ddfb 94bd 6689 88bd 87e7 9bbd e2fb 21bd
000001c0: aadb 283f 92c9 e1bd 1d2f 2bbd cc9a afbd
000001d0: 2118 38bd c811 f0bb 0043 063d 1771 1fbd
000001e0: 9a06 91bd 155f e43e e55a 05be 733e d93c
000001f0: 128e fbbd 9c74 313c ee5a 4fbc 9807 093e
00000200: edd3 503d 5a4c 1d3d 7510 81be 657e 29bd
00000210: d050 0a3d a82f bebb 8519 293d 84a4 87bd
00000220: 4ad7 663c 9a21 6a3c 481e e0bc 5860 a93e
00000230: 585e afbd aaf0 7e3c 50a0 d73c ab8b 963c
00000240: a8ea 4e3e 2885 6f3d 88d8 1abd 5037 38bc
00000250: 59d2 753d 653b 8b3d d6de 053d 4dc8 48bc
00000260: 29a9 3e3d 132d 733d ae89 a03d b5ee 653c
00000270: 7a5f 1f3e 4eaf 853e 96bf 4ebd 86f9 a9bc
00000280: 7d11 dfba 942a 7cbc 51b4 683c 73c5 393d
00000290: baaa e3bd 6cf7 6f3d 4f11 9abd af07 a8bc
000002a0: a5d5 a7bc 4523 bdbd a06f 543d cf74 86bb
000002b0: f268 913e 9ce6 84bd 3127 4e3e 87d8 683e
000002c0: 2a54 6abd d0a0 bd3b ebbe 343b c2fc 1a3d
000002d0: b9e7 6a3d d843 723d 0149 1fbd 4643 18be
000002e0: 3cc6 e0bd fdb6 293a 9d49 4e3b 6d1e 0ebd
000002f0: 589f 613b ef54 ed3d e0b4 e9bd db2f 433c
00000300: 444d ae39 1d7d e3ba 792b 6b3b 1694 26bd
00000310: c218 88bd 6d0e 43bb 0b6b e93b 1e37 2dbe
00000320: d19e ab3d 57b5 30bd 5679 33bd 2198 443d
00000330: bfd5 073a 609f 4d3c e7da 443c eac1 b6bd
00000340: 63fb 27bc 171e 523d 295b 30bd 41af bd3c
00000350: 58c5 54bd b6ab 013d f874 6f3d f79b 18bb
00000360: aae1 f43b 1100 993d b940 a3bc 922c 86bc
00000370: 6760 383d 8be4 3dbd 6293 c93c 417d a93c
00000380: 2e80 2c3d 98b6 e0bd 76da a3bb 9be7 5dbc
00000390: 0457 553c 6264 b3bc 77bb c7bd 7e3e b0bd
000003a0: 2b3e 6ebd a12d 15bd b4ab b4bd f0ab 8ebd
000003b0: 6094 14bd 0ac7 f7bb 97af 9d3c 0ba5 85bc
000003c0: 74c6 99bd f683 553c be4a 433d 8225 bbbd
000003d0: c111 153e 7065 253d 47ee 803d 9fef e23d
000003e0: 6e31 cf3d 8a37 613d 8f03 ed3d c9be 273b
000003f0: fc57 993d 33f7 46be 129a a839 c568 7abc

block_1.esa.conv2.bias f4 [16]
-0.09912609 0.19541554 0.07227747 -0.03890033 0.0038245406 -0.1331952 0.024583634 -0.09301744
-0.14968503 -0.09690382 -0.033477716 -0.22843096 -0.14119177 -0.17831753 -0.20611791 -0.26532227
00000000: 9f02 cbbd 031b 483e 3606 943d f455 1fbd
00000010: 25a5 7a3b 5364 08be 9e63 c93c ed7f bebd
00000020: 0847 19be 8375 c6bd ee1f 09bd cee9 69be
00000030: 9394 10be df98 36be 9310 53be 52d8 87be
