model_zoo/team01_pfdnlite.pth (torch, 890629 bytes, 42 tensors)

head.weight f4 [48, 3, 3, 3]
0	0x3c2566d6	0.010095319
1	0xb86d61c3	-5.659625e-05
2	0xbc28c4b2	-0.010300802
3	0xbd1ae5df	-0.03781688
4	0xbe3cd61e	-0.18441054
5	0x3cdf41c5	0.027253041
6	0x3ad9330d	0.0016571
7	0xbb0e52f9	-0.0021716936
8	0xbc2a378e	-0.010389222
9	0x3d25de0e	0.04049497
10	0xbc8551f6	-0.016274434
11	0x3c991c3b	0.01869022
12	0xbd3d95ae	-0.046285324
13	0xbd9b3d8b	-0.07580098
14	0xbd785f12	-0.06063754
15	0x3d096f69	0.033553515
16	0xbaf6cef0	-0.0018829983
17	0x3ca7532c	0.020425402
18	0xbd2653e4	-0.040607348
19	0x3c811a66	0.015759658
20	0x3c4f22d9	0.012642586
21	0x3db57003	0.08859255
22	0x3dcf70ab	0.101289116
23	0x3cfac057	0.030609293
24	0xbcda9391	-0.026681693
25	0x3ba09c97	0.0049014795
26	0xbb85fb56	-0.0040887995
27	0x3d168abb	0.036753397
28	0xbe38b960	-0.18039465
29	0x3d2122d0	0.03933984
30	0xbd9f4083	-0.077759765
31	0x3ed8db90	0.42355013
32	0xbde7c926	-0.11317663
33	0x3d8621c2	0.065494075
34	0xbdfd7ddd	-0.12377522
35	0x3d09500e	0.03352361
36	0xbde37d4a	-0.11107881
37	0xbb002037	-0.0019550452
38	0x3b3e5d95	0.0029047478
39	0x3c8dff91	0.017333778
40	0x3e58e7fe	0.21182248
41	0xbe15b810	-0.14620996
42	0x3d4d2b4e	0.050090127
43	0xbe26add5	-0.16277249
44	0xbdc2a34a	-0.09503801
45	0xbbc43dc4	-0.0059888083
46	0x3cef9581	0.029246094
47	0x3dcc36ae	0.09971367
48	0xbdec7622	-0.115459695
49	0x3d5e4614	0.05426605
50	0xbc99b14c	-0.0187613
51	0x3dcbabbf	0.09944867
52	0xbd1b0662	-0.037847884
53	0x3d509d32	0.050931163
54	0x3d52fbc8	0.05150965
55	0x3c9c3d6a	0.019072253
56	0x3d1b072d	0.03784864
57	0xbb9500cc	-0.004547214
58	0xbf0cc1d6	-0.5498327
59	0x3d28b2cf	0.04118615
60	0xbce6b314	-0.028161563
61	0x3e16e867	0.14737092
62	0xbcbe3822	-0.023220126
63	0xbb5f967a	-0.003411679
64	0x3cab3216	0.020897906
65	0xbd0bf4c2	-0.034168966
66	0xbce3590e	-0.027752426
67	0xbddeaeb7	-0.10873168
68	0x3dce92bf	0.10086583
69	0x3d9c6bad	0.07637725
70	0xbd8b7bb2	-0.068107024
71	0x3ccf44ae	0.025301304
72	0xbc520c49	-0.012820312
73	0x3d40623c	0.046968684
74	0x3d89a9b3	0.06721821
75	0x3dc17fa4	0.09448174
76	0x3e506424	0.203507
77	0xbdbee44e	-0.093208894
78	0xbce3a327	-0.027787758
79	0x3abd760a	0.0014454734
80	0xbc4409fd	-0.011965272
81	0x3da7fa89	0.08202083
82	0x3da87663	0.082257055
83	0xbe54550b	-0.20735566
84	0x3d1bb443	0.038013708
85	0xbca1d746	-0.01975597
86	0x3d0e508f	0.034744795
87	0xbdc43f2c	-0.095823616
88	0x3dbfb4b2	0.09360637
89	0xbd95848b	-0.07300671
90	0x3d29f22f	0.04149073
91	0x3dca7825	0.09886197
92	0x3e38c2ed	0.18043108
93	0x3dfea6d7	0.12434166
94	0xbe8188ec	-0.25299776
95	0xbcbea19d	-0.023270423
96	0x3d9f93d0	0.07791865
97	0x3d8f6da3	0.070033334
98	0xbc7e20d9	-0.015510761
99	0xbdf42af4	-0.11922255
100	0x3e109ea5	0.14123018
101	0x3dee6469	0.116402455
102	0xbd855952	-0.06511177
103	0xbcf716ae	-0.030162182
104	0x3c758299	0.01498475
105	0xbd144fb2	-0.036208816
106	0xbe1818da	-0.1485323
107	0xbd800df9	-0.06252665
108	0x3ccbfac1	0.024899842
109	0x3de1b659	0.11021108
110	0xbcfd96af	-0.03095564
111	0x3d5ead07	0.05436423
112	0xbf23eac4	-0.640301
113	0x3df71da6	0.12066202
114	0x3d0ec004	0.03485109
115	0x3d15a7c6	0.036536954
116	0xbc3396bb	-0.01096123
117	0xbcb37315	-0.021905461
118	0xbd6e12aa	-0.05812327
119	0x3cdbc906	0.026829254
120	0x3b3fa91b	0.0029245082
121	0x3df27ccd	0.1184021
122	0xbd37c3ef	-0.04486459
123	0xbcb22cdb	-0.021749904
124	0xbd538f96	-0.051650606
125	0xbace44ce	-0.0015737058
126	0xbb2bf770	-0.0026240014
127	0x3cad697f	0.021168469
128	0xbbccb0f9	-0.0062466827
129	0xbcbbacf6	-0.022909623
130	0x3d2e13bd	0.042499293
131	0xbbb23fff	-0.005439758
132	0x3a35058e	0.000690543
133	0x3cfc998e	0.03083494
134	0x3b3ed4de	0.0029118578
135	0xbc004861	-0.0078297565
136	0xbd504204	-0.050844207
137	0xbd1c5585	-0.038167495
138	0xbd4938c8	-0.049126416
139	0x3eff688f	0.4988446
140	0xbd01e584	-0.031713024
141	0x3ca75707	0.02042724
142	0x3cc0a194	0.023514546
143	0xbd0a93eb	-0.03383247
144	0xbcf45daf	-0.029829828
145	0xbd0c7d5d	-0.034299243
146	0x3d17c217	0.037050333
147	0x3d0176ce	0.03160744
148	0x3e1f174f	0.15536235
149	0xbd23ebfb	-0.04001997
150	0xbc317116	-0.010830184
151	0xbcb1c9f4	-0.021702744
152	0x3c3379a4	0.010954294
153	0x3d32bc2b	0.043636482
154	0x3dbcc847	0.09217887
155	0x3b2d4340	0.002643779
156	0x3cb6fc53	0.022337114
157	0xbf2ee0c8	-0.6831174
158	0x3d9af89e	0.07566951
159	0xbbd304fc	-0.006439803
160	0x3b0907a6	0.00209091
161	0x3cfac32a	0.03061064
162	0xbbb660ef	-0.0055657546
163	0xbcc175f2	-0.023615811
164	0xbbd0cbb4	-0.0063719396
165	0x3dc27237	0.09494441
166	0xbf1a2a53	-0.6022083
167	0x3d29e9fd	0.041482914
168	0xbc9106ec	-0.017703496
169	0x3c98a020	0.018631041
170	0x3d37fe13	0.04492004
171	0x3c135370	0.008992061
172	0x3d40c4ec	0.0470628
173	0x3b005b2b	0.001958559
174	0xbded7450	-0.115944505
175	0x3f14d443	0.58136386
176	0xbd12d9e0	-0.035852313
177	0x3bffa8ee	0.0078021204
178	0x3c4733fc	0.01215839
179	0xbd55328d	-0.052050162
180	0xbafc4439	-0.0019246406
181	0xbce54d30	-0.027990907
182	0x3c1fdf22	0.009757789
183	0x3c9c8a02	0.019108776
184	0x3d2deeec	0.04246418
185	0xb964fd44	-0.00021838123
186	0x3c2330b0	0.0099603385
187	0xbcdd226f	-0.026993958
188	0x3b89c8b7	0.0042048353
189	0x3da7562e	0.08170734
190	0x3cded4b1	0.027201029
191	0x3da91633	0.08256187
192	0xbded23d1	-0.11579097
193	0xbcced5b8	-0.025248393
194	0xbdc2085c	-0.09474251
195	0x3ca8c43a	0.02060138
196	0xbdeb0682	-0.11475851
197	0x3cf41b1b	0.029798081
198	0xbdf570b4	-0.11984387
199	0xbd194210	-0.037416518
200	0xbc8359f0	-0.016034096
201	0x3e153ad7	0.14573227
202	0xbea622aa	-0.32448322
203	0xbc235658	-0.009969316
204	0xbd744e17	-0.059644785
205	0x3df38925	0.118913926
206	0xbdac484e	-0.084122285
207	0x3da1086c	0.078629345
208	0x3c99de35	0.018782714
209	0xbcbd866b	-0.023135385
210	0xbcdb8eb7	-0.02680145
211	0xbdc6d0b7	-0.09707778
212	0x3db3ac50	0.087731004
213	0x3ce0e467	0.02745266
214	0x3c730923	0.014833721
215	0x3c998b95	0.018743316
216	0xbddd79c5	-0.10814241
217	0x3b00e06b	0.0019665014
218	0x3cb126dd	0.021624977
219	0xbcd75961	-0.026287736
220	0x3d7c21a2	0.061555512
221	0x3daa83e7	0.083259396
222	0xbbf5413e	-0.007484584
223	0x3cd7dd0d	0.026350522
224	0xbe00db8a	-0.12583748
225	0x3da82a0c	0.08211145
226	0xbcca9f39	-0.024734126
227	0xbd4c1a90	-0.04983002
228	0x3d44eafd	0.048075665
229	0xbe3884df	-0.18019436
230	0xbd62aa96	-0.055338465
231	0x3cfb6349	0.030686991
232	0x3c129d67	0.00894866
233	0x3e063bfb	0.13108818
234	0x3d52b954	0.051446274
235	0x3bb4b1d9	0.005514365
236	0x3d11626a	0.035494246
237	0xbafdd7e4	-0.0019366709
238	0xbe9ebace	-0.31001896
239	0x3df44e99	0.11929054
240	0x3b850b2a	0.0040601688
241	0x3e24f0b0	0.1610744
242	0xbbda06c1	-0.006653637
243	0xbdec0fa3	-0.1152642
244	0x3e23a8f4	0.15982419
245	0xbda376eb	-0.07981666
246	0x3e0f6c60	0.14006186
247	0xbe5dea49	-0.21671404
248	0x3d723d7b	0.059140664
249	0xbc1cad8b	-0.00956286
250	0x3d9f045c	0.07764503
251	0x3d82e986	0.06392197
252	0x3db87e63	0.09008481
253	0xbdebb9cf	-0.115100496
254	0xbd254a18	-0.040353864
255	0xbd984f9e	-0.07437061

head.bias f4 [48]
0	0xbdfede89	-0.12444789
1	0xbe94b6b4	-0.2904564
2	0x3c004719	0.007829451
3	0x3cff94f7	0.031198962
4	0x3e73ae65	0.23796995
5	0xbb00f49b	-0.0019677046
6	0xbd2ecb62	-0.04267443
7	0x3c757cd6	0.0149833765
8	0x3e742d39	0.23845376
9	0x3e05232a	0.13001695
10	0x3db5ee66	0.088833615
11	0xbc1a6fa2	-0.009426029
12	0x3ba50039	0.005035427
13	0xbdbd2bf8	-0.09236902
14	0x3aaf25c6	0.0013362698
15	0x3e80494b	0.25055918
16	0x3d97ac32	0.074058905
17	0xbe361355	-0.17780812
18	0x3c68401e	0.014175443
19	0x3e78bd38	0.24290931
20	0xbddaa422	-0.10675837
21	0xbe56747e	-0.20942876
22	0x3df8cea8	0.121487916
23	0x3f0fb827	0.5614037
24	0x3ce4e8ae	0.027942982
25	0x3d7aa341	0.061190847
26	0xbd1b1faa	-0.037871994
27	0xbe885b76	-0.2663228
28	0xbdf5b384	-0.119971305
29	0x3d7e96fb	0.062155705
30	0x3e749559	0.23885097
31	0xbcf9b053	-0.030479586
32	0x3cfd12b9	0.030892717
33	0xbe28f929	-0.16501297
34	0x3d90a48a	0.07062633
35	0xbe4288ed	-0.18997546
36	0xbca80193	-0.020508563
37	0xbd14a7b8	-0.03629276
38	0xbe9fc591	-0.3120542
39	0x3b6f8d3e	0.0036552693
40	0xbe0a8cb2	-0.13530234
41	0x3d3ee524	0.046605244
42	0x3e9db82e	0.3080458
43	0x3e69f2ca	0.22846523
44	0xbe56eb03	-0.20988087
45	0xbdd00a2f	-0.10158192
46	0x3e9b6eec	0.30358064
47	0x3e2bff96	0.16796717

block1.attn.body.0.weight f4 [16, 48, 1, 1]
0	0x3e26c609	0.16286482
1	0xbf059c5d	-0.52191716
2	0x3f295ffd	0.6616209
3	0x3f66f25f	0.9021358
4	0x3d2babf4	0.041912034
5	0xbfcd353b	-1.603187
6	0xbf22c41b	-0.63580483
7	0x3dfb49cf	0.12269937
8	0xbf08cf49	-0.5344129
9	0x3f9cd59c	1.2252688
10	0x3eeaed9c	0.45884407
11	0xbbb84ad1	-0.005624153
12	0x3e0e59d4	0.13901454
13	0xbf84e84b	-1.038339
14	0x3e865b6d	0.26241627
15	0xbfa1fe12	-1.2655661
16	0xc0531992	-3.2984357
17	0x3d6cd35c	0.057818756
18	0xbf536477	-0.8257517
19	0xbf50b4b8	-0.81525755
20	0xbfb57e94	-1.4179254
21	0x3fca2178	1.5791464
22	0xbeb871f7	-0.36024448
23	0x3de4ff27	0.11181479
24	0x3d81d2db	0.063390456
25	0xbfe64bde	-1.7991903
26	0xbee1cc29	-0.44101074
27	0x3ed0486d	0.40680256
28	0x3f97a6e0	1.1847801
29	0x402f1277	2.735502
30	0xbd003b83	-0.031306755
31	0xbf8e10a4	-1.1098828
32	0x3f11e6a2	0.5699254
33	0xbe98b663	-0.2982665
34	0x4003d5d1	2.0599253
35	0xbe0863c1	-0.13319303
36	0x3fafcffa	1.3735344
37	0xbfc902f6	-1.5704029
38	0xbfd38760	-1.6525688
39	0xc03f7204	-2.991334
40	0x3f859532	1.0436156
41	0x3baf63e9	0.0053524864
42	0xbeb60ddf	-0.35557458
43	0x3e43a9e4	0.19107777
44	0xbf45712a	-0.771258
45	0x3ca82091	0.020523341
46	0x3eadbff4	0.3393551
47	0xbf56fe6e	-0.8398198
48	0x3e0dd2ae	0.13849899
49	0x3e9e2568	0.30887914
50	0xbf022394	-0.5083554
51	0xbe8b3476	-0.27188462
52	0x3ca8aef8	0.020591244
53	0x3f45ad22	0.77217305
54	0x3de7294a	0.11287172
55	0x3e84b3ed	0.25918522
56	0x3e975c47	0.2956259
57	0xbf140bf2	-0.5783073
58	0xbee5bceb	-0.44870695
59	0xbcd4066a	-0.025881965
60	0xbda66772	-0.081251994
61	0x3e96797b	0.29389557
62	0xbe8e22ad	-0.2776083
63	0x3f457a7e	0.77140033
64	0x3fcdb1c8	1.606988
65	0xbe1949cb	-0.14969556
66	0xbda8a656	-0.08234851
67	0xbe1c401d	-0.15258832
68	0x3facf9cf	1.3513736
69	0xbf7dfc26	-0.99212873
70	0x3f0650a2	0.52466786
71	0xbdebbb07	-0.11510282
72	0x3df758dd	0.12077496
73	0x3f3cd92d	0.73768884
74	0x3ea92ef3	0.33043632
75	0xbedfc694	-0.4370619
76	0xbf567d35	-0.837848
77	0xbfceaa77	-1.6145772
78	0x3d3ac19a	0.04559479
79	0x3f7751d5	0.9660924
80	0xbf278d4f	-0.65449995
81	0x3e5d7bea	0.216293
82	0xbf5ae9d6	-0.85513055
83	0x3e3340bc	0.17505163
84	0xbf7562ab	-0.9585368
85	0x3f46e55d	0.7769373
86	0x3fba9519	1.4576751
87	0x3ff0eeda	1.8822892
88	0xbf645a9f	-0.89200777
89	0x3d5bdc82	0.05367709
90	0x3e9558b5	0.2916924
91	0xbea29733	-0.3175598
92	0x3ebe0818	0.3711555
93	0xbd6e1641	-0.05812669
94	0xbe937eb7	-0.28807613
95	0x3ed529fc	0.41633594
96	0x3ebf3ce3	0.3735114
97	0x3f2e5a0e	0.6810616
98	0xbf23562b	-0.63803357
99	0xbf66c013	-0.9013683
100	0xbf306541	-0.689045
101	0xbf4e7197	-0.80642074
102	0xbf2af86c	-0.6678531
103	0xbe81587c	-0.2526282
104	0xbeec2183	-0.46119317
105	0xbf2ba7de	-0.6705302
106	0x3eaf8821	0.34283546
107	0xbec5ef78	-0.38659263
108	0x3e9df5dc	0.30851638
109	0xbf2a55b9	-0.6653705
110	0x3e912c89	0.2835429
111	0xbe8da853	-0.27667484
112	0xc030d369	-2.7629035
113	0x3dabaa41	0.08382083
114	0xc000eac2	-2.0143285
115	0x3f1b7a49	0.6073347
116	0x3f57bf48	0.8427625
117	0x3fe724ff	1.8058165
118	0x3feac8b3	1.8342499
119	0xbf06ab14	-0.52604795
120	0xbdee14ee	-0.11625086
121	0xc009f2c2	-2.1554418
122	0xbd19a9c4	-0.037515417
123	0xb96a1bb2	-0.00022326296
124	0x3fc07884	1.5036778
125	0x3f9423aa	1.1573384
126	0xbde66e1e	-0.11251472
127	0xbe43f7fe	-0.1913757
128	0x3f52f018	0.82397604
129	0x3ec93b01	0.3930283
130	0xbf708d00	-0.9396515
131	0x3e1b424d	0.1516201
132	0x3fb3d14c	1.4048247
133	0xbf9b28ee	-1.2121866
134	0x3e77f747	0.24215423
135	0xbfc0e93b	-1.5071176
136	0x3f98ea0f	1.1946429
137	0xbd84bdaf	-0.06481492
138	0x3e546897	0.20743023
139	0xbf311de9	-0.69186264
140	0xbe44231c	-0.19154018
141	0x3eb649a3	0.35603055
142	0xbd81f570	-0.063456416
143	0xbddfa59f	-0.109202616
144	0x3f31cd4c	0.69453883
145	0x3f58e28d	0.8472069
146	0xbfb302af	-1.3985194
147	0xbfa98c0f	-1.3245867
148	0xbf65bee8	-0.89744425
149	0x3ed80a1d	0.42195216
150	0xbd35f695	-0.044424612
151	0xbeec1c42	-0.4611531
152	0xbe955c79	-0.29172114
153	0xbfb80a67	-1.4378175
154	0x3e9804d3	0.2969118
155	0xbe2a66af	-0.16640733
156	0x3e86863b	0.26274285
157	0xbe8ab497	-0.27090904
158	0x3a1d6118	0.0006003543
159	0x3e598d0d	0.21245213
160	0xbe50652f	-0.20351098
161	0x3e8777c0	0.2645855
162	0xbf26d91e	-0.65175045
163	0x3fcdc36f	1.6075267
164	0x3f0a62af	0.5405683
165	0x3f05b2e4	0.5222609
166	0x3f79bac4	0.97550607
167	0xbe72c1eb	-0.23706786
168	0x3eaac86f	0.33356044
169	0xbe33914c	-0.17535895
170	0xbd354437	-0.044254508
171	0xbe88f0c2	-0.26746184
172	0x3f45ca33	0.77261657
173	0xbf0c0153	-0.5468952
174	0xbcf236a0	-0.029567063
175	0x3e48f159	0.19623317
176	0x3f5da443	0.8657877
177	0x3edb285d	0.42804232
178	0xbfe6856b	-1.8009466
179	0x3afcfcf0	0.0019301455
180	0x3f39e610	0.7261667
181	0xbe51af35	-0.20476992
182	0x3f5e89e8	0.8692918
183	0xbea03f46	-0.31298274
184	0x3f3147d4	0.69250226
185	0xbd8b8aca	-0.06813581
186	0x3e8dc499	0.27689055
187	0xbf3cad67	-0.7370209
188	0x3ee88dff	0.45420834
189	0x3edcef09	0.4315112
190	0xbe374652	-0.17897919
191	0xbd5f2afa	-0.054484345
192	0x3e62d37c	0.22150987
193	0xbf4d1470	-0.8010931
194	0x40195ff9	2.3964827
195	0x3fa6d79e	1.3034551
196	0x3f1ab5ea	0.6043383
197	0xbfc475f0	-1.5348492
198	0xbe227f88	-0.15868962
199	0x3f8c9223	1.0982097
200	0x3f141a04	0.57852197
201	0x3f33c0b9	0.70215946
202	0xbd19a578	-0.03751132
203	0x3e94112e	0.28919357
204	0xbf608a1d	-0.87710744
205	0xbc41b6d0	-0.011823371
206	0xbe16fe54	-0.14745456
207	0xbe36aef6	-0.1784018
208	0xbfe72809	-1.8059093
209	0x3f301da1	0.6879521
210	0x3bbfe730	0.005856417
211	0xc00499f7	-2.0718973
212	0xbf7ce448	-0.9878583
213	0xbd25d5ac	-0.040486977
214	0xbf4bb9ea	-0.7958056
215	0x3f12cd50	0.5734453
216	0x3f47a782	0.7798997
217	0xbfed6ffc	-1.85498
218	0xbf2b08a9	-0.6681009
219	0x3e75401e	0.2395024
220	0xbf337c75	-0.7011178
221	0x3fa9aa7e	1.3255155
222	0x3e9f6295	0.311299
223	0xbf8e7803	-1.1130375
224	0xbfeb9d91	-1.840746
225	0xbf2e6539	-0.68123204
226	0x3fc73d5d	1.5565602
227	0xbecb9caf	-0.39767978
228	0xbce10f98	-0.027473256
229	0xbf58367c	-0.84458137
230	0xbf8766a9	-1.0578204
231	0xbe72c505	-0.2370797
232	0xbc181473	-0.009282219
233	0x3f12fdf4	0.5741875
234	0xbeae594e	-0.3405251
235	0x3f5eef46	0.8708385
236	0xbf01b19b	-0.5066163
237	0xbf62e0be	-0.8862418
238	0x3eab2b26	0.33431357
239	0xbed00aa1	-0.4063311
240	0xbc0d2966	-0.008615827
241	0x3d266716	0.040625654
242	0xbf09a14d	-0.5376175
243	0x3f559efb	0.8344571
244	0x3b92d2ad	0.004480681
245	0xbf175264	-0.59110093
246	0xbfa48877	-1.2854146
247	0x3f0914e9	0.5354753
248	0xbe9e1669	-0.30876473
249	0x3f5313d3	0.82452124
250	0xbeec70eb	-0.461799
251	0xbddcf248	-0.10788399
252	0x3c25a5de	0.010110347
253	0xbf07054a	-0.52742445
254	0x3da3688f	0.07978927
255	0xbe79e03f	-0.2440195

block1.attn.body.0.bias f4 [16]
0	0xbae72675	-0.0017635362
1	0xbdd7b029	-0.10531647
2	0xbd49a625	-0.049230713
3	0xbe295054	-0.16534549
4	0x3dafebe1	0.08589912
5	0xbdb2db95	-0.08733288
6	0xbd6d949e	-0.05800306
7	0xbe26674d	-0.16250344
8	0xbe335917	-0.17514454
9	0x3dbf26ce	0.09333573
10	0xbe596229	-0.21228851
11	0xbce2bae1	-0.027677001
12	0x3e8c120e	0.27357525
13	0x3aa59540	0.0012632981
14	0xbcd36255	-0.025803724
15	0xbf122355	-0.5708516

block1.attn.body.2.weight f4 [16, 16, 3, 3]
0	0xbd5eab87	-0.0543628
1	0xbdffde2a	-0.12493546
2	0xbd8daf1d	-0.06918166
3	0xbddb8a3e	-0.10719727
4	0xbe784c55	-0.24247868
5	0xbe0cc6c7	-0.13747703
6	0xbd57f09c	-0.052719697
7	0xbe0b251e	-0.13588378
8	0xbd780a92	-0.060556956
9	0xb9afb301	-0.0003351197
10	0xbdc83490	-0.097756505
11	0x3caabaed	0.020841086
12	0xbdd1762d	-0.10227618
13	0xbeb184ff	-0.3467178
14	0xbe428c86	-0.18998918
15	0xbb4da0ef	-0.0031376441
16	0xbe4cbe20	-0.19994402
17	0xbd980586	-0.074229285
18	0x3d80157f	0.062541
19	0x3e39ebc0	0.18156338
20	0x3ddb25ea	0.10700591
21	0x3e37df3b	0.1795625
22	0x3ec14af5	0.377525
23	0x3e780686	0.24221238
24	0x3d9a1548	0.0752359
25	0x3e49958c	0.19685954
26	0x3de39f0a	0.11114319
27	0xbdb00d38	-0.08596271
28	0xbe524b6d	-0.20536585
29	0xbdb7fdc5	-0.089839496
30	0xbe390109	-0.18066801
31	0xbee1ab66	-0.4407608
32	0xbe968c8e	-0.2940411
33	0xbd81218a	-0.06305225
34	0xbe9ddfa0	-0.30834675
35	0xbe55720c	-0.20844287
36	0x3ca44d60	0.020056427
37	0x3cb64a26	0.022252154
38	0x3cf5e5dd	0.030016834
39	0x3ccbc915	0.024876157
40	0xbc4453e6	-0.011982894
41	0xbc2a475b	-0.010392989
42	0x3c3b0920	0.01141575
43	0xbc1e446e	-0.00965987
44	0x3a29b4bb	0.00064737693
45	0xbc9d422f	-0.019196598
46	0xbd2ef239	-0.04271147
47	0x3aabe144	0.0013113399
48	0xbcc9aab2	-0.024617527
49	0xbd4e0348	-0.050296098
50	0xbd21595c	-0.03939186
51	0x3c8fa8d5	0.01753656
52	0xbc5bcec9	-0.013416001
53	0x3ae71f6c	0.0017633266
54	0xbd978ad5	-0.07399527
55	0xbd50c26f	-0.050966676
56	0xbd68efc5	-0.056869287
57	0xbc803bc6	-0.015653502
58	0xbc68d4f3	-0.014210927
59	0xbd8c52c7	-0.06851726
60	0xbc5d18d9	-0.013494694
61	0xbd298792	-0.041389056
62	0xbd3a4b29	-0.045481835
63	0xbca23761	-0.019801797
64	0x3d833881	0.06407262
65	0xbca8208a	-0.020523328
66	0x3dde43f9	0.108528085
67	0x3e78326f	0.24237989
68	0x3e28455f	0.16432713
69	0x3d8d186a	0.06889422
70	0x3e49651f	0.19667481
71	0x3e27651f	0.16347168
72	0xbcc99c01	-0.024610521
73	0xbcbeef40	-0.023307443
74	0x3ca3cf8b	0.019996425
75	0x3c489023	0.012241396
76	0x3cc6ad9f	0.02425271
77	0x3cf2fd65	0.029661844
78	0x3c7e9199	0.015537643
79	0x3c97ad96	0.01851539
80	0x3ced624e	0.02897754
81	0x3cdeb08e	0.027183797
82	0x3d338d79	0.04383609
83	0x3c3229e6	0.010874247
84	0xbbce4be4	-0.006295668
85	0x3d397f8e	0.04528766
86	0x3d6e5aed	0.058192182
87	0xbd650903	-0.055916797
88	0x3d0c8e1b	0.03431521
89	0x3c8c03e6	0.017091703
90	0x3b96e392	0.004604765
91	0x3deca83d	0.115555264
92	0x3cd0a98f	0.025471477
93	0x3dd77e34	0.10522118
94	0x3e9c5e39	0.30540636
95	0x3e56d214	0.20978576
96	0x3ccc6c45	0.02495397
97	0x3e511cab	0.20421092
98	0x3df8213b	0.12115713
99	0x3d4ef965	0.05053081
100	0x3da4d724	0.08048847
101	0x3d302a35	0.043009
102	0x3db391f3	0.08768072
103	0x3e55f9d8	0.20896089
104	0x3df5f238	0.1200909
105	0x3d915a73	0.0709733
106	0x3e0aaddc	0.13542885
107	0x3d41eab3	0.047342967
108	0x3ba547e5	0.005043971
109	0xbae1791d	-0.0017202232
110	0x3c948b04	0.018132694
111	0xba800570	-0.0009767246
112	0xbc835069	-0.016029553
113	0xbc3a3ba8	-0.011366762
114	0x3bf36425	0.0074277096
115	0xbc1b9e43	-0.009498182
116	0xbbfb6318	-0.007671725
117	0x3be77f65	0.007064747
118	0xbbe76952	-0.0070621157
119	0xbe1d2b78	-0.15348613
120	0xbde5498c	-0.111956686
121	0xbe187bc7	-0.14890967
122	0xbe22fe3a	-0.15917292
123	0xbe22c69e	-0.15896079
124	0xbd87b259	-0.06625814
125	0xbe0d8745	-0.13821132
126	0x3b380520	0.0028079227
127	0xbd562d11	-0.052289072
128	0xbd051abf	-0.03249621
129	0xbdadccc6	-0.08486323
130	0xbdaeffec	-0.08544907
131	0xbda0d6a2	-0.07853438
132	0xbdb72827	-0.08943205
133	0xbdf1966a	-0.11796267
134	0xbdf2273d	-0.1182389
135	0x3bc5801f	0.006027236
136	0x3d25c4b7	0.040470805
137	0x3c033bd2	0.008009868
138	0x3cb3fbc3	0.021970635
139	0x3df63460	0.120217085
140	0x3d67d7d2	0.056602307
141	0x3c01961c	0.007909324
142	0x3d876b46	0.06612258
143	0x3d3d3c69	0.04620019
144	0x3c5259a6	0.012838757
145	0xbcbc163a	-0.022959817
146	0x3c3e9723	0.0116327135
147	0xbd27fee4	-0.041014567
148	0xbe027f35	-0.12743838
149	0xbdadba20	-0.08482766
150	0x3b571000	0.0032815933
151	0xbd9bfcc4	-0.076165706
152	0xbd4b65c5	-0.049657602
153	0xbccba8ea	-0.024860818
154	0xbdac21e8	-0.084049046
155	0xbd4ee9ec	-0.050516054
156	0xbd8712ab	-0.065953575
157	0xbe20efb8	-0.15716445
158	0xbdbacefd	-0.09121511
159	0xbd3c852f	-0.04602545
160	0xbdd68ea1	-0.10476423
161	0xbd4b09db	-0.049569946
162	0xbcf37a8c	-0.02972152
163	0x3d0f3e42	0.034971483
164	0x3d2aa503	0.041661274
165	0xbbfa9a13	-0.0076477616
166	0xbc292ce5	-0.010325645
167	0xbc58faa0	-0.013243347
168	0xbccae1f1	-0.02476594
169	0x3ba348c9	0.004983042
170	0xba1abfd4	-0.00059032184
171	0x3d7a0328	0.061038166
172	0x3d6741eb	0.05645935
173	0xbc45c7ae	-0.012071533
174	0x3c3f8089	0.01168836
175	0x3d72b0b9	0.059250567
176	0x3c426b3e	0.011866389
177	0xbc3bc70d	-0.011461032
178	0x3c9abb72	0.018888209
179	0x3bf4ddae	0.0074727153
180	0xbc4864a6	-0.012231028
181	0xbd2316f8	-0.039816827
182	0xbc068608	-0.0082106665
183	0xbd3cc82f	-0.046089347
184	0xbd847dc4	-0.064693004
185	0xbd1df854	-0.038566902
186	0xbce72616	-0.028216403
187	0xbd41d6f8	-0.04732415
188	0xbc6d7757	-0.014493785
189	0xbb8070c6	-0.0039196936
190	0x3c18be0f	0.009322657
191	0xbd167c9c	-0.03673993
192	0x3cb3c003	0.021942144
193	0x3db269f0	0.08711612
194	0x3d45e640	0.048315287
195	0x3bcfddf3	0.006343597
196	0x3d47cb3c	0.048777804
197	0x3cb9368d	0.02260902
198	0x3e27216e	0.16321346
199	0x3db6dfa1	0.089293726
200	0x3e887b3d	0.26656523
201	0x3e296e24	0.16545922
202	0x3a7e426b	0.0009699228
203	0x3db96467	0.09052353
204	0x3e99313e	0.2992038
205	0x3e38c300	0.18043137
206	0x3e90851a	0.28226548
207	0xbb9163fc	-0.004436968
208	0xbcdb0afe	-0.02673864
209	0xbd517e71	-0.051145975
210	0x3c282586	0.010262853
211	0x3d7931a0	0.06083834
212	0x3cf4e48f	0.029894141
213	0xbc2ceb89	-0.010554203
214	0x3d7ed4a3	0.062214505
215	0x3c8e98e5	0.01740689
216	0x3c386367	0.011254168
217	0xbba91cb3	-0.005160892
218	0xbc3548ea	-0.011064747
219	0xbd334c0e	-0.043773703
220	0xbd821be2	-0.063529745
221	0xbdcc8660	-0.099865675
222	0xbd819ebe	-0.06329106
223	0xbd999645	-0.07499365
224	0xbd5c1ca3	-0.053738248
225	0xbcc6b5bd	-0.024256581
226	0x3d9ea670	0.07746589
227	0x3dd5e081	0.10443211
228	0x3d2715bf	0.040792223
229	0x3d4fb436	0.050708972
230	0x3d675395	0.056476194
231	0x3d6edb0a	0.05831436
232	0x3d572ef1	0.052535
233	0x3d53920d	0.051652957
234	0xbbe028c1	-0.0068407957
235	0x3d77c991	0.060494963
236	0x3beca9e1	0.0072223996
237	0x3d809d78	0.06280035
238	0x3e48bff4	0.19604474
239	0x3de41b3b	0.11138006
240	0x3c3c6a42	0.011499943
241	0x3defbf87	0.11706453
242	0x3d20e6f3	0.03928275
243	0x3c467f7d	0.0121153565
244	0x3d7e41a0	0.062074304
245	0x3c5fee17	0.013667605
246	0x3d85bd6a	0.065302685
247	0x3e2df074	0.16986257
248	0x3df9a27e	0.12189196
249	0x3cab5751	0.02091566
250	0x3dd946bc	0.10609195
251	0x3d8772d2	0.06613697
252	0xbb22f249	-0.0024863651
253	0x3d8edfff	0.069763176
254	0x3bb947a5	0.0056542926
255	0x3d86a62b	0.06574663

block1.attn.body.2.bias f4 [16]
0	0xbeeb9654	-0.4601313
1	0xbe1d953f	-0.15388964
2	0x3c8a56f9	0.016887175
3	0x3e9b5269	0.3033631
4	0x3db6b027	0.08920317
5	0xbefb70db	-0.4910954
6	0x3fa0fbaf	1.2576808
7	0x3d0cfb55	0.034419376
8	0xbe0aa4b0	-0.13539386
9	0xbfbed3ac	-1.4908347
10	0xbed0d531	-0.40787652
11	0x3cf0c649	0.029391425
12	0xbed255ac	-0.41080987
13	0xbeda31d6	-0.42616147
14	0xbf1c335b	-0.6101586
15	0xbe80e944	-0.25177968

block1.attn.body.3.weight f4 [48, 16, 3, 3]
0	0xbd9ff417	-0.07810228
1	0xbd6237cb	-0.05522899
2	0xbdb9b2cf	-0.09067308
3	0xbdb2d9b4	-0.0873293
4	0xbe1c22bf	-0.1524763
5	0xbdbf8356	-0.09351222
6	0xbd7da433	-0.06192417
7	0xbd91bb76	-0.071158335
8	0xbd4c853a	-0.049931742
9	0x3d298d68	0.04139462
10	0xbbe7c09d	-0.007072522
11	0x3d4c7a45	0.049921293
12	0x3ced42f8	0.028962597
13	0xbe8c0346	-0.27346247
14	0x3ca5f69c	0.020259194
15	0x3cc60c68	0.024175838
16	0xbcbf1c73	-0.023328995
17	0x3c714ec6	0.014728254
18	0x3d530d41	0.05152631
19	0xbd1c7e18	-0.03820619
20	0x3dcb9c03	0.09941866
21	0x3ce3300a	0.027732868
22	0xbeefe435	-0.46853796
23	0xbc08f844	-0.008359972
24	0x3d067197	0.03282317
25	0xbce71403	-0.028207785
26	0x3c048b4e	0.008089853
27	0xbc902b2f	-0.017598717
28	0x3c1d50ff	0.0096018305
29	0xbcdac50f	-0.026705293
30	0xbd127c15	-0.035762865
31	0x3e38076a	0.17971578
32	0xbd8b09c8	-0.06788975
33	0xbc69e96e	-0.014276845
34	0xbd357765	-0.044303317
35	0xbd07a073	-0.033112
36	0x3d46730c	0.04844956
37	0xbcb995eb	-0.022654494
38	0x3d1a19f1	0.037622396
39	0xbd451c56	-0.048122726
40	0xbdfc05fc	-0.12305829
41	0xbd2dfcfa	-0.042477585
42	0x3c77d15e	0.015125601
43	0xbd550a51	-0.05201179
44	0x3cadfe83	0.021239525
45	0x3d52156a	0.051289953
46	0xbd04ec51	-0.03245193
47	0x3d7ba865	0.06143989
48	0x3c39a9ba	0.01133197
49	0xbe6b295b	-0.22964995
50	0xbc1f50e7	-0.009723878
51	0x3c999fc4	0.01875294
52	0xbcf27fa2	-0.029601876
53	0x3c032af4	0.008005846
54	0x3dbefd66	0.09325676
55	0x3d0fd463	0.035114657
56	0x3dcc5df7	0.0997886
57	0x3d7fde23	0.062467705
58	0x3e63e9de	0.22257182
59	0x3d6bb286	0.0575433
60	0x3db0753d	0.086161114
61	0x3d865c7e	0.0656061
62	0x3da563d5	0.08075682
63	0xbd5ff9c9	-0.054681573
64	0x3c2ce551	0.01055272
65	0xbd96b2dc	-0.073583335
66	0xbcc02630	-0.02345571
67	0x3e9d5606	0.30729693
68	0x3d826c5a	0.06368323
69	0xbd518693	-0.05115373
70	0x3d483fc2	0.04888893
71	0xbcd2b14b	-0.025719306
72	0xbd09980f	-0.03359228
73	0xbc4c3cc4	-0.0124656595
74	0xbcdbdad6	-0.026837748
75	0xbc842c3c	-0.016134374
76	0xbd86311a	-0.06552334
77	0xbcc3087d	-0.023807758
78	0xbcb8ac80	-0.022543192
79	0xbcbcb0e3	-0.023033565
80	0xbbd0235b	-0.006351871
81	0xbd17f715	-0.03710087
82	0xbcb252dd	-0.021768028
83	0xbcfc42bb	-0.030793538
84	0xbd84a2fd	-0.064764
85	0x3e2542d7	0.16138779
86	0xbcb87787	-0.022517933
87	0xbcfd39ae	-0.030911293
88	0x3b1df903	0.0024104721
89	0xbc9b448e	-0.018953588
90	0xbd5821e1	-0.052766684
91	0x3c21bd3e	0.009871779
92	0xbd8fbaa0	-0.07018018
93	0xbd13b17f	-0.036057945
94	0xbdb4b0a1	-0.08822752
95	0xbd9010cd	-0.070344545
96	0xbd0f9013	-0.03504951
97	0xbd5d5235	-0.054033477
98	0xbd2c6a2c	-0.04209344
99	0x3db10168	0.08642846
100	0x3d91671e	0.07099746
101	0x3dab7f43	0.083738826
102	0x3e0098d5	0.12558301
103	0xbecb8794	-0.39751875
104	0x3d94a176	0.07257359
105	0x3dbe07bb	0.09278818
106	0x3d611960	0.05495584
107	0x3d85dc29	0.06536133
108	0x3c1afd09	0.009459742
109	0xbd6418ce	-0.055687718
110	0x3ccf4032	0.025299165
111	0xbd082f56	-0.033248268
112	0xbe382485	-0.17982681
113	0xbd394865	-0.045235056
114	0xbbbf3d6b	-0.005836179
115	0xbd72488e	-0.059151225
116	0xbc881e29	-0.016615944
117	0x3c950c9a	0.018194485
118	0x3c34ae42	0.011027874
119	0x3cd1c6dc	0.025607519
120	0x3ce0acf4	0.02742622
121	0xbeb2df34	-0.34935915
122	0x3d1f4f3b	0.03889392
123	0x3c93c2eb	0.01803728
124	0x3c7d80f6	0.015472641
125	0x3d121940	0.03566861
126	0x3c4fc7bd	0.012681899
127	0xbca52789	-0.020160453
128	0x3cc66a08	0.024220482
129	0xb99a89c7	-0.0002947582
130	0xbdb8c1c0	-0.0902133
131	0x3c9745ec	0.018465959
132	0xbb78be80	-0.0037955344
133	0x3c8c248b	0.017107269
134	0xbae3c76b	-0.0017378157
135	0x3d220719	0.03955755
136	0xbb8b1b24	-0.004245179
137	0x3d216016	0.039398275
138	0xbb389e98	-0.00281707
139	0xbe842e30	-0.25816488
140	0x3d009aec	0.031397745
141	0x3c56ce0c	0.013110649
142	0xbc22a6fd	-0.009927508
143	0x3c56e1a5	0.013115321
144	0x3ccba497	0.024858756
145	0xbc13825c	-0.009003248
146	0x3d0b08d4	0.033943966
147	0xbbe67a53	-0.007033625
148	0xbc53fd02	-0.01293874
149	0xbd86fc7e	-0.06591128
150	0x3d0ea16a	0.034821905
151	0xbd0bf00f	-0.034164485
152	0x3cd5db77	0.026105626
153	0x3da5410e	0.08069049
154	0xbd79b5b4	-0.0609643
155	0x3d390f70	0.045180738
156	0xbd3ca592	-0.046056338
157	0xbcdd5760	-0.027019203
158	0xbca86294	-0.020554818
159	0x3d26ebfd	0.0407524
160	0xbd0bf093	-0.034164976
161	0x3d749979	0.059716675
162	0xbbde9955	-0.006793181
163	0xbd7984ba	-0.060917594
164	0xbc695a06	-0.014242655
165	0xbd83afa7	-0.064299874
166	0x3ec2a8d2	0.38019425
167	0x3dd3c318	0.103399456
168	0xba2e74b2	-0.0006654962
169	0x3d2ce18d	0.04220729
170	0xbb214cfc	-0.0024612537
171	0xbc95f571	-0.018305512
172	0x3a1ebf96	0.000605577
173	0xbd147c41	-0.03625131
174	0xbc784095	-0.015152116
175	0xbd03bc66	-0.032162093
176	0x3c1b118d	0.009464634
177	0xbca5aa7e	-0.020222899
178	0x3d4d24ae	0.05008381
179	0xbd0674c4	-0.0328262
180	0xbd063f3e	-0.032775156
181	0x3ce7de6f	0.028304307
182	0xbc8bdd3e	-0.01707327
183	0x3c9d4988	0.019200101
184	0x3e2b9764	0.1675697
185	0x3d375efb	0.044768315
186	0xbb8ef18c	-0.0043622907
187	0x3db9830e	0.090582
188	0xbcb6fb5b	-0.022336653
189	0x3cffe0f3	0.031235194
190	0xbd090ca5	-0.033459324
191	0x3c991469	0.01868649
192	0xbd0217bf	-0.031760927
193	0x3dcea2f9	0.10089678
194	0x3ccd7ecc	0.025084876
195	0x3cd52629	0.026019173
196	0x3c27b3db	0.010235752
197	0x3d048e96	0.032362543
198	0x3c22825c	0.009918775
199	0x3d2eec60	0.042705894
200	0x3c51e243	0.012810293
201	0x3d72accd	0.059246827
202	0x3c1b795e	0.009489385
203	0x3dce8626	0.100841805
204	0x3ca46334	0.020066835
205	0x3d9fb690	0.07798493
206	0x3cda943d	0.026682014
207	0x3b9a0537	0.0047003287
208	0x3d850880	0.06495762
209	0x3ce96df6	0.028494816
210	0x3d6ee964	0.058328047
211	0x3e9777e8	0.2958367
212	0x3cace06b	0.021103105
213	0x3d03dae3	0.03219117
214	0x3d8ec49d	0.06971095
215	0x3bc4f9db	0.0060112304
216	0x3b287e3e	0.0025710012
217	0xbd3d9ce1	-0.04629219
218	0x3cfbe26b	0.030747613
219	0xbcff0e75	-0.031134823
220	0x3df190b0	0.11795175
221	0x3bca0f71	0.0061663915
222	0x3d2c2bd8	0.042034
223	0xbc369e79	-0.011146181
224	0x3d910362	0.07080723
225	0x3d16b54c	0.036793992
226	0x3daf23a7	0.08551722
227	0x3d41c096	0.047302805
228	0x3da9667c	0.082715005
229	0x3ef0aaa9	0.47005203
230	0x3d614b34	0.05500336
231	0x3d51a97e	0.05118703
232	0x3db46476	0.08808224
233	0x3c326e8e	0.010890616
234	0x3ac24393	0.0014821164
235	0x3cc71eee	0.02430674
236	0xbb1e31fb	-0.0024138677
237	0xbc8fd22b	-0.01755627
238	0xbe83b402	-0.25723273
239	0xbdac8969	-0.084246464
240	0xbc840148	-0.016113892
241	0xbd833f0a	-0.06408508
242	0xbd270937	-0.040780272
243	0xbd005cf6	-0.031338654
244	0xbddf2f07	-0.10897642
245	0xbd6ceca9	-0.057842884
246	0xbdc132c9	-0.094335146
247	0xbe65ad31	-0.22429349
248	0xbc112442	-0.008858742
249	0xbd69e144	-0.057099596
250	0xbd6e6d00	-0.05820942
251	0xbc8d6c5f	-0.01726359
252	0xbc945a77	-0.018109543
253	0xbd7d3167	-0.061814692
254	0xbd01476c	-0.031562254
255	0xbd76c1e2	-0.060243495

block1.attn.body.3.bias f4 [48]
0	0xbea4494c	-0.3208717
1	0xbeaa86c2	-0.33305937
2	0x3e833d0a	0.25632507
3	0x3fb6402f	1.4238337
4	0xbeaa4147	-0.33252928
5	0xbe9e5953	-0.30927524
6	0x3dae8d86	0.08523087
7	0x3f88a954	1.0676675
8	0x3f2499e2	0.64297307
9	0x3f8ee707	1.1164254
10	0xbd2b7023	-0.04185499
11	0xbf440292	-0.7656642
12	0xbfa0d9e3	-1.2566494
13	0x3eae69f3	0.34065208
14	0xbffbb31a	-1.9664032
15	0xbf59fef5	-0.8515466
16	0x3cfc30a5	0.030784914
17	0x3f5a0a2b	0.85171765
18	0xbc367b00	-0.011137724
19	0x3f972201	1.1807252
20	0x3da248a2	0.0792401
21	0x3f85838e	1.0430772
22	0x3f70a2c0	0.93998337
23	0xbf8ca238	-1.0987005
24	0x4023b585	2.557954
25	0x3d8a6fa2	0.067595735
26	0x404894be	3.1340785
27	0x3f7f4cc9	0.9972654
28	0x3f9c9480	1.2232819
29	0x4009cda7	2.153177
30	0xbf8fe119	-1.1240569
31	0x3f14a944	0.5807078
32	0x3f09d25e	0.5383662
33	0x3ee3af75	0.444698
34	0x3f9e0ba8	1.2347307
35	0xbee74218	-0.45167613
36	0x3e892a2f	0.26789996
37	0xbf0cb21b	-0.5495927
38	0x3c8c24b9	0.017107354
39	0x3f115401	0.56768805
40	0xbe43aa61	-0.19107963
41	0x3fe2ef28	1.7729235
42	0xbee98067	-0.45605776
43	0x3f94063b	1.1564401
44	0xbd76d2a1	-0.060259465
45	0x3fc0b0af	1.505392
46	0x3f12ae86	0.5729755
47	0xbe12bfab	-0.14330928

block1.conv1.bias f4 [48]
0	0xbeaf1c6e	-0.34201378
1	0x3e138ec6	0.14409932
2	0xbdbbd539	-0.09171528
3	0x3f011eca	0.50437605
4	0xbe8621c6	-0.26197642
5	0xc0bfc490	-5.9927444
6	0xbfa7f592	-1.3121817
7	0x3eb3f302	0.35146338
8	0xbf04c115	-0.5185712
9	0xbdec5e5c	-0.11541435
10	0xbf7c654d	-0.9859207
11	0xbeb0d1f8	-0.34535193
12	0xbf019707	-0.50621074
13	0xbee4ca7e	-0.4468574
14	0xbe759cbc	-0.2398557
15	0xbf786ce9	-0.97041184
16	0xc047428d	-3.113437
17	0xbfab710a	-1.3393872
18	0xc0a9fc7b	-5.3120704
19	0x3daaa0b2	0.083314314
20	0x3f322553	0.695882
21	0x3e7d0db0	0.24712253
22	0xbe6ec237	-0.23316275
23	0x3f9e718e	1.2378404
24	0xbd4024b2	-0.046909995
25	0x3f105b01	0.5638886
26	0x3f0145b0	0.5049696
27	0xbfaec615	-1.36542
28	0x3f38a2a8	0.72123194
29	0x3e98b9d8	0.29829288
30	0xbef30d41	-0.4747105
31	0x3eefa6cb	0.4680694
32	0xbead3582	-0.33829886
33	0xc0203177	-2.503019
34	0x3f8372e9	1.0269443
35	0xbf401542	-0.75032437
36	0x3d5f4338	0.054507464
37	0xbf82a9b4	-1.0208039
38	0x3f38545e	0.72003734
39	0x3e808dbc	0.25108135
40	0xbec891c0	-0.39173698
41	0x3e2795a0	0.16365671
42	0x3e0ee254	0.13953525
43	0x3f69ebbb	0.9137532
44	0x3f92be85	1.1464392
45	0x3f83aeb1	1.0287687
46	0xbe81b7c5	-0.25335518
47	0x3f7b0b44	0.98064065

block1.conv2.bias f4 [24]
0	0xbf2794dc	-0.65461516
1	0x3f51dd7c	0.81978583
2	0x3f8038ee	1.0017374
3	0x3f4bc716	0.79600656
4	0x3eb4e700	0.3533249
5	0x3ef3e2cc	0.4763397
6	0x3e94983b	0.29022393
7	0xbe99253e	-0.29911226
8	0xbf824a28	-1.0178881
9	0xbe38c8d1	-0.18045355
10	0xbede8c7a	-0.4346655
11	0x3fd4feeb	1.6640295
12	0xbeb75268	-0.35805058
13	0xbf41285c	-0.7545221
14	0xbfe7b6c7	-1.8102654
15	0xbe4d07f2	-0.20022562
16	0x3f265e1c	0.6498735
17	0xc0b66bbc	-5.700651
18	0xbe2134a2	-0.15742734
19	0x3fb184af	1.3868617
20	0x3f121f1e	0.5707873
21	0x3c4a0950	0.012331322
22	0xbe61ac94	-0.2203849
23	0x3d7ed7b8	0.062217444

block1.conv3.weight f4 [48, 48, 3, 3]
0	0xbbc160f7	-0.0059014517
1	0x3c1d3c8b	0.009596954
2	0xbabb6d78	-0.0014299592
3	0xbccb84ae	-0.02484354
4	0xbc3811f2	-0.011234747
5	0xbc5f875d	-0.013643113
6	0xbcb855f7	-0.022501929
7	0xbd0e247d	-0.034702767
8	0xbbdfda49	-0.0068314415
9	0x3c2a606a	0.0103989635
10	0x3c30eaef	0.0107982
11	0x3af0308e	0.0018325017
12	0x3cb7b843	0.02242673
13	0x3ca0798c	0.019589208
14	0x3c9041e2	0.01760954
15	0x3c601454	0.013676722
16	0x3d29d428	0.041462094
17	0xbb8b7864	-0.004256295
18	0xbc95efdc	-0.01830285
19	0x3d3f857c	0.04675816
20	0x3c0ca41d	0.0085840495
21	0xbb938860	-0.004502341
22	0x3d64559e	0.055745713
23	0x3bc34110	0.005958684
24	0x3b666180	0.003515333
25	0x3d3161df	0.043306228
26	0x3c6e351e	0.014539031
27	0xba91d93f	-0.0011127366
28	0xbb3cfb8d	-0.002883646
29	0xbb9a0e9e	-0.0047014495
30	0x3b39a832	0.0028329012
31	0xbc933a95	-0.01797227
32	0xbcaf3f28	-0.02139242
33	0xb9bec10f	-0.00036383464
34	0xb940d4c7	-0.00018389813
35	0xbbfd0319	-0.0077213165
36	0x3a859c08	0.0010193596
37	0xbbe5bc62	-0.0070109824
38	0xbb514d8e	-0.0031937095
39	0xbb05558e	-0.0020345184
40	0xbcb96a28	-0.022633627
41	0xbc086404	-0.008324627
42	0xbb931c2f	-0.0044894437
43	0x3be9aedf	0.007131442
44	0xbc2eb333	-0.010662842
45	0x3afd7601	0.0019337536
46	0x3ad6e03f	0.0016393735
47	0xbb050340	-0.0020296127
48	0xbafe9f47	-0.001942613
49	0x3ce11f2c	0.027480684
50	0xb9eaa737	-0.00044756543
51	0x3b9625a0	0.004582122
52	0x3b55c887	0.0032620744
53	0xbaa16de8	-0.001231608
54	0x3c6a8a44	0.014315192
55	0x3c20b03f	0.009807645
56	0x3c7fbce4	0.015609
57	0x3c75a0ff	0.014991998
58	0xbc3ad819	-0.011404061
59	0xbba7fd2e	-0.005126617
60	0x39f06cb6	0.00045857363
61	0x3c172ea8	0.009227432
62	0xbc0e197a	-0.008673066
63	0xbc3227d7	-0.010873756
64	0x3cf1fb1d	0.029538685
65	0x3c700b0b	0.01465107
66	0x3c90a018	0.017654464
67	0xbd0427ee	-0.032264642
68	0xbba3b612	-0.0049960697
69	0xbad9b5a7	-0.0016609923
70	0x3d00c21d	0.03143512
71	0xbc3ff592	-0.011716263
72	0x3a52980a	0.000803352
73	0x3bdb244e	0.0066876775
74	0x3b76e086	0.0037670447
75	0x3b43f3c9	0.0029899946
76	0x3cb083e5	0.021547267
77	0x3aa8e530	0.0012885686
78	0xbb203e10	-0.0024451055
79	0xbb3042e5	-0.002689534
80	0x3b25752a	0.0025246837
81	0xbc52a350	-0.01285632
82	0xba502747	-0.0007940423
83	0xbb1de72c	-0.0024094088
84	0xbb45a585	-0.0030158472
85	0x3d0d2cc1	0.03446651
86	0x3c6dd010	0.014514938
87	0xbc17a030	-0.0092545
88	0x3c4ea9e1	0.0126137445
89	0x3afd3627	0.0019318507
90	0x3bd7dccf	0.0065876017
91	0xbab18869	-0.0013544682
92	0xbb858811	-0.0040750583
93	0xbc82e6b7	-0.015979154
94	0xbd1f41e8	-0.038881212
95	0x3a3db09e	0.0007236096
96	0x3b64d917	0.0034919435
97	0x3bc4026b	0.0059817336
98	0x3bb8f65f	0.005644604
99	0x3b947bb4	0.004531348
100	0x3ad5c690	0.0016309787
101	0xbaadb61a	-0.0013253123
102	0x3b936a35	0.004498745
103	0xbc9cf44f	-0.019159464
104	0x3bc0688a	0.005871837
105	0x3b7635f5	0.0037568782
106	0x3c3c81d8	0.011505567
107	0x3c0fc4d2	0.008774953
108	0xba441efc	-0.00074814237
109	0xbaf14e77	-0.0018410225
110	0x3b8ddbc5	0.004329177
111	0xbbc7f2cd	-0.006101942
112	0x3d0d5704	0.034506813
113	0x39f22e25	0.00046192217
114	0xbbc437e1	-0.0059881066
115	0xbbc181f7	-0.0059053856
116	0xba6bb29c	-0.00089911534
117	0xbc27133e	-0.010197459
118	0xbc1a1e1a	-0.009406591
119	0xbc753b92	-0.014967816
120	0xbb7a2db3	-0.0038174212
121	0xbcb531ef	-0.022118537
122	0xbc6320cd	-0.013862801
123	0xbbf2f02a	-0.0074138837
124	0xbc15d683	-0.009145382
125	0xbc0b952d	-0.008519453
126	0x3a0483c3	0.00050550344
127	0xbb9ef900	-0.0048514605
128	0xbb4f53c8	-0.003163563
129	0xbbe47da1	-0.006972984
130	0xbca42997	-0.020039363
131	0xbbfd2ea4	-0.0077265073
132	0xbb66263d	-0.0035118007
133	0xbc09ca6a	-0.008410076
134	0x3a2f769d	0.0006693395
135	0x3b99905a	0.0046863975
136	0xbb146b9a	-0.0022647143
137	0x3b093497	0.0020935887
138	0xbb11c954	-0.0022245245
139	0x3c2f9415	0.010716458
140	0x3a369958	0.0006965599
141	0x3b78a47b	0.0037939835
142	0xbb996ac9	-0.0046819192
143	0x3b42c423	0.0029718957
144	0x3bf26ee8	0.007398475
145	0x3c6b9d10	0.014380708
146	0x3c0927ed	0.008371335
147	0x3c6e2ed6	0.014537534
148	0x3c8dd515	0.01731352
149	0x3d1073c4	0.035266653
150	0x3ba11905	0.0049163126
151	0x3c43167e	0.011907218
152	0x3c1d5758	0.009603344
153	0x3d901708	0.07035643
154	0x3d836403	0.0641556
155	0x3d45257f	0.048131462
156	0x3e5974d1	0.21235968
157	0xbf04e973	-0.51918715
158	0x3e285806	0.16439828
159	0xbc31c67c	-0.010850545
160	0x3e61cf3b	0.22051708
161	0x3d2d2dfe	0.04228019
162	0x3cf6c3f8	0.030122742
163	0x3d78e08f	0.06076103
164	0x3d6f69d3	0.05845053
165	0x3d30f91b	0.043206315
166	0x3e0ca36b	0.13734214
167	0x3d193050	0.03739959
168	0x3c888aea	0.016667802
169	0x3cca0f9d	0.024665648
170	0x3d484d6c	0.04890196
171	0x3b6d44a4	0.0036204243
172	0x3c09eb37	0.008417896
173	0xbc1148e8	-0.00886748
174	0xba945f80	-0.0011319965
175	0xbd0c0abe	-0.034189932
176	0xbc19fabb	-0.009398158
177	0xbc3ce992	-0.011530297
178	0xbd2378f5	-0.039910275
179	0xbc30ae61	-0.010783763
180	0xbb96e513	-0.0046049445
181	0xbbdb0a66	-0.006684589
182	0xbc04f554	-0.008115131
183	0xbb4c8446	-0.003120677
184	0xbad7c4ef	-0.0016461889
185	0x3bddba75	0.006766612
186	0xbc1a892f	-0.009432121
187	0xbd17f8c3	-0.037102472
188	0x3bbba414	0.0057263467
189	0x3b83e6e5	0.0040253275
190	0x3c863760	0.016383827
191	0x3c5b9d4e	0.013404204
192	0x3d38eddf	0.045148727
193	0xbb250580	-0.002518028
194	0x3cd0b6ee	0.025477853
195	0x3c3579b7	0.011076382
196	0x3b8166c4	0.003949018
197	0x3c59506e	0.013263805
198	0xbaf6f2c4	-0.001884066
199	0xbc00f526	-0.007870948
200	0xba247a9d	-0.00062743743
201	0xbbfd558c	-0.0077311452
202	0xbcd03b07	-0.025418771
203	0xbc158120	-0.009125024
204	0xbb5426c4	-0.003237174
205	0xbcc1b0a1	-0.023643794
206	0xbb8505b9	-0.00405952
207	0x3ac5172b	0.0015036812
208	0x3ba5955f	0.005053207
209	0x3a8d7b48	0.0010794187
210	0xbaed921a	-0.0018125207
211	0x3d10c2d9	0.03534207
212	0xbc2f586d	-0.010702235
213	0xba9ff752	-0.0012204445
214	0xbafab401	-0.0019127132
215	0x3b3b3687	0.0028566436
216	0xbd0c4e71	-0.034254495
217	0xbca857a8	-0.02054961
218	0xbc8a65b2	-0.016894195
219	0xbda53f38	-0.08068699
220	0xbdf74711	-0.12074102
221	0xbd304269	-0.043032084
222	0xbca0184e	-0.01954284
223	0xbd384089	-0.04498342
224	0x3bc81745	0.0061062896
225	0x3d76ba1a	0.060236074
226	0xbc1b15b1	-0.009465621
227	0xbc19ce9c	-0.009387638
228	0xbccf3127	-0.025291992
229	0xbd25e154	-0.040498093
230	0x3d70cb9a	0.05878792
231	0x3c895176	0.016762476
232	0x3d6d7d8c	0.05798106
233	0x3d083430	0.033252895
234	0x3c637c38	0.0138845965
235	0xbd03b526	-0.03215518
236	0xbd1176a0	-0.03551352
237	0x3d8a96a9	0.067670174
238	0xbc407c46	-0.011748379
239	0x3c9cb2a9	0.01912816
240	0x3cca0caa	0.024664242
241	0x3db6e664	0.08930662
242	0x3cc0b840	0.023525357
243	0xbd601e0d	-0.05471616
244	0xbcd328a0	-0.025776207
245	0xbd928271	-0.07153786
246	0xbcb72ef3	-0.022361254
247	0x3d37df24	0.044890538
248	0x3dcf06d7	0.101087265
249	0xbaf8c280	-0.0018978864
250	0xbcbffcc1	-0.023435952
251	0xbd45d497	-0.048298445
252	0xbcb2add7	-0.021811409
253	0xbd0d195c	-0.034448013
254	0xba99c322	-0.0011731128
255	0xbd9ffe6b	-0.07812198

block1.conv3.bias f4 [48]
0	0x3d769a40	0.060205698
1	0xbf172c02	-0.59051526
2	0x3eba3ff0	0.36376905
3	0xbd9806fc	-0.07423207
4	0xbeaf38ce	-0.34223026
5	0x3f121abc	0.57072043
6	0xbea6fda7	-0.32615396
7	0xbcd6f5b8	-0.026240215
8	0xbd5586ec	-0.052130625
9	0x3e453629	0.19258942
10	0xbf9dfffa	-1.2343743
11	0x3eb0c888	0.34527993
12	0xbea7f033	-0.32800445
13	0x3f99867a	1.1994164
14	0xbfae5e2f	-1.3622493
15	0x3f481550	0.7815752
16	0xbf4a49d2	-0.7901889
17	0xbf69212b	-0.91066235
18	0x3dc33c17	0.095329456
19	0xc02e9b0a	-2.7282128
20	0xbed10802	-0.40826422
21	0x3ea808f1	0.32819322
22	0x3f3603a7	0.71099323
23	0x3fb145cc	1.3849425
24	0x3f53527b	0.8254773
25	0xbf01efc8	-0.507565
26	0x3f464fa8	0.77465296
27	0x3f3834d2	0.719556
28	0xbf3cdbdb	-0.7377297
29	0x3ed1904a	0.40930396
30	0xbdcc4eb8	-0.09975952
31	0xbf5be1e0	-0.8589153
32	0x3ea46f20	0.32116032
33	0xbf3d0606	-0.73837316
34	0xbf56d1d0	-0.839139
35	0x3f69b413	0.91290396
36	0xbd8fefcb	-0.07028159
37	0xbebec938	-0.37262893
38	0xbf76b313	-0.96366996
39	0x3f49244b	0.78571004
40	0xbd8da764	-0.06916693
41	0x3f17fc13	0.5936901
42	0xbf9668d8	-1.1750746
43	0xbf40b38a	-0.75273955
44	0x3e4f5aea	0.20249525
45	0x3e8b2cc6	0.27182597
46	0x3ece690c	0.4031452
47	0x3eb6e202	0.35719305

block2.attn.body.0.weight f4 [16, 48, 1, 1]
0	0xbd072ade	-0.032999866
1	0xbd08ec30	-0.03342837
2	0xbfbd6f56	-1.4799602
3	0xbdbfc7c8	-0.09364277
4	0xbe56de8b	-0.20983331
5	0xbd01c949	-0.0316861
6	0x3efcdeb9	0.49388674
7	0x3f878b67	1.0589417
8	0xbf1189e7	-0.5685105
9	0xbe97dcf7	-0.2966077
10	0x3ed800f9	0.42188242
11	0x3e8df861	0.2772856
12	0xbec96c93	-0.39340648
13	0xbe077885	-0.13229568
14	0x3ea16272	0.3152042
15	0x3da69ee1	0.081357725
16	0xbef9fd94	-0.48826277
17	0xbe252c45	-0.16130169
18	0xbd14b428	-0.036304623
19	0xbe21ecf4	-0.15813047
20	0x3ef4710d	0.477425
21	0xbedae2f4	-0.42751276
22	0xbf29e07c	-0.6635816
23	0xbe4071f7	-0.18793474
24	0x3c986cff	0.01860666
25	0xbc0e371e	-0.008680133
26	0xbec27b13	-0.37984523
27	0x3e470646	0.19435987
28	0xbece7039	-0.40319994
29	0xbcf08bff	-0.02936363
30	0x3d724c55	0.059154827
31	0x3f01e1d3	0.50735205
32	0xbe94e3ea	-0.29080135
33	0xbe8260ed	-0.25464574
34	0xbe6d0ab2	-0.23148611
35	0xbeb5ac5a	-0.35483056
36	0xbee89118	-0.45423198
37	0xbcb827df	-0.02247995
38	0xbed35a8d	-0.41280022
39	0xbd80762f	-0.06272542
40	0xbcbdd3a4	-0.023172207
41	0xbe22f7aa	-0.15914789
42	0x3e276808	0.16348279
43	0xbe826f98	-0.25475764
44	0xbe2986be	-0.16555306
45	0xbc9e8393	-0.019349849
46	0x3f69d115	0.9133466
47	0xbd455741	-0.048178915
48	0xbd74928c	-0.05971007
49	0xbe9a8222	-0.30177408
50	0x3ddf4226	0.10901289
51	0x3d959f17	0.073057346
52	0x3e056738	0.13027656
53	0x3eb0c290	0.3452344
54	0x3ee0b758	0.4388988
55	0x3ff592d5	1.9185435
56	0xbce23829	-0.02761467
57	0xbe39f662	-0.18160394
58	0x3f525eaf	0.82175726
59	0x3e67f54e	0.2265217
60	0x3cae193f	0.021252273
61	0x3e04ab6a	0.12956014
62	0x3eab74c2	0.33487517
63	0xbe90cf4d	-0.28283158
64	0xbf3d1507	-0.7386021
65	0x3efb7027	0.49109003
66	0xbf057a79	-0.52140003
67	0x3f7e9400	0.9944458
68	0x3f3ee96c	0.74574924
69	0xbe595720	-0.21224642
70	0xbfb2fc12	-1.3983176
71	0xbd238cdd	-0.03992926
72	0x3e80dd35	0.25168768
73	0xbdbb36a4	-0.09141281
74	0xbe684b27	-0.22684918
75	0xbdbe1b88	-0.09282595
76	0xbf411409	-0.75421196
77	0xbea25d59	-0.31711844
78	0x3d605df0	0.054777086
79	0x3f48e363	0.78471965
80	0xbee636ba	-0.44963628
81	0x3d7db4bf	0.06193995
82	0x3e3c4b3a	0.18388072
83	0xbf0a6af1	-0.5406943
84	0x3dd2a040	0.102844715
85	0xbcd3faa4	-0.02587635
86	0x3e69d6ed	0.22835894
87	0xbe34e884	-0.17666823
88	0xbf0eb089	-0.5573812
89	0x3ed47098	0.41492152
90	0x3f5e94bc	0.869457
91	0x3e60157d	0.21883197
92	0xbcb75ac8	-0.022382155
93	0x3e796013	0.24353056
94	0xbf0aaac7	-0.54166836
95	0xbd1d0f81	-0.038344864
96	0xbe45c12d	-0.19311972
97	0x3dd13f84	0.10217193
98	0xbe1e7156	-0.15472922
99	0x3e49474e	0.19656107
100	0x3db7b6a9	0.089703865
101	0xbea2b53c	-0.31778896
102	0xbeede1a3	-0.4646121
103	0x3faa4846	1.3303306
104	0xbe654185	-0.22388275
105	0x3f5e6c92	0.86884415
106	0x3d819a2e	0.063282356
107	0x3f226bef	0.63445944
108	0xbd705a32	-0.058679767
109	0x3dc288ac	0.09498724
110	0x3ea12eb1	0.31480935
111	0x3f18a82d	0.59631616
112	0xbe902042	-0.2814961
113	0xbbe6e957	-0.0070468592
114	0x3e161dc2	0.14659789
115	0x3f0b14a4	0.5432837
116	0x3e0ca905	0.13736351
117	0x3e8f3353	0.27968845
118	0x3dd957e3	0.10612466
119	0xbf02d09c	-0.5109956
120	0xbe453dc7	-0.19261847
121	0xbdd2fbba	-0.10301919
122	0xbe976d68	-0.29575658
123	0x3cdb1ccf	0.026747135
124	0xbe758a75	-0.23978598
125	0x3da16198	0.07879943
126	0x3ac94d5d	0.0015358139
127	0xbd96f746	-0.073713824
128	0x3f0fc1d3	0.5615513
129	0xbc30a497	-0.010781429
130	0xbd919f68	-0.071104825
131	0xbe5ff015	-0.21868928
132	0x3e7dda1f	0.24790238
133	0xbd8c84b0	-0.06861246
134	0xbe5b0d9a	-0.21391907
135	0xbe2636de	-0.16231868
136	0xbef35dc8	-0.47532487
137	0xbd9fe16e	-0.07806669
138	0x3e5508a9	0.20804085
139	0x3d593680	0.05303049
140	0x3e33f08c	0.1757223
141	0xbdd1c927	-0.10243445
142	0xbf442145	-0.76613265
143	0x3de256f7	0.110517435
144	0xbda2f165	-0.079561986
145	0xbf1afde6	-0.6054367
146	0x3ebfab15	0.37435213
147	0xbdf87bbc	-0.121329755
148	0xbdd7b7eb	-0.105331264
149	0xbdea8c01	-0.11452485
150	0x3e863124	0.26209366
151	0xbf9ade9c	-1.2099185
152	0x3ed50220	0.41603184
153	0x3efada0c	0.48994482
154	0x3df6fd24	0.120600015
155	0x3e300740	0.17190266
156	0x3e351f3f	0.176877
157	0xbea57256	-0.32313794
158	0xbd846ad0	-0.06465685
159	0xbec98be6	-0.39364547
160	0x3e84cbf9	0.2593687
161	0x3d536ae4	0.05161561
162	0x3e4704bb	0.19435398
163	0xbd63c4ff	-0.055607792
164	0xbf2bac48	-0.67059755
165	0x3ebbc544	0.3667394
166	0x3d532672	0.051550336
167	0xbf396aae	-0.72428405
168	0xbd5c845d	-0.05383717
169	0x3dd897a6	0.105758
170	0xbda03002	-0.07821657
171	0x3e5b1318	0.21394002
172	0x3d34f6fb	0.04418085
173	0x3ea24af0	0.31697798
174	0x3e108602	0.1411362
175	0xbb04e6b3	-0.002027911
176	0xbe803371	-0.25039247
177	0x3db5dce1	0.0888002
178	0x3c665a94	0.014059681
179	0xbcdd32b0	-0.027001709
180	0xbed50171	-0.41602662
181	0xbe1df5b8	-0.15425766
182	0xbd899f8b	-0.067198835
183	0x3ebff08b	0.37488207
184	0x3f21263d	0.6294897
185	0xbdebe13b	-0.11517569
186	0xbe538a0d	-0.20658131
187	0xbd5f82a1	-0.054567937
188	0xbdfad145	-0.12246946
189	0xbdb1eee9	-0.086881466
190	0x3d49b523	0.04924501
191	0x3dc6a1c0	0.0969882
192	0xbcf3e8f0	-0.02977416
193	0x3dca6b8a	0.09883793
194	0x3e2de74b	0.16982763
195	0xbe3068ba	-0.1722745
196	0xbd701a51	-0.058618847
197	0xbe901d0e	-0.28147167
198	0xbfb2f561	-1.3981134
199	0x3cfe3638	0.031031713
200	0xbec4ca33	-0.38435516
201	0xbef15e1c	-0.47142112
202	0xbe809391	-0.25112584
203	0xbe92f45b	-0.28702053
204	0x3f02600c	0.50927806
205	0xbd5271bb	-0.051377993
206	0xbe350800	-0.17678833
207	0xbe52d914	-0.20590621
208	0x3d3dc731	0.04633254
209	0x3d134359	0.0359529
210	0x3ec52eaa	0.38512164
211	0x3c8e4cf2	0.017370675
212	0xbe41e90f	-0.18936561
213	0x3d0ebbc1	0.034847025
214	0xbed3f56a	-0.41398174
215	0xbd7414bb	-0.059590083
216	0xbd248229	-0.040163193
217	0xbdb2411c	-0.08703825
218	0xbe92e034	-0.28686678
219	0x3de43d86	0.11144547
220	0x3d1faff9	0.03898618
221	0x3d35aa1f	0.044351693
222	0xbea29c31	-0.3175979
223	0xbed59909	-0.4171832
224	0xbba16c06	-0.0049262075
225	0x3d919edb	0.071103774
226	0xbe55c047	-0.20874129
227	0xbdd47611	-0.10374082
228	0xbd9cc28d	-0.07654295
229	0xbd4d6dac	-0.05015342
230	0xbf48754e	-0.7830399
231	0x3e7b8608	0.24562848
232	0x3f1bcb5c	0.60857177
233	0xbe5bd3df	-0.21467541
234	0x3e0de8b6	0.13858303
235	0xbec8d3c4	-0.39224064
236	0xbe7c1e65	-0.2462097
237	0xbbd6ad6a	-0.0065514343
238	0x3ebc0906	0.36725634
239	0x3d14ebbd	0.03635763
240	0xbda835f0	-0.08213413
241	0x3ca31754	0.019908585
242	0xbe9ab9c2	-0.30219847
243	0xbc47c0b3	-0.012191939
244	0x3df3f22c	0.11911425
245	0x3e11159c	0.141684
246	0x3de5e699	0.11225624
247	0x3e0d23a8	0.13783133
248	0xbe3cbfb6	-0.18432507
249	0xbe41dddb	-0.18932287
250	0x3d380420	0.04492581
251	0x3e7e02f2	0.24805811
252	0xbe929c7b	-0.2863501
253	0xbd5f58bd	-0.054527987
254	0x3e524d3f	0.2053728
255	0x3dae13f8	0.084999025

block2.attn.body.0.bias f4 [16]
0	0xbe1e199c	-0.15439457
1	0xbdd80653	-0.10548081
2	0xbe951514	-0.29117644
3	0xbcf03ba8	-0.029325321
4	0xbe806284	-0.2507516
5	0x3d64c9fc	0.05585669
6	0xbe407f08	-0.18798459
7	0xbdefcff7	-0.11709588
8	0xbdcf5be4	-0.101249486
9	0x3deca387	0.11554628
10	0xbd07b9f8	-0.033136338
11	0x3d866ab7	0.06563323
12	0xbe44667a	-0.19179717
13	0xbf0d308d	-0.5515221
14	0xbdcd99b0	-0.10039079
15	0xbe1d0f8e	-0.15337965
