model_zoo/team31_agdn.pth (torch, 366165 bytes, 281 tensors)

fea_conv.weight f4 [24, 3, 3, 3]
00000000: 443b 023c 7ea2 d33c d204 42bc ca71 293d
00000010: 8b8f f7bd 1ce0 0f3d f8eb 0dbc 1a48 b33d
00000020: 34e5 35bc 32f9 ddba 8998 3d3d 124c 42bd
00000030: b00c 4d3c 9547 25be 1eb5 a63d 6789 e1bc
00000040: 9d44 013e 8045 44bc f19a 18bd f096 e33d
00000050: e9f5 24bd e207 2a3e 0bb1 cdbe 1071 0a3e
00000060: b34c 81bc fc96 883d 5e55 08bd d16a a3bc
00000070: 7333 a5bd 5662 50bc c6e4 85bd 0484 293e
00000080: c180 143d dc31 8abc 46d4 523c 6fa7 ef3b
00000090: 90ad 143d 8b15 063e 4170 9d3c 4263 fd3d
000000a0: 9ad0 85be c7ce 5abd d38e 103d d5c5 8ebd
000000b0: 42d6 cabc c2c6 1abc 8541 8dbd 4c96 24b9
000000c0: 2ba6 aabd bc20 e43d 7a82 3a3d 3cbe d6bb
000000d0: c3d3 e33c 3aa7 9a3c 00be be3a 1b4f d13a
000000e0: d236 edba e374 1b3d 5560 4abe c313 ff3d
000000f0: 7d69 803c f974 80ba e3b2 73bb 7ebd 533a
00000100: de8d 2bbd dd5b d2bb db79 bbbb 0bd6 393e
00000110: f91f f43c c058 f1bc cdd6 94bd fea0 b5bb
00000120: 30ba 72bb d301 f33c fd43 613c b0c9 c23d
00000130: 619f 68be 36ba a43c 2d26 dd3b 7b71 913d
00000140: 7292 0bbc 3dcf 8b3c 67c9 163d 1cd5 fc3b
00000150: e5ca 213d e181 a03b 5a6a a0bd a22a c13b
00000160: 832d c6ba d24d a5bb 156b 013c a77d c73d
00000170: a2d6 983c fc40 cc3d 7f49 90be d394 8c3c
00000180: cfb5 933c d117 113c 80f2 e73b 80dd 1b3d
00000190: 5eb3 553d a285 8cb9 90af 003b b335 49bd
000001a0: 75ec eb3c 24b4 253b 419f 9bbd 23fa 333c
000001b0: 3e37 003c aaec 213d 22a9 6abc 63e2 143d
000001c0: 668a dfbe f942 813d aa75 3e3c d5e5 8abc
000001d0: e03d 1539 afcf c73b 796a 1abc 46b3 143d
000001e0: e711 1fbc 2cb9 b1be da93 62bd ea25 d23c
000001f0: 0da9 71bd d0f8 d43c 916d 573d 4ee3 18bd
00000200: c281 193d 5d56 86bd f2f9 f9be aadc f9bc
00000210: ccaa 133d 0b42 83bb 191a 1d3d 6631 e73c
00000220: 8389 ee3d 0f0d 553c 62c0 e73d ad10 ce3e
00000230: 1a10 1f3e eb23 de3c 26e1 cd3d 8f50 a43c
00000240: e1c3 3fbd 9457 58be 6d72 dbbc 3095 50be
00000250: 8566 f6be 208d 2ebe 3a49 1bbd a550 3dbe
00000260: ed51 e2bc 17ae cb3c 489e f83d f45d 7e3c
00000270: b724 fc3d 4d67 84bd a5a8 833d 52d5 c03c
00000280: 9d5b 053e ad58 6a3c f609 06bb b872 cc3c
00000290: bc9f a2bb 02ab 903d 85b6 afbe 6741 163e
000002a0: a5ee f73c 15a3 193d 0f7c 06bb c232 d3bc
000002b0: 0555 cabd 1dfa 143d 462e 17be acdd fa3e
000002c0: f646 23be b69b a63c 4a64 13be 534d 203d
000002d0: 5b08 b53d 8e19 c1bb 2ea3 443d 09a1 d2bc
000002e0: bf4c 653d 55e8 a8bd 06de 693d f6c8 09be
000002f0: 55f1 e13c eccf dd3c 81b7 513e c11e 013c
00000300: a850 4a3e cba7 5bbf d3e7 253e 18d4 123c
00000310: 4fab af3d 7b52 91bb 3f95 5e3b 2de5 4d3d
00000320: 8c32 693c 52b9 453d 6b06 12be ae3a ba3b
00000330: f2e9 ad3c cdc6 4e3c b4df 3a3c 749d 5dbc
00000340: 4804 85be 77e2 97bc 4a81 8abe 50c2 843f
00000350: 4ef7 44be 59db d93b e687 18be 1d20 1a3b
00000360: 5c4d 1b3b 7a1d da3c f4c5 dabc 97f8 55bc
00000370: 0856 b13c c6d4 543d 41a2 763c 72a6 23bd
00000380: 7249 a6bc 2678 793c 5827 63bd 12e0 4f3d
00000390: 0f03 5dbd 21ac 893d 550a 11bd 778f f63c
000003a0: 569d 54bd f0fe 2c3d c8ea 0e3d 86a8 51bd
000003b0: 5299 ab3c 2c84 afbc 786f 12bd 80cb bf3b
000003c0: a602 7d3c 3326 97ba 2fe1 893c 01f8 8bbb
000003d0: 40bd 48bc 5ad6 31bc 0998 23bd ca06 07bf
000003e0: a47f dd3b e61c c9bb 2656 f2bc 34d9 473a
000003f0: 70cd d6bb d4ca 40bd 088e 41bc 9e68 34bd
0.0079487 0.025834318 -0.01184197 0.041368283 -0.120879255 0.035125837 -0.008662216 0.08753987
-0.01110201 -0.0016935228 0.046288047 -0.047435828 0.012515232 -0.16140588 0.08140014 -0.027531339
0.1262383 -0.011979461 -0.03725714 0.111127734 -0.04027358 0.1660457 -0.40174136 0.13519692
-0.015783643 0.06669423 -0.033284537 -0.019948395 -0.08066454 -0.012718758 -0.06537776 0.16554266
0.0362556 -0.016869478 0.012867993 0.007313661 0.036298335 0.13094155 0.019218566 0.123724476
-0.26135713 -0.053419854 0.035292458 -0.06971327 -0.02476037 -0.009446802 -0.068972625 -0.00015696249
-0.08332475 0.11139056 0.04553459 -0.0065534394 0.027810937 0.018878568 0.0014552474 0.001596901
-0.0018098003 0.03795327 -0.1976331 0.12454941 0.0156753 -0.0009800486 -0.0037185482 0.0008077248
-0.041883342 -0.0064196424 -0.0057213134 0.18148057 0.029800402 -0.029461265 -0.072675325 -0.0055428734
-0.0037037246 0.029663956 0.01374912 0.09511125 -0.22717048 0.020108324 0.0067489357 0.07101723
-0.008518802 0.017066592 0.036813166 0.0077158343 0.039500136 0.0048982953 -0.07832785 0.005894975
-0.0015119765 -0.0050446773 0.0078990655 0.09740763 0.018657032 0.09973332 -0.28181073 0.017160809
0.018031029 0.008855776 0.007078469 0.038053036 0.05217301 -0.00026802445 0.0019635893 -0.049123477
0.028799275 0.0025284374 -0.07598735 0.01098493 0.007825671 0.03953234 -0.014322551 0.03634871
-0.43660277 0.06311602 0.011624733 -0.016955296 0.00014232798 0.006097756 -0.009424799 0.03630378
-0.009708858 -0.34711587 -0.055316783 0.025652844 -0.05899911 0.02599755 0.052594725 -0.03732615
0.037477262 -0.06559441 -0.48823506 -0.030500729 0.036051556 -0.0040056757 0.038354967 0.028221797
0.11647322 0.013003602 0.11315991 0.40247098 0.15533486 0.027116736 0.10052709 0.020057945
-0.046817664 -0.21127158 -0.02678796 -0.2036941 -0.4812509 -0.17046022 -0.03791163 -0.18487795
-0.027626956 0.024863286 0.12139565 0.01552533 0.1231169 -0.064650156 0.06428651 0.023539219
0.13023229 0.0143033685 -0.0020452715 0.024957046 -0.0049628895 0.07063867 -0.3431894 0.14673387
0.030265162 0.037509043 -0.0020520722 -0.02578104 -0.098794974 0.03637134 -0.14763746 0.48997247
-0.15945038 0.02033792 -0.14393726 0.039136242 0.08839484 -0.005892939 0.048007183 -0.025711553
0.055981394 -0.08247439 0.057096504 -0.13455567 0.027580896 0.027076684 0.20480157 0.007880867
0.1975733 -0.85802907 0.16201715 0.0089617 0.085775964 -0.0044348813 0.003396347 0.050267387
0.014233243 0.04827244 -0.14260261 0.0056832647 0.021229718 0.01262064 0.011405874 -0.013526309
-0.2597983 -0.018540604 -0.27051765 1.03718 -0.19234964 0.0066484627 -0.14895591 0.0023517676
0.0023697233 0.026625384 -0.02670572 -0.013059757 0.021647468 0.05196073 0.015053333 -0.039953656
-0.020298693 0.0152263995 -0.055457443 0.0507508 -0.053957995 0.06722284 -0.035410244 0.030097706
-0.05190786 0.042235315 0.034891874 -0.051186107 0.020947132 -0.02142533 -0.035750836 0.0058531165
0.015442526 -0.001153177 0.016831009 -0.0042715077 -0.012252152 -0.010854328 -0.039939914 -0.52744734
0.0067596007 -0.006137478 -0.029582094 0.00076236133 -0.006555252 -0.047068432 -0.011813648 -0.044045083

fea_conv.bias f4 [24]
00000000: 1643 4ebd 00e9 ad3c f092 a5bb fe9b 41bb
00000010: b4cf a63d dd68 bfbd 40b3 8f3c b2b7 bfbb
00000020: ac37 a0bc bdda dd3d 0d9c a9be c428 08bc
00000030: 5206 85bc 0ab9 3bbe b1be 9a3b eee9 903b
00000040: 973e 17bd 0b25 25bc f2fb febc 7e9c a3bb
00000050: 3620 36be 3dd4 063d 09f7 11bd bf90 cfbc
-0.050356947 0.021229267 -0.0050529167 -0.0029542441 0.08145085 -0.09346173 0.017541528 -0.0058507556
-0.019557796 0.10832737 -0.3312687 -0.0083105005 -0.016238365 -0.18332306 0.004722439 0.004422418
-0.036924925 -0.0100796325 -0.031125996 -0.0049930206 -0.17785725 0.03291725 -0.03563598 -0.025337575

B1.c1_d.weight f4 [12, 24, 1, 1]
00000000: 7cc4 183e 920f c6bd 4bcb 6a3d 6633 eebd
00000010: 1f7b ac3e 5eff 5bbe e446 9a3d 97e5 183e
00000020: f833 b03e 2882 0abe 0aa7 2dbe 85d7 1abf
00000030: 5a0f aabd cda0 d33c 4d86 25be 4d98 10be
00000040: dd35 68bd 38cc 02be c549 bbbe f62a 2f3e
00000050: 6e88 263e 05ff 2d3f 1ea7 85be 13b5 f5be
00000060: 2bbd bfbe 92f3 38be dee2 2c3f 9b32 853d
00000070: b2c8 76bd 2663 903e 0dee 6d3e 9e80 67be
00000080: 95f1 ab3e c291 e73b 6f42 fdbe 1c2b b0be
00000090: e227 0ebf 414d 06bf 576d 58bf e29e 1bbf
000000a0: b5a3 9bbf 0255 c03e da52 e2bd c873 7d3f
000000b0: 92e7 363f ecfe 98be ac70 7c3e 4341 133f
000000c0: e653 873e 4fe7 093f 9c30 483e cc4d 37bf
000000d0: e0fb 5d3e 8172 99bc 8851 bebd 8148 19be
000000e0: a15c db3d 9bfe d8bd e456 0a3e 5eea 7dbe
000000f0: 76e3 ca3e a618 433e 3162 51be 5dca 00bf
00000100: 3a72 133f 0e16 333e ef15 1b3e 0a44 61be
00000110: ee57 68bd 2ada a6be 18a0 623e dc47 d8be
00000120: 7bbe e4bd 3fce 9bbe 5e17 9c3d 51d7 d53d
00000130: 0475 4b3e 0dc0 52be 675c 803e e431 83be
00000140: 1d34 7b3c 77c6 fe3d 1a83 403d aa57 65be
00000150: f278 093e 47c6 893e 02cc 033c b3fe a0be
00000160: 6e63 0cbe 9fa5 00bd da70 c23e c19d 883e
00000170: cb1d 78be 7235 ad3e 1066 7f3d d17c f13e
00000180: 071e 65bc 54a4 963c f3bb 05bf 6ed3 dabc
00000190: a485 b93e f3ef 693d 42ac 233e 775f cfbe
000001a0: 7943 1fbe 69db 49be f946 babd 7045 f53e
000001b0: 1182 a03e eae4 193e 0fa5 8c3d ba23 ac3d
000001c0: e77c 15be 90fa 64be 725e 0e3e ab32 0d3e
000001d0: e230 2d3e b4e8 7f3d 1224 17be dc45 553b
000001e0: 2330 653e 6e51 2fbe d93d 08bf 0798 25be
000001f0: 5e1d a7bc 543e 3ebd 1b17 1d3f 6b9a 4abe
00000200: 6431 40bf acfd 2d3e 7b0e 543f 6fef 7ebf
00000210: fa4e 24bf 2935 7bbe 59ed 9a3e 1dba 96bf
00000220: 2e6e 173d 25d4 8ebe 8f36 edbc d9ae e8be
00000230: 6af6 aebe 1f90 c9be 3486 a5bd 54a1 23be
00000240: 8c19 e5be cfa0 883f b1ab 6ebe 9dde 553d
00000250: f5a5 f23d 25f4 393f 5dc0 d1bd 6cc5 973e
00000260: 56c0 28bf 9da4 dd3b eaf8 04bc f1cb 2fbe
00000270: 9aa6 16bf a802 903e 5fcb ca3d c264 81be
00000280: 4533 da3d 77f9 87be 3211 6a3e ac21 c33d
00000290: ec81 703e 01d8 013f 8a92 5ebe 4461 eabd
000002a0: 0de5 a33e a00a 2fbe fab7 a13e 2e77 123e
000002b0: f80c e63e 6e9a 13be c616 9bbc 090f f03d
000002c0: 5fdb 5cbd 6323 553e 426b 0dbe 318b 323e
000002d0: 2e49 07be 0a98 d2be 60bb 7a3e 9346 d03e
000002e0: 2e23 4abe 510b a2bd a862 913c 53fa 59be
000002f0: f290 793c 5f5c 48be 8b83 8f3e e23e 92be
00000300: 6920 75be 5c73 843d d65a 5bbe ba7b 77be
00000310: 7358 1cbe 2dff 19bd 927a 733e 20ac fabe
00000320: dd9b eb3d ffcb 2ebe a3f5 66bb 8edf 80be
00000330: ba8a 103f a0aa 493e 50e6 bebb c566 b03a
00000340: f8eb 203e de22 66bc 5c1f 243e 6ff0 e8ba
00000350: 336e ee3d a943 3a3f df9d 433c 717b 21be
00000360: 5629 a53e 4b7c 33be ac3e c3be 11e1 983e
00000370: d97a e6bd 5681 8abe 5a43 6e3e b0c3 02be
00000380: 4714 25bf 7ecc 34be bdd1 e7bd 664e eb3e
00000390: 456c 8b3e e8bd 763e 6b41 6c3e d841 e5be
000003a0: 4e89 7ebe ac1e a5be a8d7 11be 7f37 83be
000003b0: 4fce 5dbc 8f97 09bf f1f9 e93e 3139 2cbe
000003c0: cf18 fa3c 5422 253e 9e84 31bc dcb6 0cbe
000003d0: 72da 95bc a66c 4ebf d192 303e 82c7 2a3e
000003e0: ba82 6bbe 6ce3 95be 7e5c f43d 7cec 1abd
000003f0: c1d1 51be 7c98 a7be 7655 b03e 30d6 0d3f
0.14918703 -0.096709386 0.05732278 -0.11630897 0.33687684 -0.21484134 0.075330526 0.14931332
0.3441465 -0.13526213 -0.16958252 -0.60485107 -0.08303709 0.025833512 -0.16164513 -0.14120598
-0.056691993 -0.12773216 -0.3657972 0.17106232 0.16262981 0.67967254 -0.26104063 -0.4798971
-0.3744901 -0.18061665 0.6753367 0.06503793 -0.06024999 0.28200644 0.2323534 -0.22607657
0.3358275 0.007066936 -0.49464747 -0.3440789 -0.55529606 -0.5246163 -0.8454184 -0.6078931
-1.2159334 0.37564856 -0.11050959 0.99004793 0.714471 -0.2988199 0.24652356 0.57521456
0.26431197 0.53868574 0.19549793 -0.71603084 0.21678114 -0.018731358 -0.092928946 -0.14969064
0.10711027 -0.10595437 0.13509709 -0.24796435 0.39626664 0.19052371 -0.20447613 -0.5030878
0.5759617 0.17488882 0.15145086 -0.21998611 -0.05672448 -0.3258832 0.22131383 -0.42242324
-0.11169144 -0.3043079 0.076216444 0.10441459 0.19868857 -0.20581074 0.25070497 -0.25624
0.015332249 0.12440198 0.04700003 -0.22396722 0.13425043 0.26909086 0.008044245 -0.3144432
-0.13709804 -0.03140795 0.37976724 0.26682857 -0.24230115 0.33829838 0.062353194 0.4716554
-0.01398421 0.018388905 -0.5223991 -0.026712146 0.36234772 0.0571136 0.1598368 -0.4050252
-0.15553083 -0.19712605 -0.09095568 0.4790454 0.31349233 0.1502873 0.0686742 0.08405252
-0.14598428 -0.22361207 0.13903216 0.1378886 0.16913179 0.062477782 -0.14759853 0.003254286
0.22381644 -0.17120907 -0.5321937 -0.16171275 -0.020399746 -0.04644616 0.6136338 -0.19785468
-0.75075364 0.169913 0.82834595 -0.99584097 -0.6418301 -0.24531998 0.30259207 -1.1775547
0.03697031 -0.27896228 -0.02895668 -0.45445898 -0.34172374 -0.39367768 -0.08082238 -0.1597951
-0.44746053 1.0674075 -0.23307683 0.052214254 0.1184806 0.7263816 -0.102417685 0.29642808
-0.6591848 0.006764008 -0.008115986 -0.17167641 -0.58847964 0.28127027 0.09902071 -0.25272185
0.1065431 -0.26557514 0.22858122 0.09527907 0.23487061 0.5072022 -0.21735588 -0.11444333
0.3201069 -0.17093897 0.31585675 0.14303276 0.4493177 -0.14414379 -0.018931758 0.11721618
-0.053920146 0.2081428 -0.13810447 0.1743591 -0.1321151 -0.41131622 0.2448554 0.40678844
-0.19739982 -0.07912315 0.017747238 -0.21286897 0.015232312 -0.19566487 0.28030047 -0.285636
-0.23938145 0.064673156 -0.2142137 -0.24168292 -0.15268116 -0.03759687 0.23777226 -0.48959446
0.11504338 -0.17070006 -0.0035241626 -0.2517056 0.5646168 0.19693995 -0.0058257952 0.0013458362
0.15715015 -0.014046399 0.16027588 -0.001777185 0.116421126 0.7275949 0.011939495 -0.15769745
0.322581 -0.17527883 -0.38133752 0.29859212 -0.112539 -0.270518 0.2326788 -0.12769961
-0.64484066 -0.17656133 -0.11319301 0.4595825 0.2723104 0.24095881 0.2307183 -0.44776797
-0.24857065 -0.32249963 -0.14242423 -0.25628278 -0.013537957 -0.53746885 0.45698503 -0.16818692
0.030529408 0.16126376 -0.010834841 -0.1374163 -0.01829264 -0.80634534 0.17243506 0.16677669
-0.22999087 -0.29275072 0.11931704 -0.037823185 -0.20490171 -0.32733524 0.34440202 0.5540495

B1.c1_d.bias f4 [12]
00000000: d8e2 eebd 4ef8 02be 02b7 ee3d 1155 a6bc
00000010: bbec 0b3c 1dd5 fb3d daf2 3a3d 80e9 96be
00000020: 4879 31bd ebf8 863c abb2 aebd f5d2 043e
-0.11664361 -0.12790033 0.11656 -0.020304235 0.008540328 0.122965075 0.045641758 -0.2947502
-0.043328553 0.016476115 -0.08530172 0.12971099

B1.c1_r.pw.weight f4 [24, 24, 1, 1]
00000000: feca 9f3d 5122 8b3c 1507 ad3e 5bcd de3d
00000010: 5a46 933e 597e c03e a9e7 ccbd 316d 19bf
00000020: fbeb 3b3d 61cc eebf bb0f 99be 39c9 0abe
00000030: e44b efbd a1b1 963e dfa3 84be c8fe 1dbe
00000040: d003 dbbe 03a4 583d 6c45 28be 6e47 073e
00000050: ead0 b3be c29b c1be dc69 6bbe 6a77 4e3e
00000060: db89 53bd 7787 073f fa2f a33d f05f 0d3e
00000070: 6a72 96bf 380b 153b e64b 2d3e 2550 833e
00000080: b4be cf3d 4f9c 273f ba4e aabd 25dc 703d
00000090: 849f 523d 4b9c 8abd 0ffc 4dbd 1390 bcbd
000000a0: b1eb 9f3d ff22 74bc 5647 cbbd 3ed4 dfbc
000000b0: bc05 e3be 4aca d6bd 6f26 07bd fed8 083e
000000c0: 9b0c 93bd f6b7 233d a0b2 cc3e 068f a23e
000000d0: 04d8 c6bf 64df d6bd 0b8c 89bd 45e2 a73d
000000e0: 6e7f ae3e 46c0 28be e681 4d3c d7a2 d33c
000000f0: 8023 163e b367 5ebd cfe8 a3bd 230b 7cbe
00000100: 5797 96bd 0a5a 27bd 7814 903d ce1a dfbc
00000110: b9c7 fcbe dff3 1bbf 45d9 7a3d d009 013f
00000120: ab48 05be 96c3 5fbd 2375 adbe 11f7 5cbf
00000130: 451c 5b3f 2213 483e 225e b4be 6836 51be
00000140: 5097 25bf 7a96 243d 8886 c93e b071 d6be
00000150: 18f8 303d c879 71be 837a 343e 0628 a33d
00000160: 40ea 6abc 0e37 6dbd 4ba6 89bc 836a c13d
00000170: c910 a83c c83b e23e 0912 d3bd e47d 443e
00000180: 3595 123e 3a67 73be 7983 0bbe 62be debe
00000190: ba62 6e3e 0a17 d4be 7f65 873d 6d61 bcbd
000001a0: ae0a 2dbf 5a73 aa3e 2938 c43d 8da2 b73c
000001b0: 61bd 563e 1f00 c8bd bbb0 393e 25ac ac3d
000001c0: b8cd 2c3d f360 f9bb 9515 833e 64fe b83d
000001d0: 1fe3 c33e da59 ab3e e102 0bbe 178c b4be
000001e0: ba83 b0be fecd 3c3d 22fc a7be 3252 abbe
000001f0: 78db 833f e881 39bf 295a e2bd 806f 03be
00000200: 5f53 1e3d 6637 323f e2d2 0e3f 4868 d93c
00000210: 097a d03d 1c75 033e bd04 673d 911c be3e
00000220: ab34 1b3e 630b 79bc 539a 2a3d 49ff 473e
00000230: 49bd 5d3f 13db fa3e 249b 09bd 305a 90be
00000240: b25b b1be 916e 5ebe 20d2 cdbd 8b15 0c3e
00000250: 3851 67bf c558 fbbd 9e99 8fbe 9410 a1bd
00000260: 2747 c43e cbcf e4bc 1ec7 593e a46e 253f
00000270: 676c e1be a72e e2be 3f3a 3cbe 2fe4 b43e
00000280: b22f 563e fed3 d83e 4a4d 553d a930 73be
00000290: eca3 9ebe 85c2 b4be 0e77 3a3e 5298 7e3e
000002a0: 07d4 783e 3975 f4bc a550 443e 634d 853d
000002b0: 0606 5b3e c80c 063f 7efe 3dbe f996 d23d
000002c0: 4e0c e7bc 9dc5 f4bf 5192 4fbe 5818 d1bc
000002d0: 0424 f03d 9694 323e 7018 06bd cdc7 503e
000002e0: 639b 4fb7 0aa7 8e3d 535e 3dbe a8a7 24bc
000002f0: a9dc abbd 725e d7be 1004 03bd 0c58 4d3d
00000300: 1a40 023d fbf2 37be c521 983f 7cf7 dabe
00000310: dd81 0cbf 5455 b43c c0b2 a03d 469b aebe
00000320: 6351 b83d d629 503c 19a2 843e 6ac7 e03e
00000330: b4f3 223f 8106 6dbd 8b78 b6be 3ca1 16bf
00000340: 37d0 433b ba0b aabe 1273 8c3e e178 203e
00000350: d19a 6abf 7217 673f 0d75 613f 313f 56be
00000360: d196 b5be 07ae 163d 158e 2ebd ebed 5cbe
00000370: 7525 b0be d400 823e 8ac8 0d3e 9083 a13d
00000380: 3f9a 093f 90e6 31bf 6f3c 273e b016 fc3d
00000390: 0a98 0a3c 3b5c 0f3e 1edf 0ebf 1a58 4cbf
000003a0: e526 ffbe 8e8c 45bf 321e 9f3e b25f e53e
000003b0: 25b9 0cbf 6e11 053d 2572 68be 45b2 293f
000003c0: dba3 a23e a9b8 afba e5e0 09bf ce9f 153e
000003d0: 2dc5 97be f109 f53f 0a10 563d 1d77 98bd
000003e0: 3c2e 233e 3203 fd3e 4d24 883e 41d7 4fbe
000003f0: 6177 093d 36e0 56be 618c 3a3d cbc3 43bc
0.078023896 0.016984137 0.33794466 0.10879012 0.2876461 0.37596396 -0.10005123 -0.5993224
0.045879345 -1.8656121 -0.29894814 -0.13553323 -0.11684397 0.29432395 -0.25906274 -0.15429223
-0.42776346 0.05289079 -0.16432732 0.13210842 -0.35120326 -0.37814146 -0.22989601 0.2016274
-0.05164514 0.5294108 0.07968135 0.13806129 -1.1753666 0.0022742283 0.16923484 0.25647083
0.101437956 0.65472883 -0.08315797 0.058803696 0.051421657 -0.06768092 -0.05028921 -0.092071675
0.078086264 -0.014900922 -0.099257156 -0.027322885 -0.44340312 -0.10487802 -0.032995638 0.13364026
-0.07180139 0.03997036 0.3998003 0.31749743 -1.5534673 -0.10491827 -0.06716164 0.08197454
0.34081596 -0.16479596 0.012543177 0.025834484 0.1466198 -0.054298114 -0.08003389 -0.24613623
-0.073530845 -0.040857352 0.07035154 -0.027234461 -0.49371126 -0.6091899 0.06124236 0.504056
-0.13016002 -0.054629885 -0.3387843 -0.86314493 0.8559001 0.19538549 -0.35228068 -0.2043091
-0.6468401 0.040182568 0.39360452 -0.41883612 0.04320535 -0.23581612 0.1762486 0.07966618
-0.014338076 -0.057913832 -0.016802927 0.094441436 0.020515816 0.44186234 -0.10306174 0.19188648
0.1431473 -0.23769847 -0.13624372 -0.43504626 0.23279849 -0.41423827 0.06611156 -0.0919827
-0.6759442 0.3329113 0.09581024 0.022416377 0.2097068 -0.09765648 0.18133824 0.084312715
0.042188376 -0.007610434 0.25602403 0.09032896 0.38259217 0.3346699 -0.13575317 -0.3526313
-0.344755 0.046094887 -0.3280955 -0.33461148 1.0301352 -0.72463846 -0.11052353 -0.12835503
0.038653728 0.6961578 0.5579053 0.026538983 0.10179526 0.12837642 0.056401003 0.3713117
0.1515681 -0.015200469 0.04165108 0.19530977 0.8661695 0.48995265 -0.03359522 -0.28193808
-0.3464027 -0.21721865 -0.10049844 0.13680093 -0.90358305 -0.12272791 -0.28046888 -0.0786449
0.38335535 -0.027931115 0.21267363 0.6462195 -0.44028017 -0.44176218 -0.18381594 0.3533034
0.20916632 0.42349237 0.05207566 -0.23749031 -0.30984437 -0.35304657 0.18209478 0.24862793
0.24299632 -0.029841052 0.19171388 0.06508901 0.21389017 0.5236325 -0.18554112 0.10282702
-0.02820411 -1.9122807 -0.20270659 -0.025524303 0.117256194 0.17439494 -0.03273815 0.20388718
-1.237434e-05 0.06965454 -0.18493013 -0.010049738 -0.08391697 -0.42064244 -0.031986296 0.050132796
0.031799413 -0.17963783 1.1885306 -0.4276694 -0.54885656 0.022013344 0.07846594 -0.3410284
0.08999898 0.012705287 0.2590492 0.4390214 0.6365311 -0.05786753 -0.35638842 -0.58839774
0.0029878744 -0.33212072 0.27431542 0.15671112 -0.9164248 0.9027015 0.8806923 -0.20922543
-0.35466626 0.03678706 -0.04261597 -0.21575134 -0.34403577 0.25391257 0.13846031 0.07886422
0.53750986 -0.69492435 0.16331647 0.12309015 0.0084591005 0.14000027 -0.558092 -0.7982193
-0.49834362 -0.77167594 0.31077725 0.44799572 -0.5497001 0.032487325 -0.22699793 0.6628764
0.31765637 -0.0013406473 -0.53858787 0.14611742 -0.2964262 1.9143659 0.05226139 -0.07444594
0.15935606 0.494165 0.26590195 -0.20296957 0.033561114 -0.20983967 0.045544032 -0.011948536

B1.c1_r.dw.weight f4 [24, 1, 3, 3]
00000000: bf67 7bbd 7e54 81bd a735 52bd 0ebe 02be
00000010: 69da f03f 8078 c2bd d0b8 8cbd fd9b 14be
00000020: 28c6 5abd 7334 18bb 6655 84bd f1d0 0e3b
00000030: b15b abbc ea74 fdbf fcbe 6ebd 4da2 80bb
00000040: 45ca 4fbd 61cb 4bbc 2d40 9d3c e198 14bd
00000050: 308f 283d 8ea8 da3f 3dd0 c9bf 22c6 30be
00000060: 79a3 5e3c cda8 eabc ce27 413d ad3d e3be
00000070: 8ceb d4be 3a8f 00bf b6e9 e33e 2db5 2d3e
00000080: 64d9 dc3e 8cd0 55be 268b 3e3f b418 1bbe
00000090: 6735 00bc d4cd 19bc bafd f0bb ac3e 31bb
000000a0: c923 073f 88c1 6dbc 094e 25bc c038 6ebc
000000b0: c132 89bc abfc 52bb e9c0 e03d 999d 883b
000000c0: 3312 a63c 5353 0140 ada7 9c3d 9770 28bc
000000d0: 1842 103d 5844 b03c 6ac5 66bd a1df a3bd
000000e0: 117d 1b3e 5f90 bfbd 60fe a8bf fd82 a93f
000000f0: 34e4 cfbd dd11 523c 5464 3f3e dc66 543d
00000100: 22de b3bd e3e8 0b3d c843 2abd 2fb0 92bf
00000110: 9f0b 98bd efa9 433d c6d1 46bd cc32 9b3c
00000120: 5456 6d3d 764d 99bf 67ca 11be e4d1 813d
00000130: 9b1e b73d 9ea4 56bd 0807 e9bd 26be 993f
00000140: f1dd 873d e9bc ba3d 6be9 883e 3453 4b3d
00000150: d09e b13e 8c66 1e3e 4da6 893e 02f7 123e
00000160: e2ba 8a3e d001 963d 2395 36bd 87dc c7bc
00000170: 349d 82bd c5af dfbc 8ec7 6ebf 372c 9d3b
00000180: 3382 51bd 1122 2fbc 080f 30bd 7f48 1f3f
00000190: 4e58 a6be b333 213f 14ed c7be 8697 b1bf
000001a0: 4cc6 b9be d583 143f 28b1 b8bb 667f 213f
000001b0: df15 20bc ee95 81bd 0906 eabb d760 9abc
000001c0: 2f94 b9bf cf5f 483c 1776 8f3a 0374 00bd
000001d0: 8db6 fabb 7b75 9f3d 9b0b 3e3e 699e 843d
000001e0: 6348 403e 4235 0abf 0051 5b3e 7644 ad3d
000001f0: 1efa 8a3e ff08 af3d 7797 213b 6071 7cbd
00000200: 5488 3e3a 49c1 fcbc b6d3 cfbf b024 ffbc
00000210: 54c4 333c 4f51 59bd 717e 143c f27c e7be
00000220: 17e7 dabe 684f edbe ee56 90be 0306 6440
00000230: e13a 36bf 6b5a 06bf 1fe4 d4be ca89 00bf
00000240: 1186 0d3d cc7b 273e 08d8 ec3c e894 5d3e
00000250: be1a 27bf 0461 3d3e 85e5 443d b72b 1a3e
00000260: 1c49 553d 7fec 85be 0866 c73e fe37 023d
00000270: 8471 e63d 2d6a 0fbf e7d7 b63d 985b 56be
00000280: be3e 8b3e 6eae e1bd d6ed c23e d31d e5be
00000290: 56e1 bf3e 75c9 eabe 2d87 a23e 65c6 debe
000002a0: 7c3d c43e 8f6f d6be 4522 ce3e c783 64bc
000002b0: 633c 48bb 9342 8a3a 2117 9c39 c19c 2e3f
000002c0: 47a8 04bb 78d6 efbb a3a3 8cbb c86c 97bb
000002d0: 24f3 403e 1830 12be dd11 283e 9918 9dbe
000002e0: 256d 6cbf c1a3 b4be 903e 0c3f 647f 1a3f
000002f0: a127 bd3e 2874 a6be 8dcf 39bf d1bb 8bbe
00000300: f30e 2a3f 3265 c13f 8f2b 1d3f 2759 18bf
00000310: 4e72 12bf c692 98be e090 613d 37bc a5bd
00000320: dcbc 083e 78ee b93e 36df d6bf 2392 053f
00000330: 9448 903d 2e2c 31be 76e0 473d cc35 8abd
00000340: b16e 1ebe 453b e6bd 32ee 00bf 8774 eb3f
00000350: e12d 50bf b5f8 91bd 6fb8 43be 852d 41bd
-0.061378237 -0.06314944 -0.051320698 -0.12767813 1.8816653 -0.0949564 -0.06871188 -0.1451263
-0.053411633 -0.0023224622 -0.06461601 0.002179202 -0.020917745 -1.9801304 -0.058287606 -0.0039255978
-0.05073001 -0.012438626 0.01919564 -0.03627861 0.04115218 1.7082689 -1.5766674 -0.17263082
0.01358878 -0.028644944 0.0471571 -0.44382992 -0.41585958 -0.50218546 0.44514245 0.16963644
0.43134606 -0.20880336 0.74431074 -0.15146142 -0.007825232 -0.009387452 -0.0073544653 -0.0027045412
0.5278898 -0.0145114735 -0.010089406 -0.014539897 -0.016747834 -0.003219406 0.10974295 0.0041691777
0.02027235 2.0207107 0.07649169 -0.01028075 0.035219282 0.021516964 -0.056340612 -0.08001638
0.15184428 -0.093537085 -1.3202629 1.32431 -0.10150948 0.012821642 0.18690616 0.051855907
-0.08782603 0.034157645 -0.041568547 -1.1460017 -0.074240915 0.047769483 -0.0485399 0.01894512
0.057943657 -1.1976764 -0.14237367 0.063388616 0.089413844 -0.052403085 -0.11378294 1.2011154
0.06634129 0.09118063 0.26740584 0.049639896 0.34691477 0.15468806 0.2688469 0.14352039
0.27095705 0.073245645 -0.04457582 -0.024397148 -0.0637764 -0.027305493 -0.93273246 0.0047965306
-0.05114956 -0.010689274 -0.042983085 0.62219995 -0.32489246 0.6296951 -0.39048064 -1.3874366
-0.362841 0.5801366 -0.005636353 0.6308502 -0.0097708395 -0.06327425 -0.0071418327 -0.018845005
-1.4498347 0.012229874 0.0010945228 -0.031360637 -0.0076511563 0.077860795 0.18559115 0.06475527
0.18777613 -0.53987515 0.21417618 0.084603235 0.2714395 0.08546638 0.002465693 -0.06163156
0.0007268239 -0.030853884 -1.6236484 -0.031145424 0.010972101 -0.053056058 0.009063349 -0.45212513
-0.42754433 -0.46349645 -0.28191322 3.562867 -0.7118359 -0.52481717 -0.41580293 -0.5021025
0.034551684 0.16355819 0.028911605 0.21638834 -0.6527518 0.1849404 0.04807045 0.15055738
0.052071676 -0.26156995 0.3894503 0.03179168 0.1125212 -0.56021386 0.08927899 -0.20933378
0.27196306 -0.11019598 0.3807208 -0.44749317 0.37476605 -0.45856825 0.31743756 -0.43510738
0.3832816 -0.41881987 0.4026052 -0.013947434 -0.0030553571 0.0010548405 0.0002977187 0.6820794
-0.0020241903 -0.007319268 -0.004291968 -0.004621122 0.18842751 -0.14276159 0.16413064 -0.3068283
-0.9235404 -0.35281184 0.5478296 0.6035063 0.36944297 -0.32510495 -0.7258232 -0.2729173
0.6642906 1.5109007 0.6139459 -0.59511036 -0.57205665 -0.2979948 0.055069804 -0.0809254
0.13353294 0.3631475 -1.6786869 0.5217611 0.07045093 -0.1730201 0.048798047 -0.06748542
-0.15471913 -0.112417735 -0.5036346 1.8394936 -0.81320006 -0.07127515 -0.19113325 -0.04716255

B1.c1_r.dw.bias f4 [24]
00000000: 778b 063f daf9 3fbf 016c b33c fa24 5e3e
00000010: 5c89 0ebe 6201 9dbf c0b8 47bd f1af 9bbd
00000020: 0fde 32bf 9a21 11bd 5c4f 113e 5c8f 16bd
00000030: 02ec e4be e9ce 813e c845 e3be d696 99be
00000040: c0d7 b23d 4c6c 91bb b395 923b ac9a f7bc
00000050: f155 3f3e 78ef d1be adb2 36bf 8fd7 a2bd
0.52556556 -0.7499062 0.021902086 0.21693793 -0.13919586 -1.2266047 -0.048760176 -0.076019175
-0.69870085 -0.035432436 0.1419043 -0.036757812 -0.4471131 0.25353172 -0.44389176 -0.2999789
0.08732557 -0.004437959 0.004473412 -0.03022512 0.18685128 -0.41003013 -0.7136639 -0.07951271

B1.c2_d.weight f4 [12, 24, 1, 1]
00000000: 758d f8bd 8cd2 9e3e 467d cc3c 9dbf 7fbd
00000010: 07a0 99bd 98a9 c63e 1671 393c 3904 abbd
00000020: b0bb aa3e 0253 1ebf 5bf4 1fbe 66e6 5e3e
00000030: c86e 70be cf2a e2bd beeb 523e 2646 efbc
00000040: 1198 38bf 481b 16be 80c9 c43e 012f c1be
00000050: d507 15be 27e7 febd 4a73 463f 3508 f3bd
00000060: 7cab 983d d868 47be 9bcc 083c daec d2bb
00000070: b2a3 71be 5dc9 12bf 7245 c4bc d4ee d5bc
00000080: c0ef 7cbd f387 01be 6048 e5bd e3ac 91bc
00000090: bb35 7d3e 62e0 74bf c365 31bd 39b8 81bd
000000a0: 0b8c 6abd d3e8 bbbe 93f9 dfbf 8616 13bd
000000b0: d9c6 833d 040c d83b 50e3 a7bd 3f16 c2bd
000000c0: a82e 9a3d 735c 243f b0a5 d6bd 76ba 5ebe
000000d0: 91cc 12bf 0154 02bf 624b c6be 682c 683d
000000e0: 9897 1cbf d59d 87be b599 c1bf c6a4 0ebf
000000f0: 3694 c2be 72af 0d3f 6111 de3d f758 83c0
00000100: 2a28 c43e dc8a 3f3e 50b1 d1bf 24a6 5fbf
00000110: 58dd 20bf ec05 07bf 2e8f 19bf d524 3cbf
00000120: 338d bfbc 7eff 0a3e b59b 9e3d d2a6 643e
00000130: 2c21 41bf 4659 073f 6c62 603e e678 7dbd
00000140: 15cc 0dbe 251e 173e bf73 543d 370f 443d
00000150: cba4 33bc c409 6abd dde4 64be 8dce 08bc
00000160: df11 913d 440f 9bbd c9a1 083e b7cb 4ebd
00000170: c13e 023f e2be cdbd 01f5 35be 1b5a 3ebe
00000180: c970 463d 109a 45be d535 a6bf 7690 1abd
00000190: 585e 6d3e ad9f 533b 6a42 373e a455 dd3b
000001a0: 067a a9bf f97a 65be 08e4 8e3c 13ed e03d
000001b0: 8469 733e 9cb4 37bd c1e1 093e 1494 8dbc
000001c0: 8b07 b13d 5495 ee3e 5e89 733e 9f97 963e
000001d0: 7f72 893e b1b8 ce3d eb05 fcbe 62ab 43bd
000001e0: 4aed 1abe f2d3 11ba ed63 f1bc 1aa6 afbd
000001f0: f540 0840 8fb8 a33f 3ec4 d3bd 3763 313d
00000200: 796c 5d3e c400 a6be 45bc 86bf 83b8 ad3d
00000210: b66d e33f 2a5c 603e ca94 80be 58c7 4bb9
00000220: e785 debd d1c7 0f3e 201b 1e3d d193 0940
00000230: 90fd 51be 1a5e c6bd 0d62 0e3f fc8b 5fbd
00000240: ff3e 173e bca2 8a3f 9a3a 9dbd 49f3 93bd
00000250: 06b1 573f e126 cfbd 4de7 22be 58b5 c63c
00000260: 8df9 953e 2e89 a3bd 2871 82bb 480b 873c
00000270: a33b 5c3f 84c9 46bd da3b 613e b508 0abc
00000280: e7fe e93d 53cb 973e 98c6 bbbd ff70 46bf
00000290: 6a80 8bbe 4c32 96be a425 963e 25e5 a0be
000002a0: 5e2d a3bb b773 2bbd 2d94 f7bd d3a7 1dbf
000002b0: 1979 d03d 6512 883e 0b60 21bf 6d01 58bd
000002c0: 1479 54bf 00e8 9ebe 1d38 b6bd 30bf d23c
000002d0: 78ab 713e 0e6b 533d b4a3 1cbe 2279 a73c
000002e0: 0c09 88bd e0f1 74bf c380 00bf 5e27 40bd
000002f0: 8f1c 82bf d569 07be f27d 47bf 6b91 19bd
00000300: 9f76 edbc f5df 853e c938 15bd 465b 07be
00000310: 747e 98be 505c d33e 3ce1 3bbe 42d6 653c
00000320: 72c7 8c3e 6bb5 0dbf 6fb7 8abc 8bf5 dabf
00000330: c443 153a 9d45 a5bc fb50 223e 70eb 68bd
00000340: c159 033f 0076 03be 08fc 7b3e 748f 9c3e
00000350: bb15 c1be 17e0 97be 0752 513f 29da 82be
00000360: 9ba9 2a3d f97d 1f3d 0c1f ae3d 999d 1dbd
00000370: 91e8 a63e 809a 373e fa80 09c0 cf0b 2e3d
00000380: 3fa3 57bf 3755 80bd 3dc8 f63c 1129 e83c
00000390: 2c13 6c3e 1088 133e 9145 b63d 7be4 e9bc
000003a0: 1eff e43d 2580 5ebd 21fe 7b3e a64d 383e
000003b0: 472c 2c3e b3a0 15bd a61c cabc 6ce0 ddbd
000003c0: f0c8 b43c bd1d e13e 7ac6 c63b 9b9b 6f3e
000003d0: 4e17 93be f5f8 33bf ab3b 633e 678c 56bd
000003e0: 1c80 703f 09bb 6b3b 1a14 113d 594e 69bd
000003f0: da99 00bf 3ac8 ccbe dd61 cebe ace3 14bd
-0.12136356 0.3102001 0.024962079 -0.062438596 -0.07501226 0.38801265 0.011318466 -0.08350415
0.3334632 -0.6184541 -0.15620558 0.21767578 -0.2347976 -0.11043321 0.20597741 -0.029208254
-0.72107035 -0.14658844 0.38434982 -0.37731174 -0.14553769 -0.124464326 0.7751967 -0.118668
0.07454583 -0.19473588 0.008349563 -0.0064369263 -0.23597601 -0.57338506 -0.023958895 -0.026114859
-0.06175208 -0.12649517 -0.11195445 -0.017782634 0.24727528 -0.9565488 -0.04330994 -0.06333966
-0.05726246 -0.36701068 -1.7498039 -0.035910152 0.064344116 0.0065932292 -0.08197653 -0.09476899
0.0752843 0.64203566 -0.10480821 -0.21750817 -0.57343394 -0.5090943 -0.38729388 0.056682974
-0.61168814 -0.26487604 -1.5125033 -0.55720174 -0.380037 0.55345833 0.108431585 -4.10461
0.38311893 0.18705314 -1.6382236 -0.87362885 -0.62837744 -0.5274341 -0.599841 -0.734937
-0.023382759 0.13574025 0.077445425 0.22329262 -0.7544124 0.52870595 0.21912545 -0.061882876
-0.13847382 0.14757593 0.051868197 0.047866073 -0.010964583 -0.05713822 -0.2235293 -0.008350027
0.07083487 -0.07571271 0.13342966 -0.050487246 0.50877005 -0.10046174 -0.17769243 -0.1858906
0.048447404 -0.19297051 -1.2985178 -0.037735425 0.2318052 0.003229122 0.17896429 0.006754594
-1.3240364 -0.22410192 0.017442718 0.10982718 0.2377072 -0.044849977 0.13465025 -0.017282523
0.08644017 0.46598303 0.2378287 0.29412553 0.26845166 0.10093821 -0.49223265 -0.047770865
-0.15129581 -0.00055628933 -0.029466594 -0.08576603 2.1289647 1.2790698 -0.103401646 0.04330751
0.2162341 -0.3242246 -1.0526205 0.084824584 1.7767856 0.21910158 -0.25113517 -0.0001943385
-0.108653836 0.14041068 0.038600087 2.149647 -0.20506883 -0.09685917 0.55618364 -0.05457686
0.14770125 1.0830913 -0.07677193 -0.07224137 0.8425449 -0.101148374 -0.15908547 0.024256393
0.29291955 -0.07985149 -0.0039807744 0.016484872 0.860285 -0.048532024 0.21995488 -0.0084249275
0.11425572 0.29647312 -0.09168738 -0.7751617 -0.2724641 -0.29335248 0.29325593 -0.31424823
-0.0049797734 -0.0418584 -0.12088809 -0.61584204 0.101793475 0.26576534 -0.63037175 -0.052735735
-0.8299725 -0.31036377 -0.088974215 0.02572593 0.23600566 0.051615767 -0.15296823 0.020443503
-0.066423506 -0.9568157 -0.50196475 -0.046912543 -1.0164965 -0.13223965 -0.7792655 -0.037492197
-0.028987227 0.26147428 -0.036431108 -0.13218412 -0.29783976 0.41281366 -0.18347639 0.014028134
0.27495915 -0.55354947 -0.016933171 -1.7106184 0.0005693997 -0.020174796 0.15851204 -0.056865156
0.5130883 -0.12837982 0.24607861 0.30578196 -0.37711892 -0.29663154 0.8176579 -0.25557068
0.041665655 0.038938496 0.085020155 -0.038480375 0.3259931 0.17930031 -2.148497 0.04249173
-0.8423347 -0.062662534 0.030124778 0.028339894 0.23054188 0.14407372 0.088999875 -0.02855133
0.11181472 -0.054321427 0.24608661 0.1799837 0.16813765 -0.036530208 -0.024671864 -0.10833821
0.02206847 0.43968 0.0060661407 0.23399203 -0.28728718 -0.70301753 0.2219073 -0.05237999
0.9394548 0.0035969636 0.03541956 -0.056959484 -0.5023476 -0.3999651 -0.4030904 -0.036349937

B1.c2_d.bias f4 [12]
00000000: a12b 623e 4a7e f3bd a85c 7bbf e23d f2bd
00000010: 8b5b dfbe 7e72 37be 521f 1d3c b941 abbe
00000020: b008 053d 5846 79be 448a a63d 422f 813e
0.22086956 -0.11889322 -0.9818826 -0.118282095 -0.4362453 -0.17914769 0.009589987 -0.3344858
0.03247899 -0.2434324 0.08131841 0.25231367

B1.c2_r.pw.weight f4 [24, 24, 1, 1]
00000000: b8aa 29bf 0384 90be 7b1e f93c 8b94 0c3e
00000010: 826e 633e c047 443e 62fe f6bb f161 233c
00000020: 6436 9e3e e951 6abe 0df3 223e ea35 d2bf
00000030: de6f 393e 8ded 72bf 56df 89be 4a20 1f3d
00000040: 90a2 68c0 81aa 033f 8285 6b3f 7e4a e53e
00000050: 3693 9d3d 4dfb c73c 0b03 4bbe a793 93be
00000060: a9ab 13be d080 ca3f 8323 34bd 1573 0abe
00000070: d19a 613f 6b78 893f 8a22 debd 7139 09be
00000080: 5770 f73e e875 163d bd59 513e 82b4 0f3e
00000090: b376 3cbf 8796 bb3d b47a 733e 20ac 4c3c
000000a0: 422b 083c 4f90 a13e f5f9 05be 2e14 ca3e
000000b0: 9f7a 9bbe 4db7 a0bd 7da1 da3e 10f0 333e
000000c0: 546b 5f3d b157 0ebe 403f 0c3f 235f bf3e
000000d0: 07f0 86be 6802 4c3e 259e 45bf 99cf 7d3c
000000e0: 6c37 593f db18 b8be b6d0 b63d 25cc c73e
000000f0: dc76 183f 2caf fc3d 4267 5f3e 9a9a 873d
00000100: ebe7 ca3e ec25 dabf 71bb fbbe 7168 bcbd
00000110: 13f5 983f b36e eb3f 72be c6be 0128 93bf
00000120: cbf4 8cbc cf78 053f 3580 61bd 77cb 84be
00000130: 38e4 3b40 d2f4 dd3c 9b93 b0bd 5a87 46bd
00000140: 3723 c0be 4238 af3e 71fb c7bd 9ec5 893c
00000150: bab7 01c0 5cfe 86bd 76b8 26bf 383f a03c
00000160: 761b 8b3d b08b a23d 987f 65be 4dea 2b3f
00000170: 492e 0fbd 483d 4dbd 8709 86bd d8d2 06be
00000180: f74c f5bd a28d 80be 205b 01bc f0a0 91be
00000190: 4fe0 4a3f ba92 36bf 2de0 67be 1a73 1b3c
000001a0: 8fcc 57bd ff81 7fbf 5986 053e f7c1 debb
000001b0: 4325 023f 2245 853e 564d 0d3d be98 893a
000001c0: 54c8 b4bd c16f 12bf af78 f7be c99a 41bc
000001d0: f0e4 78be cef5 1a3e 3d5d f7bc 2d44 673e
000001e0: cb2b e53d 5867 b9be f19c a33e 356b 5e3e
000001f0: 375b ac3e c616 623f fcfa 183f 6f42 133e
00000200: dbbf ba3f 8a23 75be 54e0 853d 6f5c 623c
00000210: b6f8 613f 2ddd 813e f980 d13d 80dd 773c
00000220: 363d 523c 042b e8be 7af0 90bd 7595 a23e
00000230: f013 3c3f 64f1 c03e 25f0 d73e 40f8 423f
00000240: 9461 29bf 5ed6 1bc0 e32f 8a3b 0efe 0ebe
00000250: 80ee 733f d369 3d40 9e53 08bd 4816 0a40
00000260: dae3 19be e5ea 07be 5efc 553e e165 0a3e
00000270: 6418 c93f f02a 6bbc 880f 48bf 8bb8 f53c
00000280: 40d7 1bbf c355 07bf 1e46 95bd da1c 88bf
00000290: 264d e9bd 4b86 19bd 6665 dfbd da79 e9bd
000002a0: e769 433f 82a6 c93f 7964 163b 4b34 b2ba
000002b0: 3919 9dbf 6103 e0bf a5c4 fb3b 8763 65bf
000002c0: a897 b33b 2be2 c63e a1f1 9e3d 28e5 01bd
000002d0: f43d afbf 19ca 1bbd ba4c 313f efbb 7cbc
000002e0: e9e6 37be 1b47 12be fc9c 3e3d 2d48 e3be
000002f0: 1e40 e1bc 2afa a73c dec7 d8bd ecb9 913d
00000300: bb28 48be 7345 debf b22b f93d 7b23 e43d
00000310: ac7f 083f 7ef3 773f 7a93 8e3e 3313 063f
00000320: 3831 b8be 1628 91be f199 1e3e e0ea 123f
00000330: 4e66 74be 8d90 06be 1402 8bbf 0a4d 84bd
00000340: 4dc6 ffbf a4a6 d33e d0b6 46be b3e3 83bf
00000350: dd23 483e 5902 293d 3f63 593f c337 8d3e
00000360: 8efd a6be 70f7 32c0 e290 a8bc c9b1 38bd
00000370: fbae f8bf 1184 583d a67a a0bd 848a 8e3e
00000380: 6374 0dbe b503 6cbe 2da1 03be 751a 9d3d
00000390: cfd8 c2bf b6b6 f8bd 8f86 763e c45c b6b9
000003a0: dc98 41be cf17 953e 1936 febc 8b6a 023f
000003b0: 59d2 00be c7f9 e8bc 258f ccbe 8c42 1d3e
000003c0: 018c 5abb c293 91bf 57ad b63d 1ec1 983e
000003d0: 111c 3dbf 8548 44bf 02d7 893e 87d4 073e
000003e0: a3ce 2abe f746 acbe 4935 a33e e58f 5fbe
000003f0: d0fb d23f a6f1 eabe f417 4bbc 9100 c0bb
-0.6627612 -0.28225717 0.030410042 0.1372854 0.22210124 0.19167995 -0.007537649 0.0099720815
0.30900872 -0.22882809 0.15913029 -1.6422703 0.1810908 -0.94893724 -0.26928204 0.038849153
-3.634922 0.51432043 0.9200059 0.44783396 0.07694094 0.024411822 -0.1982538 -0.28823587
-0.14420952 1.582056 -0.04397918 -0.13520463 0.88126856 1.0739874 -0.108464316 -0.13400818
0.48327896 0.036733538 0.20444389 0.14033702 -0.7361862 0.0915957 0.23777276 0.01249221
0.008311095 0.3155541 -0.13083632 0.3946852 -0.3036699 -0.07847462 0.4270133 0.17572045
0.054545715 -0.13900639 0.5478401 0.3737727 -0.26355 0.19922793 -0.77194434 0.01549139
0.8485019 -0.35956463 0.08926527 0.39022937 0.59556365 0.12338099 0.21816733 0.06621285
0.39630064 -1.7042823 -0.49166444 -0.09199608 1.1949791 1.8393158 -0.38817173 -1.1496583
-0.01720657 0.52137464 -0.05505391 -0.2593648 2.9358044 0.027094278 -0.086219035 -0.048468925
-0.37526867 0.3422261 -0.097647555 0.016817864 -2.0268388 -0.06591484 -0.65125215 0.019561395
0.06792347 0.079367995 -0.22411954 0.6715439 -0.03495625 -0.05010727 -0.06544786 -0.13166368
-0.119775705 -0.25108057 -0.007895261 -0.28443098 0.7924852 -0.71317637 -0.2264411 0.009487892
-0.052685317 -0.99807733 0.13039531 -0.0067980248 0.50838107 0.26029307 0.03449758 0.0010497791
-0.08827272 -0.5720177 -0.48334262 -0.011816689 -0.24306083 0.1513283 -0.030195827 0.22584601
0.111899935 -0.36211658 0.31955674 0.21720584 0.3366334 0.88316 0.5975797 0.14380811
1.45898 -0.23939338 0.06536928 0.013815983 0.8827013 0.25364056 0.10229678 0.015128493
0.012831977 -0.45345318 -0.07077117 0.31754652 0.7346792 0.37684166 0.42175403 0.7616005
-0.6616452 -2.434959 0.0042171343 -0.13964102 0.952858 2.959584 -0.03328287 2.15761
-0.15028325 -0.13273199 0.20897052 0.13515426 1.5710568 -0.014353499 -0.781487 0.029995224
-0.6087532 -0.52865237 -0.072887644 -1.0633805 -0.11391668 -0.037481587 -0.10908012 -0.114001945
0.7633347 1.5753939 0.002294807 -0.0013595907 -1.2273322 -1.7501031 0.007683354 -0.8960499
0.0054807253 0.38844427 0.07760931 -0.03171268 -1.3690782 -0.038034532 0.692577 -0.015425666
-0.17959179 -0.14284937 0.04653643 -0.44391003 -0.027496394 0.02050503 -0.10584997 0.0711554
-0.19546787 -1.7364944 0.12166537 0.1113958 0.5331981 0.96855915 0.2784689 0.52373046
-0.3597505 -0.28350896 0.15488411 0.5738964 -0.23867151 -0.13141079 -1.0860009 -0.064600065
-1.9982392 0.41338074 -0.19405675 -1.0303863 0.19544931 0.041262005 0.8491706 0.27581605
-0.32615322 -2.7963524 -0.020576898 -0.045091424 -1.94284 0.052860323 -0.07835893 0.27840054
-0.1381393 -0.23048289 -0.12854452 0.07671062 -1.5222415 -0.12144224 0.24074768 -0.0003478286
-0.18905967 0.29119727 -0.031031655 0.5094382 -0.12580241 -0.028439416 -0.3995296 0.15357417
-0.003334761 -1.1373217 0.08919781 0.29834837 -0.7387095 -0.76673156 0.2692185 0.13264666
-0.16680388 -0.33647892 0.3187659 -0.21832235 1.6483097 -0.45887488 -0.012395848 -0.0058594425

B1.c2_r.dw.weight f4 [24, 1, 3, 3]
00000000: fabf 073e 85f3 943e 1b96 313e 92cf 863e
00000010: f98a 6b3e dac8 ac3e 5e35 0c3e 7082 943e
00000020: 9067 183e 4308 263c d052 813c 26ea d8bb
00000030: 7efd 54bd 74c7 b33f 8888 88bd 2f38 6f3c
00000040: f4aa 27bd a70c 0d3c 674e 693c 61b6 b2be
00000050: 1885 923b 1541 223d b3a9 15bf 95e9 91be
00000060: 88e8 dbbc 69fb 8ebe 2712 9fbd 4a3c 20be
00000070: 04f8 b9bf 2ba5 11be d400 f93d b826 b23f
00000080: 6882 c43d 24af dc3d 8753 a9bd 96c6 e13d
00000090: 70a1 8f3d cc11 053e d960 783d 09ce 473e
000000a0: c109 37bf bba0 593e 4440 8f3d 158b 093e
000000b0: 0663 2c3d 554e 1bbe 4f30 88be ce8e 5dbe
000000c0: 2022 3dbe 42eb 17bf 0892 a1be 0c1c 02be
000000d0: 1f14 81be 7f2a 63be 050c 8e3d a5da 97bd
000000e0: 58df 09bd 53c1 943d fb02 d53f 03e7 d9bf
000000f0: 3b03 913d 236e 9abd 5848 feba eb0b 54bd
00000100: 6fa6 bebd 6329 ffbc 0437 79bd 8994 b4bf
00000110: ae50 4bbd 9208 78bd ca56 79bd 696e 80bd
00000120: 4d3d b93c 8577 85be 4029 6cbc 3770 70be
00000130: 57db 713f cedf 98be 0c19 dd3c 9851 79be
00000140: c540 ea3c 07ae 89bc c2a3 1e3d 3f91 a7bc
00000150: efe7 423c f3b3 51c0 c22b 843c 5ba3 45bc
00000160: faeb 5c3c 8bb5 f5bc 61c5 29be ca3d a2be
00000170: 1999 04be 3148 bebe dd01 d9bd 3948 bdbe
00000180: 8695 0abe 4e66 aabe 0173 1fbe ab94 07bd
00000190: 6478 e2bc 7527 fcbc 2dcf 46bd 9bce 983f
000001a0: 1270 4bbd fd6a 0dbd 7167 8ebd ac40 ffbc
000001b0: 77d9 203d e503 473d a787 293d d49f ad3d
000001c0: 3fdc e03f 6ca2 523d d4d0 223d c958 993d
000001d0: 4d17 903d c9f0 f3bc 5b26 99be f48e 80bd
000001e0: f720 aebe 112d b43f b00d d0be 5823 67bd
000001f0: 80f9 c8be d20a 5abd 4d76 92bc bb45 a03d
00000200: 18ea 01bc f85e 363d 18af d5bf 1b96 653d
00000210: efb2 96bc 6fe1 f63c dcda a7bc a83c d0bd
00000220: e6a4 4ebe 23ed f8bd 2159 38be 0586 e93f
00000230: 59b0 0bbe 45fb 02be 799c 65be 39f4 cdbd
00000240: 6c9d 0bbd 834d 73bc fcf8 b6bc a582 78bc
00000250: 0640 52bf 6574 cb3c b7bc 24bd 3c38 9dbc
00000260: 1560 b2bc 92a6 02bd 8da2 b93c 74e9 353c
00000270: 8ad5 76bd 84e5 b0bf 71a7 b73f d031 85bc
00000280: 692f dd3c 5065 d53b 1881 2a3c 94e4 473e
00000290: 62df ae3c abff 943e f3b6 d6bf b5c6 513e
000002a0: f77d a63c b9fa 893e 8807 ef3b 3fd0 17bd
000002b0: da10 b73d 5e6c 27bd ec1f 9cbc d375 ccbf
000002c0: f693 d13f 01fd 02bd a089 8f3d ef1d 03bd
000002d0: 906c 493c b89f 3d3d c52b 1d3d 61a5 e4bc
000002e0: f677 9dbd b2f8 4fc0 1b4a 433c abff 383c
000002f0: c443 003d 6ecd d3bb 75b5 873c 2f09 5e3b
00000300: f169 90bc 50f1 ae3f 105b 103d 0f2a 053d
00000310: 8312 6dbc 3aed b73b 4add 7dbd 9073 84be
00000320: 2297 ddbc fe7d 86be 9865 e63c 244c a3be
00000330: aadd 83bd 3626 83be 1b37 35bd cd4c e8bb
00000340: 9e0f 95bd e6bf 87bc 4dd3 ba3c 924b 58bf
00000350: 62d0 0dbc 8b4b e03b 0d84 c0bc 3291 08bc
0.13256827 0.2909204 0.17342417 0.2633024 0.23002233 0.33746988 0.13692233 0.29005766
0.14883256 0.010133806 0.015786558 -0.0066197095 -0.05199956 1.4045243 -0.06666666 0.014600798
-0.040934518 0.008608974 0.014239884 -0.3490477 0.0044714324 0.03961285 -0.58462065 -0.2849852
-0.026844278 -0.27926186 -0.07767134 -0.15647998 -1.4528813 -0.14223163 0.12158361 1.3918066
0.095951855 0.10775593 -0.08267885 0.110242054 0.07013214 0.1299507 0.060639236 0.1951219
-0.7149926 0.2125272 0.069946796 0.13431962 0.042086624 -0.151666 -0.26599357 -0.21636507
-0.18470049 -0.5934335 -0.31556726 -0.12706012 -0.25210664 -0.2218418 0.06935886 -0.0741475
-0.033660263 0.07263436 1.6641535 -1.7023624 0.07080694 -0.07540538 -0.0019400222 -0.05176918
-0.093090884 -0.031147664 -0.060843483 -1.4107829 -0.04963749 -0.06055505 -0.060873784 -0.06271059
0.022612238 -0.2606775 -0.014414132 -0.23480307 0.9447531 -0.2985825 0.026989482 -0.24347532
0.028595338 -0.016806616 0.03873039 -0.020455 0.011896118 -3.2766082 0.016134147 -0.012062873
0.013483996 -0.029993793 -0.165792 -0.31687766 -0.12949027 -0.37164453 -0.105960585 -0.36969164
-0.13533601 -0.33281177 -0.15571214 -0.033100765 -0.027645297 -0.030780533 -0.048537422 1.1938051
-0.049667425 -0.03452586 -0.06953324 -0.031158768 0.03926989 0.0485877 0.041389134 0.084777504
1.7567214 0.05142443 0.039749935 0.074876375 0.07035694 -0.029777901 -0.29912075 -0.06277266
-0.34009525 1.4076253 -0.40635443 -0.05643019 -0.39252853 -0.053232975 -0.017878676 0.078258
-0.007929347 0.044524163 -1.6694059 0.056051355 -0.018395869 0.030136792 -0.020490102 -0.10167819
-0.20180091 -0.12154605 -0.1800275 1.8244025 -0.1364149 -0.12791164 -0.22422971 -0.100563474
-0.034085676 -0.014850023 -0.022335522 -0.015167867 -0.8212894 0.024835775 -0.040219035 -0.019191854
-0.021774331 -0.031897135 0.022660518 0.011103023 -0.06026224 -1.3820043 1.4347974 -0.016259104
0.027000146 0.0065123215 0.010406755 0.1952079 0.021346752 0.2910131 -1.6774582 0.20485957
0.020323737 0.269491 0.007294599 -0.037063833 0.08938761 -0.04087483 -0.01905819 -1.5973457
1.6373279 -0.031979565 0.07008672 -0.03201097 0.01229395 0.046294898 0.03837182 -0.02791089
-0.07688896 -3.2495542 0.011919524 0.011291425 0.031314626 -0.006463698 0.016566018 0.0033879986
-0.017628642 1.3667393 0.035243094 0.032510813 -0.014469746 0.0056129964 -0.061978616 -0.25869417
-0.027049605 -0.26268 0.028124616 -0.31894028 -0.064387634 -0.2561509 -0.044242006 -0.0070892335
-0.07278369 -0.016570996 0.022805834 -0.8449031 -0.008655639 0.006844943 -0.023500467 -0.0083353985

B1.c2_r.dw.bias f4 [24]
00000000: 11d5 903c 5f51 863e f3ed 733e 2f89 68be
00000010: 5a66 79bd 72eb 54bf 161d f9bc e604 d0bd
00000020: 649c c43e a5bf f5bf dc16 013e 3b0c 373d
00000030: ca3d 88be 872c 573e 760d 3dbf 3407 f83e
00000040: 2239 b93e 0411 d5bd 90ac 3c3e 036a d1bd
00000050: 4938 e5be 40b8 febe 4c04 e83e a0fa 093e
0.017679723 0.26233956 0.23821239 -0.22708581 -0.060888626 -0.8317176 -0.030409377 -0.10157184
0.38400567 -1.919911 0.12606376 0.0446894 -0.2660964 0.2101308 -0.73848665 0.48442996
0.361764 -0.10403636 0.18425202 -0.10225298 -0.44769505 -0.49749947 0.45315778 0.13474512

B1.c3_d.weight f4 [12, 24, 1, 1]
00000000: bdb3 5a3e 45ab a7bc 50c8 903c f19d 81bc
00000010: 1051 9d3e 5fab ee3d d7d5 44bc cd50 a4be
00000020: c5e2 2ebd d06c 0dbe e849 1abf 1a98 0d3e
00000030: d2ef 4cbf 513b 8e3b 542f 833d 1e8a fd39
00000040: ac2d 84be c05b 0d3d a1a8 f73d 6a17 abbc
00000050: 6e48 4f3c 5c55 923f ef84 ac3d ccef e13e
00000060: 8d0d d6be ef6f a23e 0c4c 0ebd 0195 c2bc
00000070: dc2f 7dbf be95 933f 25e2 bdbc 4209 a63c
00000080: 2ea8 9e3d b798 2640 f875 6cbe c323 6cbf
00000090: f404 fa3d 1919 70bc c401 d83e 1883 4f3c
000000a0: 7583 babd 173d 35bd 1d9c 46be f5ec 003c
000000b0: 6e5f 6dbc 1cab d5be c24f a93e 581a 2fbe
000000c0: d602 ad3e 4424 22bd aedc 06bf 7dae 9e3c
000000d0: e63e d2be 8840 8e3f c5bb 16be 3002 263d
000000e0: a8a4 363e df23 03bc 9643 563c 8bc9 ddbd
000000f0: f34f be3d 0439 6b3e e2d3 5bbe cbde 2a3d
00000100: c90f 5cbd 1905 503d 7865 6a3e bc1a 5bbe
00000110: fdba 82be 6c0f a73e 9c90 32bf cdff cd3e
00000120: 434d bbbb 8460 19be b91b aa3c 4ce8 a9bf
00000130: 8a3f 36bd 2fe7 243e 3128 313c 3a3a 0a3c
00000140: 7701 e8bc 1ea1 1a3c 5ffc c53d 916a e0bd
00000150: 876a c93c 159e 613d aebf 873d 08b8 b8bc
00000160: 0f12 253d 5c18 803c e335 1c3e 2367 c7bb
00000170: ae6f 18bb 1b40 d23d 892a 15be c62e b23c
00000180: 8629 663e 0e78 1dbd b08a db3c b419 92bc
00000190: 8046 1ebe c271 4d3e 954b 43bb b4c4 7cbe
000001a0: e328 41bd c82f efbd dc08 b8be 97ec 2b3c
000001b0: 9064 d83f 331c 08bd ec6c a53d 90cb 093e
000001c0: e494 9dbd 3127 123d da28 003e 6bd9 1cbc
000001d0: 1285 cf3b bfcc 523e 0abc 80be c779 b43e
000001e0: d222 993e 7690 1cbf 29f1 b53c 4ff1 0fbd
000001f0: eac1 303f de47 1fbd abf9 453b 35fa c9be
00000200: 766e 17be c875 d8be 29c0 f63d d9a6 7abf
00000210: 0437 5ebf e7c1 e43e 3e06 893f 6c96 223e
00000220: 1493 713e c6a6 723d 8845 6a3d 35d6 51bd
00000230: 6308 553b 7a0c 0fbe 745d 5c3d 84ca 613e
00000240: ae41 c13d b9d8 ef3e d64f 58bb 8fb1 a5bb
00000250: 1828 c93f 7c2c 51be ca24 babb 26c7 463e
00000260: 69ce 3e3c 79f4 fc3d 0649 dfbd 09b0 2c3f
00000270: 6f53 853f 78b4 efbe 989f 3b3d 2820 1c3c
00000280: b7d2 cebe 605a 673b acc8 da3e fc50 cabb
00000290: 38c1 11bb 9693 e53e 5969 3d3f 17ff 09be
000002a0: 3526 a4be fce1 f5bd 905b 47bc 171c 1abd
000002b0: 88c8 983f 1129 c8be 84c0 2cbd 6934 4fbe
000002c0: dbdf 763d 94ef c53e b904 14bf 5834 21bf
000002d0: d028 873d cd5b 16bf f999 4a3d 690d c13c
000002e0: cbd1 373b c3f9 0dbb b7d4 0e3e b0a3 49bb
000002f0: 44aa e33b b5c0 c8bf fa92 143f c23d d23e
00000300: 6b12 2e3c 9bdb 973e 9cc8 53bb 407d babc
00000310: 17f4 d13e 421a 773d 17bd 30bc fc7c b0bd
00000320: ca5f 9e3c a72d 923e efb2 babe 76a3 42be
00000330: 8117 383f b843 cc3e a690 313f ccef aebe
00000340: 1bbb c13e 2513 08bc 6689 c2bd dc65 b6bc
00000350: 6278 afbc 6a18 5c3e 3242 bcbe 7e8d 3c3e
00000360: ee88 30be a590 8ebf f77b e13c 6c69 f9bc
00000370: f0c2 443f 30f9 523f 97a0 033c 0042 a23d
00000380: 3e60 943d 0402 a5bd 4040 153f cb51 a6be
00000390: 1319 08be 5185 b2bd 0a72 b93e 6f0e 293d
000003a0: 7ecc 13be 7ed7 203d 7fbc 0e3f ccd1 2a3c
000003b0: e04d d2ba b5d9 723f 18d2 e1bd e2fd 933e
000003c0: 0446 af3e 025a bb3e 3a30 34bf 2de9 71bc
000003d0: ed33 a4bf dd08 c03f 8824 9dbe 1095 123c
000003e0: 3a41 973e 8a5f 00be abc6 70bd af57 35bf
000003f0: 4a26 e73c 3c98 853e 71be 583d babb 033e
0.21357627 -0.02046741 0.017673641 -0.015822383 0.30725908 0.1165378 -0.012013874 -0.32092896
-0.042696733 -0.1381104 -0.6026902 0.13827553 -0.80053437 0.004340567 0.064055115 0.00048358826
-0.25816095 0.034511328 0.1209271 -0.020885188 0.012651546 1.14323 0.084237926 0.44128263
-0.41807213 0.31726024 -0.034740493 -0.023752691 -0.9890115 1.1530073 -0.023179123 0.020268086
0.077469215 2.603071 -0.23091877 -0.9224207 0.12207976 -0.014654421 0.42188847 0.0126655325
-0.09107105 -0.044247713 -0.1939549 0.007868995 -0.014488084 -0.4173211 0.33068663 -0.17099893
0.33791226 -0.039585367 -0.5268048 0.019370312 -0.41063613 1.1113443 -0.14720066 0.04052943
0.17836249 -0.008004158 0.013077637 -0.10829457 0.09292593 0.22970968 -0.21467546 0.04171638
-0.05372599 0.05078611 0.2289027 -0.21396917 -0.25533286 0.32628953 -0.69751906 0.40234223
-0.0057159974 -0.14978224 0.020765172 -1.3274016 -0.04449419 0.16103815 0.010812805 0.008436734
-0.028321011 0.009437827 0.096672766 -0.10957826 0.024586929 0.0550824 0.06628357 -0.02254869
0.040300425 0.015636615 0.15254931 -0.006085293 -0.0023259926 0.102661334 -0.14567007 0.021750819
0.22476777 -0.03844457 0.02679953 -0.017834522 -0.15456581 0.20062926 -0.002979969 -0.24684411
-0.047158133 -0.116790354 -0.3594426 0.010493419 1.6905689 -0.033230018 0.08077416 0.13456559
-0.07694414 0.035681907 0.12515584 -0.009573321 0.006333002 0.20585917 -0.25143462 0.3524916
0.29909378 -0.6115793 0.02220972 -0.03514224 0.6904589 -0.038886897 0.0030208628 -0.39448705
-0.14788231 -0.4227736 0.120483704 -0.9791084 -0.868027 0.44679186 1.070503 0.15877694
0.23591262 0.05924108 0.057195216 -0.051229674 0.003250622 -0.13969603 0.05380006 0.2204991
0.094363555 0.46845034 -0.003300657 -0.005056567 1.5715361 -0.20427126 -0.005680655 0.19411907
0.011645892 0.12351317 -0.109026 0.6745611 1.0416087 -0.46817374 0.045806497 0.009529151
-0.40395138 0.003530167 0.42731225 -0.006174205 -0.0022240411 0.44839162 0.7398887 -0.13476215
-0.320604 -0.12005994 -0.012167826 -0.037624445 1.1936197 -0.3909383 -0.042175785 -0.20234837
0.06027208 0.38659346 -0.57819706 -0.62970495 0.06599581 -0.58733827 0.049463246 0.023565965
0.002804863 -0.0021663762 0.13948332 -0.0030767731 0.0069477875 -1.568381 0.5803677 0.41062742
0.010624508 0.29659733 -0.0032315617 -0.022764802 0.41006538 0.060327776 -0.01078727 -0.08617589
0.019332785 0.28550455 -0.3646464 -0.19007668 0.71910864 0.39895415 0.6936134 -0.34167325
0.37838063 -0.008305346 -0.09498863 -0.022265367 -0.021419708 0.21493688 -0.36769253 0.1841335
-0.17239735 -1.1137892 0.027524931 -0.030445777 0.7685995 0.8241148 0.008033893 0.07922745
0.07244919 -0.08057025 0.5830116 -0.32484278 -0.13290815 -0.08716834 0.36219817 0.04127353
-0.14433476 0.03926801 0.5575637 0.010425996 -0.0016044937 0.94863445 -0.110264 0.28904635
0.34233105 0.36592108 -0.7038609 -0.014765066 -1.2828346 1.5002705 -0.30691934 0.008946672
0.2954195 -0.12536445 -0.058783215 -0.7083692 0.0282165 0.26092708 0.052915994 0.12864581
