model_zoo/team03_lkfn.pth (torch, 424057 bytes, 250 tensors)

fea_conv.pw.weight f4 [28, 12, 1, 1]
0.010549483 0.16966572 -0.19927034 -0.19974303 -0.09638037 0.11574598 0.0069912123 0.24369715
0.012713322 0.08909783 -0.07244241 -0.018412067 -0.19585593 -0.17372821 -0.18685481 0.090621375
0.13158199 0.10535938 -0.11577907 -0.108256936 0.036998957 0.3196617 -0.041958064 0.14816837
-0.019977866 -0.06700275 0.20942678 -0.24125083 -0.2792501 -0.12505427 -0.08597237 0.15186268
-0.23908368 -0.106336094 -0.2992043 -0.32233554 -0.35828608 0.5641918 -0.00072256295 -0.049875252
0.3312491 -0.27752918 -0.14094505 0.04653045 -0.3381182 -0.3385921 0.49820796 0.039719537
-0.025916914 -0.1590763 0.2363118 0.38911 -0.034091465 0.090690285 0.295682 -0.318633
0.10548697 -0.121703334 -0.3487371 -0.0974344 0.051433418 0.008391613 -0.10814845 0.008025164
0.050775092 0.026413582 -0.06816533 -0.04081284 0.24194084 0.19800626 -0.33018097 -0.042943873
0.22005235 0.25988007 0.023593232 0.36131027 0.078143544 -0.47862518 0.13316213 -0.1599017
-0.49664825 0.36308244 0.24019597 -0.51556903 0.004613361 -0.043288056 0.027079953 -0.18155533
0.116352126 -0.09640052 0.056405563 0.15133823 0.2812315 0.058519445 -0.28037965 -0.11268713
0.16066974 0.023991117 -0.113018736 -0.14969847 0.23513637 0.30669037 -0.109346226 -0.10908698
-0.16281931 0.011333416 -0.2538313 -0.11049944 -0.15649626 0.06724135 -0.2095617 0.030688563
-0.15178777 0.17060116 0.057226185 -0.21955372 -0.16318682 -0.12756677 0.066016346 -0.022870231
0.12207033 0.17247273 -0.09371311 0.14538223 -0.12174849 -0.12396031 -0.06347961 0.014557234
-0.053847846 -0.22782576 0.09376012 0.10884739 -0.13543022 -0.08700876 0.15166217 0.022943046
-0.06417006 -0.07988264 0.11104331 0.11135939 0.21845645 0.23595996 0.20188425 -0.07585704
-0.18770742 -0.068944626 0.26548937 0.06974453 -0.0755754 -0.15229197 -0.198543 -0.17573258
0.010374535 0.22993167 0.22398692 -0.20948859 0.21310769 -0.07890324 -0.059946075 -0.08402592
0.091385774 -0.055598944 -0.22600558 -0.102272145 -0.04408808 0.03676517 0.015851013 0.109832436
-0.35447943 0.24490748 0.07956806 -0.21242647 0.5250539 -0.069758035 -0.3551702 0.44700536
-0.20762518 -0.22354491 0.49520862 -0.40758833 0.043998297 -0.05220329 0.2072834 0.093604125
0.14695068 0.103102155 -0.05639914 -0.052473884 -0.23675747 0.16944677 0.23743983 0.19865797
-0.1429014 0.07804442 -0.15752897 -0.09818401 -0.10304057 0.14462169 -0.11129754 0.058875833
0.058109805 0.24681574 -0.15303642 -0.15221295 -0.19367975 0.17789468 -0.11657347 0.21744384
0.080223486 0.023748117 -0.028203893 -0.08122945 0.023413379 -0.091972716 -0.02619216 0.024027176
-0.15730613 -0.077329196 0.19447085 -0.1657732 0.05325252 0.2469339 0.17278443 0.08215126
-0.28881624 0.21150641 -0.13164327 -0.12058999 -0.14225052 0.009452567 -0.096751794 0.19270363
0.08824053 0.15866 0.13119179 -0.1303073 0.029568443 -0.2494588 -0.070144966 -0.014999282
0.041040838 0.24835868 -0.038081028 -0.053816743 0.18039657 -0.22434719 0.15442671 -0.2069361
0.058830075 -0.10335694 -0.12025692 0.09300964 0.26133853 -0.08596839 -0.13173337 -0.08417211
00000000: bdd7 2c3c dabc 2d3e 860d 4cbe 7089 4cbe
00000010: 1263 c5bd 3a0c ed3d 8a16 e53b bf8b 793e
00000020: 8a4b 503c ec78 b63d b05c 94bd e7d4 96bc
00000030: 758e 48be cfe5 31be de56 3fbe b397 b93d
00000040: 6ebd 063e a9c6 d73d 941d edbd d0b5 ddbd
00000050: 388c 173d b3aa a33e 38dc 2bbd 73b9 173e
00000060: 9fa8 a3bc bd38 89bd f973 563e 750a 77be
00000070: def9 8ebe 3a0e 00be 4812 b0bd e481 1b3e
00000080: 5ad2 74be bdc6 d9bd 4e31 99be 2a09 a5be
00000090: 4671 b7be e06e 103f 616a 3dba fe49 4cbd
000000a0: 7b99 a93e 4e18 8ebe e653 10be b796 3e3d
000000b0: d41d adbe f25b adbe 1d15 ff3e f4b0 223d
000000c0: b54f d4bc e6e4 22be b8fb 713e 6d39 c73e
000000d0: 7ea3 0bbd d4bb b93d a263 973e dd23 a3be
000000e0: 8d09 d83d 993f f9bd ab8d b2be b08b c7bd
000000f0: d9ab 523d fa7c 093c ef7c ddbd fa7b 033c
00000100: 8bf9 4f3d 4c61 d83c 449a 8bbd 5d2b 27bd
00000110: 57bf 773e 27c2 4a3e 7b0d a9be eae5 2fbd
00000120: 6755 613e 000f 853e 9846 c13c a9fd b83e
00000130: b909 a03d 5c0e f5be a75b 083e 45bd 23be
00000140: ae48 febe f1e5 b93e eff5 753e 55fc 03bf
00000150: ad2b 973b d14e 31bd c7d6 dd3c a4e9 39be
00000160: 064a ee3d a36d c5bd 8509 673d 69f8 1a3e
00000170: 93fd 8f3e 16b2 6f3d ec8d 8fbe 83c8 e6bd
00000180: 9c86 243e 0589 c43c 5e76 e7bd 8e4a 19be
00000190: 97c7 703e 8506 9d3e eaf0 dfbd ff68 dfbd
000001a0: 1bba 26be cbaf 393c 2df6 81be 884d e2bd
000001b0: 8e40 20be d5b5 893d 5897 56be 9566 fb3c
000001c0: 416e 1bbe 12b2 2e3e 0166 6a3d b1d2 60be
000001d0: 721a 27be dda0 02be 9433 873d 5a5a bbbc
000001e0: 0200 fa3d b19c 303e a9ec bfbd 14df 143e
000001f0: 4657 f9bd e7de fdbd 9901 82bd 7781 6e3c
00000200: 8f8f 5cbd 284b 69be 4e05 c03d 61eb de3d
00000210: 38ae 0abe a631 b2bd 544d 1b3e 0ef3 bb3c
00000220: 986b 83bd 8299 a3bd ad6a e33d 6410 e43d
00000230: 0cb3 5f3e 7d9f 713e bfba 4e3e f05a 9bbd
00000240: 6036 40be d732 8dbd 39ee 873e 38d6 8e3d
00000250: 46c7 9abd 6df2 1bbe db4e 4bbe 3ef3 33be
00000260: f4f9 293c 3573 6b3e d45c 653e 2d84 56be
00000270: e738 5a3e 0698 a1bd 048a 75bd c815 acbd
00000280: 7728 bb3d b8bb 63bd 026e 67be 0f74 d1bd
00000290: b495 34bd 1397 163d fcd9 813c d4ef e03d
000002a0: 547e b5be 07c9 7a3e 94f4 a23d 5386 59be
000002b0: ef69 063f 4ddd 8ebd ded8 b5be e3dd e43e
000002c0: b29b 54be f5e8 64be fc8b fd3e 6baf d0be
000002d0: 8f37 343d 1ed3 55bd 1a42 543e 85b3 bf3d
000002e0: 3d7a 163e 3927 d33d c902 67bd dbee 56bd
000002f0: 8d70 72be 7483 2d3e 6d23 733e ff6c 4b3e
00000300: bf54 12be c1d5 9f3d 464f 21be b314 c9bd
00000310: ef06 d3bd b517 143e f7ef e3bd c927 713d
00000320: 8c04 6e3d 44bd 7c3e 94b5 1cbe b6dd 1bbe
00000330: fc53 46be 062a 363e 12be eebd 99a9 5e3e
00000340: 364c a43d 698b c23c da0b e7bc a05b a6bd
00000350: 6acd bf3c 315c bcbd f190 d6bc a4d4 c43c
00000360: dc14 21be c55e 9ebd 5e23 473e 73c0 29be
00000370: 501f 5a3d 3edc 7c3e 67ee 303e eb3e a83d
00000380: b9df 93be 2395 583e 7ecd 06be e2f7 f6bd
00000390: 1faa 11be f1de 1a3c ce25 c6bd 1a54 453e
000003a0: 73b7 b43d c477 223e 2457 063e 476f 05be
000003b0: 8539 f23c 2172 7fbe 2aa8 8fbd 8cbf 75bc
000003c0: 701a 283d bd51 7e3e dafa 1bbd f26e 5cbd
000003d0: e1b9 383e 45bb 65be 0922 1e3e 0fe7 53be
000003e0: cef7 703d ceac d3bd 4349 f6bd d77b be3d
000003f0: 2ace 853e 3210 b0bd 1de5 06be 6d62 acbd

fea_conv.dw.weight f4 [28, 1, 3, 3]
0.004246666 -0.0031516107 -0.013142596 0.029174984 -0.022587515 -0.02871152 -0.0077368934 0.023406351
0.020656155 -0.0060130423 -0.0019621907 -0.0137314815 -0.012246715 -0.04424067 -0.033211436 -0.006203536
-0.017062468 0.008880383 -0.02311812 -0.03381789 -0.051120944 -0.00629884 -0.48816535 -0.05603723
-0.06862017 -0.27042422 -0.05993252 0.0073426417 0.03919474 -0.0011977993 0.039182235 -0.1015673
0.012015147 -0.0011642288 0.011959415 -0.0004928302 -0.002369926 0.0011196389 -0.0065439143 0.008988118
-0.01225146 -0.021456348 0.0048504006 0.030086271 -0.0032049697 0.0111190425 -0.04812357 0.00902628
-0.052942682 0.111146584 -0.0037391954 -0.0009478797 -0.033057336 -0.0040037227 0.0012054824 -0.0049041198
0.0003361901 -0.007890127 -0.4693876 -0.0017127532 0.0020656749 -0.0013459476 0.002193815 0.010802708
0.008116989 -0.0028548709 -0.017748032 0.012213692 -0.032296907 -0.0032662041 -0.01987401 -0.00921441
-0.025387574 0.25405386 -0.12578392 0.05219192 0.62178284 -0.15361042 -0.12388292 -0.31120768
-0.15223297 0.041748498 0.05436938 0.04080836 0.14338528 -0.82300174 0.13642891 0.051372055
0.26732475 0.03626363 -0.0003198598 0.0032709844 0.01924171 -0.009285626 0.02139992 -0.04604674
0.014664214 -0.017359367 0.0047727274 0.004603479 0.05052295 -0.016679075 0.0004788959 -0.38846603
-0.036915813 -0.025495633 -0.07817492 -0.026621051 -0.011662457 -0.06634744 -0.05525962 0.039835934
-0.08783729 -0.28744134 0.074126355 0.34675682 0.015140276 0.21901925 0.08603517 0.13104545
0.09464107 0.22092688 -0.3323177 0.09493299 -0.43047687 -0.030467115 0.0006238352 0.023557479
0.0035513924 0.025187384 -0.5585126 0.039463706 0.0034708316 0.040061384 0.007824158 0.08247277
0.25394282 0.057304338 0.2513547 -0.88862526 0.06137077 0.08395059 0.05608795 0.034128703
-0.003285343 -0.39747748 -0.09090123 0.48375812 0.26638713 -0.08282792 -0.007826989 -0.095080286
-0.04090958 0.0020501805 0.0028727108 -0.03676133 -0.0075756977 -0.037553553 0.06835688 0.00062431867
0.04549832 -0.028966587 0.013857336 -0.0075524077 -0.011971499 -0.013502718 0.014454301 0.0012136594
-0.0048871376 -0.009474386 -0.004770554 -0.0021549969 -0.03144561 -0.0031239463 -0.04017286 0.1239378
-0.0138114635 0.010659488 -0.046819318 0.0016932704 -0.008692469 0.07165595 -0.013742608 0.0047830148
-0.018250043 0.036648553 -0.034975074 -0.0032069946 0.0060800766 0.017266875 -0.0027221183 0.0031887658
-0.00041136815 0.23630983 -0.12339805 0.0042889393 -0.13166218 -0.036065448 0.018711196 0.11656215
0.026862262 0.123857185 -0.6244577 0.15035969 0.023143528 0.15055437 0.02301379 0.026984012
-0.0036497721 0.010783384 -0.020628536 0.09778146 -0.06568707 0.023854904 -0.06469202 -0.0009528384
0.0006991615 0.010276705 -0.020646252 0.002893573 0.039724126 -0.018569773 -0.0050162696 0.016169377
-0.0124055855 -0.017791757 -0.09920632 -0.015764195 -0.103759415 0.27502128 -0.014449768 -0.007878753
-0.017795421 0.0020506533 -0.024433257 -0.027209401 0.0055443705 -0.030657617 0.21483395 -0.029550519
-0.029244768 -0.04530646 -0.028465252 -0.003507736 -0.048260354 0.0008293393 -0.030920606 -0.009550241
0.07399379 -0.012103899 0.057945587 -0.020757465
00000000: 9e27 8b3b 418b 4ebb 0b54 57bc 6000 ef3c
00000010: 7409 b9bc 6c34 ebbc c485 fdbb adbe bf3c
00000020: 1937 a93c 0e09 c5bb 1998 00bb 02fa 60bc
00000030: 72a6 48bc b435 35bd b708 08bd 0847 cbbb
00000040: 97c6 8bbc 077f 113c 3662 bdbc a184 0abd
00000050: 3264 51bd 8066 cebb cff0 f9be 4b87 65bd
00000060: bb88 8cbd 0b75 8abe cd7b 75bd 8b9a f03b
00000070: aa8a 203d 7aff 9cba 8d7d 203d 8402 d0bd
00000080: 2edb 443c 0999 98ba 6cf1 433c 4631 01ba
00000090: c350 1bbb d9c0 923a 556e d6bb e642 133c
000000a0: 59ba 48bc 39c5 afbc 1cf0 9e3b 7c77 f63c
000000b0: 780a 52bb a52c 363c 381d 45bd f6e2 133c
000000c0: 6dda 58bd d2a0 e33d 4a0d 75bb 217b 78ba
000000d0: 2167 07bd a931 83bb 4701 9e3a bdb2 a0bb
000000e0: ac42 b039 9745 01bc 9253 f0be 767e e0ba
000000f0: 4660 073b 826a b0ba 1cc6 0f3b d7fd 303c
00000100: 1ffd 043c c918 3bbb 5264 91bc f01b 483c
00000110: c349 04bd d00d 56bb d2ce a2bc 09f8 16bc
00000120: 9af9 cfbc 5913 823e 80cd 00be 32c7 553d
00000130: 292d 1f3f 0d4c 1dbe 54b6 fdbd 9d56 9fbe
00000140: f6e2 1bbe 7900 2b3d 6db2 5e3d ab26 273d
00000150: 97d3 123e 3eb0 52bf 05b4 0b3e 816b 523d
00000160: cade 883e 2c89 143d dbb2 a7b9 035e 563b
00000170: caa0 9d3c bd22 18bc e34e af3c 829b 3cbd
00000180: 2c42 703c 3b35 8ebc 8a64 9c3b c8d8 963b
00000190: 27f1 4e3d 8ea2 88bc 5214 fb39 05e5 c6be
000001a0: 0935 17bd 38dc d0bc 2c1a a0bd 6414 dabc
000001b0: e413 3fbc 2be1 87bd e957 62bd 012b 233d
000001c0: 09e4 b3bd 832b 93be 8fcf 973d 1c8a b13e
000001d0: ec0e 783c 9546 603e 3533 b03d c730 063e
000001e0: 2dd3 c13d a83a 623e 8c25 aabe 3a6c c23d
000001f0: 7767 dcbe 2c96 f9bc df88 233a 9dfb c03c
00000200: 7abe 683b c655 ce3c affa 0ebf b2a4 213d
00000210: e476 633b 6817 243d e630 003c 7ce7 a83d
00000220: cb04 823e f4b7 6a3d 90b1 803e f27c 63bf
00000230: eb5f 7b3d 49ee ab3d 7abc 653d 8aca 0b3d
00000240: e94e 57bb 2b82 cbbe 6d2a babd 25af f73e
00000250: e563 883e afa1 a9bd c53c 00bc 74b9 c2bd
00000260: ce90 27bd 525c 063b 1744 3c3b 0c93 16bd
00000270: 8f3d f8bb c1d1 19bd b1fe 8b3d 51a9 233a
00000280: 725c 3a3d 564b edbc e109 633c 307a f7bb
00000290: 1b24 44bc 813a 5dbc bcd1 6c3c a713 9f3a
000002a0: 4824 a0bb 753a 1bbc 4f52 9cbb d93a 0dbb
000002b0: 1dcd 00bd 1fbb 4cbb 4c8c 24bd 1ad3 fd3d
000002c0: 7a49 62bc 22a5 2e3c 9dc5 3fbd baf0 dd3a
000002d0: dc6a 0ebc 5bc0 923d ad28 61bc d6ba 9c3b
000002e0: 1d81 95bc cb1c 163d 0642 0fbd 712c 52bb
000002f0: 613b c73b 4373 8d3c 9165 32bb 9dfa 503b
00000300: e6ac d7b9 34fb 713e 1eb8 fcbd 3b8a 8c3b
00000310: 73d2 06be 5db9 13bd 3948 993c 23b8 ee3d
00000320: 3f0e dc3c d6a8 fd3d 76dc 1fbf e4f7 193e
00000330: 7f97 bd3c ed2a 1a3e 6a87 bc3c 930d dd3c
00000340: 0431 6fbb caac 303c 2dfd a8bc a541 c83d
00000350: f186 86bd 5c6b c33c 407d 84bd e7c7 79ba
00000360: ef47 373a a05f 283c 5422 a9bc 19a2 3d3b
00000370: c4b5 223d a31f 98bc 855f a4bb a475 843c
00000380: cc40 4bbc 05c0 91bc af2c cbbd ea23 81bc
00000390: d17f d4bd 97cf 8c3e b8be 6cbc e315 01bc
000003a0: b4c7 91bc 4164 063b 4128 c8bc 40e6 debc
000003b0: 8dad b53b af25 fbbc 6efd 5b3e ee13 f2bc
000003c0: b992 efbc 4493 39bd f62f e9bc 0be2 65bb
000003d0: a6ac 45bd 0568 593a 364d fdbc 9d78 1cbc
000003e0: 0e8a 973d 6f4f 46bc 5a58 6d3d 8f0b aabc

fea_conv.dw.bias f4 [28]
0.110276245 0.13481946 -0.26809025 0.00010991812 -0.000103465456 0.12532362 0.035789654 0.03823074
-0.0102356365 0.008264916 0.13361906 0.123021066 -0.006977315 0.00363029 -0.05228446 0.0039278376
0.0062936265 -0.10946624 0.1812517 -0.038076214 -0.11159111 0.002885825 -0.039718047 -0.17249396
0.014886092 0.0009298136 0.0018839785 0.029019348
00000000: 83d8 e13d 1d0e 0a3e 2043 89be d783 e638
00000010: 98fb d8b8 d654 003e 2c98 123d d697 1c3d
00000020: 5fb3 27bc 9269 073c 6fd3 083e 78f2 fb3d
00000030: f6a1 e4bb 29ea 6d3b 3b28 56bd 17b5 803b
00000040: c43a ce3b d62f e0bd 0c9a 393e cef5 1bbd
00000050: e189 e4bd 1c20 3d3b 64af 22bd 42a2 30be
00000060: cce4 733c bcbe 733a d4ef f63a fcb9 ed3c

B1.c1_d.weight f4 [14, 28, 1, 1]
0.20432393 0.2517707 0.8589105 0.573934 0.52377456 0.32540223 0.85522276 -0.13865764
-1.0642371 -0.7389043 0.42079818 -0.21255808 0.9550475 0.53479064 1.1570005 0.47151512
0.25309157 -0.103281975 0.2715951 -0.43606544 -0.28521404 0.64154464 0.12717997 -0.029192166
0.14781593 -0.17983465 0.7248463 0.20148231 0.0039765807 -0.16102612 -0.11793211 -2.8479698
-1.914514 -0.03950139 1.5279051 -0.073696576 0.45185024 -1.1474622 0.16727893 0.1354239
0.15015753 0.729073 -0.34051672 0.5373102 0.38850766 0.05406157 0.36559016 0.020713517
-0.041046336 -1.867974 2.1647491 0.074154995 0.5925248 1.7225503 -2.368917 -0.6092812
-0.11156814 0.26882315 0.7557714 -1.9306955 -0.7993857 0.07386798 0.37901974 -0.3924397
-0.738234 0.365382 0.010112919 -0.3931412 0.7977071 0.9211869 0.2907295 -1.3076832
-0.40783167 0.15865947 -0.017212456 -0.17130604 0.065107025 -0.1323821 0.36261234 0.037471313
0.5718906 0.4986312 0.0626627 0.4874358 -0.1188651 -0.11142186 -1.4517672 2.391373
0.23685494 -0.17295572 1.6907003 -0.042583276 2.1433656 -0.5824646 -0.4029333 0.7698996
-1.7548072 -0.15516008 -0.8142936 0.1967124 0.7735793 0.19207779 0.28303796 0.2880563
0.35844865 2.1559427 -0.6833362 -0.13502216 -0.16541715 -0.22220743 0.21188955 -0.2521462
0.07076231 -0.05435945 -0.7141556 0.93142396 -0.54758304 0.050603583 -0.8681406 -0.19056927
0.5181032 -1.4691542 -0.09142832 0.45143116 -0.060385574 1.1285379 -1.3651257 -0.13170044
0.49874964 0.31428444 0.041495606 -0.23473592 0.22129685 0.9277055 0.056423027 -0.08470258
-0.030112423 -0.48928252 0.89653826 -0.14215782 0.33605504 0.564554 -0.26866835 -0.59226125
0.3542816 0.6765167 -0.3599174 0.36417183 0.16975693 -1.3066103 0.4281286 0.09495381
-0.16166194 0.32216385 -0.7610121 0.911108 0.7154989 -0.26570365 0.38986072 -0.7521796
-0.24414879 1.1819258 -1.2952644 -0.7771652 0.3180961 -0.07025396 -0.7901817 0.41322368
-0.06672195 -0.08860636 -0.18490258 -0.3667427 0.6964627 0.14447638 -0.38021827 -0.11970369
1.3809978 -1.2938547 0.018035844 -0.28999028 -0.37607557 0.59220916 0.18537506 0.18339907
0.9989442 -0.25979632 0.21637498 -0.4251578 -0.020795414 -1.0074657 0.24476391 -0.4293548
-0.042826675 -1.3334013 -0.03867603 -0.21922989 -0.14806177 0.3188181 0.35302275 0.26721433
0.8591338 0.066473454 -1.754841 -0.36344418 -0.25961575 0.5192394 0.119000666 0.1558338
0.40450755 -0.3311292 0.6617027 0.005017614 -0.354599 -0.16871981 -0.35634425 -0.14042087
0.0062250313 -0.4462698 -2.5881822 0.20052056 -0.44688892 -1.185682 -0.17546974 1.0213643
-0.15379305 0.11378402 -0.17569216 1.8035605 1.0712909 0.19019625 0.56486136 -0.0672793
0.7250561 -0.49110144 0.12112845 1.0430351 0.32966858 0.56540304 1.7578825 -0.59796375
-0.15894769 -0.06525554 0.3366745 -0.3438546 0.0888986 -1.305142 0.5888991 -0.13168564
-0.14923473 -0.10573027 1.1426954 -0.34181157 -0.07409768 -0.094450414 -1.68582 0.049635123
00000000: 4b3a 513e 17e8 803e 8fe1 5b3f 57ed 123f
00000010: 1716 063f 1f9b a63e e1ef 5a3f 45fc 0dbe
00000020: ec38 88bf d528 3dbf dc72 d73e d3a8 59be
00000030: fe7d 743f 0ae8 083f 9818 943f 6e6a f13e
00000040: 3895 813e 8085 d3bd 830e 8b3e f843 dfbe
00000050: 9307 92be 453c 243f 773b 023e 6924 efbc
00000060: 0f5d 173e 9326 38be 878f 393f 6151 4e3e
00000070: fa4d 823b 08e4 24be 6486 f1bd 2345 36c0
00000080: cb0e f5bf 36cc 21bd 6592 c33f 3bee 96bd
00000090: ea58 e73e 0be0 92bf 2b4b 2b3e 90ac 0a3e
000000a0: e5c2 193e 87a4 3a3f 3558 aebe 298d 093f
000000b0: 7aea c63e aa6f 5d3d a22e bb3e 65af a93c
000000c0: 3420 28bd c619 efbf 408b 0a40 93de 973d
000000d0: b5af 173f 877c dc3f 569c 17c0 daf9 1bbf
000000e0: d67d e4bd 30a3 893e 3c7a 413f 0821 f7bf
000000f0: 8ba4 4cbf 1848 973d e00e c23e dbed c8be
00000100: e7fc 3cbf 5913 bb3e a8b0 253c ce49 c9be
00000110: 8836 4c3f e8d2 6b3f 7fda 943e 2a62 a7bf
00000120: 50cf d0be a177 223e 2301 8dbc da6a 2fbe
00000130: d556 853d 2c8f 07be 53a8 b93e 857b 193d
00000140: 6c67 123f 974c ff3e 4d55 803d 2f91 f93e
00000150: 8c6f f3bd 2531 e4bd 82d3 b9bf 410c 1940
00000160: 1a8a 723e 4e1b 31be de68 d83f cd6b 2ebd
00000170: e72c 0940 661c 15bf 464d cebe 2418 453f
00000180: 869d e0bf 49e2 1ebe 8c75 50bf fa6e 493e
00000190: 4b09 463f 0ab0 443e 5aea 903e 1e7c 933e
000001a0: 9586 b73e f7fa 0940 1fef 2ebf 4043 0abe
000001b0: 1d63 29be 588a 63be 93f9 583e 4f19 81be
000001c0: d4eb 903d 04a8 5ebd e7d2 36bf cd71 6e3f
000001d0: 672e 0cbf b445 4f3d 763e 5ebf 9724 43be
000001e0: 69a2 043f 3f0d bcbf c53e bbbd fc21 e73e
000001f0: dd56 77bd ee73 903f 70bc aebf 7bdc 06be
00000200: 1d5c ff3e e4e9 a03e 4cf7 293d 9d5e 70be
00000210: a49b 623e 1c7e 6d3f d51b 673d 8c78 adbd
00000220: 54ae f6bc 3d83 fabe 8883 653f d291 11be
00000230: 680f ac3e 9c86 103f e68e 89be 6f9e 17bf
00000240: 6664 b53e 3330 2d3f 1847 b8be bb74 ba3e
00000250: c3d4 2d3e 023f a7bf ac33 db3e 2577 c23d
00000260: b58a 25be a9f2 a43e b0d1 42bf 603e 693f
00000270: f02a 373f 4f0a 88be d39b c73e d88e 40bf
00000280: 2402 7abe 5849 973f 39cb a5bf 4cf4 46bf
00000290: 7edd a23e 4fe1 8fbd 5949 4abf 0e92 d33e
000002a0: 85a5 88bd 4077 b5bd 1a57 3dbe b3c5 bbbe
000002b0: 614b 323f 9ef1 133e f8ab c2be 3527 f5bd
000002c0: 89c4 b03f 089d a5bf e8bf 933c 9b79 94be
000002d0: fa8c c0be 059b 173f f6d2 3d3e f7cc 3b3e
000002e0: cfba 7f3f 0604 85be 6791 5d3e 48ae d9be
000002f0: 255b aabc a3f4 80bf 64a3 7a3e 64d4 dbbe
00000300: 066b 2fbd e5ac aabf c26a 1ebd cd7d 60be
00000310: 819d 17be 203c a33e 66bf b43e 51d0 883e
00000320: 31f0 5b3f 3c23 883d a19e e0bf 5b15 babe
00000330: 5bec 84be e0ec 043f 9fb6 f33d e592 1f3e
00000340: 9d1b cf3e c489 a9be 5965 293f cc6a a43b
00000350: 008e b5be e3c4 2cbe c172 b6be 7dca 0fbe
00000360: 59fb cb3b 7a7d e4be c7a4 25c0 4355 4d3e
00000370: a0ce e4be 6ec4 97bf 57ae 33be 11bc 823f
00000380: ed7b 1dbe 9907 e93d a5e8 33be 12db e63f
00000390: 0f20 893f cec2 423e c19a 103f bbc9 89bd
000003a0: 479d 393f a671 fbbe 3112 f83d 2d82 853f
000003b0: 52ca a83e 41be 103f 4b02 e13f 2714 19bf
000003c0: 2fc3 22be b2a4 85bd 9a60 ac3e b60d b0be
000003d0: 7810 b63d e50e a7bf 17c2 163f 9ad8 06be
000003e0: fdd0 18be 1d89 d8bd d843 923f ed01 afbe
000003f0: 86c0 97bd 386f c1bd f3c8 d7bf 334e 4b3d

B1.c1_d.bias f4 [14]
0.028376361 0.07574074 -0.023345958 -0.06186831 0.07099701 0.399851 0.09819703 -0.096657395
0.30210218 -0.081780136 -0.1557831 0.14649978 0.3467593 -0.26201028
00000000: 8b75 e83c f61d 9b3d 0640 bfbc a069 7dbd
00000010: e166 913d 45b9 cc3e 861b c93d 50f4 c5bd
00000020: 23ad 9a3e 587c a7bd 9b85 1fbe 0a04 163e
00000030: 6f8a b13e 3626 86be

B1.c1_r.pw.weight f4 [28, 28, 1, 1]
0.27271083 -0.12242117 0.012043053 -0.008730863 -0.010530023 -0.064261824 -1.0461552 0.16744986
0.056981053 -0.029617717 -0.0033522663 0.07951786 0.036840416 -0.063354805 -1.2655133 -0.002172914
0.074013606 0.065277755 0.012565952 0.93645144 0.12538408 1.1062722 2.2956426 0.15074573
-0.19030029 1.802205 -0.89525384 0.28791147 0.044125944 -0.04598001 0.03769565 0.17200935
0.069885 0.06886516 0.42483982 -0.09095572 0.07274742 0.025650492 0.035978433 -0.014180462
0.05293387 0.074227765 -1.1394767 0.025072694 -0.13936612 -0.2588648 0.54048127 0.32105067
0.07070704 1.3487054 2.192617 -0.1070538 0.5510846 1.4560807 -1.005001 -0.3655607
-0.08074894 0.045546032 0.036308143 -0.2288919 -0.14672515 -0.013298152 0.47869173 0.08117964
-0.028566303 -0.019601488 -0.051507156 0.077328034 0.024872795 0.028862946 1.4253426 0.04635406
0.10611163 -0.33970854 0.0033434627 -0.56586283 -0.17863806 -1.5226836 1.2852714 -0.53809494
0.3559956 0.11265712 0.18360846 0.5862099 -0.056851145 0.045577902 0.053126395 0.023850001
0.13781123 0.08645037 -1.1754829 -0.022005703 0.075811476 -0.0037716313 0.01054539 0.020477561
0.019279605 -0.011349353 4.2036123 -0.12402902 -0.07245888 -0.4454067 0.55507535 0.70516527
-0.6755379 -1.42705 2.8735814 -0.4080197 -0.16876948 0.89748895 0.11137702 0.42314774
-0.019480985 0.0025937052 -0.0060108015 0.7418201 0.4515012 -0.09558185 -0.01829921 0.0398692
0.10317988 -0.08729146 -0.02720562 -0.0077232923 -0.061005577 -0.08630489 -1.1525899 -0.017046312
0.032324716 -0.22764972 -0.5502791 -0.32627755 -0.019350098 2.6426172 -0.5881944 0.16106108
0.54339147 0.022694217 -0.16127244 0.281208 0.0021850367 -0.03370411 0.049598362 -0.021477303
-0.13317032 -0.114641935 0.4149631 0.1324818 0.23751017 -0.013217824 -0.04435159 -0.086784095
-0.11989911 -0.24465434 1.235352 -0.43233538 -0.15969388 0.29447958 -0.8319181 -0.90612763
0.32809523 -0.13476479 -3.728651 -0.04531705 -0.2001601 -2.4377422 1.9409506 -0.20569961
0.24332854 0.0655138 -0.98018116 0.17773499 0.11665064 -0.13483295 0.5520819 0.03953857
-0.09349225 -0.5756839 0.13601609 0.13029972 0.06542516 -0.017929709 -1.2593995 1.9996121
1.1364963 1.0515107 -1.016266 0.53373575 0.72249866 0.98608214 0.44562802 0.8741922
-1.374992 0.032666557 -2.8758726 -1.2259843 -0.058820225 -0.016600287 0.043945048 0.5692534
0.26759762 0.05800669 -0.09039375 -0.024434142 0.12672381 0.022534218 0.03173678 0.004819424
0.054129984 0.014885305 1.259522 -0.06249372 -0.102609016 0.04794912 0.63348514 0.32290262
0.1182643 -1.4416229 1.1387136 -0.021485895 0.0743494 0.91429824 -0.6547949 -0.1597947
-0.029618122 -0.0038533234 0.03549146 -1.48554 -1.193561 -0.03763735 -0.014243377 0.016592486
-0.08368817 0.08016312 0.060111348 0.0642685 0.002076629 0.14823909 -2.5510435 -0.021409698
-0.031524602 0.24459773 -0.06548802 0.04522231 0.112873614 -1.0914762 -1.422797 0.23550387
-0.2835596 -0.6724916 1.84771 -0.33797035 0.049407236 -0.03725331 -0.08712655 -0.63967764
00000000: c1a0 8b3e f3b7 fabd 3a50 453c e50b 0fbc
00000010: 1e86 2cbc b49b 83bd 6ae8 85bf fa77 2b3e
00000020: f764 693d dba0 f2bc b2b1 5bbb 43da a23d
00000030: fae5 163d 2ac0 81bd 57fc a1bf 7367 0ebb
00000040: 7294 973d 58b0 853d 6ce1 4d3c 48bb 6f3f
00000050: af64 003e 549a 8d3f cfeb 1240 175d 1a3e
00000060: 14de 42be a7ae e63f 5b2f 65bf 2269 933e
00000070: 68bd 343d 8955 3cbd c166 1a3d 3823 303e
00000080: de1f 8f3d 2d09 8d3d 9b84 d93e fe46 babd
00000090: 99fc 943d fb20 d23c 1f5e 133d 2b55 68bc
000000a0: 30d1 583d ba04 983d 5fda 91bf 4065 cd3c
000000b0: feb5 0ebe ed89 84be fb5c 0a3f c160 a43e
000000c0: dace 903d 61a2 ac3f d653 0c40 063f dbbd
000000d0: e113 0d3f da60 ba3f dfa3 80bf c62a bbbe
000000e0: b35f a5bd 7a8e 3a3d d9b7 143d a362 6abe
000000f0: 1e3f 16be 7ee0 59bc 1517 f53e 8341 a63d
00000100: e103 eabc 4d93 a0bc 2bf9 52bd 295e 9e3d
00000110: 08c2 cb3c fc71 ec3c a071 b63f c1dd 3d3d
00000120: 0e51 d93d 47ee adbe ff1d 5b3b 63dc 10bf
00000130: e5ec 36be 4ce7 c2bf c683 a43f 97c0 09bf
00000140: 0e45 b63e c7b8 e63d db03 3c3e da11 163f
00000150: bfdc 68bd e5af 3a3d 109b 593d 1461 c33c
00000160: 631e 0d3e e40c b13d 3976 96bf 4e45 b4bc
00000170: 0c43 9b3d 792d 77bb 92c6 2c3c 8fc0 a73c
00000180: 43f0 9d3c a3f2 39bc fe83 8640 ed02 febd
00000190: 5265 94bd 590c e4be 6b19 0e3f b685 343f
000001a0: 0df0 2cbf 93a9 b6bf c2e8 3740 f5e7 d0be
000001b0: e8d1 2cbe d6c1 653f a319 e43d d2a6 d83e
000001c0: 9696 9fbc 27fb 293b 42f6 c4bb ece7 3d3f
000001d0: 2a2b e73e 6bc0 c3bd 3ae8 95bc e34d 233d
000001e0: f94f d33d ddc5 b2bd 52de debc ac13 fdbb
000001f0: fce0 79bd 9ec0 b0bd 1188 93bf b5a4 8bbc
00000200: ec66 043d 021d 69be 17df 0cbf da0d a7be
00000210: 1984 9ebc a420 2940 e893 16bf 32ed 243e
00000220: b41b 0b3f 39e9 b93c 9a24 25be 7ffa 8f3e
00000230: d532 0f3b 520d 0abd a727 4b3d 2bf1 afbc
00000240: cd5d 08be 64c9 eabd 0b76 d43e 4fa9 073e
00000250: de35 733e 928f 58bc 03aa 35bd dcbb b1bd
00000260: aa8d f5bd ab86 7abe 0420 9e3f 105b ddbe
00000270: cb86 23be 07c6 963e 96f8 54bf fbf7 67bf
00000280: 19fc a73e c8ff 09be 38a2 6ec0 5f9e 39bd
00000290: c5f6 4cbe f803 1cc0 1271 f83f eba2 52be
000002a0: 1e2b 793e 192c 863d 27ed 7abf 2900 363e
000002b0: 88e6 ee3d a611 0abe 3d55 0d3f 32f3 213d
000002c0: dd78 bfbd 0560 13bf cd47 0b3e 4a6d 053e
000002d0: a0fd 853d 53e1 92bc 0134 a1bf 4af3 ff3f
000002e0: b678 913f e797 863f 0115 82bf e8a2 083f
000002f0: acf5 383f e16f 7c3f 5b29 e43e 0fcb 5f3f
00000300: bdff afbf 5ecd 053d 4c0e 38c0 0eed 9cbf
00000310: 7aed 70bd 53fd 87bc b9ff 333d 97ba 113f
00000320: 8e02 893e 6c98 6d3d 5c20 b9bd 1c2a c8bc
00000330: e3c3 013e ae99 b83c 6dfe 013d 42ec 9d3b
00000340: 67b7 5d3d 7fe1 733c 0438 a13f 6af9 7fbd
00000350: ad24 d2bd 4c66 443d 152c 223f 7e53 a53e
00000360: 8e34 f23d 1987 b8bf 5ec1 913f 3003 b0bc
00000370: 8044 983d 730f 6a3f a3a0 27bf 39a1 23be
00000380: b4a1 f2bc 0a88 7cbb 7e5f 113d 2d26 bebf
00000390: 9bc6 98bf 9f29 1abd 0e5d 69bc f7ec 873c
000003a0: b464 abbd 902c a43d 5137 763d 349f 833d
000003b0: 0e18 083b fdcb 173e 4c44 23c0 6463 afbc
000003c0: f11f 01bd d477 7a3e 951e 86bd 073b 393d
000003d0: 482a e73d 7eb5 8bbf 361e b6bf ed27 713e
000003e0: b92e 91be 6928 2cbf c381 ec3f 730a adbe
000003f0: 3e5f 4a3d ed96 18bd 686f b2bd eac1 23bf

B1.c1_r.pdw.weight f4 [14, 1, 5, 5]
0.07167044 0.050557856 -0.16651833 0.17512737 0.032588467 -0.33111566 -0.96700937 -0.24513695
-1.0089366 -0.36666438 0.12988928 -0.70176727 0.64904404 -0.7685276 0.19884013 -0.0061938586
-0.79996 -0.39471453 -0.71631616 -0.10904088 0.117845304 -0.24436405 -0.107294284 -0.17354916
0.13689277 0.27546987 0.33127815 0.3902567 -0.2532209 -0.00030050386 -0.3603726 -0.3363904
0.047022816 0.0070400937 0.089642935 0.1863685 -0.22398919 -0.7733618 0.3244848 0.059767302
0.29746416 0.5264053 0.9246996 0.9103339 0.3635847 0.0011699175 0.1518035 -0.119638585
0.27491117 -0.30982146 0.010512841 0.00083914807 0.035055835 0.0019197438 0.0010817153 0.014760786
0.081343554 0.37753212 0.05208094 0.026273556 0.09136879 0.18240407 0.6416329 0.09705873
0.0075701503 -0.03302848 0.07023699 -0.07742348 0.06367869 -0.00046459094 0.009855781 0.017528316
0.03398173 -0.0040982165 0.0020329673 0.005065882 0.12847973 0.7517019 0.0029535072 0.28684703
0.2539541 0.39864802 -0.05887067 -1.275421 0.43512556 0.65386295 -0.80218303 15.038269
-4.714788 0.06742597 0.15453051 -1.3710926 -4.917095 -2.2983153 -0.99890924 0.26889426
0.4258708 -0.24546629 -1.1020644 -0.8371607 -0.0906793 -2.0789175 3.174016 -0.73224014
1.1059785 0.5996189 0.77392143 8.861178 9.359958 0.10287495 -0.9070787 -13.249091
2.7545938 -1.1843152 2.5126064 0.22587673 -6.8491387 -2.1861935 1.2280949 1.1204747
-0.53151596 -0.5945299 -1.503266 -2.33273 -0.01510477 0.28693438 0.11704967 0.5134796
-0.0073466017 0.22685963 0.17852178 0.117829084 -0.3307785 -0.13403875 0.49364933 0.27780923
-0.017180562 0.06272696 -0.28742293 0.15149546 -0.062357664 -0.16166237 0.019369148 -0.5399497
0.02929328 0.31820092 0.12487138 0.27468288 -0.07978696 0.20894282 -0.0030582696 -0.003279551
-0.027121382 0.0069847777 -0.0072123334 -0.0012823658 -0.02092537 -0.119503856 -0.03259733 0.0030938203
-0.024779273 -0.09638167 -2.271131 -0.13005978 -0.026727399 -0.0005814559 -0.03163771 -0.15163521
-0.03846514 -0.0036230676 -0.005465741 0.0018702624 -0.035553742 -0.00053958857 -0.0035378016 -0.3067201
0.5126924 -0.071740344 0.041498825 -0.3603139 0.40999904 0.68610495 -0.40616867 -0.29539496
-0.40477812 -0.6227758 -0.02809795 0.34350997 -1.6624318 0.73516434 -0.10253594 0.9392885
0.63567746 -0.25632426 0.034995195 0.031510156 0.21602131 0.16668399 -0.45289293 0.12299774
0.01941576 -0.35368553 0.18115456 -0.14952327 0.18302554 -0.37383458 -0.29250395 -0.74520636
0.15678118 -0.21702501 0.04985844 -0.09343819 -0.3855251 0.4935077 0.029135017 -0.17763981
0.30650595 0.34029377 0.429901 -0.24207541 0.29103196 -0.33880168 0.110710256 -0.27650553
0.07380107 0.010272326 0.020152241 -0.029516438 -0.0050367583 0.02311016 0.042512357 0.47541326
1.2478906 0.39094362 0.008002967 -0.07187937 0.6840362 -0.03274018 0.46823117 -0.004726408
-0.012818937 0.27506876 0.19875526 0.10804359 -0.027583824 0.05458427 0.029949214 0.07396596
-0.025151424 -0.002096199 -0.041229706 0.027654758 -0.46531293 0.0054531423 0.11787085 -0.19361809
00000000: f4c7 923d c115 4f3d c883 2abe 9754 333e
00000010: 7c7b 053d fe87 a9be ed8d 77bf 2e05 7bbe
00000020: d624 81bf 6fbb bbbe b201 053e 05a7 33bf
00000030: c027 263f 3abe 44bf bf9c 4b3e daf5 cabb
00000040: 2eca 4cbf 0618 cabe 7f60 37bf d350 dfbd
00000050: e158 f13d 923a 7abe 1bbd dbbd dfb6 31be
00000060: 9e2d 0c3e 630a 8d3e 4a9d a93e bacf c73e
00000070: 2ba6 81be f28c 9db9 c282 b8be 5d3b acbe
00000080: ff9a 403d 96b0 e63b b796 b73d 62d7 3e3e
00000090: 6c5d 65be 0afb 45bf df22 a63e 8fce 743d
000000a0: 394d 983e 7fc2 063f 1db9 6c3f a40b 693f
000000b0: c627 ba3e eb57 993a 6072 1b3e 1305 f5bd
000000c0: 28c1 8c3e eba0 9ebe 0d3e 2c3c 46fa 5b3a
000000d0: b596 0f3d ea9f fb3a 58c8 8d3a 39d7 713c
000000e0: 7397 a63d e44b c13e d352 553d a43b d73c
000000f0: 8f1f bb3d 22c8 3a3e 0e42 243f bac6 c63d
00000100: 060f f83b df48 07bd 69d8 8f3d 3490 9ebd
00000110: f969 823d 5794 f3b9 247a 213c 8b97 8f3c
00000120: 6d30 0b3d 554a 86bb 883b 053b b3ff a53b
00000130: 3190 033e 896f 403f a18f 413b 9ddd 923e
00000140: 4606 823e 981b cc3e 5f22 71bd ff40 a3bf
00000150: c7c8 de3e 9063 273f de5b 4dbf c09c 7041
00000160: 8bdf 96c0 a116 8a3d 3f3d 1e3e f67f afbf
00000170: d858 9dc0 9917 13c0 84b8 7fbf 82ac 893e
00000180: bd0b da3e 845b 7bbe 7210 8dbf 2a50 56bf
00000190: 12b6 b9bd fc0c 05c0 1423 4b40 1774 3bbf
000001a0: b490 8d3f a080 193f b71f 463f 63c7 0d41
000001b0: 63c2 1541 1ab0 d23d 4f36 68bf 47fc 53c1
000001c0: 444b 3040 a497 97bf 8bce 2040 3b4c 673e
000001d0: 252c dbc0 98ea 0bc0 3732 9d3f b76b 8f3f
000001e0: 6e11 08bf 1d33 18bf 056b c0bf 734b 15c0
000001f0: ff79 77bc 10e9 923e bdb7 ef3d 6673 033f
00000200: c3bb f0bb e44d 683e 6ace 363e 6050 f13d
00000210: cd5b a9be 7441 09be 9bbf fc3e 033d 8e3e
00000220: 40be 8cbc fe76 803d 1929 93be a021 1b3e
00000230: c06a 7fbd d28a 25be 0cac 9e3c 253a 0abf
00000240: 76f8 ef3c 3beb a23e 91bc ff3d 3ca3 8c3e
00000250: 5867 a3bd 1bf5 553e 406d 48bb bced 56bb
00000260: a92d debc 90e0 e43b 7055 ecbb 0e15 a8ba
00000270: ae6b abbc 70be f4bd c784 05bd b1c1 4a3b
00000280: e7fd cabc c163 c5bd 365a 11c0 642e 05be
00000290: 6bf3 dabc d86c 18ba 8b96 01bd 4346 1bbe
000002a0: 9f8d 1dbd fd70 6dbb f519 b3bb 9823 f53a
000002b0: cda0 11bd 2d73 0dba 76da 67bb 6b0a 9dbe
000002c0: cf3f 033f 9aec 92bd acfa 293d 107b b8be
000002d0: 65eb d13e 93a4 2f3f 57f5 cfbe 023e 97be
000002e0: 143f cfbe 3c6e 1fbf ac2d e6bc 8ae0 af3e
000002f0: 91ca d4bf bb33 3c3f 5dfe d1bd 3675 703f
00000300: c2bb 223f ef3c 83be 1f57 0f3d cb10 013d
00000310: b134 5d3e 35af 2a3e 95e1 e7be 3de6 fb3d
00000320: cd0d 9f3c 4516 b5be 9580 393e a11c 19be
00000330: 0c6b 3b3e 3f67 bfbe 14c3 95be d8c5 3ebf
00000340: 3f8b 203e ce3b 5ebe 5d38 4c3d 865c bfbd
00000350: 8c63 c5be 0bad fc3e 8fac ee3c 36e7 35be
00000360: 59ee 9c3e fc3a ae3e fc1b dc3e 9ee2 77be
00000370: 2402 953e 6a77 adbe 0fbc e23d 2292 8dbe
00000380: 0425 973d 424d 283c 5016 a53c 75cc f1bc
00000390: 640b a5bb 8551 bd3c 7021 2e3d 5e69 f33e
000003a0: e1ba 9f3f c329 c83e e01e 033c 7e35 93bd
000003b0: ff1c 2f3f 911a 06bd ffbb ef3e fcdf 9abb
000003c0: 8506 52bc d0d5 8c3e 8086 4b3e f545 dd3d
000003d0: 79f7 e1bc c193 5f3d 0e58 f53c 777b 973d
000003e0: 5c0a cebc 6260 09bb 7be0 28bd 3b8c e23c
000003f0: 7f3d eebe 46b0 b23b 4666 f13d d243 46be

B1.c1_r.pdw.bias f4 [14]
0.6073848 -0.37422445 -0.50487244 0.0004323948 0.0014745947 -0.20807573 0.002444955 0.012526511
-0.011377645 -0.05809384 0.061274026 -0.0022415638 -0.014524036 0.00023899374
00000000: 927d 1b3f 599a bfbe 523f 01bf 0cb3 e239
00000010: 3047 c13a ce11 55be 8a3b 203b ff3b 4d3c
00000020: 4d69 3abc cef3 6dbd 79fa 7a3d 33e7 12bb
00000030: 39f6 6dbc 659a 7a39

B1.c2_d.weight f4 [14, 28, 1, 1]
0.1659737 -0.18884543 0.5588598 -0.064891584 0.6443687 -0.5025444 -0.12100496 -0.04825336
-0.2505046 0.5084382 0.22170965 -1.1576494 2.1239257 0.07787312 0.019519541 0.8271566
-0.0096275695 0.8772268 -0.04265068 0.024877885 -0.59370565 0.15441203 0.10920191 0.120916694
0.04598113 -0.10388901 -1.4294411 0.088636816 0.13214554 0.84019387 0.16100813 0.06697964
-0.761033 0.050802056 -2.483519 -0.47092313 0.23234221 0.27685952 0.18414328 0.15743218
-0.5027451 -0.046076633 0.123347096 -0.45613465 -0.5156707 0.44134888 0.11906291 -0.3379936
-1.5629135 0.22671206 -0.13175407 -0.39260644 -0.020452894 -0.106569625 -0.06151276 -0.69461167
-0.5579467 -0.008297502 -0.8101932 -0.16603814 -0.48875546 -0.03855427 -0.3946594 -0.3106465
0.12269056 -0.04375455 -0.11846095 -1.2020624 -0.33488467 -0.04613732 -0.104919426 -0.21364038
-0.12993169 -1.1327046 0.09657818 -0.18432648 0.73841405 -0.18573235 0.09981246 -0.05624865
0.06948801 0.22896579 -0.03351859 -0.21240611 -0.58719385 -0.36694744 0.21836284 -0.21215855
1.1413398 -0.17761642 -0.71519953 -0.33862823 0.028845172 -0.2116913 -0.14056304 0.9291804
-0.5720358 -0.031151759 -0.83118296 -0.5565929 0.48505777 0.21819316 0.029558739 -0.10956795
0.5645891 0.65199107 -0.92952716 0.07093059 0.91506153 -0.20974551 -0.93660825 0.43622878
-0.30743843 0.3524896 -0.8988634 0.010167954 0.27786633 -0.08320896 0.7206233 -0.1725814
-0.21753444 -0.12226444 0.50348705 1.0782603 -0.32382786 0.018429035 0.41999155 -0.20818014
0.7799833 1.3559337 -0.040961947 0.18087795 2.467068 0.3845805 -0.09422816 0.21984616
0.017151454 -0.92174363 0.18929935 0.122777276 0.22588615 0.21548687 -1.8998288 -0.08483239
1.1230357 -0.97315305 -0.06327028 -0.80547774 0.028737184 0.16414717 0.48126566 -0.44398302
0.17014301 0.014628241 -0.1610862 -0.23240758 0.09198361 -0.12002886 -0.12451385 -0.037333973
0.49492967 -0.95061284 0.12253062 0.30224627 0.3320709 -0.26714277 0.09903021 -0.01982113
-0.12769333 0.30983 0.4772434 0.10122729 -0.5359228 -0.2867363 -0.23901027 -0.53075665
-0.12756272 -0.8862729 0.76277816 0.5928364 0.394792 -0.036671914 -0.95080024 -0.36756867
-0.043907553 -0.57421494 0.100807555 0.28413582 -0.46894214 0.5555345 -0.02133781 -0.12696534
0.39017987 0.18161286 -0.04735493 -0.015117832 0.04339022 0.5466749 -0.10347367 0.28096616
-0.2951143 0.08930415 1.8301908 -0.014804243 -0.24731475 -0.5192526 0.6061869 -1.5854421
0.0031798356 0.04621517 0.32966608 0.40131864 -0.7704271 -0.7073184 0.011519494 -0.045495447
0.1938329 -0.23483483 0.31729075 0.14281026 -0.24982847 -0.22385345 0.13873227 0.11525215
0.05234485 -0.22650783 0.35058415 0.099808306 0.8149638 0.04630543 0.8590777 0.03654138
0.08683943 0.34185335 0.28211918 0.27798477 1.1090785 0.0054552434 -1.7819035 -0.4837487
0.14779739 -0.7940319 0.008152226 -0.056365862 -0.04430378 -0.7563456 -0.0016618689 0.009946601
-0.12818572 -0.44988608 0.4021795 -0.2724116 0.4554647 0.15273282 0.6245172 -1.8447226
00000000: 02f5 293e b260 41be 7011 0f3f e1e5 84bd
00000010: 59f5 243f c0a6 00bf 73d1 f7bd 51a5 45bd
00000020: 2442 80be 0229 023f db07 633e db2d 94bf
00000030: 66ee 0740 f17b 9f3d 72e7 9f3c 89c0 533f
00000040: f4bc 1dbc f091 603f 7bb2 2ebd b5cc cb3c
00000050: 18fd 17bf 301e 1e3e 40a5 df3d 2ca3 f73d
00000060: b656 3c3d c3c3 d4bd edf7 b6bf 3887 b53d
00000070: 2951 073e f216 573f 51df 243e 9f2c 893d
00000080: 0fd3 42bf d115 503d faf1 1ec0 d61c f1be
00000090: 1eeb 6d3e 88c0 8d3e 0e90 3c3e e735 213e
000000a0: e7b3 00bf daba 3cbd 679d fc3d 7b8a e9be
000000b0: ff02 04bf 7bf8 e13e 41d7 f33d 7f0d adbe
000000c0: 8d0d c8bf 3527 683e 8aea 06be b603 c9be
000000d0: d48c a7bc 2d41 dabd cef4 7bbd 12d2 31bf
000000e0: 98d5 0ebf 3ff2 07bc d268 4fbf e705 2abe
000000f0: 283e fabe 15eb 1dbd cc10 cabe 0f0d 9fbe
00000100: 3045 fb3d f937 33bd a89b f2bd 2edd 99bf
00000110: 0176 abbe 7dfa 3cbd ffdf d6bd 8bc4 5abe
00000120: d00c 05be 77fc 90bf c8ca c53d 15c0 3cbe
00000130: b408 3d3f 9f30 3ebe 7a6a cc3d fc64 66bd
00000140: bb4f 8e3d 0276 6a3e ca4a 09bd fd80 59be
00000150: 5652 16bf 89e0 bbbe 829a 5f3e 1740 59be
00000160: 6c17 923f 14e1 35be 5117 37bf ae60 adbe
00000170: b64c ec3c 9bc5 58be c2ef 0fbe c4de 6d3f
00000180: f070 12bf f931 ffbc 68c8 54bf df7c 0ebf
00000190: 7e59 f83e 076e 5f3e 2b25 f23c 2965 e0bd
000001a0: e988 103f e3e8 263f 7ef5 6dbf 0f44 913d
000001b0: 7941 6a3f 87c7 56be 8fc5 6fbf 6159 df3e
000001c0: 9268 9dbe 8479 b43e e91b 66bf 7d97 263c
000001d0: 7f44 8e3e 7669 aabd c57a 383f 2eb9 30be
000001e0: 59c1 5ebe c765 fabd 87e4 003f 6f04 8a3f
000001f0: c4cc a5be 7df8 963c 2209 d73e 2d2d 55be
00000200: fcac 473f 3c8f ad3f b7c7 27bd 1238 393e
00000210: 71e4 1d40 bce7 c43e b2fa c0bd 5a1f 613e
00000220: 3581 8c3c 64f7 6bbf b0d7 413e a772 fb3d
00000230: b34e 673e 97a8 5c3e 972d f3bf 9bbc adbd
00000240: a2bf 8f3f 8f20 79bf d993 81bd ca33 4ebf
00000250: 3e6a eb3c 3216 283e 7468 f63e be51 e3be
00000260: f839 2e3e 4aab 6f3c c8f3 24be 41fc 6dbe
00000270: e761 bc3d b1d1 f5bd 1e01 ffbd 82eb 18bd
00000280: 6c67 fd3e 5d5b 73bf 55f1 fa3d 06c0 9a3e
00000290: 3205 aa3e f0c6 88be 5ad0 ca3d ec5f a2bc
000002a0: 0ac2 02be 0aa2 9e3e 3f59 f43e 4150 cf3d
000002b0: 3d32 09bf 1acf 92be 1cbf 74be abdf 07bf
000002c0: cd9f 02be c8e2 62bf 6e45 433f 20c4 173f
000002d0: 2d22 ca3e 4a35 16bd a567 73bf f631 bcbe
000002e0: 68d8 33bd c0ff 12bf 3174 ce3d 407a 913e
000002f0: 2f19 f0be 8237 0e3f a2cc aebc 3403 02be
00000300: a8c5 c73e b9f8 393e 3ef7 41bd c9b0 77bc
00000310: f1b9 313d e3f2 0b3f 01ea d3bd ccda 8f3e
00000320: 3919 97be 18e5 b63d b143 ea3f 7f8d 72bc
00000330: 1440 7dbe bded 04bf 112f 1b3f c4ef cabf
00000340: ca64 503b 1e4c 3d3d fec9 a83e a379 cd3e
00000350: b63a 45bf d212 35bf 42bc 3c3c 6f59 3abd
00000360: 227c 463e 8b78 70be ef73 a23e da3c 123e
00000370: 09d3 7fbe d739 65be d50f 0e3e 5209 ec3d
00000380: 8e67 563d abf1 67be c47f b33e 4c68 cc3d
00000390: 78a1 503f c3aa 3d3d 84ec 5b3f 6aac 153d
000003a0: dfd8 b13d 6707 af3e ed71 903e 0554 8e3e
000003b0: 49f6 8d3f e6c1 b23b 6a15 e4bf e9ad f7be
000003c0: 3358 173e ad45 4bbf ea90 053c e4df 66bd
000003d0: e177 35bd de9f 41bf 11d3 d9ba 12f7 223c
000003e0: 1e43 03be 7857 e6be 79ea cd3e 8979 8bbe
000003f0: ab32 e93e fe65 1c3e 5ce0 1f3f df1f ecbf

B1.c2_d.bias f4 [14]
-0.34920847 -0.072456926 -0.18225488 -0.07930988 -0.59866893 -0.4034835 0.2532714 -0.40601063
0.10656376 -0.097571105 -0.38953093 -0.26246232 0.0920914 0.09558825
00000000: 74cb b2be 4c64 94bd 06a1 3abe 386d a2bd
00000010: 5e42 19bf 6495 cebe caac 813e a0e0 cfbe
00000020: 1a3e da3d 5cd3 c7bd 9970 c7be 7661 86be
00000030: 6a9a bc3d c6c3 c33d

B1.c2_r.pw.weight f4 [28, 28, 1, 1]
-0.10164525 0.20619622 -1.2458204 -0.4191745 -0.16807953 1.6751121 -0.15466186 0.8001391
-0.008414369 0.036491007 0.76297486 0.12821794 0.32491958 -0.96532995 -1.0175084 0.19266932
-0.83867836 -0.18911512 -0.41849574 0.6313034 0.91203165 -2.2758536 -0.6273002 0.00969716
-0.33844066 -3.0902004 -0.15859832 1.7068014 0.111992754 0.06912223 -0.099131815 0.073289365
-0.2307322 -0.21080059 -0.6081038 0.28415412 -0.039548438 -0.671363 -0.43069327 -0.04063591
2.0279052 -0.07207873 0.87591916 0.7282481 0.40378255 0.6889624 -0.40893784 0.0020916762
0.05341976 0.22131251 -3.5948024 -0.16756551 -0.8853647 0.41625494 -3.2471836 -0.17665443
-0.21589403 -0.038101424 -0.077856265 0.13650575 0.26303706 -0.22143702 -0.097891234 0.08154566
-0.055788808 -0.052039497 0.0039532986 0.23138765 -0.36104196 -0.32086992 -0.17992039 -0.14919332
-0.2788567 0.2622597 -0.47474328 -0.21228231 0.0008137901 -0.32547447 -0.22382876 0.14551276
0.34571707 0.012980239 0.1684188 -0.34639907 0.5471766 0.21049052 0.20111956 0.076783665
0.44159067 -0.0069472888 -0.35185742 -0.3401203 0.024185162 -0.7249116 0.34310925 -0.61301094
0.24623191 0.003343575 1.297127 -1.1026549 0.96725947 0.9099586 0.20113902 1.2202051
-0.017621469 -0.064880915 0.1606975 -0.01940438 0.810669 1.3328153 0.39466834 0.79901993
0.012419407 0.13265853 -0.014637566 -0.015011622 0.2957801 0.05310643 0.13068749 -0.15867561
0.022006715 -0.09717599 0.15176481 -0.041170068 -0.2529012 -0.06259409 -0.46233192 -0.32008076
-1.1849645 0.12701069 0.15416528 -0.86681896 -0.443682 -0.26839018 0.14927195 0.12816559
-0.04550121 1.0523635 -0.16137679 0.1300254 0.16913073 -0.08429874 -0.054091297 -0.18215853
-0.0027565414 1.1725729 0.2914928 -0.11660725 0.1852315 0.009793785 0.043432195 -0.18552323
0.1859137 0.024507916 0.34542102 0.053250615 0.78492874 0.7876422 -0.21517609 0.5851918
-0.006086594 0.1877717 0.41906914 -0.3843731 -0.115253806 -0.13167058 -0.7800387 -0.0050797183
-0.10143839 0.11938984 -0.36193326 -0.1451137 0.9350545 0.27004743 -0.6934216 0.18562126
0.657173 -0.041385006 -0.05692138 0.64242667 -0.37909457 -0.10300719 -0.2249096 -0.32132548
0.06988165 0.50529766 -0.26284316 -0.7071656 0.39691338 0.22225633 -0.80718404 -0.78061897
-0.60015815 -0.4886387 -0.3077869 0.47630426 -0.42562288 0.117520615 -0.047305968 0.1632063
0.05344011 0.09512687 -0.19644211 -0.078802 -0.3847029 0.15006573 0.14057234 -0.0664892
-0.29565522 0.14651093 -0.1756531 0.6391084 -0.20786162 -0.41608083 -0.04913647 -1.0585233
0.63470256 0.13892919 0.070871525 0.22522882 1.2990428 -0.8883295 -0.21106479 -0.55337423
-0.0151543 0.23989208 -0.100185215 -0.00017941602 0.009928028 -0.10569182 -0.9205812 0.03829672
-0.04387649 -0.2889265 0.07466454 -0.123522125 1.9957278 -0.08376922 1.0591327 -0.6114113
0.2871817 1.0028667 0.010955219 0.062709086 0.57063097 -0.13741523 -3.9195576 -0.0024735015
0.11405024 -0.3558207 -3.0505984 -0.11862998 -0.16622655 -0.44702658 -0.88093805 -0.02667968
00000000: 632b d0bd 1a25 533e 0b77 9fbf 0a9e d6be
00000010: 0a1d 2cbe 136a d63f ae5f 1ebe ebd5 4c3f
00000020: 6cdc 09bc 9877 153d 5252 433f 904b 033e
00000030: dc5b a63e dd1f 77bf b73d 82bf 1b4b 453e
00000040: a0b3 56bf 65a7 41be 1345 d6be 1a9d 213f
00000050: e87a 693f 96a7 11c0 bf96 20bf d6e0 1e3c
00000060: 1848 adbe d8c5 45c0 9967 22be 7878 da3f
00000070: 755c e53d f58f 8d3d 9f05 cbbd bc18 963d
00000080: 1045 6cbe 1cdc 57be b1ac 1bbf a67c 913e
00000090: 8bfd 21bd 72de 2bbf d483 dcbe d771 26bd
000000a0: 33c9 0140 039e 93bd 3d3c 603f 786e 3a3f
000000b0: 96bc ce3e d75f 303f 4d60 d1be 8114 093b
000000c0: aece 5a3d bf9f 623e 3e11 66c0 4b96 2bbe
000000d0: 43a7 62bf 5e1f d53e dbd1 4fc0 e6e4 34be
000000e0: 5313 5dbe 3d10 1cbd 1b73 9fbd 2ac8 0b3e
000000f0: cbac 863e 63c0 62be 337b c8bd 6901 a73d
00000100: ce82 64bd 5e27 55bd ac8a 813b e2f0 6c3e
00000110: 7eda b8be 1049 a4be 0d3d 38be 22c6 18be
00000120: 4ec6 8ebe e746 863e 8d11 f3be 8960 59be
00000130: 8754 553a 97a4 a6be 5e33 65be 4c01 153e
00000140: d401 b13e 11ab 543c fa75 2c3e 385b b1be
00000150: c413 0c3f d48a 573e 49f2 4d3e c140 9d3d
00000160: 2c18 e23e 15a6 e3bb a826 b4be 3f24 aebe
00000170: f61f c63c ce93 39bf 04ac af3e 49ee 1cbf
00000180: 3824 7c3e e11f 5b3b 4208 a63f cc23 8dbf
00000190: 519e 773f 0cf3 683f 63f7 4d3e ae2f 9c3f
000001a0: e65a 90bc 49e0 84bd e38d 243e eff5 9ebc
000001b0: 0188 4f3f b199 aa3f f811 ca3e 928c 4c3f
000001c0: c57a 4b3c a3d7 073e 67d2 6fbc 4ef3 75bc
000001d0: 7d70 973e 2186 593d f1d2 053e dc7b 22be
000001e0: 6d47 b43c 3504 c7bd 3c68 1b3e f2a1 28bd
000001f0: 447c 81be 5531 80bd c5b6 ecbe a0e1 a3be
00000200: ebac 97bf 170f 023e 81dd 1d3e d9e7 5dbf
00000210: 492a e3be 706a 89be bfda 183e d73d 033e
00000220: 7a5f 3abd d9b3 863f f53f 25be 6125 053e
00000230: 9b30 2d3e d1a4 acbd d68e 5dbd c487 3abe
00000240: 17a7 34bb de16 963f 8b3e 953e c8cf eebd
00000250: 54ad 3d3e 1d76 203c f5e5 313d cdf9 3dbe
00000260: 2960 3e3e d3c4 c83c 06db b03e 511d 5a3d
00000270: 17f1 483f eba2 493f 1f57 5cbe 21cf 153f
00000280: 0d72 c7bb 3947 403e 3b90 d63e 8dcc c4be
00000290: 300a ecbd a7d4 06be 9eb0 47bf c473 a6bb
000002a0: eebe cfbd a982 f43d 514f b9be b098 14be
000002b0: bb5f 6f3f a843 8a3e 1484 31bf 8013 3e3e
000002c0: 7d3c 283f 5383 29bd 6526 69bd 1376 243f
000002d0: af18 c2be 6ff5 d2bd b44e 66be c684 a4be
000002e0: 1c1e 8f3d 305b 013f 6193 86be ce08 35bf
000002f0: 3b38 cb3e 2a97 633e 9da3 4ebf a5d6 47bf
00000300: f7a3 19bf da2e fabe 3f96 9dbe 27de f33e
00000310: 3eeb d9be a6ae f03d e7c3 41bd 8d1f 273e
00000320: 04e4 5a3d e0d1 c23d 1f28 49be f162 a1bd
00000330: c7f7 c4be d5aa 193e 32f2 0f3e 7d2b 88bd
00000340: 1f60 97be f606 163e 68de 33be 9c9c 233f
00000350: add9 54be 8c08 d5be 5343 49bd b17d 87bf
00000360: de7b 223f 7443 0e3e 1725 913d 62a2 663e
00000370: 0947 a63f 9069 63bf 5e21 58be efa9 0dbf
00000380: be49 78bc 45a6 753e e82d cdbd 9f21 3cb9
00000390: 2ba9 223c f474 d8bd 36ab 6bbf 05dd 1c3d
000003a0: d6b7 33bd 2dee 93be b9e9 983d 2bf9 fcbd
000003b0: 0274 ff3f 328f abbd a991 873f 7385 1cbf
000003c0: 7b09 933e f05d 803f 857d 333c 9f6d 803d
000003d0: df14 123f 94b6 0cbe 08da 7ac0 781a 22bb
000003e0: 2c93 e93d 212e b6be 013d 43c0 46f4 f2bd
000003f0: 4b37 2abe abe0 e4be 2885 61bf 588f dabc
