model_zoo/team22_gfmn.pth (torch, 415103 bytes, 180 tensors)

to_feat.weight f4 [32, 3, 3, 3]
0	0x3cfdc70b	0.0309787
1	0x3de01399	0.10941238
2	0x3cf02350	0.029313713
3	0x3e27a2dc	0.1637072
4	0xbf531077	-0.82447
5	0x3e2a3a0d	0.16623707
6	0x3d910fb1	0.07083071
7	0x3e3ed20c	0.18634814
8	0x3d7634db	0.060109
9	0x3d4de24f	0.050264653
10	0x3dee8cd3	0.11647954
11	0x3d009e10	0.03140074
12	0x3daba7ff	0.08381652
13	0xbf0f4e1f	-0.5597858
14	0x3dd1d8a3	0.10246398
15	0x3d0c3698	0.034231752
16	0x3dfd3515	0.1236364
17	0x3cc00c2c	0.023443304
18	0x3c2b33a7	0.010449327
19	0x3e035c89	0.12828268
20	0x3c8a9a41	0.016919257
21	0x3d1714a7	0.03688493
22	0xbeae75bb	-0.34074196
23	0x3d5a3aff	0.05327892
24	0xbc9f9927	-0.019482208
25	0x3e069dde	0.13146159
26	0x3a607de2	0.000856368
27	0xbdb15351	-0.086584695
28	0xbed70779	-0.4199789
29	0xbd83e4e9	-0.064401455
30	0xbeb806f2	-0.359428
31	0x3f4e8460	0.8067074
32	0x3cb04939	0.02151929
33	0x3e04c2b4	0.12964898
34	0xbe483f53	-0.19555406
35	0x3dee9e09	0.116512366
36	0x3d8efd13	0.06981864
37	0x3e332196	0.17493281
38	0x3d7940ef	0.06085294
39	0xbe8a89bd	-0.2705821
40	0x3e181383	0.14851193
41	0xbd07ab67	-0.033122446
42	0xbd088e77	-0.03333899
43	0xbc453071	-0.012035475
44	0xbcffe72c	-0.031238161
45	0x3da25642	0.079266086
46	0x3eb323ce	0.34988254
47	0x3d846f45	0.064665355
48	0xbe8ddc41	-0.27707103
49	0xbe6116cf	-0.21981357
50	0xbcee76fb	-0.029109469
51	0xbd83ac15	-0.064293064
52	0x3d8461be	0.06463955
53	0xbd523e43	-0.05132891
54	0xbc813b92	-0.015775476
55	0xbdebc447	-0.11512046
56	0x3d3ac2a8	0.045595795
57	0xbcf84237	-0.030305011
58	0x3dafc529	0.08582527
59	0xbca8b8d5	-0.020595947
60	0x3da67673	0.08128061
61	0xbd53a032	-0.051666446
62	0x3dd688d6	0.10475318
63	0x3d3f5250	0.04670936
64	0x3e21ee85	0.15813644
65	0x3dc2d309	0.09512908
66	0xbc24a5c1	-0.010049284
67	0xbe19ac5e	-0.15007159
68	0xbde25d77	-0.11052983
69	0xbc383ec7	-0.011245436
70	0xbcd31a7f	-0.02576947
71	0x3d26a205	0.040681858
72	0x3d4a207b	0.049347382
73	0x3d921084	0.07132056
74	0xbda4abe3	-0.08040597
75	0x3ed59144	0.4171239
76	0xbe47e5d5	-0.19521268
77	0xbd38a534	-0.045079425
78	0xbd0158b7	-0.031578746
79	0xbe2a46c7	-0.16628562
80	0xbe0291a8	-0.12750876
81	0xbd592c5e	-0.053020827
82	0x3e4dd9b6	0.20102581
83	0xbe611ab2	-0.2198284
84	0x3ead5028	0.33850217
85	0x3f0dd5f0	0.5540457
86	0xbe036a23	-0.12833457
87	0xbe325f56	-0.1741918
88	0xbe02a48e	-0.12758085
89	0xbe7afcd2	-0.24510506
90	0x3d3e0350	0.046389878
91	0x3e880175	0.26563612
92	0x3e8250c7	0.25452253
93	0xbea00019	-0.31250075
94	0xbf299e12	-0.6625682
95	0xbe38d35e	-0.1804938
96	0x3d28821e	0.041139714
97	0x3e37593b	0.17905132
98	0x3e50a948	0.20377076
99	0x3cff4978	0.031162962
100	0xbde993ff	-0.11405181
101	0xbc70ebd9	-0.014704668
102	0x3dad71b3	0.08468952
103	0xbdbf66e6	-0.09345798
104	0x3de80661	0.11329342
105	0x3de8cfd3	0.11367764
106	0xbdd3f9d6	-0.10350387
107	0x3d032d04	0.032025352
108	0x3d504e62	0.050856
109	0x3e06edee	0.131767
110	0x3d21767b	0.039419632
111	0x3debb10b	0.11508378
112	0xbf07eea2	-0.530985
113	0x3de99aae	0.11406456
114	0xbcbe1feb	-0.023208579
115	0x3d2f96cf	0.04286843
116	0xbc75aece	-0.01499529
117	0x3daa3c2b	0.083122574
118	0xbe700c55	-0.23442204
119	0xbd58b9ff	-0.052911755
120	0x3e9b3163	0.30311117
121	0x3e7235f3	0.23653392
122	0x3d9d1c56	0.0767142
123	0x3de34c27	0.11098509
124	0xbe776b66	-0.24162063
125	0xbcc889be	-0.024479743
126	0xbd6a810e	-0.057251982
127	0xbac9617d	-0.0015364137
128	0x3d9e420c	0.07727441
129	0xbec0b8c0	-0.37640953
130	0x3dd7cb0c	0.10536775
131	0xbd6da700	-0.05802059
132	0xbd20483b	-0.039131384
133	0x3cf0e6c0	0.029406905
134	0x3da7f48d	0.08200941
135	0x3c299079	0.010349386
136	0xbc9e0674	-0.019290186
137	0xbcce8520	-0.025209963
138	0x3d769592	0.060201235
139	0x3ea84dd7	0.32871887
140	0xbcc5a96e	-0.024128642
141	0xbb8b2b5e	-0.004247113
142	0xbd6bd585	-0.057576675
143	0xbc95c213	-0.018281018
144	0x3c847485	0.016168842
145	0x3cff01bc	0.031128757
146	0x3c29a341	0.010353864
147	0x3d0034c2	0.031300314
148	0xbecfa029	-0.4055188
149	0x3c9c3ed3	0.019072926
150	0x3bcf4490	0.006325312
151	0xbb1e478b	-0.002415153
152	0xb9b0e4c2	-0.00033739774
153	0x3c3748db	0.011186804
154	0x3d9240fc	0.07141301
155	0x3d55e117	0.052216616
156	0xbcaea37c	-0.02131819
157	0xbe229647	-0.15877639
158	0x3c65f5c0	0.014035642
159	0x3c0d16a9	0.00861136
160	0x3c339ec0	0.010963142
161	0x3d21b19f	0.039476033
162	0x3d25605d	0.040375102
163	0xbd61a9c4	-0.05509354
164	0x3da63102	0.08114816
165	0x3da2ebda	0.07955141
166	0xbf5dbdff	-0.86618036
167	0x3e3714b5	0.17878993
168	0x3e0d2fa1	0.137877
169	0x3dfe645e	0.12421487
170	0x3e1ceb95	0.15324242
171	0xbd11231c	-0.035433874
172	0x3df1c0a8	0.118043244
173	0x3ce17307	0.02752067
174	0xbe2443d2	-0.16041496
175	0x3e9fb2a3	0.31190977
176	0xbd627a47	-0.055292394
177	0xbdbe5e65	-0.09295348
178	0x3d5129aa	0.051065125
179	0xbc7ce9be	-0.015436588
180	0x3d8a82d3	0.06763234
181	0xbdf29e86	-0.11846642
182	0xbd525202	-0.05134774
183	0x3e12d976	0.14340767
184	0x3ecb1968	0.3966782
185	0xbe01e6b9	-0.1268567
186	0xbbfb62f6	-0.007671709
187	0xbe7a579c	-0.24447483
188	0xbdce1d65	-0.100642
189	0x3d41931b	0.04725943
190	0x3eb5a3ee	0.3547663
191	0x3c49ad59	0.012309396
192	0xbe31c430	-0.17359996
193	0x3eaa0ddf	0.33213708
194	0xbdf6fed8	-0.12060326
195	0xbe043b5f	-0.12913273
196	0xbdab759d	-0.08372042
197	0xbde657ec	-0.112472385
198	0x3d2b349d	0.041798223
199	0x3da62f07	0.081144385
200	0xbcd08b41	-0.025457026
201	0x3e1cdaef	0.15317892
202	0xbf0b3337	-0.5437502
203	0x3df2377e	0.118269905
204	0x3da185e6	0.07886867
205	0xbdb2e48a	-0.087349966
206	0x3c010617	0.007874987
207	0xbd8e6058	-0.0695197
208	0xbc8f2e0e	-0.017478015
209	0xbc43c0a9	-0.011947789
210	0x3d3833bc	0.044971213
211	0x3d80e569	0.062937565
212	0x3d12172a	0.035666622
213	0x3cc9ba03	0.02462483
214	0xbddf4072	-0.10900964
215	0x3d3db0ec	0.046311304
216	0x3d3a5811	0.045494143
217	0x3c16df6a	0.0092085395
218	0x3b8672eb	0.0041030548
219	0x3bc67a1f	0.0060570384
220	0xbef63794	-0.48089278
221	0x3d8af907	0.067857794
222	0xbc03f3de	-0.008053748
223	0x3dcd5ffa	0.10028072
224	0xbc4bf764	-0.012449119
225	0xbd511b53	-0.05105145
226	0xbd2cb893	-0.04216821
227	0xbc049618	-0.008092426
228	0x3d6b8d94	0.057508066
229	0x3d3e1202	0.046403892
230	0x3de02bfa	0.10945888
231	0xbc99997c	-0.018749945
232	0x3e2d11e3	0.16901354
233	0x3be24dc6	0.006906244
234	0xbc80760e	-0.015681293
235	0xbe4300ba	-0.19043246
236	0xbc7aa576	-0.015298238
237	0xbe03acb9	-0.12858857
238	0x3e40fcf2	0.18846491
239	0x3d43329e	0.047655694
240	0x3cd5b61f	0.026087819
241	0x3cdc3b0f	0.02688363
242	0x3bb1dcee	0.005427948
243	0x3de190ea	0.11013968
244	0x3e5b977f	0.2144451
245	0x3de252fa	0.11050983
246	0x3b3c800c	0.0028762845
247	0xbeb08901	-0.34479526
248	0xbd618149	-0.055054937
249	0x3cf4f136	0.029900175
250	0x3c26b04a	0.0101738665
251	0x3d0c98c5	0.03432538
252	0xbd186202	-0.037202843
253	0x3d3ba816	0.045814596
254	0xbd19bfb0	-0.037536323
255	0x3d95b789	0.07310397

to_feat.bias f4 [32]
0	0x3e8f526a	0.27992564
1	0x3d4a4aaf	0.04938763
2	0x3c2a4116	0.010391494
3	0xbc5823b6	-0.013192108
4	0xbd9fb25a	-0.0779769
5	0x3da19efa	0.078916505
6	0x3cd94506	0.02652217
7	0xbd9670ac	-0.07345709
8	0xbebd9d7c	-0.37034214
9	0x3d54aa8a	0.05192045
10	0x3d5dc99c	0.054147348
11	0x3d5323c1	0.05154777
12	0x3e1347e8	0.14382899
13	0x3de42c99	0.11141319
14	0xbdac6669	-0.08417971
15	0x3d897315	0.06711403
16	0x3cc55003	0.024086004
17	0xbe30fc41	-0.17283727
18	0xbce2c26b	-0.027680596
19	0x3d9e5cf2	0.07732572
20	0x3e0c3d58	0.13695276
21	0x3d9eada7	0.07747965
22	0x3efc5fcf	0.49291846
23	0xbe10caf1	-0.14139916
24	0xba4a4c9d	-0.0007717105
25	0x3d524c0c	0.051342055
26	0xbe8026ec	-0.25029695
27	0xbdd83bd1	-0.10558284
28	0xbd2847b6	-0.041084014
29	0xbb9c090f	-0.004761822
30	0xbcb32f7b	-0.021873226
31	0x3d77d75c	0.060508117

feats.0.norm1.weight f4 [32]
0	0x3e4b65bf	0.19863032
1	0x3e62ff29	0.22167648
2	0x3dff10ee	0.12454401
3	0x3e9b4cb7	0.30331966
4	0x3ec5accb	0.38608393
5	0x3f0ce0c5	0.5503047
6	0x3eb4bf56	0.35302228
7	0x3e1cf5dd	0.15328164
8	0x3e86cc7a	0.26327878
9	0x3eb76bc3	0.35824403
10	0x3f0337cb	0.5125701
11	0x3f054417	0.5205702
12	0x3f31d69b	0.69468087
13	0x3ecfbe5b	0.40574917
14	0x3ec9a3b8	0.3938272
15	0x3ee102db	0.4394749
16	0x3e4a1be9	0.1973721
17	0x3e4681bb	0.19385426
18	0x3f084fc3	0.53246707
19	0x3ec971d7	0.39344665
20	0x3ed4f1e8	0.4159081
21	0x3e7ebb20	0.2487607
22	0x3e973453	0.29532108
23	0x3e7cb74a	0.24679294
24	0x3eb6423d	0.3559741
25	0x3db2d655	0.08732287
26	0x3eb3b14a	0.35096198
27	0x3e25ccad	0.16191359
28	0x3e93a33f	0.28835484
29	0x3e6bfb2e	0.23045036
30	0x3f367183	0.71266955
31	0x3f0341ee	0.51272476

feats.0.norm1.bias f4 [32]
0	0xbde1c069	-0.110230274
1	0xbd1cb74e	-0.03826075
2	0xbce2cd16	-0.027685683
3	0x3cdec45c	0.02719324
4	0x3e465a30	0.19370341
5	0xbdd5fde8	-0.104488194
6	0xbda45be8	-0.08025342
7	0x3dae1c3a	0.085014775
8	0x3edff2ab	0.43739828
9	0xbe1bbc88	-0.15208638
10	0xbe0ef377	-0.13960062
11	0xbe3e690f	-0.18594764
12	0xbed9c49f	-0.42532822
13	0xbe94db6e	-0.29073662
14	0x3e8f87f9	0.28033426
15	0xbddfe2c2	-0.109319225
16	0xbcc601f1	-0.024170848
17	0x3ce04d5f	0.027380643
18	0x3e366b01	0.17814256
19	0xbe20ad5d	-0.15691133
20	0xbed3b9aa	-0.41352588
21	0xbde2ff4c	-0.1108385
22	0xbf2d417e	-0.6767806
23	0x3e621460	0.22078085
24	0x3d4fe98e	0.050759844
25	0xbd0d6135	-0.034516532
26	0x3efab46f	0.48965785
27	0x3de520ab	0.111878715
28	0x3da4e29a	0.08051033
29	0xbcdff042	-0.027336244
30	0x3e1421dd	0.14466043
31	0xbe2742ec	-0.16334122

feats.0.norm2.weight f4 [32]
0	0x3e8e44d2	0.2778688
1	0x3ea38ab9	0.31941774
2	0x3ef55f8c	0.4792446
3	0x3ecd5eff	0.4011154
4	0x3f10ec89	0.56610924
5	0x3f1c8cb7	0.61152214
6	0x3f3a19c0	0.7269554
7	0x3eb9a44b	0.36258158
8	0x3e4f49b0	0.20242953
9	0x3f0b9c80	0.54535675
10	0x3f354708	0.7081151
11	0x3f08407d	0.532234
12	0x3f042330	0.5161619
13	0x3f113207	0.5671696
14	0x3f121aa8	0.57071924
15	0x3ed2420d	0.41066018
16	0x3ec3fcd3	0.38278827
17	0x3eaef6dc	0.34172714
18	0x3f3094f6	0.68977296
19	0x3f1b916b	0.60768765
20	0x3f2ab61d	0.6668413
21	0x3ec17e4c	0.3779167
22	0x3e83b6b1	0.2572532
23	0x3eaa64a8	0.3327992
24	0x3f207f04	0.6269381
25	0x3e7f9884	0.24960524
26	0x3ee6a815	0.4505011
27	0x3e4b2418	0.19837987
28	0x3f17ed67	0.5934662
29	0x3ede79c3	0.43452272
30	0x3f5ad553	0.85481757
31	0x3f38c7ed	0.7218006

feats.0.norm2.bias f4 [32]
0	0xbf086878	-0.53284407
1	0xbdbca153	-0.09210458
2	0xbc78842c	-0.015168231
3	0x3da45a08	0.080249846
4	0x3d8c86fd	0.068616845
5	0x3e709ef0	0.2349813
6	0xbd946549	-0.07245881
7	0xbd2b784f	-0.041862782
8	0x3d0fb9bb	0.035089236
9	0x3e30c392	0.17262104
10	0xbe0b2ff2	-0.13592508
11	0xbe78edbc	-0.24309438
12	0xbe8397e8	-0.25701833
13	0xbebce82a	-0.36895877
14	0x3e38e333	0.1805542
15	0xbc14a0fc	-0.009071585
16	0x3d82cb43	0.06386425
17	0x3e7c017b	0.2460994
18	0x3dcf4359	0.101202674
19	0xbe14b854	-0.1452344
20	0xbe873efc	-0.2641524
21	0xbdc8f08b	-0.09811505
22	0xbf9489a2	-1.1604502
23	0x3ed49b5f	0.4152479
24	0x3e0d78ae	0.13815567
25	0xbe7018f2	-0.23447016
26	0x3eefb48b	0.4681743
27	0x3dd29786	0.10282807
28	0x3dece264	0.11566618
29	0xbd219337	-0.039447036
30	0x3e128b11	0.14310862
31	0xbe078d24	-0.13237435

feats.0.safm.mfr.0.weight f4 [8, 1, 3, 3]
0	0x3d6947ae	0.056953125
1	0x3f09897c	0.5372541
2	0x3d9ec864	0.07753065
3	0x3f079f7a	0.52977717
4	0x404f6fad	3.2411911
5	0x3ee60f39	0.4493349
6	0x3d0b90c6	0.034073614
7	0x3f0a2c20	0.5397358
8	0x3dc87a19	0.09788913
9	0xbbc4637a	-0.005993304
10	0xbb920395	-0.0044559934
11	0x3ce32f3a	0.02773248
12	0xbc300155	-0.010742505
13	0x3d2da344	0.04239203
14	0x3f9d6431	1.2296201
15	0xbb8fc514	-0.004387507
16	0xbb89483b	-0.0041895187
17	0x3d949199	0.07254333
18	0xbdcced33	-0.1000618
19	0x3f621f21	0.8832875
20	0xbdd3ab46	-0.10335402
21	0x3d41ddac	0.047330543
22	0xbf29f594	-0.6639035
23	0x3cd01e95	0.025405208
24	0x3d875594	0.066081196
25	0xbe849a0e	-0.25898784
26	0x3cac5165	0.021034906
27	0x3c248c3d	0.010043201
28	0x3c26f264	0.010189626
29	0x3c1ba94d	0.009500814
30	0x3c1c587d	0.009542582
31	0x3ddf3724	0.10899189
32	0x3c1bfaa2	0.009520205
33	0x3bdc6a65	0.0067265504
34	0x3c04d623	0.008107695
35	0x3c02bf35	0.007980158
36	0xbe12d330	-0.14338374
37	0xbe9ebd4b	-0.31003794
38	0xbe131184	-0.1436215
39	0xbeb28a41	-0.34871104
40	0x3f4e11c8	0.8049588
41	0xbec1f0f6	-0.3787915
42	0xbe0f4aaa	-0.13993326
43	0xbea67e76	-0.32518357
44	0xbe0e18cb	-0.13876645
45	0xbdf4dec1	-0.119565494
46	0xbf16de27	-0.5893273
47	0xbdc03d1c	-0.09386656
48	0xbee80001	-0.45312503
49	0xbed0750e	-0.40714306
50	0xbf13f294	-0.5779202
51	0xbe2cc1cb	-0.16870801
52	0xbf126043	-0.57178134
53	0xbde8ec7c	-0.11373231
54	0xbc6abe96	-0.014327666
55	0xbe6f9f47	-0.23400603
56	0xbaaab050	-0.0013022516
57	0xbe7d7625	-0.247521
58	0xbf8ae30b	-1.0850538
59	0xbe552e43	-0.20818429
60	0xbb864305	-0.004097345
61	0xbe5dfadd	-0.21677728
62	0xbc7b8e5e	-0.015353767
63	0x3b49076f	0.0030674597
64	0x3c80bad4	0.015714087
65	0x3b1ad23c	0.0023623845
66	0x3c63ba7c	0.013899442
67	0x3e028369	0.12745441
68	0x3c0db694	0.008649487
69	0x3b5e9fe4	0.0033969814
70	0x3d840006	0.06445317
71	0x3b493c2e	0.0030706036

feats.0.safm.mfr.0.bias f4 [8]
0	0x3e664e6f	0.22490858
1	0xbe1c303a	-0.15252772
2	0xbc2a6cfc	-0.01040196
3	0xbe89ea70	-0.26936674
4	0x3ed5b015	0.41735902
5	0xbe49f219	-0.19721259
6	0x3e72db75	0.23716529
7	0xbedade5f	-0.4274778

feats.0.safm.mfr.1.weight f4 [8, 1, 3, 3]
0	0xbd51c82f	-0.0512163
1	0xbe07a74c	-0.13247412
2	0xbd891667	-0.06693726
3	0xbe082cd4	-0.1329835
4	0xbeb82a6b	-0.35969862
5	0xbe3658d1	-0.17807318
6	0xbd8980a0	-0.067139864
7	0xbe36429f	-0.17798851
8	0xbdc23352	-0.09482445
9	0x3bb77f21	0.0055998717
10	0xbe7426ba	-0.23842898
11	0xbccd7cbf	-0.025083898
12	0xbe774268	-0.24146426
13	0xbf2c84ea	-0.6739031
14	0xbea65113	-0.3248373
15	0xbd050408	-0.032474548
16	0xbea10dfb	-0.3145598
17	0xbd9c6d3c	-0.07638022
18	0x3dccb96a	0.099963024
19	0x3e4a49a9	0.19754662
20	0x3df4f1fd	0.11960218
21	0x3e4f646a	0.20253149
22	0x3f1d04d9	0.6133552
23	0x3e91be9e	0.28465742
24	0x3df5fee6	0.12011509
25	0x3e8ebed5	0.27879968
26	0x3e219e67	0.15783082
27	0xbd6a2563	-0.05716456
28	0xbe37f491	-0.17964388
29	0xbdab4164	-0.08362082
30	0xbe3dc76b	-0.18533103
31	0xbeeff2c3	-0.468649
32	0xbe7ef90c	-0.24899691
33	0xbda6cf33	-0.08144989
34	0xbe7a383b	-0.24435513
35	0xbdf4b52b	-0.119486175
36	0xbd1b56ee	-0.0379247
37	0x3dea7d6d	0.11449704
38	0xbcad7f12	-0.021178756
39	0x3df4f0d9	0.119600005
40	0x3f40116f	0.750266
41	0x3e548b27	0.20756207
42	0xbca1df7b	-0.019759884
43	0x3e443906	0.19162378
44	0x3caaadd5	0.020834843
45	0xbda0ae19	-0.078457065
46	0xbe678c27	-0.22612058
47	0xbdf09468	-0.11747056
48	0xbe6f0c45	-0.23344524
49	0xbf0d9e09	-0.5531927
50	0xbea1de3a	-0.31614858
51	0xbdecaea3	-0.11556747
52	0xbe9fe3c7	-0.31228468
53	0xbe2c5eac	-0.1683299
54	0x3e0efecb	0.13964383
55	0x3e98ba54	0.29829657
56	0x3e3388a5	0.17532595
57	0x3e9aaf11	0.3021169
58	0x3f732191	0.94973093
59	0x3ed3f093	0.4139448
60	0x3e3b4879	0.18289365
61	0x3edbe489	0.42947796
62	0x3e72d3fd	0.2371368
63	0xbd1abe1d	-0.037778962
64	0xbdd3e102	-0.10345651
65	0xbd53579f	-0.051597234
66	0xbddab0eb	-0.10678276
67	0xbea61953	-0.32441196
68	0xbe171e64	-0.14757687
69	0xbd51b80d	-0.051200915
70	0xbe14e725	-0.145413
71	0xbd956129	-0.072939225

feats.0.safm.mfr.1.bias f4 [8]
0	0x3f1cd364	0.61260056
1	0xbe6923cb	-0.2276756
2	0xbdf9544a	-0.1217428
3	0x3f37a615	0.71737796
4	0x3dd87d37	0.10570758
5	0x3f04a7a9	0.5181833
6	0xbe0c2a67	-0.1368805
7	0x3f0402f9	0.51567036

feats.0.safm.mfr.2.weight f4 [8, 1, 3, 3]
0	0xbca5cdf1	-0.020239802
1	0xbd510ba3	-0.05103649
2	0xbcc5bff8	-0.02413939
3	0xbd5a0852	-0.05323059
4	0xbe4e0b1e	-0.20121428
5	0xbd789536	-0.060689174
6	0xbcba6331	-0.022752376
7	0xbd71de3e	-0.059049837
8	0xbcde6766	-0.027148914
9	0xbda1b787	-0.07896333
10	0xbe2f4700	-0.17116928
11	0xbde5b042	-0.11215259
12	0xbe21d08a	-0.15802208
13	0xbecf726d	-0.40516987
14	0xbe75f2f0	-0.24018455
15	0xbdb3cc5c	-0.08779213
16	0xbe480b5c	-0.19535583
17	0xbdfd20cb	-0.123597704
18	0x3ccc7cee	0.024961915
19	0x3de0838a	0.10962589
20	0x3d06c0d6	0.032898746
21	0x3de4f3d7	0.11179321
22	0x3ecb7419	0.39737013
23	0x3e11e310	0.14246774
24	0x3ce7de14	0.028304137
25	0x3e0b2920	0.13589907
26	0x3d1907c8	0.037360936
27	0x3d91a554	0.07111612
28	0x3e8cad53	0.27475986
29	0x3da7e3a5	0.081977166
30	0x3e8ea641	0.27861217
31	0x3f305f80	0.6889572
32	0x3ea603bc	0.32424724
33	0x3db4752d	0.08811412
34	0x3ea61fe6	0.32446212
35	0x3ddc17f0	0.10746753
36	0x39ba290d	0.0003550727
37	0xbd98d2f4	-0.07462111
38	0x3c7695f6	0.015050402
39	0xbd93efed	-0.072234966
40	0xbfbc69c3	-1.4719776
41	0xbdf5e028	-0.12005645
42	0x3c89b723	0.01681096
43	0xbdf9d776	-0.12199299
44	0x3ce026b4	0.027362205
45	0x3d5f607d	0.054535378
46	0x3e27cf3a	0.16387644
47	0x3d89f1fc	0.06735608
48	0x3e2bd406	0.167801
49	0x3f023a0f	0.5086984
50	0x3e4a141e	0.19734237
51	0x3d7ac6b3	0.06122465
52	0x3e45aaad	0.19303389
53	0x3d9ab34d	0.0755373
54	0xbd0ac506	-0.033879302
55	0xbdda0fc0	-0.10647535
56	0xbd3f4d74	-0.046704724
57	0xbdd90a6e	-0.105976924
58	0xbe60f517	-0.21968494
59	0xbdf903d5	-0.12158934
60	0xbd2ab814	-0.041679457
61	0xbdf03d98	-0.11730498
62	0xbd6539c8	-0.055963308
63	0x3a898d83	0.0010494444
64	0xbe1ce8b9	-0.15323152
65	0x3c7857e3	0.015157673
66	0xbe2a5844	-0.16635233
67	0xbf7f9aa7	-0.99845356
68	0xbe658433	-0.22413711
69	0x3be0e51a	0.0068632485
70	0xbe466847	-0.19375716
71	0x3c48572f	0.012227817

feats.0.safm.mfr.2.bias f4 [8]
0	0x3f4d3c92	0.8017055
1	0xbd830402	-0.06397249
2	0xbda10574	-0.07862368
3	0xbe72ce80	-0.23711586
4	0xbe721a99	-0.23642959
5	0xbe3886e8	-0.18020213
6	0x3f39fa39	0.72647434
7	0xbdb3ce2b	-0.08779558

feats.0.safm.mfr.3.weight f4 [8, 1, 3, 3]
0	0xbcb1d007	-0.02170564
1	0xbd8905c9	-0.066905566
2	0xbce76822	-0.028247897
3	0xbd888b6b	-0.06667217
4	0xbecc5754	-0.39910376
5	0xbdac640d	-0.08417521
6	0xbccf93fa	-0.025339115
7	0xbdadb285	-0.084813155
8	0xbd08cac6	-0.033396505
9	0xbd31b667	-0.043386843
10	0xbde72b8e	-0.11287604
11	0xbd632f2c	-0.05546491
12	0xbdef8bfe	-0.11696623
13	0xbee9d86c	-0.4567293
14	0xbe20c138	-0.15698707
15	0xbd49a5bc	-0.049230322
16	0xbe076c07	-0.13224803
17	0xbd802ca0	-0.062585115
18	0x3d1ae3e2	0.037814982
19	0x3e32a294	0.17444831
20	0x3d6be8f0	0.057595193
21	0x3e24ba0c	0.16086596
22	0x3f3d6653	0.7398426
23	0x3e5a95a8	0.21346152
24	0x3d3d38b8	0.04619667
25	0x3e4e858a	0.20168129
26	0x3d882cdb	0.066491805
27	0x3d950901	0.07277108
28	0x3e3ab296	0.18232188
29	0x3d9e2a85	0.07722954
30	0x3e38b6cf	0.18038486
31	0x3ed73952	0.4203592
32	0x3e458d17	0.19292103
33	0x3d99a4c9	0.075021334
34	0x3e47a9f5	0.19498427
35	0x3daf857f	0.08570384
36	0x3d1fd2f9	0.03901956
37	0x3e05426d	0.1301362
38	0x3d60b836	0.054863177
39	0x3de8272a	0.11335595
40	0x3ebe2ded	0.37144414
41	0x3e1f18a9	0.15536751
42	0x3d30f98e	0.043206744
43	0x3e1199b3	0.14218788
44	0x3d76d19c	0.060258493
45	0x3ce6a672	0.02815554
46	0x3da37707	0.07981687
47	0x3cedc04f	0.029022364
48	0x3dac561c	0.084148616
49	0x3e826cdb	0.25473675
50	0x3db00edd	0.08596585
51	0x3cf05c79	0.02934097
52	0x3db20503	0.08692362
53	0x3cfcf987	0.030880703
54	0x3d03e42f	0.032200035
55	0x3dbe09bd	0.09279201
56	0x3d0e9790	0.03481251
57	0x3dccc273	0.09998026
58	0x3eaac492	0.33353096
59	0x3de035b6	0.109477445
60	0x3d0d7cd3	0.03454287
61	0x3ddcbc2b	0.10778078
62	0x3d224ae7	0.039622214
63	0x3da03c2e	0.07823978
64	0x3e57ca1f	0.21073197
65	0x3da9652b	0.082712494
66	0x3e610971	0.21976258
67	0x3f29f41e	0.6638812
68	0x3e712e9f	0.23552941
69	0x3da51f69	0.08062632
70	0x3e6cc41c	0.23121685
71	0x3db73daf	0.08947312

feats.0.safm.mfr.3.bias f4 [8]
0	0x3e4272c6	0.18989095
1	0x3e1fc36d	0.15601893
2	0xbe9e35c2	-0.3090039
3	0xbe75990a	-0.23984161
4	0xbe74f10a	-0.23920074
5	0xbe086136	-0.13318333
6	0xbe28f473	-0.164995
7	0xbe335a9f	-0.17515038

feats.0.safm.aggr.weight f4 [32, 32, 1, 1]
0	0xbe8ea78c	-0.27862203
1	0xbdeb4342	-0.11487438
2	0x3e92074c	0.28521192
3	0xb98c1c87	-0.00026724135
4	0xbe0985b2	-0.13429907
5	0xbbeb6fc7	-0.0071849558
6	0xbe8a88f7	-0.2705762
7	0x3be6bd29	0.0070415926
8	0xbd701167	-0.058610346
9	0xbd27f79f	-0.041007634
10	0x3dbb5c3a	0.0914845
11	0xbe43b029	-0.19110169
12	0x3e3c4a42	0.18387702
13	0x3e56e27f	0.20984839
14	0x3ea057d4	0.31317008
15	0x3eadcdd1	0.33946088
16	0xbc42c318	-0.011887334
17	0xbddb587f	-0.10710239
18	0x3d5bcece	0.05366402
19	0x3db6bfd7	0.08923309
20	0x3c94d101	0.018166067
21	0xbd5eef95	-0.054427702
22	0xbdbeb881	-0.09312535
23	0x3e24b7bc	0.16085714
24	0xbdc9c390	-0.09851754
25	0xbde35bec	-0.11101517
26	0xbd1059cb	-0.035241883
27	0xbe14b6a1	-0.14522792
28	0x3dc5bccf	0.09655153
29	0xbd62ad8f	-0.0553413
30	0x3d9e9472	0.077431574
31	0xbce6dd65	-0.028181741
32	0xbda792b4	-0.08182278
33	0xbdee97cf	-0.11650049
34	0xbe221fcc	-0.15832442
35	0xbc16dba5	-0.009207641
36	0x3d27e824	0.04099287
37	0x3dd25815	0.102707066
38	0x3d47b4a1	0.048756246
39	0xbc691355	-0.0142258005
40	0xbc3ac283	-0.011398914
41	0xbd9fa8aa	-0.07795842
42	0x3c72cf96	0.01482
43	0x3ddabded	0.10680757
44	0x3c141ec1	0.009040535
45	0xbdc9f2d5	-0.0986077
46	0xbdb6f5ea	-0.08933623
47	0xbdca6d9b	-0.09884187
48	0xbb062a9e	-0.002047218
49	0x3d577c99	0.05260906
50	0xbca06fa5	-0.019584486
51	0x3e30bf21	0.1726041
52	0xbca532b5	-0.02016578
53	0x3c82c075	0.015960911
54	0x3c5addfa	0.013358587
55	0x3ec0858e	0.37601894
56	0x3d265cd8	0.040615886
57	0x3d193f7b	0.037414055
58	0x3dd6917a	0.10476966
59	0xbcf13d8b	-0.029448291
60	0xbbc1a2c4	-0.0059092958
61	0xbb99246d	-0.0046735317
62	0x3d1deadb	0.038554054
63	0xbcd7387a	-0.026272047
64	0x3dcb2fec	0.0992125
65	0x3e17b7a9	0.14816155
66	0x3e8b398b	0.2719234
67	0xbda3e3a7	-0.080024056
68	0x3d0bea17	0.034158792
69	0x3dd951ab	0.1061128
70	0x3bfd8e8b	0.0077379397
71	0x3e1d7dc5	0.15380009
72	0x3e1de089	0.15417685
73	0xbd95116b	-0.07278713
74	0xbc762d1a	-0.0150254015
75	0xbe92ecc0	-0.2869625
76	0x3d153846	0.03643062
77	0x3dd29782	0.10282804
78	0x3e15c19f	0.14624642
79	0x3e015796	0.12631068
80	0xbdce73b3	-0.100806616
81	0x3e8e6d06	0.27817553
82	0x3cac4f04	0.021033771
83	0x3e4c51f6	0.1995314
84	0x3e15652b	0.14589374
85	0x3dd99967	0.10624962
86	0x3d41110f	0.04713541
87	0x3e671eec	0.2257039
88	0xbe5f5969	-0.21811451
89	0x3eeb3906	0.45941943
90	0xbe429681	-0.19002725
91	0x3e2de70e	0.16982672
92	0xbea02d3c	-0.3128451
93	0xbcf522f4	-0.029923894
94	0xbc75ef49	-0.015010663
95	0x3e36ad7b	0.17839615
96	0x3d3181e8	0.04333678
97	0xbd7f0ce4	-0.062268153
98	0x3c8f9f42	0.017531995
99	0xbbaddb69	-0.0053056967
100	0x3dd00ba9	0.10158474
101	0x3d8612a7	0.065465264
102	0x3c12083e	0.008913098
103	0xbb6b533f	-0.0035907773
104	0x3b0caf7e	0.0021466906
105	0xbc90f1b5	-0.01769338
106	0xbcb72050	-0.022354275
107	0x3d1567ac	0.036475822
108	0xbda67cbe	-0.081292614
109	0xb8a34ab3	-7.7863595e-05
110	0x3cadd38e	0.021219041
111	0xbbe8ad5d	-0.0071007446
112	0xbd9ecd45	-0.07753996
113	0x3af6d083	0.0018830452
114	0x3d3223f1	0.043491308
115	0xbdab0be2	-0.08351876
116	0xbd530c91	-0.051525656
117	0xbd0ca45b	-0.03433643
118	0x3d679d0f	0.056546267
119	0xbbca0a43	-0.006165774
120	0xb9ca80fd	-0.00038624546
121	0xbcd61ff8	-0.02613829
122	0xbb74a68c	-0.0037330715
123	0xbd2a35cd	-0.041555215
124	0x3d213a53	0.039362263
125	0x3cc383a4	0.023866482
126	0x3c63964f	0.013890817
127	0xbd842045	-0.064514674
128	0xbe042de6	-0.12908134
129	0xbdaa03f3	-0.083015345
130	0x3e75b9e0	0.23996687
131	0xbdbf9b13	-0.0935575
132	0x3c244dcd	0.010028315
133	0xbdbce318	-0.09223002
134	0x3e4b38d8	0.19845903
135	0xbcb42f02	-0.021995071
136	0x3d602c1e	0.054729573
137	0x3e7680bb	0.24072544
138	0x3d176634	0.036962703
139	0x3dadb8a2	0.084824815
140	0xbe3d380f	-0.18478416
141	0xbe6d9753	-0.23202257
142	0xbd296150	-0.04135257
143	0x3c635ef9	0.013877624
144	0x3de06b6f	0.10957991
145	0x3f06d0c7	0.5266232
146	0xbf3f7d11	-0.7480021
147	0x3f10e391	0.5659724
148	0xbe8f3694	-0.27971327
149	0x3f45c2c0	0.7725029
150	0x3e3c77cd	0.18405075
151	0x3e7c9478	0.24666011
152	0xbe3d4aac	-0.18485516
153	0x3f038356	0.5137228
154	0xbf700842	-0.937626
155	0xbe3862b3	-0.18006401
156	0x3f2d8d95	0.6779416
157	0xbeb642b7	-0.35597774
158	0x3e8c95df	0.27458093
159	0x3e6ac11a	0.22925225
160	0x3ee3865f	0.44438455
161	0xbe25c376	-0.16187844
162	0xbe8f5715	-0.27996126
163	0x3dfe8db0	0.124293685
164	0xbdf1b67c	-0.11802384
165	0x3f393bd9	0.72356945
166	0xbeab7db4	-0.3349434
167	0xbcb52be2	-0.022115652
168	0xbd65c627	-0.056097176
169	0x3eb81720	0.35955143
170	0x3e2d7ce2	0.1694217
171	0xbc3f4fd3	-0.011676746
172	0x3f1a231b	0.60209817
173	0x3e3e008b	0.18554895
174	0xbc25bcd8	-0.010115825
175	0x3dfd51e4	0.12369135
176	0x3d688137	0.056763854
177	0x3e2227ca	0.15835491
178	0x3e71a61c	0.23598522
179	0xbee26da8	-0.44224286
180	0xbb59f549	-0.0033257774
181	0x3d770ed9	0.060316894
182	0xbd94fe32	-0.072750464
183	0xbe550ed5	-0.20806439
184	0xbe240798	-0.16018522
185	0x3e7ebfbf	0.24877833
186	0xbe0e9794	-0.1392501
187	0xbdabd53a	-0.08390279
188	0x3d46ca23	0.048532616
189	0xbc3fe328	-0.011711873
190	0x3ef6fe8a	0.48241073
191	0xbdc5b4e4	-0.09653643
192	0xbefd3958	-0.49457812
193	0xbf3fdee6	-0.7494949
194	0xbdded57e	-0.10880564
195	0x3d9851ac	0.07437453
196	0xbdaf3fd9	-0.085571
197	0xbf3b8d30	-0.7326231
198	0x3d9b1728	0.07572776
199	0xbb405053	-0.0029344752
200	0x3db9934c	0.09061298
201	0xbd1fca4e	-0.039011292
202	0xbe18d769	-0.14925922
203	0xbf0c6130	-0.54835796
204	0xbd6d473c	-0.057929263
205	0x3f362ac5	0.7115901
206	0x3e6b613a	0.22986308
207	0x3e897a2c	0.26851022
208	0xbd8518b2	-0.06498851
209	0x3d77d898	0.060509294
210	0x3bc06083	0.00587088
211	0xbe1a258f	-0.1505339
212	0xbe0386b3	-0.12844352
213	0x3df3554f	0.11881506
214	0x3dddc08f	0.10827743
215	0xbcbb9891	-0.022899898
216	0xba949164	-0.0011334834
217	0xbe297f3c	-0.16552442
218	0xbd976723	-0.07392719
219	0xbd73c029	-0.05950943
220	0x3d87ac54	0.06624666
221	0xbe3eab97	-0.18620144
222	0xbd8c4494	-0.06849018
223	0x3e3fdfd4	0.18737727
224	0xbe3a079e	-0.18166968
225	0x3dd96b8a	0.106162146
226	0x3f03af6e	0.5143956
227	0x3c3a1158	0.011356674
228	0xbda8b1f6	-0.08237068
229	0xbd7f48b1	-0.062325183
230	0x3be095a1	0.0068537747
231	0xbde00f0c	-0.1094037
232	0xbc030b41	-0.007998289
233	0x3cfa42b0	0.030549377
234	0x3bc8d1fc	0.0061285477
235	0x3c08bfdf	0.008346527
236	0xbc94841e	-0.018129405
237	0x3caf47f8	0.021396622
238	0xbc617af3	-0.0137622235
239	0xbb90def6	-0.0044211103
240	0x3bcc1e10	0.0062291697
241	0x3ca43ea9	0.02004941
242	0x3ba1ac08	0.004933838
243	0xbc768c34	-0.0150480755
244	0xbc56b900	-0.013105631
245	0xbc96b5d6	-0.018397253
246	0xbc63b73e	-0.013898669
247	0x3a25fc90	0.0006331885
248	0xbc256fec	-0.010097485
249	0xbae678d8	-0.0017583622
250	0x3bb13ce4	0.00540887
251	0xbbfb29a6	-0.007664877
252	0xbc5449df	-0.012957065
253	0x3c853b05	0.016263494
254	0x3c2869ba	0.010279113
255	0xbc82884b	-0.01593413

feats.0.safm.aggr.bias f4 [32]
0	0xbe8c8e16	-0.27452153
1	0xbd9d3afc	-0.07677266
2	0xbe3ac8ad	-0.18240614
3	0xbdd84075	-0.10559169
4	0x3d2d8849	0.0423663
5	0x3f5fa0e9	0.87354904
6	0x3d04e42b	0.03244416
7	0x3e2bfd38	0.16795814
8	0xbf9af7fd	-1.210693
9	0x3f25475d	0.64562017
10	0x3ce685d5	0.028139988
11	0x3ecb75c1	0.39738277
12	0x3ea01e91	0.3127332
13	0x3ede966d	0.4347414
14	0x3e10a033	0.14123611
15	0xbf36ae8e	-0.713601
16	0xbd5928d8	-0.053017467
17	0xbe5b9630	-0.2144401
18	0x3e530bbb	0.20609944
19	0x3edcabb0	0.43099737
20	0x3e46a78b	0.1939985
21	0x3c22bf10	0.009933248
22	0x3f37b312	0.71757615
23	0x3f966975	1.1750933
24	0x3f41fbac	0.75774646
25	0x3b8366e2	0.0040100673
26	0x3ef1d0bb	0.4722956
27	0x3e8ebd4e	0.27878803
28	0x3d9caa0f	0.076496236
29	0x3d472daa	0.048627533
30	0x3e20312e	0.1564376
31	0x3f0f488f	0.5597009

feats.0.safm.proj_1.weight f4 [32, 32, 1, 1]
0	0xbf130021	-0.5742207
1	0x3ea7572e	0.326837
2	0x3f0c84b3	0.5488998
3	0x3e808c5e	0.25107092
4	0x3df49062	0.11941601
5	0xbed43f61	-0.41454604
6	0xbe5d7657	-0.21627174
7	0xbd82200d	-0.063537695
8	0x3e99b479	0.30020502
9	0x3ed4d656	0.41569775
10	0xbe058314	-0.13038284
11	0x3d89d06b	0.06729206
12	0x3e51bed1	0.20482947
13	0x3eb47e0d	0.3525242
14	0x3ef22350	0.47292566
15	0x3c11034e	0.008850886
16	0x3ebd3038	0.3695085
17	0x3f0686de	0.5254954
18	0x3d628aa4	0.055308
19	0x3e7bfabf	0.24607371
20	0x3f1048ce	0.5636109
21	0x3e56ba49	0.209695
22	0xbf1f74a9	-0.62287384
23	0xbdc4959b	-0.095988475
24	0xbcdb1490	-0.026743203
25	0xbd9b581d	-0.07585166
26	0x3eb3c465	0.35110775
27	0xbe832a88	-0.25618386
28	0xbe052228	-0.13001311
29	0x3ef0b7ad	0.47015134
30	0x3d08d5d0	0.033407032
31	0x3e5ef9ac	0.2177493
32	0xbf7854eb	-0.97004575
33	0xbfb7f01e	-1.4370153
34	0x3ebe3455	0.371493
35	0x3e8cab97	0.27474663
36	0x3e5f8bbc	0.21830648
37	0xbd40cb17	-0.04706868
38	0x3ea5c455	0.32376352
39	0x3e8149d8	0.2525165
40	0x3e2acea2	0.16680387
41	0x3d4f0a5a	0.05054698
42	0x3df8aa3a	0.12141843
43	0xbe485de5	-0.19567068
44	0x3f839826	1.0280807
45	0x3e962eb0	0.29332495
46	0x3e412001	0.18859865
47	0x3e7e6b42	0.24845603
48	0xbe9e4c4f	-0.30917594
49	0x3fb81a7b	1.4383081
50	0x3e141ab8	0.14463317
51	0x3bab53bd	0.0052284882
52	0xbeddde20	-0.4333353
53	0x3f046809	0.51721245
54	0xbf7f1a27	-0.9964928
55	0xbef6f30b	-0.48232302
56	0xbecb2c59	-0.39682272
57	0x3f540790	0.8282404
58	0x3e7a180d	0.24423237
59	0x3f583a8a	0.84464324
60	0xbf25f1cb	-0.6482207
61	0xbe427f06	-0.18993768
62	0x3e27706b	0.16351478
63	0x3e102047	0.14074813
64	0xbf978b86	-1.1839454
65	0x3e68f552	0.22749832
66	0x3f298ca8	0.6623025
67	0xbd9e3e0b	-0.077266775
68	0x3e64b5bb	0.2233495
69	0x3d1cfe38	0.03832838
70	0x3e0987bc	0.13430685
71	0x3ec8b2a3	0.3919879
72	0xbe9847ef	-0.2974238
73	0x3d48700c	0.04893498
74	0x3d56e2a2	0.052462228
75	0x3ea26c0f	0.31723067
76	0x3ddae6e4	0.1068857
77	0xbebbd04b	-0.36682352
78	0xbf356f81	-0.70873266
79	0x3eee59e7	0.46552965
80	0xbdbcf7d2	-0.092269555
81	0xbd61506c	-0.055008337
82	0xbe4ce2fb	-0.20008461
83	0x3f3c991f	0.73671144
84	0x3db84170	0.08996856
85	0x3f3d83ad	0.74029046
86	0xbe15a84a	-0.14614978
87	0x3c4fc8bb	0.012682135
88	0xbe393d5d	-0.18089814
89	0x3f8b5150	1.088419
90	0x3ea87358	0.329005
91	0xbf0837a6	-0.5320991
92	0x3e35b384	0.17744261
93	0xbea43f1b	-0.32079396
94	0x3e75f010	0.24017358
95	0x3ebaa681	0.36455157
96	0x3eeb288c	0.45929372
97	0xbf8b88d5	-1.0901133
98	0xbf4ded7a	-0.80440485
99	0x3e860655	0.26176706
100	0x3aa96e60	0.0012926571
101	0x3e53c72d	0.20681448
102	0xc0018119	-2.0235045
103	0x3f9b5aa0	1.2137032
104	0xbfbfd3bf	-1.4986495
105	0x3fa1b798	1.2634153
106	0xbda76794	-0.08174053
107	0x404d2a01	3.2056887
108	0xbefa2c1f	-0.48861787
109	0x3f9f5d24	1.2450299
110	0x3f2ae14d	0.6675003
111	0xc088843e	-4.266143
112	0x3ffe5213	1.9868797
113	0xbf93e40b	-1.1553968
114	0x3fa1ce0c	1.2641006
115	0xbe99f978	-0.30073142
116	0x3ebb2bce	0.36556858
117	0x3f675700	0.90367126
118	0x3f748cc1	0.95527273
119	0x3df9ae41	0.121914394
120	0xc0085a09	-2.1304953
121	0xbf808d45	-1.0043112
122	0x402b20f6	2.6738868
123	0x3e38c3e9	0.18043484
124	0x3d0df775	0.03465982
125	0x3feadca2	1.8348582
126	0x402e3f1a	2.7226014
127	0xbeaa2fb4	-0.3323952
128	0x3e95211d	0.29126826
129	0xbe01fbed	-0.12693758
130	0xbe706d59	-0.23479213
131	0xbd961c4b	-0.07329615
132	0xbd6a7539	-0.0572407
133	0x3e1daacd	0.15397187
134	0xbe95cecd	-0.2925934
135	0xbe97a669	-0.29619148
136	0xbe92bc55	-0.2865931
137	0xbec60fc4	-0.38683903
138	0x3c119ba0	0.008887202
139	0x3db65e76	0.08904736
140	0x3daad42d	0.083412506
141	0xbe3cf379	-0.18452252
142	0xbe43904a	-0.1909801
143	0x3d1e6a0f	0.038675364
144	0x3e0f5933	0.1399887
145	0xbe6744a4	-0.22584778
146	0xbb95b477	-0.004568632
147	0xbe401573	-0.18758182
148	0xbe001616	-0.12508425
149	0x3cd63070	0.026146144
150	0x3e56ec5a	0.20988598
151	0x3d8168f4	0.06318846
152	0x3db1bc0b	0.086784445
153	0xbd745536	-0.059651576
154	0xbe4f9a3c	-0.2027368
155	0xbe61f436	-0.22065815
156	0x3cdc3825	0.02688224
157	0x3d31eec3	0.04344059
158	0xbd1aa717	-0.037757006
159	0xbc0c98c2	-0.008581342
160	0xbcbd96e1	-0.023143234
161	0x3ded8316	0.11597268
162	0x3e28df5f	0.1649146
163	0x3ee2173f	0.4415836
164	0x3e6c7b19	0.23093833
165	0xbf96045c	-1.172008
166	0x3e48ae84	0.19597822
167	0x3dc6a499	0.09699363
168	0x3e1e362c	0.15450352
169	0x3d1a5424	0.0376779
170	0xbe43f029	-0.19134583
171	0xbcf0217f	-0.029312847
172	0xbda3423b	-0.07971617
173	0x3ebd8537	0.37015697
174	0x3e8cfb79	0.27535608
175	0x3df3db8e	0.11907111
176	0x3f065ae5	0.52482444
177	0x3e5d9fba	0.21642962
178	0x3e7c64dd	0.24647851
179	0x3e107767	0.14108048
180	0x3dfde7d2	0.12397732
181	0x3d6345f8	0.05548665
182	0xbd51b3cc	-0.05119686
183	0xbe2970cb	-0.16546933
184	0x3d2aff80	0.04174757
185	0xbd290cb2	-0.041271873
186	0xbc692a8c	-0.014231335
187	0xbe4301ca	-0.19043651
188	0xbdd2c3ff	-0.102912895
189	0xbe149b62	-0.14512399
190	0x3efd3a23	0.49458417
191	0x3c8d5372	0.017251704
192	0xbd8807dc	-0.06642124
193	0x3d318b16	0.043345533
194	0x3db55b3e	0.08855294
195	0x3e1e9c36	0.15489277
196	0x3d9b4a7b	0.075825654
197	0xbde38c3e	-0.111107334
198	0xbeb50d45	-0.35361686
199	0x3e219022	0.15777639
200	0x3e0d098e	0.13773176
201	0x3e74c039	0.23901452
202	0xbe882fe1	-0.2659903
203	0xbe1c50eb	-0.15265243
204	0xbe0fd5a3	-0.1404634
205	0x3d0d9a81	0.034571175
206	0x3e74e6da	0.23916188
207	0x3e4671c0	0.1937933
208	0x3e0655a0	0.13118601
209	0x3e36a4c9	0.17836298
210	0x3e0611b3	0.13092689
211	0x3dee6485	0.11640266
212	0xbe0f0c2d	-0.13969488
213	0x3d9d9a6f	0.076954715
214	0xbe858527	-0.2607815
215	0xbeb70b73	-0.35750923
216	0x3e2b534c	0.16730994
217	0xbe8066c7	-0.25078413
218	0x3d93313a	0.071871236
219	0xbdf11b53	-0.1177279
220	0xbd9e543a	-0.07730909
221	0x3e172013	0.14758329
222	0x3e0108c9	0.12601008
223	0x3da9d9e2	0.08293511
224	0x3f4d3cb4	0.8017075
225	0x3eab12ee	0.3341288
226	0x3eaff5f4	0.34367335
227	0x3f9ec3e4	1.2403531
228	0xbf36c32a	-0.71391547
229	0x3cc16c90	0.023611337
230	0xbf53e8b0	-0.8277693
231	0x3f3a5000	0.7277832
232	0xbfd39df7	-1.6532582
233	0x3fc7c76b	1.5607733
234	0xbe94d93d	-0.2907199
235	0x3e2e8bb0	0.17045474
236	0xbe7e4bb8	-0.24833572
237	0xbe7bfc1b	-0.2460789
238	0xbf727d38	-0.9472232
239	0x3eec56c8	0.4615996
240	0x3d8266ed	0.06367288
241	0xbf2da7f7	-0.6783442
242	0xbe4690a5	-0.19391115
243	0xbd25480a	-0.040351905
244	0xbf1792ff	-0.59208673
245	0xbfd44a3a	-1.6585152
246	0xbfb49e42	-1.4110796
247	0x3f8b9559	1.0904952
248	0xbbf45e52	-0.007457533
249	0x3f99de5e	1.2020986
250	0xbf752e07	-0.9577336
251	0x3f5f96ce	0.87339485
252	0x3f94adbe	1.1615522
253	0x3f80af36	1.005347
254	0x3ed8b80d	0.4232792
255	0xbea54e44	-0.32286274

feats.0.safm.proj_1.bias f4 [32]
0	0xbf886d63	-1.0658382
1	0xbf1d852b	-0.61531323
2	0xbf89958e	-1.0748765
3	0x3f0a322c	0.53982806
4	0x3e844adf	0.25838372
5	0xbe9102da	-0.28322488
6	0x3eb157bf	0.34637257
7	0x3f4899ab	0.7835948
8	0x3ed1b0f3	0.40955314
9	0xbec1879d	-0.37798777
10	0xbdc9342e	-0.098244056
11	0x3e39eada	0.18155995
12	0xbce98544	-0.028505929
13	0x3ddf7772	0.10911454
14	0xbe11d343	-0.14240746
15	0x3f08274b	0.53184956
16	0x3f3c4fc2	0.735592
17	0xbed1b3d9	-0.40957525
18	0xbdba6f97	-0.09103315
19	0x3d4aee90	0.049543917
20	0xbef03927	-0.46918604
21	0xbdec1a65	-0.11528472
22	0x3f0cce7a	0.5500256
23	0xbf83374a	-1.0251248
24	0xbda5daeb	-0.08098396
25	0xbeca5097	-0.3951461
26	0xbe224e58	-0.15850198
27	0x3e0d53a1	0.13801433
28	0xbdd1a9ac	-0.102374405
29	0xbe121595	-0.14266045
30	0xbeb6157d	-0.3556327
31	0xbd8c8dc5	-0.06862978

feats.0.safm.sigma.scale f4 [1, 32, 1, 1]
0	0xbd191363	-0.037372004
1	0x3c5b544c	0.013386797
2	0x3e00168b	0.125086
3	0x3bfcb44c	0.0077119227
4	0xbe38f42a	-0.18061891
5	0x3da9f127	0.08297949
6	0xbcaf1d52	-0.021376286
7	0x3fddd033	1.7329162
8	0xbd5e28ce	-0.054238133
9	0x3b0dda52	0.0021645022
10	0x3d2216fb	0.039572697
11	0xbaee3dfa	-0.001817643
12	0xbc9b091a	-0.018925238
13	0x3c1d29e2	0.009592505
14	0xbc6a62a6	-0.014305746
15	0xbd19055c	-0.037358627
16	0x3e50765b	0.20357649
17	0x3d8f24ee	0.06989466
18	0x3cd6b033	0.026207065
19	0xbcf74a51	-0.030186804
20	0xbc0125c7	-0.007882542
21	0x39cb47ce	0.00038772676
22	0xbcdac1e8	-0.02670379
23	0xbb533c37	-0.0032231936
24	0x3d10a690	0.035315096
25	0x3c64793a	0.013944918
26	0x3d746776	0.05966898
27	0xbcd7a1f4	-0.026322342
28	0x3e2f5674	0.17122823
29	0x3cc26219	0.023728417
30	0x3cd45f5f	0.025924383
31	0x3df45212	0.11929716

feats.0.ffd.project_in.weight f4 [114, 32, 1, 1]
0	0xbeb42a67	-0.351886
1	0x3e967bbb	0.29391274
2	0x3dca6bb7	0.09883826
3	0x3d2c9106	0.042130493
4	0x3e2183f1	0.15772988
5	0x3dd6d2ab	0.104894005
6	0x3dd04ce2	0.10170914
7	0x3d8aba97	0.067738704
8	0x3d83f51f	0.064432375
9	0x3e0a511c	0.13507503
10	0x3ee2c1d2	0.44288498
11	0x3f0fc17e	0.5615462
12	0xbe936e82	-0.28795248
13	0xbe4b929f	-0.1988015
14	0xbe721ced	-0.23643847
15	0xbf52dcba	-0.8236805
16	0x3e990242	0.29884535
17	0x3d6c7b2c	0.057734653
18	0x3eceb2c6	0.40370768
19	0x3d43e3a5	0.04782452
20	0xbe33654b	-0.17519109
21	0x3e0f5cd4	0.14000255
22	0xbf2f1b4d	-0.6840103
23	0x3f4a81b7	0.7910418
24	0x3e0ebcde	0.13939235
25	0xbdd2eac4	-0.10298684
26	0xbd28ddd7	-0.041227188
27	0x3ec3b1bd	0.3822154
28	0xbe783ace	-0.24241182
29	0xbe41f136	-0.18939671
30	0xbd586306	-0.05282881
31	0xbf126901	-0.57191473
32	0x3f44ed52	0.7692462
33	0x3e87c327	0.26516077
34	0xbeb62496	-0.35574788
35	0x3e393bbb	0.18089192
36	0xbc0d4318	-0.008621953
37	0xba9dcdd4	-0.0012039491
38	0xbdcd947d	-0.100380875
39	0x3df45766	0.119307324
40	0xbe8aad13	-0.2708517
41	0x3d937e20	0.07201791
42	0xbe848c20	-0.25888157
43	0x3e364f08	0.17803586
44	0xbdc6943c	-0.09696242
45	0x3e30521e	0.17218825
46	0x3e765739	0.2405671
47	0x3f1665f4	0.5874932
48	0x3d5b26ca	0.05350379
49	0x3ea7de44	0.32786763
50	0x3d9b966c	0.0759705
51	0x3ebafcf0	0.365211
52	0xbd1b3212	-0.037889548
53	0x3ea58600	0.32328796
54	0xba1e8c72	-0.00060481497
55	0x3f24c3ee	0.64361465
56	0x3ee035ad	0.4379095
57	0x3e888860	0.26666546
58	0x3eedf32a	0.46474582
59	0xbe9cc1cd	-0.30616608
60	0xbe1e1470	-0.15437484
61	0x3e569b19	0.20957603
62	0xbea61cf3	-0.32443962
63	0x3ec3c9e2	0.38239962
64	0x3e846cfe	0.25864404
65	0x3e17fc6a	0.14842382
66	0x3e48c64e	0.19606897
67	0x3de838b8	0.11338943
68	0xbe03001f	-0.12793015
69	0x3e0b4ef3	0.13604335
70	0x3e0a5c44	0.13511759
71	0x3ea6e895	0.3259932
72	0x3e463678	0.19356716
73	0x3e0690ab	0.13141124
74	0x3c01f114	0.007931013
75	0x3e07212e	0.13196251
76	0xbf7424be	-0.95368564
77	0x3dafa405	0.08576206
78	0xbe84db0c	-0.2594837
79	0x3d2a64e3	0.04160012
80	0x3e3be28c	0.1834814
81	0x3dc22c96	0.0948116
82	0x3ccd15ac	0.025034748
83	0x3d607e2e	0.054807834
84	0x3e3ea8b9	0.1861905
85	0x3d3e2122	0.046418317
86	0x3e994acb	0.29939875
87	0x3d6ddbee	0.05807107
88	0x3d1cca2e	0.03827875
89	0xbe234fca	-0.15948406
90	0xbe850228	-0.25978208
91	0x3e64c83e	0.22342011
92	0x3dbfe85b	0.0937049
93	0x3e006d93	0.12541799
94	0x3d88fb87	0.066886
95	0x3d97df8e	0.074156865
96	0x3e88d6ad	0.26726285
97	0x3d9b1369	0.075720616
98	0xbef793b4	-0.48354876
99	0xbdd48271	-0.10376442
100	0xbd44af87	-0.04801896
101	0x3d8226b9	0.06355042
102	0x3d6507d2	0.05591566
103	0x3f993f4f	1.1972445
104	0xbe26a582	-0.16274074
105	0xbe6e5b05	-0.23276909
106	0xbdf69b0d	-0.12041292
107	0xbe74d050	-0.2390759
108	0x3e39339f	0.18086098
109	0x3caca379	0.021074044
110	0x3d30e104	0.04318334
111	0xbe7fdb26	-0.24985942
112	0xbdc208e9	-0.09474356
113	0x3e72a2f9	0.23694982
114	0x3dbc4320	0.091924906
115	0x3cefe3e8	0.029283479
116	0xbe698e71	-0.22808243
117	0xbd83c983	-0.0643492
118	0x3e61634c	0.22010535
119	0xbc43bb2b	-0.01194648
120	0xbc7d3fe7	-0.01545713
121	0xbe1ad94e	-0.15121958
122	0xbdf044ba	-0.117318586
123	0xbe985ca2	-0.29758173
124	0xbf0c890a	-0.54896605
125	0xbd54febf	-0.052000757
126	0xbe5fb6c8	-0.2184707
127	0x3d8a61ac	0.06756911
128	0x3e9a08bd	0.30084792
129	0x3f1f6af3	0.62272567
130	0x3da041b5	0.078250326
131	0x3e0c0c42	0.13676551
132	0xbefc0559	-0.4922283
133	0x3d498b51	0.049205128
134	0xbe337d38	-0.17528236
135	0x3e2acaee	0.16678974
136	0xbe793271	-0.24335648
137	0xbdf97f73	-0.12182512
138	0x3edf820c	0.43653905
139	0xbe113dea	-0.14183775
140	0xbebf6efe	-0.37389368
141	0x3d048fe8	0.032363802
142	0xbe4fa4ef	-0.20277761
143	0x3e7a1d8e	0.24425337
144	0xbe90ae03	-0.2825776
145	0x3d00ff90	0.031493723
146	0xbca3b8b9	-0.019985544
147	0xba903113	-0.0011000953
148	0x3e5899b3	0.21152382
149	0x3e7cf28c	0.247019
150	0x3e484cf1	0.19560601
151	0x3db35d9b	0.08758088
152	0x3f060b7a	0.5236126
153	0xbe7bea10	-0.24601007
154	0x3ddc5030	0.10757482
155	0xbda934fd	-0.0826206
156	0xbf705fae	-0.93895996
157	0xbf1aec29	-0.605166
158	0x3d1bf15d	0.03807198
159	0xbf03803f	-0.51367563
160	0xbe976403	-0.2956849
161	0xbe8d9f10	-0.27660418
162	0xbe8c8018	-0.27441478
163	0xbe8cbe49	-0.27488926
164	0xbe5f6b3b	-0.21818249
165	0xbe45c130	-0.19311976
166	0xbe0d6c22	-0.1381078
167	0xbe9b45d5	-0.30326715
168	0xbf60e368	-0.87846994
169	0xbe1c1aba	-0.1524457
170	0xbe2623ea	-0.16224638
171	0xbe82aec8	-0.25523973
172	0xbe0e3d0d	-0.13890477
173	0xbe4af517	-0.19820057
174	0xbe4764f8	-0.1947211
175	0xbe96e4d2	-0.2947145
176	0xbe977f5b	-0.29589352
177	0xbe9c0833	-0.30475006
178	0xbe188767	-0.14895402
179	0xbe2ba0d7	-0.16760574
180	0xbe089e38	-0.13341606
181	0xbe50f3be	-0.2040548
182	0xbed3ad46	-0.41343135
183	0xbe9d88ad	-0.30768338
184	0xbe43e45f	-0.19130085
185	0xbf0029ae	-0.500636
186	0xbe619008	-0.220276
187	0xbf05ab3f	-0.52214426
188	0xbe2d4ad8	-0.16923082
189	0xbe8866ef	-0.26641032
190	0xbe239c82	-0.15977672
191	0xbe19cdb3	-0.15019874
192	0x3e52b02e	0.2057502
193	0x3ba8c988	0.0051509775
194	0x3f3fa330	0.7485838
195	0x3e899eb2	0.26878887
196	0xbd03f6bf	-0.032217737
197	0xbb865596	-0.004099558
198	0xbed3f449	-0.41397312
199	0x3d873d92	0.066035405
200	0xbde081c7	-0.10962253
201	0xbe4ee0f7	-0.20203005
202	0xbf677961	-0.90419585
203	0x3bbe2601	0.0058028703
204	0x3daef8a5	0.08543519
205	0x3f46922c	0.7756679
206	0x3ef9aed9	0.4876621
207	0x3f83cd91	1.0297109
208	0x3d1985a1	0.037480954
209	0xbe1b7b1b	-0.1518368
210	0x3f16b067	0.5886292
211	0xbf70b391	-0.94023997
212	0x3f34c431	0.70611864
213	0x3e304544	0.17213923
214	0xbf1b2db5	-0.6061662
215	0xbd158334	-0.03650208
216	0x3bd7c9f3	0.0065853535
217	0xbef08958	-0.46979785
218	0xbd7f3130	-0.06230277
219	0xbf04c5de	-0.5186442
220	0x3cd9e511	0.026598485
221	0x3e80ea05	0.25178543
222	0xbec35c09	-0.38156155
223	0x3f4e5e05	0.8061221
224	0x3f248869	0.64270645
225	0xbe55373e	-0.20821854
226	0xbe31b39d	-0.17353673
227	0xbe046eb2	-0.12932852
228	0x3d254273	0.040346574
229	0xbe01c753	-0.12673692
230	0xbe14c165	-0.14526899
231	0x3b5ca9a3	0.0033670447
232	0x3e84b33a	0.2591799
233	0xbd99da6c	-0.07512364
234	0x3e7004cb	0.23439328
235	0x3e3d0d20	0.18462038
236	0xbe4dae5a	-0.20086041
237	0xbd4e5b52	-0.05038006
238	0xbdd98445	-0.106209315
239	0x3e8f8af7	0.2803571
240	0x3d95c63e	0.07313202
241	0x3d4f1bac	0.0505635
242	0xbe564257	-0.20923744
243	0x3e8a4d70	0.27012205
244	0xbf17602f	-0.5913114
245	0x3e9186c4	0.2842313
246	0x3d98f061	0.07467724
247	0x3caa7e5b	0.020812204
248	0x3e3891ea	0.18024412
249	0x3ebcedb8	0.36900115
250	0x3d451c95	0.04812296
251	0xbe2ba643	-0.16762643
252	0xbf2788ae	-0.6544293
253	0xbddc97dc	-0.107711524
254	0x3e419ad4	0.18906718
255	0xbd5c5b8d	-0.053798247

feats.0.ffd.dwconv.weight f4 [114, 1, 3, 3]
0	0x3c3efc1f	0.01165679
1	0x3d09cd04	0.033642784
2	0x3c0b377a	0.008497113
3	0x3d0db3f9	0.034595463
4	0x3f13de52	0.5776111
5	0x3a118132	0.00055505626
6	0x3c4bf528	0.0124485865
7	0x3cf0d70d	0.02939942
8	0x3c8c7a50	0.017148167
9	0xba7009a3	-0.00091567094
10	0xbd348685	-0.0440736
11	0xbbd2c308	-0.006431941
12	0xbced34bd	-0.028955812
13	0x3f7d879a	0.99035037
14	0xbd7fdf83	-0.062469017
15	0xbc3cfdda	-0.011535132
16	0xbd7569c0	-0.059915304
17	0x3b945a4d	0.0045273663
18	0x3dcfd865	0.10148696
19	0x3dcb455f	0.09925341
20	0x3d9315cb	0.07181891
21	0x3d84b769	0.06480295
22	0x3edc2897	0.42999718
23	0x3dad9183	0.0847502
24	0xbdebdc3f	-0.11516618
25	0xbf3411fb	-0.70339936
26	0xbdf5cc50	-0.1200186
27	0x3cc5f355	0.024163881
28	0x3cfdec64	0.030996509
29	0x3c7d3c02	0.0154562015
30	0x3d092b2f	0.03348845
31	0xbe1c80f2	-0.15283564
32	0x3cc6dff5	0.024276713
33	0x3ca8bec9	0.020598786
34	0x3f610b46	0.87907827
35	0x3b98fc57	0.004668753
36	0xbc4548b2	-0.012041258
37	0x3c5ce64f	0.013482644
38	0xbc5175fd	-0.012784478
39	0x3c1c8a44	0.0095544495
40	0xbf444a24	-0.7667563
41	0x3cabde24	0.020979948
42	0xbbc120d1	-0.0058938046
43	0x3ca83b17	0.020535989
44	0xbbf77834	-0.007552171
45	0x3d648b86	0.055797122
46	0xbdb19d53	-0.08672585
47	0x3d8b40e8	0.06799489
48	0x3f3c2473	0.7349312
49	0xbf0bd883	-0.54627246
50	0xbdac301d	-0.084076144
51	0x3ccafa7b	0.024777642
52	0xbdcb2567	-0.09919243
53	0x3d94165f	0.072308294
54	0xbdc6254e	-0.09675084
55	0xbdf86530	-0.12128675
56	0xbd81caf2	-0.06337537
57	0xbe42a4c8	-0.19008172
58	0xbf2c39ff	-0.67275995
59	0xbe1b6d7f	-0.15178488
60	0x3e9c7f07	0.30565664
61	0x3f4186b4	0.75596166
62	0x3e76b9e0	0.24094343
63	0xbc93f59d	-0.018061453
64	0x3d9929ce	0.07478677
65	0xbb585812	-0.0033011478
66	0x3d1ed836	0.038780414
67	0x3f408519	0.7520309
68	0xbd4d8a1b	-0.050180536
69	0xbcfaf3d9	-0.030633854
70	0x3d0729bb	0.03299878
71	0xbb80030d	-0.0039066137
72	0x3d81e16b	0.06341823
73	0xbeff8db2	-0.49912792
74	0x3d8d03d3	0.06885495
75	0xbe18d649	-0.14925493
76	0xbe4d3bff	-0.20042418
77	0xbd532392	-0.051547594
78	0x3d9c6ec8	0.07638317
79	0xbee6f2e7	-0.45107195
80	0x3d520105	0.051270504
81	0x3d3d7ad1	0.046259705
82	0xbd84270a	-0.064527586
83	0x3c45a4d5	0.012063225
84	0xbd87f356	-0.066382095
85	0xbf1bb533	-0.60823363
86	0xbd73bafa	-0.059504487
87	0x3d0f55b1	0.03499383
88	0xbd9fff3c	-0.07812354
89	0x3d2632ea	0.0405759
90	0xbde935d6	-0.113872215
91	0xbe47f081	-0.19525339
92	0x3e46b26d	0.19404002
93	0x3e723d41	0.23656179
94	0x3e77926d	0.24176951
95	0x3ef2c65d	0.47416964
96	0xbe00c3d1	-0.12574698
97	0xbe45e9fe	-0.19327542
98	0x3e0afdf5	0.1357344
99	0xbb836075	-0.0040093013
100	0x3bdc88eb	0.006730189
101	0xbb347626	-0.0027536242
102	0x3c3dc2fa	0.011582131
103	0xbf4a1726	-0.7894157
104	0xbbcdc853	-0.006279984
105	0xbb8d45db	-0.004311306
106	0xbba7625e	-0.005108162
107	0xbbe79745	-0.0070675933
108	0x3cf89766	0.03034563
109	0x3d85637e	0.06513117
110	0x3cdb6871	0.0267832
111	0x3db0d5a2	0.08634497
112	0xbf650ccd	-0.8947266
113	0x3da0d20c	0.07852563
114	0x3d056c49	0.032573972
115	0x3da1b1bb	0.078952275
116	0x3ce3b9c3	0.027798539
117	0xbca62945	-0.02028335
118	0xbdbf6a74	-0.09346476
119	0xbd131c73	-0.035915803
120	0xbe064b62	-0.13114694
121	0xbf55beca	-0.83494246
122	0xbdf0da4c	-0.11760387
123	0xbc2be6c0	-0.010492027
124	0xbe00a2af	-0.12562059
125	0xbcfe6d37	-0.031057937
126	0xbda007c6	-0.07813983
127	0xbe6f4ae3	-0.23368411
128	0xbdaada06	-0.08342366
129	0xbea1db9b	-0.31612858
130	0x3f30bc63	0.69037455
131	0xbe9bf4b7	-0.3046014
132	0x3db54c26	0.08852415
133	0xbe198062	-0.1499038
134	0x3d0f5227	0.034990456
135	0xbcd2b40c	-0.025720619
136	0xbdd2af44	-0.102873355
137	0xbcab8a3f	-0.020939944
138	0xbda27b69	-0.07933695
139	0x3f71e9a1	0.94497114
140	0xbdabbf53	-0.083861016
141	0xbbe663b5	-0.007030929
142	0xbdd1e09c	-0.10247919
143	0xbcbfa7af	-0.023395387
144	0xbddf4281	-0.109013565
145	0xbd0b1ac3	-0.03396107
146	0xbb990a17	-0.0046703923
147	0x3ea1bdb0	0.31590033
148	0x3e5e56cc	0.21712798
149	0xbe7b9a2d	-0.24570532
150	0x3e936815	0.28790346
151	0xbdb705ca	-0.08936651
152	0xbeb81b1a	-0.35958177
153	0xbca218c9	-0.01978721
154	0xbd3d859f	-0.04627001
155	0xbcae0c89	-0.021246212
156	0xbd9c3439	-0.07627148
157	0xbf16b8df	-0.5887584
158	0xbd78fc31	-0.060787383
159	0xbc6c42ce	-0.014420224
160	0xbd8c2e4a	-0.068447664
161	0xbc80aa46	-0.015706193
162	0x3c824eaa	0.01590665
163	0x3d8873e3	0.06662729
164	0x3b181113	0.0023203536
165	0x3da9f3fa	0.08298488
166	0x3f10fea4	0.5663855
167	0x3d9524f5	0.072824396
168	0x3ce3d486	0.0278113
169	0x3d85afe7	0.06527691
170	0xbc2cd740	-0.0105493665
171	0xbc80be58	-0.015715763
172	0xbf037535	-0.5135072
173	0xbd67a3aa	-0.056552567
174	0x3dff373a	0.124617055
175	0x3f0154bf	0.5051994
176	0x3e3ee6e5	0.18642767
177	0xbe4baca8	-0.19890082
178	0x3ed1f05d	0.41003695
179	0xbddb8ae1	-0.107198484
180	0x3ebd771b	0.37004933
181	0xbef9a1a8	-0.48756146
182	0x3d498eea	0.04920856
183	0xbed1a1f5	-0.40943876
184	0x3fcbd648	1.5924768
185	0xbed89172	-0.42298466
186	0xbe033f5b	-0.12817137
187	0xbef6fdd0	-0.4824052
188	0xbc93ed0e	-0.018057372
189	0x3bd8f0b9	0.0066204933
190	0x3a54e7e9	0.00081217155
191	0x3b77d09b	0.0037813548
192	0xbc88bbfb	-0.016691199
193	0x3f4727cf	0.7779512
194	0xbc6d0cb5	-0.014468362
195	0x3c454680	0.012040734
196	0xbb89b3e0	-0.004202351
197	0x3ad873cd	0.0016514004
198	0x3d0498c6	0.03237226
199	0xbd3f4600	-0.046697617
200	0x3c309576	0.010777822
201	0xbd252cf5	-0.040326077
202	0xbf43ec53	-0.7653248
203	0xbc78812e	-0.015167518
204	0x3d02aa23	0.031900536
205	0xbcce7f01	-0.025207045
206	0x3ce4f5e4	0.027949281
207	0xbd54d5d6	-0.051961742
208	0xbdf1999e	-0.11796878
209	0x3d0e15c4	0.034688726
210	0xbe14f3ce	-0.14546129
211	0xbf2d8c63	-0.6779234
212	0x3ea3c32d	0.31984845
213	0xbcc9d36b	-0.024636945
214	0xbe0826fd	-0.13296123
215	0x3def0442	0.11670734
216	0x3da90fc2	0.08254959
217	0xbd011f88	-0.03152421
218	0xbd7fb2c7	-0.062426355
219	0x3f3bc6ee	0.7335042
220	0x3da7fca6	0.08202486
221	0xbf4cc493	-0.7998745
222	0x3ddb1498	0.10697287
223	0xbcd42ce6	-0.025900315
224	0xbd910b90	-0.070822835
225	0xbc48cb07	-0.012255437
226	0xbdfd9d4b	-0.12383517
227	0x3c0c5166	0.008564329
228	0xbd883b0d	-0.06651888
229	0xbf54ac4b	-0.830754
230	0xbda24822	-0.079239145
231	0xbc92b4c4	-0.017908461
232	0xbdda247a	-0.106514886
233	0xbbb11356	-0.0054039164
234	0xbc4863bb	-0.012230809
235	0x3e090d78	0.13384044
236	0xbcebedc5	-0.0287999
237	0xbc5eefc6	-0.013606971
238	0xbf35167c	-0.70737433
239	0xbda817dd	-0.082076766
240	0xbdb04c78	-0.08608335
241	0xbd923ffb	-0.071411096
242	0xbd881b84	-0.06645873
243	0xbcf2474c	-0.029575013
244	0xbe0a0f42	-0.13482383
245	0xbcfa96f8	-0.030589566
246	0xbbb02a3a	-0.0053761275
247	0xbf1452c5	-0.57938796
248	0xbd016146	-0.031586908
249	0x3ceaf259	0.028680013
250	0xbe52acdb	-0.20573752
251	0x3d44fd9e	0.04809343
252	0x3d962574	0.07331362
253	0x3dad08c5	0.08448938
254	0x3db5197f	0.088427536
255	0x3e26881a	0.16262856
