model_zoo/team24_smfan.pth (torch, 787113 bytes, 324 tensors)

to_feat.weight f4 [24, 3, 3, 3]
0	0x3d03c486	0.03216984
1	0x3d09b27b	0.033617478
2	0xbcbd9b0a	-0.023145217
3	0x3da42c98	0.08016318
4	0xbe8f6685	-0.28007904
5	0xbe66733c	-0.22504896
6	0x3c9c185e	0.019054588
7	0x3e0a5d4b	0.13512151
8	0xbd0e4d29	-0.034741554
9	0x3cf81e8d	0.030288005
10	0x3df7c5de	0.12098287
11	0xbdea211a	-0.11432095
12	0x3e66ed99	0.22551574
13	0x3e1ca1fa	0.15296164
14	0x3d73833d	0.05945133
15	0x3cbd7174	0.023125388
16	0x3dab2cd4	0.0835816
17	0xbbe6faeb	-0.0070489547
18	0x3c6e1dc5	0.014533465
19	0x3d5610ae	0.052262
20	0x3d09f0f8	0.03367707
21	0xbcbfe2bb	-0.023423543
22	0xbe7299dd	-0.23691507
23	0xbe286fb6	-0.16448864
24	0x3cbb9b6f	0.022901265
25	0xba9b9b57	-0.0011871856
26	0xbc6ce27f	-0.014458298
27	0x3cb31c30	0.021864027
28	0xbe4b3001	-0.19842531
29	0xbd382fba	-0.04496739
30	0x3d9ff8e1	0.07811142
31	0x3daf64d5	0.08564154
32	0xbd87038e	-0.06592475
33	0x3dbc09ee	0.091815814
34	0xbd12f7e7	-0.03588095
35	0x3b6d2543	0.003618554
36	0xbd8b5816	-0.068039104
37	0xbddbb94b	-0.10728701
38	0xbdc3c261	-0.09558559
39	0x3df58f0d	0.119901754
40	0x3f070c48	0.52753115
41	0x3e6ac240	0.22925663
42	0xbdce4210	-0.10071194
43	0xbe0e7843	-0.13913064
44	0xbe1b28a3	-0.1515222
45	0x3ca33821	0.019924225
46	0xbdbdab7f	-0.09261226
47	0x3d8acd2a	0.06777413
48	0xbdab6ee2	-0.083707586
49	0x3ce5400e	0.027984645
50	0xbcd35c2a	-0.025800783
51	0x3da9911c	0.082796305
52	0xbe432f3c	-0.19060987
53	0x3d639302	0.05556012
54	0xbdc13f57	-0.09435909
55	0x3d79d570	0.060994565
56	0xbd1f933f	-0.038958784
57	0x3c319ed2	0.010841088
58	0x3ee7ace7	0.45249102
59	0x3d308e8d	0.043104697
60	0xbe066b32	-0.1312683
61	0xbe9106da	-0.2832554
62	0xbd84b6c5	-0.06480173
63	0x3c97aa1f	0.018513737
64	0x3e54fb6f	0.2079904
65	0x3d852dbb	0.06502863
66	0x3dbedf1d	0.09319899
67	0xbc0fe3f4	-0.008782376
68	0xbdd0c590	-0.10193932
69	0x3b653182	0.0034972136
70	0xbd9ff638	-0.078106344
71	0xbdd1ccd4	-0.10244146
72	0x3c3d28c0	0.01154536
73	0x3e0afb96	0.13572535
74	0xbd1cc973	-0.038278054
75	0x3e865e63	0.26243886
76	0xbf0b6475	-0.5445016
77	0x3d0e2232	0.03470058
78	0x3cb8b087	0.022545112
79	0xbc8b3fa3	-0.016998118
80	0x3d8e3140	0.069429874
81	0xbb8e818e	-0.00434894
82	0x3e137d77	0.1440333
83	0xbc6dfaac	-0.014525097
84	0x3e257268	0.16156924
85	0xbe3a6bde	-0.1820521
86	0x3d460f34	0.048354343
87	0xbd29b3cc	-0.041431233
88	0xbd559467	-0.05214348
89	0xbdc2f54e	-0.095194444
90	0xbd7d7d88	-0.061887294
91	0x3e2ac0f6	0.16675171
92	0x3d7ac8f8	0.061226815
93	0x3e18b2a6	0.14911899
94	0xbf96e3e3	-1.1788296
95	0x3eb9983b	0.36248955
96	0x3c2bda54	0.010489065
97	0x3ee08e92	0.43858773
98	0xbd1d840b	-0.038456004
99	0xbd83048c	-0.063973516
100	0xbe5294be	-0.20564553
101	0xbddc54c3	-0.107583545
102	0xbe2ca500	-0.16859818
103	0x3fa091ec	1.2544532
104	0xbeac1b66	-0.33614653
105	0x3c1bb732	0.009504126
106	0xbe89b988	-0.26899362
107	0xbcc1beec	-0.023650609
108	0xbcede72e	-0.0290409
109	0xbe2b27e8	-0.16714442
110	0xbcf9b529	-0.030481892
111	0x3e2e04e1	0.16994049
112	0x3d3dce8f	0.046339568
113	0xbd093923	-0.033501755
114	0x3cf5ad1f	0.029989777
115	0xbc9d46f4	-0.019198872
116	0x3cd634db	0.02614825
117	0xbd3992cf	-0.045306023
118	0xbe0e7cce	-0.13914797
119	0x3e235b24	0.15952736
120	0x3e2a12b2	0.16608694
121	0x3e3e56df	0.18587826
122	0xbec0aadc	-0.37630355
123	0xbda20cbe	-0.07912587
124	0x3e13cf29	0.14434494
125	0xbd1a94cd	-0.037739564
126	0xbc1c76d9	-0.00954982
127	0xbc29b3b0	-0.010357782
128	0xbd3227e1	-0.043495063
129	0x3dcffee9	0.10156042
130	0xbea5df8c	-0.32397115
131	0x3e52942a	0.20564333
132	0xbc4797cd	-0.012182188
133	0x3d9005ae	0.07032333
134	0x3d766ba0	0.060161233
135	0x3cdfc4d9	0.027315544
136	0x3e99d821	0.30047706
137	0xbbbffc79	-0.0058589545
138	0x3e9c7c62	0.30563647
139	0xbfb16732	-1.3859618
140	0x3e944582	0.2895928
141	0x3db038a3	0.086045526
142	0x3eb24e6a	0.3482545
143	0x381d710e	3.7537007e-05
144	0xbde4a1e0	-0.11163688
145	0xbe8348d4	-0.256415
146	0x3d07a66f	0.033117708
147	0xbe3d0d23	-0.18462043
148	0x3f76c267	0.96390384
149	0xbe414708	-0.18874753
150	0xbdde57a0	-0.10856557
151	0xbe2d5725	-0.16927774
152	0x3c0417da	0.008062327
153	0x3d5d2673	0.053991746
154	0x3c534ebe	0.012897192
155	0xbcf1f836	-0.029537302
156	0xbdb68bc8	-0.0891338
157	0x3ebb66cc	0.36601865
158	0xbe100c77	-0.14067255
159	0x3d193254	0.037401512
160	0xbe2067b9	-0.15664567
161	0xbd43ecdd	-0.047833312
162	0xbdac54e0	-0.08414626
163	0x3e24f958	0.16110742
164	0xbe093116	-0.13397631
165	0x3e1eb331	0.15498044
166	0xbe5ed1e6	-0.21759757
167	0x3e06de81	0.13170816
168	0xbe0fb338	-0.1403321
169	0x3ddba341	0.107244976
170	0xbd087e58	-0.033323616
171	0xbc0641c8	-0.008194394
172	0x3e01b8c2	0.12668136
173	0x3cfbbc7b	0.030729523
174	0x3e844e35	0.25840917
175	0xbf49a6a8	-0.7876992
176	0x3e68114f	0.22662853
177	0xbda5a67f	-0.08088397
178	0x3e7661a3	0.24060683
179	0xbd1bdcc4	-0.038052335
180	0xbc957024	-0.01824195
181	0x3ae34c2a	0.0017341424
182	0xbce8df39	-0.028426753
183	0xbc692149	-0.014229127
184	0x3cad1e47	0.021132601
185	0x3d5673e6	0.052356623
186	0xbbc0a39d	-0.005878879
187	0xbcb5aa38	-0.022175893
188	0x3d5c1caa	0.053738274
189	0x3dd2fbfc	0.103019685
190	0x3e85f563	0.26163778
191	0x3e515423	0.20442252
192	0x3c95ffc4	0.018310435
193	0xbf3c38f2	-0.7352439
194	0x3e2c59e7	0.1683117
195	0xbd03c114	-0.032166556
196	0xbd3453ee	-0.044025354
197	0x3dd78d49	0.10524995
198	0xbdb727b2	-0.08943118
199	0xbe8a39dc	-0.26997268
200	0xbe0c1ea6	-0.13683566
201	0xbe70985e	-0.23495623
202	0x3f9cf576	1.2262409
203	0xbe2a494f	-0.16629528
204	0xba5a6cfa	-0.0008332279
205	0xbe663e32	-0.22484663
206	0xbd3d8846	-0.04627254
207	0x3cdbef0d	0.026847387
208	0xbd3bb15d	-0.045823444
209	0x39955614	0.00028483628
210	0x3e8dff14	0.27733672
211	0xbec2d728	-0.38054776
212	0xbe138288	-0.14405262
213	0x3c21c89a	0.009874487
214	0x3e53866e	0.2065675
215	0x3b883b71	0.0041574766
216	0x3dd5a541	0.1043191
217	0xbd48ec6b	-0.04905359
218	0x3d0784e5	0.033085722
219	0x3d439534	0.047749713
220	0xbea050da	-0.31311685
221	0x3c636901	0.013880015
222	0x3cedfee8	0.029052213
223	0x3e01ce6a	0.12676397
224	0x3d02d38c	0.031940028
225	0xbe35e38e	-0.17762586
226	0xbd10eeae	-0.035383873
227	0xbe148481	-0.14503671
228	0xbc991c15	-0.018690148
229	0x3f0fe15f	0.56203264
230	0x3cbac9da	0.022801328
231	0xbd88c4f5	-0.066781916
232	0xbe1010e3	-0.14068942
233	0x3be5b48e	0.007010049
234	0x3da300cf	0.079591386
235	0x3e0a3ee3	0.13500552
236	0x3d88596f	0.06657683
237	0xbd96f5af	-0.07371079
238	0xbe47153b	-0.19441693
239	0x3d5f8b79	0.05457637
240	0xbcd3a19a	-0.025833894
241	0xbcc094ed	-0.023508513
242	0xbc650c89	-0.013980039
243	0x3e3bfa82	0.1835728
244	0x3c943044	0.018089421
245	0x3c95dbc2	0.018293265
246	0x3e1c1ea2	0.1524606
247	0xbf0027b4	-0.5006058
248	0xbe6970a6	-0.22796878
249	0x3e8623bd	0.2619914
250	0x3c60771e	0.013700275
251	0x3dce1cc1	0.10064078
252	0x3c9110e3	0.017708248
253	0x3dcd2a29	0.10017807
254	0x3d369a82	0.044580944
255	0x3e1d66f2	0.15371302

feats.0.smfa.linear_0.weight f4 [48, 24, 1, 1]
0	0x3d8c0737	0.068373136
1	0x3c9487f0	0.018131226
2	0xbd7a258d	-0.061070967
3	0xbdfbd85b	-0.12297126
4	0xbddcace4	-0.10775164
5	0xbf040959	-0.51576763
6	0xbe32cfca	-0.17462078
7	0x3e24a0c0	0.16076946
8	0xbebd45fc	-0.36967456
9	0xbe3703c2	-0.17872527
10	0xbed28cf2	-0.41123158
11	0xbe6cfdc1	-0.23143674
12	0xbe02d3d3	-0.12776117
13	0xbe70d8b8	-0.23520172
14	0xbe961e96	-0.2932021
15	0xbdaa1e07	-0.083065085
16	0xbd15193e	-0.036401026
17	0x3db16bc9	0.086631365
18	0x3e91a71e	0.28447813
19	0xbe5533af	-0.20820497
20	0xbd4c7102	-0.04991246
21	0xbe144190	-0.14478135
22	0x3e218a4f	0.15775417
23	0xbe1ba2a9	-0.15198769
24	0x3f24baef	0.6434774
25	0xbf4149f9	-0.755035
26	0xbf9aeef8	-1.2104177
27	0x3e2c4e95	0.16826852
28	0x3eb90da5	0.36143222
29	0xbd8cd18f	-0.06875908
30	0x3e88e03a	0.2673357
31	0xbd12d3e1	-0.035846595
32	0xbed6452f	-0.41849658
33	0xbf0fcaba	-0.5616871
34	0x3c81f02b	0.015861591
35	0x3d075a1f	0.03304493
36	0xbea5b70d	-0.3236622
37	0xbebfb5e3	-0.37443456
38	0x3e1bf4f2	0.15230158
39	0x3df579b8	0.11986107
40	0x3e573097	0.2101463
41	0x3e969f66	0.29418486
42	0xbdab857b	-0.08375069
43	0x3f10bb6c	0.56535983
44	0x3d826e07	0.06368642
45	0xbf141232	-0.57840264
46	0x3e174947	0.14774047
47	0x3e0a4ad5	0.13505109
48	0x3eb6afc7	0.35680982
49	0xbd6059c9	-0.054773126
50	0xbe8ef3f8	-0.27920508
51	0xbe91f45e	-0.2850675
52	0xbd7123df	-0.0588721
53	0x3f281f2b	0.6567256
54	0x3e617030	0.22015452
55	0x3e3befe3	0.18353228
56	0x3ea235a6	0.31681556
57	0xbdcb7871	-0.09935082
58	0xbf19bae8	-0.6005082
59	0xbe92b0ad	-0.28650418
60	0xbd3f726b	-0.046739977
61	0x3f5d787b	0.86511964
62	0x3d94e45c	0.072701186
63	0x3e68a7e6	0.22720298
64	0x3f276aad	0.6539715
65	0xbf1aeebd	-0.60520536
66	0x3c19f662	0.009397121
67	0xbe882a3f	-0.2659473
68	0xbe840db1	-0.25791696
69	0x3d527678	0.05138251
70	0xbed7482b	-0.42047247
71	0xbf1b1c3a	-0.60589945
72	0x3e7d9123	0.24762397
73	0x3d944934	0.07240525
74	0x3e11ad0e	0.14226171
75	0xbeb69a18	-0.3566444
76	0xbf1034d6	-0.5633062
77	0x3f2d4a8d	0.6769188
78	0x3e593f9f	0.21215676
79	0xbed16c5b	-0.4090298
80	0x3f8a8503	1.0821842
81	0x3d5fa10f	0.054596957
82	0x3e9d89a8	0.30769086
83	0xbf26fa00	-0.6522522
84	0x3f70d346	0.9407238
85	0xbec3c632	-0.3823715
86	0x3d782892	0.060585566
87	0xbe89a28b	-0.26881823
88	0xbf517e58	-0.8183341
89	0x3cedaf46	0.029014241
90	0x3cfe35fb	0.0310316
91	0x3f183d74	0.5946877
92	0xbe9ca0ed	-0.30591527
93	0xbda83e82	-0.082150474
94	0xbeeafe43	-0.4589711
95	0xbf7f351c	-0.99690413
96	0xbe207345	-0.15668972
97	0xbb1a21f4	-0.0023518773
98	0xbe0615ce	-0.13094255
99	0x3f819cf9	1.0126029
100	0xbe87d10a	-0.26526672
101	0xbe4816ea	-0.19539991
102	0x3eb031f0	0.344131
103	0xbf2e7b65	-0.68157035
104	0xbdfad329	-0.12247307
105	0xbe0039d4	-0.1252206
106	0x3d6d7ceb	0.05798046
107	0xbd8f518b	-0.06997975
108	0x3ec1271c	0.3772515
109	0x3f1cb59d	0.6121462
110	0xbd7bd48d	-0.061482
111	0xbf2d777c	-0.67760444
112	0x3f3c79ab	0.7362315
113	0x3f312546	0.691975
114	0xbd80baf9	-0.06285662
115	0x3e8edae5	0.27901378
116	0x3dbef7e8	0.09324628
117	0xbef8e3b7	-0.48611233
118	0xbf3d78e0	-0.74012566
119	0x3ec7da4a	0.3903373
120	0xbe521578	-0.20516002
121	0xbe94ec14	-0.29086363
122	0xbebd5812	-0.36981255
123	0xbe3e6441	-0.18592931
124	0x3d5424df	0.051792976
125	0x3f8a9482	1.0826571
126	0xbcb3d6e1	-0.021953048
127	0x3f8170ab	1.0112509
128	0x3eb79c2a	0.3586133
129	0x3ebd8fee	0.37023872
130	0xbc9d92e1	-0.019235076
131	0x3eb5e8fe	0.3552932
132	0xbe87a023	-0.26489362
133	0xbe2dae51	-0.16961028
134	0xbe3dc9e2	-0.18534043
135	0xbea28f8e	-0.3175015
136	0x3e3a00cc	0.18164366
137	0xbefcf01a	-0.49401933
138	0x3d911792	0.07084574
139	0xbf1acc61	-0.6046811
140	0x3d103909	0.035210643
141	0xbd653a47	-0.05596378
142	0x3ef85a60	0.4850645
143	0xbf040e90	-0.5158472
144	0xbe4cb2ad	-0.19990034
145	0x3e59f94d	0.21286507
146	0x3e534b6e	0.20634243
147	0xbe89dec7	-0.26927778
148	0x3e15a360	0.14613104
149	0xbe816606	-0.2527315
150	0xbd9a7502	-0.07541849
151	0x3c876f17	0.016532464
152	0x3ca0b7c6	0.01961888
153	0xbdc3b532	-0.09556045
154	0x3df6557e	0.12028025
155	0xbd1b28e6	-0.0378808
156	0x3b3fb5de	0.0029252688
157	0xbf639930	-0.8890562
158	0xbcbb9b95	-0.022901336
159	0x3cbaff49	0.022826808
160	0x3e459cc4	0.19298083
161	0xbc06346c	-0.008191209
162	0x3f576459	0.84137493
163	0x3e8966e8	0.26836324
164	0x3dd32ba4	0.10311058
165	0x3d1d0fcb	0.03834514
166	0x3bb9f003	0.0056743636
167	0xbe01dd8a	-0.12682167
168	0xbe997948	-0.29975343
169	0x3f174ea4	0.5910437
170	0x3e2cca41	0.16874029
171	0x3c9c5944	0.019085534
172	0xbbbcc42b	-0.0057606897
173	0x3d955b0c	0.072927564
174	0xbe83c72b	-0.2573789
175	0x3c9c033e	0.019044515
176	0x3e06f114	0.13177902
177	0xbe8b5919	-0.27216414
178	0xbee9efd2	-0.4569078
179	0x3db783ee	0.089607105
180	0xbad8782c	-0.0016515306
181	0x3c867f4e	0.016418125
182	0xbedac315	-0.4272696
183	0xbe1f9f97	-0.15588222
184	0xbd3b018b	-0.04565577
185	0x3dc3d3ed	0.09561906
186	0xbe29f5fb	-0.1659774
187	0xbf38b5d1	-0.7215243
188	0xbdbf2dff	-0.09334945
189	0x3ea3da57	0.32002518
190	0xbe82b0a0	-0.2552538
191	0xbdd977c9	-0.1061855
192	0xbc770699	-0.015077257
193	0xbe9e1ea3	-0.3088275
194	0xbeee84e0	-0.4658575
195	0x3dbadafe	0.09123801
196	0xbf084b8b	-0.5324027
197	0x3d8a3917	0.0674917
198	0xbf0a8e0b	-0.5412299
199	0xbf079eb7	-0.52976555
200	0xbe6bd47e	-0.23030278
201	0x3e9f1e05	0.3107759
202	0x3e0f6ecd	0.14007111
203	0xbf1871fa	-0.59548914
204	0x3ed3e6ed	0.4138712
205	0x3c8fe9d6	0.017567556
206	0xbf06501d	-0.52465993
207	0xbd2fbbf0	-0.04290384
208	0xbf3dbb9d	-0.741144
209	0xbed41c29	-0.41427734
210	0x3d9a0c2d	0.075218536
211	0x3dc1555f	0.09440111
212	0x3e0bebd2	0.13664177
213	0xbd9ae0e9	-0.075624295
214	0x3f5936df	0.8484935
215	0x3f30dae2	0.6908399
216	0xbd4a2366	-0.049350165
217	0x3ea63da2	0.32468897
218	0x3e48d369	0.19611897
219	0x3ec4016d	0.38282338
220	0xbe83a871	-0.25714448
221	0x3d079604	0.03310205
222	0xbeca94ae	-0.3956656
223	0xbd45e782	-0.048316486
224	0x3e63113e	0.22174546
225	0xbf0dab1f	-0.55339235
226	0x3ce24459	0.027620481
227	0x3ec688aa	0.3877614
228	0x3f2341af	0.637721
229	0x3ed866e8	0.4226601
230	0x3eb582da	0.35451394
231	0x3e7e5106	0.24835595
232	0xbf65d38b	-0.89775914
233	0x3fb7c5a6	1.4357193
234	0x3e54e91a	0.20792046
235	0xbf0b2c66	-0.5436462
236	0xbe51d27b	-0.20490448
237	0xbe5e342a	-0.21699587
238	0xbeff6667	-0.49882814
239	0x3e4796dd	0.19491144
240	0xbe7488a5	-0.23880251
241	0x3f1c602d	0.6108425
242	0xbf154bad	-0.583186
243	0xbc1b6662	-0.009484859
244	0x3f257443	0.64630526
245	0xbe3625b1	-0.17787816
246	0xbdbf48e6	-0.09340076
247	0x3d761280	0.060076237
248	0x3ea5620c	0.32301366
249	0xbe9244dd	-0.28568164
250	0xb990741e	-0.00027552334
251	0x3e8d9226	0.27650565
252	0x3dd4f8dc	0.10399029
253	0x3ef1d848	0.47235322
254	0x3e904c9b	0.28183445
255	0xbda92a88	-0.08260065

feats.0.smfa.linear_0.bias f4 [48]
0	0xbe8a9142	-0.27063948
1	0x3c312bb2	0.01081364
2	0x3d958823	0.07301357
3	0xbde1a827	-0.11018401
4	0x3e097cb3	0.13426475
5	0x3d6a4d28	0.05720249
6	0x3e60af67	0.2194191
7	0xbda00171	-0.07812775
8	0x3d2c1ab7	0.042017665
9	0x3db7861f	0.089611284
10	0xbe1a0221	-0.15039875
11	0xbe3feaf5	-0.18741973
12	0xbf4ea5e3	-0.80721873
13	0x3ef350da	0.47522622
14	0xbd908bd5	-0.07057921
15	0x3dc611dd	0.09671376
16	0xbd9c0ab8	-0.07619232
17	0x3e881a02	0.26582342
18	0x3ee93f55	0.4555613
19	0x3e904b8d	0.2818264
20	0x3f2548d7	0.6456427
21	0x3d15365f	0.036428805
22	0xbecb54e0	-0.39713192
23	0x3c925e42	0.017867211
24	0x3d6f311b	0.05839644
25	0xbe4ee199	-0.20203246
26	0xbe8d5c16	-0.27609318
27	0xbf50b58f	-0.81527036
28	0xbefd4deb	-0.4947351
29	0xbe2d2143	-0.1690722
30	0xbf323b0b	-0.6962134
31	0xbf5455a3	-0.8294317
32	0xbd953397	-0.072852306
33	0xbe832e5d	-0.2562131
34	0x3e7ee953	0.24893694
35	0xbf462470	-0.7739935
36	0xbd3e070b	-0.046393435
37	0x3cd19d0d	0.025587583
38	0x3e3c78f0	0.18405509
39	0x3eb896c0	0.36052513
40	0xbf6f2da7	-0.93429035
41	0xbe252b29	-0.16129746
42	0x3e8eb924	0.27875626
43	0xbd943152	-0.072359696
44	0xbdb80a34	-0.08986321
45	0xbd594ce4	-0.053051844
46	0xbd3404db	-0.043949943
47	0xbf3e97a9	-0.74450165

feats.0.smfa.linear_1.weight f4 [24, 24, 1, 1]
0	0x3df62ac0	0.12019873
1	0x3e5fe8cc	0.21866149
2	0xbe3515fe	-0.1768417
3	0xbde25918	-0.110521495
4	0x3e805e04	0.25071728
5	0xbeb89995	-0.36054674
6	0xbf968622	-1.1759684
7	0xbe379297	-0.17927013
8	0x3f10ae5f	0.5651607
9	0x3e5c8cd2	0.21538094
10	0xbdcfc5d7	-0.10145157
11	0x3f28544e	0.6575364
12	0x3e5c9fd9	0.21545352
13	0xbd4aced2	-0.049513645
14	0xbe85e614	-0.26152098
15	0xbebc8388	-0.368191
16	0x3eaf1706	0.34197253
17	0xbe46f970	-0.1943109
18	0x3ed200d2	0.4101625
19	0x3b3f7aa4	0.0029217387
20	0xbe31d4cb	-0.1736633
21	0xbd850f07	-0.06497007
22	0x3ed4492a	0.4146207
23	0xbe6ac90e	-0.22928259
24	0xbdca9613	-0.09891906
25	0x3eb92914	0.36164153
26	0x3cb0787a	0.021541823
27	0x3f0bae47	0.545628
28	0x3cf81c27	0.030286862
29	0x3d26c676	0.04071661
30	0x3dc472c1	0.095922
31	0x393a4057	0.00017762311
32	0xbd04a379	-0.032382462
33	0x3df79138	0.12088245
34	0x3e8cd0a2	0.27502924
35	0xbeded129	-0.43518952
36	0xbee4ceb6	-0.44688958
37	0xbd49797c	-0.049188122
38	0xbef4b883	-0.4779702
39	0x3eece9b2	0.46272045
40	0xbf07c5c1	-0.53036124
41	0xbd770cc4	-0.06031491
42	0xbe4abe76	-0.19799218
43	0x3e28e43d	0.16493316
44	0xbe2269e4	-0.15860707
45	0xbd201c4b	-0.039089482
46	0x3e8229d5	0.2542254
47	0xbf00305c	-0.5007379
48	0x3e8f2be3	0.2796317
49	0xbe32a16e	-0.17444393
50	0xbe11b0d0	-0.14227605
51	0x3ef45f8b	0.47729144
52	0xbe5aec62	-0.21379235
53	0x3efe9f1c	0.49730766
54	0x3fe714f8	1.8053274
55	0xbdcda149	-0.10040528
56	0x3e45dd6e	0.1932275
57	0xbe8228f4	-0.2542187
58	0x3ecb010c	0.39649236
59	0xbfcb90ab	-1.5903524
60	0x3dd4bd5b	0.10387679
61	0x3dca29fd	0.0987129
62	0x3e9ac66b	0.30229506
63	0xbe03018a	-0.12793556
64	0xbf833116	-1.0249355
65	0xbd85a5e9	-0.065257855
66	0xbf8cd14a	-1.100137
67	0xbe1d3bd5	-0.15354855
68	0xbcbd65bd	-0.023119802
69	0x3e2fcddb	0.17168371
70	0x3ca1e454	0.019762196
71	0x3fd7d799	1.686267
72	0x3c41836d	0.0118111195
73	0xbd1d5d85	-0.038419265
74	0xbdc6e6ce	-0.09711991
75	0xbdf0fbd3	-0.11766782
76	0xbf28bd48	-0.6591382
77	0x3d0030de	0.031296603
78	0x3e68af4b	0.22723119
79	0xbd9d7066	-0.07687454
80	0xbc6ead73	-0.014567721
81	0xbd98b108	-0.07455641
82	0xbd88c33b	-0.06677862
83	0xbdb961fc	-0.09051892
84	0xbd8a7adb	-0.06761714
85	0xbe69c301	-0.22828294
86	0x3e20cfa9	0.15704216
87	0x3e7de782	0.24795344
88	0xbe5978c2	-0.21237472
89	0xbceb306a	-0.028709609
90	0xbf032625	-0.5123008
91	0x3c27aa73	0.010233509
92	0xbc9ce87a	-0.019153822
93	0x3c8e3137	0.017357452
94	0x3eaa0f0e	0.3321461
95	0x3f921772	1.1413405
96	0xba8ef28c	-0.0010906025
97	0x3cea9d4e	0.028639462
98	0x3ed438f8	0.41449714
99	0x3ef747e9	0.4829705
100	0x3c617a67	0.013762093
101	0xbe34a140	-0.17639637
102	0xbf3fefa8	-0.7497506
103	0xbd9bfa23	-0.07616069
104	0xbe50b1d9	-0.20380343
105	0x3e8fddf7	0.28099033
106	0x3df5b63a	0.119976476
107	0xbe4134f2	-0.18867853
108	0xbd8e01d5	-0.06933943
109	0x3d0017bb	0.03127263
110	0x3f4b5f08	0.7944188
111	0xbe29febc	-0.1660108
112	0xbd5a71d0	-0.053331196
113	0xbc7f2784	-0.015573386
114	0x3f80acbf	1.0052718
115	0xbca48657	-0.02008359
116	0x3dbe1952	0.09282173
117	0xbcf54f7c	-0.029945128
118	0x3c5f899e	0.01364365
119	0xbf880485	-1.0626379
120	0x3d224778	0.03961894
121	0xbe8dbf33	-0.27684936
122	0xbe89f077	-0.26941273
123	0x3f0f0beb	0.5587756
124	0x3e357db6	0.17723736
125	0xbe2ce9ff	-0.16886137
126	0xbf39f05b	-0.7263238
127	0xbd58bf4c	-0.05291681
128	0x3f6ee3ba	0.93316233
129	0x3f80800e	1.0039079
130	0x3da40c53	0.08010163
131	0xbe71d84a	-0.23617664
132	0x3ea13c2b	0.31491217
133	0xbd8edb68	-0.06975442
134	0xbed51311	-0.4161611
135	0x3f0f3a5d	0.5594843
136	0xbfa6e46c	-1.3038459
137	0xbd9f9ea4	-0.0779393
138	0x3ca1c20a	0.019745845
139	0xbd431300	-0.04762554
140	0xbcac9481	-0.021066906
141	0xbdb0ea85	-0.08638481
142	0x3f1cea4d	0.61295015
143	0xbf4b3e1c	-0.79391646
144	0x3f777366	0.9666046
145	0xbdaa0053	-0.08300843
146	0x3e27b0f0	0.1637609
147	0xbf5de327	-0.8667473
148	0xbea632d3	-0.3246065
149	0xbd6a313b	-0.057175856
150	0x3d913381	0.07089902
151	0xbea8c14c	-0.32959974
152	0xbd8e45a0	-0.06946874
153	0x3ccd1699	0.02503519
154	0x3d6fab8b	0.058513205
155	0x3dc93258	0.098240554
156	0x3e8acd59	0.27109793
157	0x3cf41f65	0.029800126
158	0x3dba4282	0.090947166
159	0xbf866a6f	-1.0501231
160	0x3f09e77e	0.53868854
161	0xbe48e53b	-0.19618694
162	0xbef3ac11	-0.47592214
163	0xbdb91bc8	-0.09038502
164	0x3d7e3234	0.062059596
165	0x3da3fca1	0.080071695
166	0x3e109650	0.1411984
167	0x3f33c2f9	0.7021938
168	0x3e63cc53	0.22245912
169	0xbd3be2b0	-0.045870483
170	0xbe420f5a	-0.18951169
171	0x3ebecc4f	0.3726525
172	0xbd38dbff	-0.04513168
173	0xbe0a5097	-0.13507305
174	0xbdae8556	-0.085215256
175	0xbdd47a83	-0.1037493
176	0x3df03c09	0.11730201
177	0x3e896bec	0.2684015
178	0x3e3fd928	0.18735182
179	0xbed14927	-0.40876123
180	0xbe115df7	-0.14196001
181	0x3d850a9d	0.06496165
182	0xbe792f78	-0.24334514
183	0x3f1b8ff8	0.60766554
184	0xbf45ee07	-0.77316326
185	0x3ca744aa	0.020418484
186	0xbea56907	-0.32306692
187	0x3dc42b0b	0.09578522
188	0xbe3a13a1	-0.1817155
189	0x3d58d71f	0.05293953
190	0xbe2ef3cb	-0.17085187
191	0x3d20d718	0.03926763
192	0x3f0f034d	0.5586441
193	0x3e8342b3	0.25636825
194	0xbee2306f	-0.44177577
195	0xbf240957	-0.6407675
196	0xbea588d9	-0.3233097
197	0x3e752cd5	0.23942883
198	0xbdb1c00a	-0.08679207
199	0x3e934f58	0.28771472
200	0xbeff4f21	-0.49865058
201	0xbf0ee4cb	-0.5581786
202	0xbf6c84e7	-0.9239029
203	0xbe505a10	-0.20346856
204	0xbe2faf20	-0.17156649
205	0x3dd7c16d	0.1053494
206	0xbf6c5fd4	-0.9233372
207	0xbd4b063d	-0.049566496
208	0x3fb7c691	1.4357473
209	0x3e28362e	0.16426918
210	0xbeb1e864	-0.34747612
211	0x3cc5639a	0.024095345
212	0x3d503159	0.05082831
213	0xbd202f79	-0.039107773
214	0xbea18980	-0.31550217
215	0xbf34aa4c	-0.7057235
216	0x3f0d1948	0.551167
217	0x3eca27e6	0.39483565
218	0x3f5ea1ef	0.8696584
219	0xbef8fb08	-0.48629022
220	0x3ed7f8b6	0.4218194
221	0xbf54a599	-0.8306518
222	0xbe0b0f09	-0.13579954
223	0x3e114e7e	0.14190099
224	0x3f36e64a	0.71445143
225	0xbc106d10	-0.008815065
226	0x3dd570e7	0.10421925
227	0xbeda1159	-0.4259136
228	0x3ea311ec	0.3184961
229	0x3cecdadd	0.028912956
230	0xbfd3f863	-1.6560177
231	0x3ecd867f	0.40141675
232	0x3faae282	1.3350375
233	0x3db01ede	0.085996374
234	0x3d114954	0.03547032
235	0xbdb633de	-0.08896612
236	0xbd2eeedc	-0.042708263
237	0x3db196a5	0.08671311
238	0xbf989f4a	-1.1923611
239	0xbe4bc5d1	-0.1989968
240	0xbd3863e7	-0.04501715
241	0x3db5f19d	0.08883975
242	0x3eee3d09	0.4653094
243	0xbdba0502	-0.090829864
244	0xbd900364	-0.07031897
245	0xbec73968	-0.38910985
246	0xbe974410	-0.29544115
247	0xbc4bc2a4	-0.012436543
248	0x3e43916c	0.19098443
249	0x3eda8359	0.42678335
250	0xbf8c8b3e	-1.0979993
251	0xbccd136d	-0.025033677
252	0x3e45139c	0.19245762
253	0xbe3216b6	-0.17391476
254	0xbef30513	-0.4746481
255	0xbb7c6de7	-0.0038517655

feats.0.smfa.linear_1.bias f4 [24]
0	0x3ca77446	0.020441186
1	0x3ee0f8b8	0.43939757
2	0x3f3f226d	0.74661905
3	0x3ec46558	0.3835857
4	0xbc88344a	-0.016626496
5	0x3ec68862	0.38775927
6	0xbc01305f	-0.007885068
7	0xbea56105	-0.32300583
8	0x3e71e495	0.23622353
9	0x3ebc83dd	0.36819354
10	0x3e99d4d2	0.30045182
11	0x3ea03a8c	0.31294668
12	0x3e88b372	0.26699406
13	0x3e39c77d	0.18142505
14	0x3c828d60	0.015936553
15	0x3f49391f	0.78602785
16	0x3e9c603d	0.30542174
17	0x3f0de6ba	0.55430186
18	0x3e8a1182	0.26966482
19	0x3f169954	0.5882771
20	0x3e898c0c	0.2686466
21	0x3f157e8a	0.5839621
22	0x3ea7541b	0.32681355
23	0x3e174afc	0.14774698

feats.0.smfa.linear_2.weight f4 [24, 24, 1, 1]
0	0xbdbf0ee2	-0.093290105
1	0x3df195a4	0.1179612
2	0xbde9636d	-0.11395917
3	0xbe9ad5f2	-0.30241352
4	0xbe43d9bb	-0.19126026
5	0x3dc5aba0	0.096518755
6	0xbdb7d9d7	-0.089770965
7	0xbe8f9d58	-0.2804973
8	0xbe6f751b	-0.23384516
9	0xbde84074	-0.113404185
10	0x3e4d2535	0.20033725
11	0x3db634af	0.08896767
12	0xbb979074	-0.0046253745
13	0xbdf1ad17	-0.118005924
14	0x3e958791	0.2920499
15	0x3d7f59e5	0.06234159
16	0x3d69bfd1	0.057067696
17	0x3e0ef5b6	0.13960919
18	0xbe2fb1e8	-0.1715771
19	0x3d2a2ab3	0.041544627
20	0x3d6aac67	0.057293322
21	0xbe21b6de	-0.15792415
22	0x3dfde988	0.12398058
23	0x3ea82733	0.32842407
24	0xbd32315a	-0.043504097
25	0x3e2dbcc9	0.16966547
26	0x3e3516ea	0.17684522
27	0x3cf3f329	0.029779034
28	0xbe649850	-0.22323728
29	0x3cfe5188	0.031044737
30	0xbe2166da	-0.15761891
31	0x3e8d76d4	0.2762972
32	0xbe379885	-0.17929275
33	0x3e14acc1	0.14519025
34	0xbdab1bfc	-0.08354947
35	0xbe96d3ba	-0.2945841
36	0xbe23c666	-0.15993652
37	0xbe2de793	-0.1698287
38	0x3e44c2e4	0.1921497
39	0xbe30c3f0	-0.17262244
40	0xbdd4cc66	-0.103905484
41	0x3ba1c987	0.004937354
42	0xbb87fc03	-0.004149915
43	0x3df4313d	0.11923454
44	0x3d305383	0.043048393
45	0xbe00e963	-0.1258903
46	0x3d280439	0.041019652
47	0xbe1e7c99	-0.15477218
48	0x3db45ccc	0.08806762
49	0xbe29354a	-0.16524234
50	0xbe228c1e	-0.15873763
51	0x3dfbc64f	0.12293684
52	0xbdb1adb3	-0.086757086
53	0xbdb00b95	-0.08595959
54	0x3da4ebfd	0.08052824
55	0x3e62e8f6	0.2215918
56	0xbd01578d	-0.031577636
57	0x3b683806	0.0035433783
58	0xbca3a9c5	-0.019978413
59	0xbd616a32	-0.055032916
60	0x3de50963	0.11183431
61	0x3d1a8f92	0.037734576
62	0x3c495e95	0.0122906165
63	0xbdb4dbc1	-0.08830977
64	0x3e5b8f60	0.21441412
65	0x3e9f88cb	0.31159052
66	0xbd0d4022	-0.03448499
67	0xbe252054	-0.16125613
68	0x3da699c8	0.081348
69	0x3e514b3c	0.20438856
70	0xbd2f791f	-0.04284012
71	0xbc9380fe	-0.018005844
72	0x3dc4e0ca	0.096131876
73	0xbca5d9f1	-0.020245524
74	0x3e325d63	0.17418437
75	0xbd43a295	-0.047762472
76	0xbe6e8986	-0.23294649
77	0x39ec7599	0.00045101045
78	0xbe24cae6	-0.16093025
79	0xbd537535	-0.05162545
80	0x3da293d6	0.07938354
81	0x3eb83ca4	0.35983765
82	0xbe806ef1	-0.25084642
83	0x3e02f7f3	0.12789898
84	0x3d60a63a	0.054846026
85	0xbebee604	-0.37284863
86	0x3e18a604	0.1490708
87	0x3d1d46d2	0.038397618
88	0x3ddff670	0.10935676
89	0x3d96468c	0.073376745
90	0x3c8d8dc8	0.01727952
91	0x3d943b3b	0.0723786
92	0xbbb69caf	-0.0055728774
93	0x3e29b5e3	0.1657329
94	0x3ce3aaf4	0.027791478
95	0x3cffb864	0.031215854
96	0x3e64f946	0.22360715
97	0xbe942cc2	-0.28940398
98	0xbd8c33f1	-0.068458445
99	0x3cef9edb	0.029250553
100	0x3da7735a	0.081762984
101	0x3e944fd7	0.28967163
102	0xbd75c2db	-0.06000028
103	0x3ebff062	0.37488085
104	0x3eca23ba	0.39480382
105	0x3ebfa82a	0.37432986
106	0xbd7f52af	-0.062334713
107	0xbf0a0067	-0.53906864
108	0xbdbd9749	-0.09257371
109	0xbe1091b1	-0.14118077
110	0xbe62017c	-0.22070879
111	0xbe28bdd7	-0.16478668
112	0xbc456d9c	-0.012050059
113	0xbe2da3db	-0.16957037
114	0xbdcc4feb	-0.09976181
115	0x3ea30448	0.31839204
116	0xbd927ff5	-0.07153312
117	0xbe709ad0	-0.23496556
118	0xbecb3ba2	-0.39693934
119	0xbdc49019	-0.09597797
120	0x3daaefcd	0.083465196
121	0xbd81866e	-0.063244686
122	0xbe109d57	-0.1412252
123	0x3c61b56f	0.013776167
124	0x3e45f9df	0.193336
125	0x3e3e19ae	0.18564484
126	0xbe0156f0	-0.1263082
127	0x3d301159	0.042985294
128	0x3e13d644	0.14437205
129	0xbd8e40fd	-0.06945989
130	0x3accb141	0.0015616791
131	0xbeadb636	-0.33928078
132	0x3cdbefc7	0.026847733
133	0xbe16b6ad	-0.14718123
134	0x3d7dd747	0.061972883
135	0x3d3fe206	0.046846412
136	0xbde8ca7d	-0.113667466
137	0xbe063422	-0.13105825
138	0xbe962265	-0.29323116
139	0xbd0bed01	-0.03416157
140	0xbc366865	-0.011133288
141	0x3df24d66	0.11831169
142	0x3de4900d	0.11160288
143	0xbebcb786	-0.36858767
144	0xbcbfd543	-0.02341712
145	0x3e134e32	0.14385298
146	0x3e65150a	0.22371307
147	0x3d87ec33	0.06636848
148	0xbe3e441e	-0.18580672
149	0xbe4cb904	-0.19992453
150	0xbca40c8e	-0.020025518
151	0xbe0afc53	-0.13572817
152	0xbdeeb285	-0.11655144
153	0x3e17cdfd	0.14824672
154	0xbe21e07f	-0.15808295
155	0xbd86166f	-0.065472476
156	0x3d56ed6b	0.052472513
157	0x3db3cc98	0.087792575
158	0x3d1835f6	0.037160836
159	0x3df9230e	0.12164889
160	0x3e254ce2	0.1614261
161	0x3d1660a3	0.036713254
162	0xbe6dc56a	-0.23219839
163	0xbd8753b5	-0.06607763
164	0x3ca41cf4	0.020033337
165	0xbdc466b6	-0.09589903
166	0xbd886539	-0.06659932
167	0xbdb69d43	-0.08916714
168	0xbcfc5c98	-0.03080587
169	0x3ec0f157	0.37684128
170	0x3b0390c9	0.0020075312
171	0x3c08627b	0.008324261
172	0x3ed26258	0.41090655
173	0xbe76b3c8	-0.24092019
174	0xbedfd265	-0.43715206
175	0xbcd6653a	-0.026171315
176	0xbc9de773	-0.019275403
177	0xbe4b2dc1	-0.19841672
178	0xbd65295f	-0.055947658
179	0x3e0975e0	0.13423872
180	0xbd85639d	-0.0651314
181	0x3e60c396	0.2194961
182	0xbe3aa011	-0.18225123
183	0x3e8dac91	0.2767072
184	0xbdf3bab2	-0.11900844
185	0x3ddf6bc1	0.10909224
186	0xbca045af	-0.019564478
187	0x3bf271e6	0.0073988317
188	0x3d017fa8	0.031615883
189	0xbe1c3796	-0.1525558
190	0x3e73aa17	0.23795353
191	0x3dd15924	0.1022208
192	0x3dcd9b2f	0.100393645
193	0xbea0c621	-0.3140116
194	0xbec076e8	-0.37590718
195	0xbe08b804	-0.13351446
196	0x3baffc1d	0.0053706304
197	0x3ebe2005	0.37133804
198	0xbba93632	-0.0051639313
199	0xbe8a5313	-0.27016506
200	0x3e8686f8	0.26274848
201	0x3dd285fd	0.102794625
202	0x3e3ac20e	0.18238088
203	0xbd8bebd9	-0.06832094
204	0xbcb8416a	-0.02249213
205	0x3df56382	0.1198187
206	0x3d59b92c	0.05315511
207	0x3d8e7088	0.069550574
208	0xbe7c7993	-0.24655752
209	0x3df2b4d5	0.11850897
210	0xbcb15264	-0.021645732
211	0x3e170ca9	0.14750923
212	0xbd8fc917	-0.07020777
213	0xbcdf940e	-0.027292278
214	0x3de5f23f	0.112278454
215	0x3e31b5c2	0.17354491
216	0xbe0e87c6	-0.13918981
217	0x3dc534b6	0.096291944
218	0x3e80830a	0.25099975
219	0xbd8eadf1	-0.069667704
220	0x3e7702ad	0.24122114
221	0x3e2db4c7	0.16963492
222	0x3d8b7d22	0.068109766
223	0x3e00bcac	0.12571973
224	0x3d517e38	0.051145762
225	0x3e44df46	0.19225797
226	0x3cf4e3cb	0.029893776
227	0x3dfecc86	0.124413535
228	0xbdf290d6	-0.118440315
229	0x3cc07288	0.023492113
230	0xbe17a91e	-0.14810607
231	0xbe81a60a	-0.2532199
232	0xbe7844be	-0.24244973
233	0x3d949626	0.07255201
234	0x3d5730b9	0.0525367
235	0x3e627fcd	0.22119065
236	0xbe2badde	-0.16765544
237	0x3df8e689	0.12153346
238	0xbe8686ca	-0.2627471
239	0xbe25ed3c	-0.16203779
240	0xbe4bc7cf	-0.1990044
241	0x3ede205d	0.43384066
242	0x3eb176a5	0.3466083
243	0x3cc60e1c	0.02417665
244	0x3d8b1a5c	0.06792137
245	0xbd377df8	-0.044797868
246	0xbe28f9cd	-0.16501541
247	0xbdb8861f	-0.090099566
248	0xbc9eace3	-0.019369548
249	0x3db1f961	0.086901434
250	0xbe8e5513	-0.2779928
251	0xbd61c0cc	-0.055115506
252	0xbe96fa8d	-0.2948803
253	0x3dc84366	0.0977848
254	0xbe5ac8ed	-0.2136571
255	0x3e6f7844	0.23385721

feats.0.smfa.linear_2.bias f4 [24]
0	0x3cd3ed59	0.025870012
1	0xbe90684b	-0.2820457
2	0xbbaa6c36	-0.005200888
3	0xbd49a657	-0.0492309
4	0xbd918007	-0.071044974
5	0xbbbfae01	-0.0058496003
6	0xbe589dc4	-0.21153933
7	0xbebc01bc	-0.36720073
8	0xbf0cb103	-0.549576
9	0x3d7c1017	0.061538782
10	0x3dcc49ea	0.099750355
11	0xbe0d465a	-0.13796368
12	0xbec10891	-0.37701848
13	0xbc60af09	-0.013713607
14	0x3bd92407	0.0066266092
15	0x3dc2ed4c	0.09517917
16	0x3a9d990c	0.0012023761
17	0x3f9804df	1.1876487
18	0x3f26ba5d	0.6512812
19	0xbfa0e7a7	-1.2570695
20	0x3db7edc7	0.08980899
21	0x3e82babb	0.2553309
22	0x3e98a234	0.2981125
23	0x3e034b71	0.12821747

feats.0.smfa.lde.conv_0.0.weight f4 [48, 1, 3, 3]
0	0xbf0afb9e	-0.5429019
1	0xbeb186bf	-0.34673116
2	0xbeacb23e	-0.33729738
3	0x3eb66250	0.3562188
4	0x3e46fb3d	0.19431777
5	0xbe431071	-0.1904924
6	0x3ebca9cb	0.36848292
7	0x3f1910f0	0.5979147
8	0x3d6b4e62	0.0574478
9	0x3e959ed1	0.2922273
10	0x3ec51831	0.3849502
11	0xbc934662	-0.017977897
12	0x3f6c831e	0.9238757
13	0xbec63cc6	-0.3871824
14	0xbe9600ff	-0.29297635
15	0xbe06c842	-0.1316233
16	0xbc914143	-0.017731315
17	0xbea0058b	-0.3125423
18	0x3c5a5323	0.013325485
19	0xbe32994d	-0.17441292
20	0x3cf123ae	0.029435959
21	0x3cffb9e6	0.031216573
22	0x3fa1b521	1.2633401
23	0x3d2f346f	0.042774614
24	0xbc05cf69	-0.008167126
25	0x3d2d3453	0.04228623
26	0xbadf4e44	-0.0017036875
27	0xbd24ef2c	-0.040267155
28	0xbf40fba8	-0.75383997
29	0xbd84eb39	-0.06490178
30	0xbd5d3647	-0.05400684
31	0xbe5da9f2	-0.2164686
32	0x3c64c848	0.013963766
33	0x3cd597e3	0.026073402
34	0x3c5db4a6	0.0135318395
35	0x3cdcd287	0.026955856
36	0x3d36a5c2	0.044591673
37	0x3e0b9b0f	0.13633369
38	0x3d2a5715	0.041586954
39	0xbafc7628	-0.0019261288
40	0xbf58923b	-0.8459813
41	0x3d5f9695	0.054586966
42	0xbc28aa86	-0.010294562
43	0xbe0f1d4f	-0.13976024
44	0xbd32fa2a	-0.043695606
45	0xbd0ccb0b	-0.034373324
46	0xbf480042	-0.78125393
47	0xbd671a17	-0.056421366
48	0xbe002425	-0.12513788
49	0x3df82eff	0.12118339
50	0xbda187f5	-0.0788726
51	0x3d416a29	0.047220383
52	0x3e055bed	0.13023348
53	0x3c7c4026	0.015396154
54	0xbcb07288	-0.021538988
55	0xbec6aa9d	-0.38802043
56	0xbcdf90eb	-0.027290782
57	0x3d98e29a	0.07465096
58	0x3d14025c	0.036135063
59	0x3de31381	0.110877044
60	0xbd644787	-0.055732276
61	0x3f349469	0.70538956
62	0x3c020656	0.007936081
63	0xbdce9e69	-0.10088808
64	0x3daadd9e	0.083430514
65	0xbe2c8614	-0.16848022
66	0xbe05c76d	-0.13064356
67	0xbecc023a	-0.3984545
68	0xbe21f491	-0.15815951
69	0x3e6cca8d	0.23124142
70	0xbeef297c	-0.46711338
71	0x3e2b2e26	0.16716823
72	0x3d096031	0.033539
73	0x3e8f27fd	0.27960196
74	0x3c8a12ee	0.01685473
75	0x3e93e82d	0.28888074
76	0xbf39aa57	-0.7252554
77	0x3e690b24	0.22758156
78	0x3d2ebc56	0.04266008
79	0x3ea29dc6	0.31760997
80	0x3d271e20	0.040800214
81	0x3e2939ed	0.16526003
82	0x3e737c30	0.23777843
83	0x3c8ae698	0.016955659
84	0x3d1cdf81	0.038299087
85	0xbbfafcb6	-0.00765952
86	0xbe07d7b5	-0.1326588
87	0xbd926ad1	-0.0714928
88	0xbe2458d4	-0.1604951
89	0xbdca2f2f	-0.09872281
90	0x3cdee9c7	0.027211083
91	0xbe0305bd	-0.12795158
92	0x3d297367	0.041369822
93	0xbe5603f2	-0.20899943
94	0x3f1b1b88	0.60588884
95	0xbe741b78	-0.23838603
96	0x3d4e0664	0.050299063
97	0xbdf5e815	-0.12007157
98	0x3cae8be5	0.021306941
99	0xbd90777e	-0.07054041
100	0xbdbcb652	-0.09214462
101	0xbd5f7c0f	-0.05456167
102	0xbe19df46	-0.15026578
103	0xbebe6470	-0.37186003
104	0xbe21bb9f	-0.15794228
105	0xbd444fde	-0.04792773
106	0xbe069f41	-0.13146688
107	0xbd5a2cc3	-0.053265344
108	0x3e3544e7	0.17702065
109	0x3e227990	0.15866685
110	0x3e675869	0.2259232
111	0xbda0a8c7	-0.07844692
112	0xbf8c0c2e	-1.0941217
113	0x3ebab772	0.36468083
114	0x3e62d007	0.22149669
115	0x3e7a0680	0.24416542
116	0x3e7374b3	0.23774986
117	0xbdc93463	-0.09824445
118	0xbdcdd21b	-0.1004984
119	0x3d8f968f	0.07011139
120	0xbf33058f	-0.69930357
121	0x3f180243	0.5937845
122	0x3efbee72	0.49205357
123	0xbd9de8dc	-0.0771043
124	0xbd8b7e2a	-0.06811173
125	0x3d942e62	0.07235409
126	0xbdfc8eca	-0.12331922
127	0xbe79219f	-0.24329232
128	0xbe09a63f	-0.13442324
129	0xbe92c28e	-0.28664058
130	0xbecab020	-0.39587498
131	0xbe57b4be	-0.21065041
132	0xbdff2c0f	-0.124595754
133	0xbe641d5a	-0.22276822
134	0xbdd91478	-0.10599607
135	0x3d498370	0.049197614
136	0x3e1120a7	0.14172612
137	0x3d9a8dcb	0.07546576
138	0x3e189174	0.14899236
139	0xbf43265d	-0.7623041
140	0x3e0732b3	0.13202934
141	0x3d222f36	0.039595805
142	0x3e2de98a	0.1698362
143	0x3d0812bf	0.033221003
144	0x3e0996fb	0.134365
145	0x3dac41c6	0.08410983
146	0xbcac0199	-0.020996856
147	0xbec58e39	-0.3858507
148	0xbdf0b8b5	-0.1175398
149	0x3eb99512	0.36246544
150	0x3dec56a4	0.11539963
151	0xbd2d9caf	-0.042385753
152	0xbcc5df25	-0.024154255
153	0xbc8349b1	-0.01602635
154	0xbe793858	-0.243379
155	0xbe290f2c	-0.16509694
156	0x3ede43e9	0.43411186
157	0x3e970db4	0.29502642
158	0x3e87bf2c	0.2651304
159	0xbd218767	-0.03943577
160	0xbe72fcf1	-0.23729302
161	0xbe203624	-0.15645653
162	0x3dd3e8e4	0.10347155
163	0x3e7ccd62	0.24687722
164	0x3dd2e97e	0.10298441
165	0xbe2e8c59	-0.17045726
166	0xbc091d3e	-0.008368788
167	0xbd89dc50	-0.067314744
168	0x3d6878d8	0.05675587
169	0xbe9df50b	-0.30851015
170	0xbd1dc154	-0.03851445
171	0xbc45f59a	-0.012082482
172	0x3ee6071b	0.44927296
173	0x3d9d98f1	0.07695187
174	0x3e6ada4e	0.22934839
175	0xbe88316b	-0.26600203
176	0x3e6f6e6b	0.23381965
177	0xbe432a53	-0.19059114
178	0x3d4e5904	0.05037786
179	0xbe2908ac	-0.16507214
180	0xbd845483	-0.06461432
181	0x3e95e96a	0.29279643
182	0xbdc2c73f	-0.095106594
183	0xbeb21792	-0.34783608
184	0x3ee36e70	0.44420195
185	0xbe3b4af1	-0.18290307
186	0x3d390b5a	0.04517684
187	0xbd2fe49d	-0.042942632
188	0xb803d987	-3.1435422e-05
189	0x3ccf3bfe	0.025297161
190	0x3cfe52a5	0.031045267
191	0x3d3d4d2d	0.04621618
192	0x3ddca8f4	0.10774413
193	0xbded654a	-0.11591585
194	0x3daa19e7	0.08305722
195	0xbd86a1e4	-0.06573847
196	0xbf505476	-0.8137888
197	0xbdb0180b	-0.08598336
198	0xba479f24	-0.00076149614
199	0x3dae3753	0.08506646
200	0x3de93282	0.11386587
201	0x3cd5b55b	0.026087454
202	0x3f23e01b	0.6401383
203	0xbd9b1177	-0.075716905
204	0x3c5f014d	0.01361115
205	0x3ddf6e5a	0.1090972
206	0x3da5c514	0.0809423
207	0xbd3af38e	-0.045642428
208	0xbe012caa	-0.12614694
209	0xbe0f7289	-0.14008535
210	0x3cab75b4	0.020930149
211	0x3d594daa	0.05305258
212	0xbf3d8b32	-0.7404052
213	0xbc910bf5	-0.017705897
214	0xbe0026b1	-0.1251476
215	0xbd98dfc5	-0.07464556
216	0x3ed3eb6e	0.41390556
217	0x3d535f56	0.05160459
218	0xbe8f844b	-0.2803062
219	0x3f094e1c	0.5363481
220	0xbc291e16	-0.010322114
221	0xbf2af4a9	-0.6677957
222	0x3ef87d5a	0.48533136
223	0xbe6f4110	-0.23364663
224	0xbe8c42ab	-0.27394614
225	0x3f0a14a1	0.5393773
226	0xbe6809b9	-0.22659959
227	0x3f2cf615	0.6756299
228	0xbe97eca9	-0.29672745
229	0xbef739a4	-0.48286164
230	0xbe215562	-0.15755227
231	0x3f0c345e	0.54767406
232	0xbd66a5fe	-0.056310646
233	0x3f12909d	0.5725191
234	0xbdfa6b4e	-0.12227498
235	0xbe35b2a5	-0.17743929
236	0xbe0f533b	-0.13996594
237	0xbe1f4a35	-0.15555651
238	0xbec13a79	-0.37739924
239	0xbe3408af	-0.17581438
240	0xbde7d2e8	-0.11319524
241	0xbe31e76d	-0.17373438
242	0xbdf13030	-0.11776769
243	0x3d7ef4c0	0.06224513
244	0x3e03017f	0.1279354
245	0x3db2d1ac	0.08731398
246	0x3de38236	0.1110882
247	0xbf8d3f4a	-1.1034939
248	0x3e1e8741	0.15481283
249	0x3d61a707	0.05509093
250	0x3e0c820f	0.13721488
251	0x3da44de9	0.08022673
252	0xbd5fd50f	-0.054646548
253	0xbe3690e1	-0.17828704
254	0xbdca54e3	-0.09879472
255	0x3e010a57	0.126016

feats.0.smfa.lde.conv_0.0.bias f4 [48]
0	0x3d7d86b0	0.061896026
1	0x3e433b38	0.19065559
2	0xbd92dd1a	-0.07171078
3	0x3d957ffc	0.07299802
4	0x3d94b926	0.07261877
5	0x3cd1e49e	0.025621708
6	0xbb1ef331	-0.002425384
7	0xbd600ed4	-0.05470164
8	0xbd616f3c	-0.055037722
9	0xbb0efa22	-0.0021816571
10	0xbc9b93a1	-0.018991293
11	0x3ca1fc94	0.019773759
12	0x3e349166	0.1763359
13	0x3d7a68f7	0.06113526
14	0x3d37b901	0.044854168
15	0xbe1719a4	-0.14755875
16	0xbcabccb1	-0.020971628
17	0x3da67ff6	0.08129875
18	0xbd818421	-0.0632403
19	0x3de5b4c6	0.112161204
20	0x3d285ff0	0.041107118
21	0xbdaaa523	-0.083322786
22	0xbd289082	-0.04115344
23	0xbc825a50	-0.015912205
24	0x3cdcc760	0.026950538
25	0x3f627466	0.8845886
26	0xbda5114d	-0.080599405
27	0x3d8781a0	0.06616521
28	0xbd09de09	-0.033659015
29	0xbd56860f	-0.052373942
30	0x3ca6851f	0.020327149
31	0x3ce162ac	0.02751287
32	0xbc37a1e4	-0.011208031
33	0x3cca03e7	0.024660064
34	0x3d2e14ea	0.042500414
35	0x3d927dc7	0.071528964
36	0x3c89c600	0.016818047
37	0x3b895b14	0.0041917656
38	0xbda9c206	-0.0828896
39	0x3cab2e60	0.020896137
40	0x3cb78db5	0.022406438
41	0x3cdceb07	0.026967539
42	0x3cd2bff5	0.025726298
43	0x3bc35864	0.0059614647
44	0xbc272113	-0.010200757
45	0x3d4cee37	0.050031867
46	0xbc3d3352	-0.01154788
47	0xbd0b98a4	-0.034081116

feats.0.smfa.lde.conv_0.1.weight f4 [48, 48, 1, 1]
0	0xbe80cff0	-0.25158644
1	0x3f2c810d	0.67384416
2	0xbdbd883f	-0.092545025
3	0x3dab1dc0	0.08355284
4	0x3fa39ab0	1.2781582
5	0x3f960e79	1.1723167
6	0xbfd1bf7a	-1.6386559
7	0x3fe2c878	1.7717428
8	0x3e4ea7b4	0.20181161
9	0xbf221716	-0.63316476
10	0xbeaaffba	-0.3339823
11	0x3ea3bbc3	0.31979188
12	0xbf013d6a	-0.50484335
13	0x3f6193aa	0.8811594
14	0xbf43d119	-0.7649093
15	0x3fc8c377	1.5684651
16	0xbe5e5775	-0.2171305
17	0x3eeefe19	0.46678236
18	0xbfb00a22	-1.3753092
19	0xbe9b73bf	-0.30361745
20	0x3e968a4f	0.29402396
21	0xc02cf854	-2.7026567
22	0xbf300220	-0.6875324
23	0x3e2996f2	0.16561487
24	0x3e31a6d2	0.17348793
25	0xbf0e3db3	-0.55562896
26	0xbd1601ac	-0.03662269
27	0x3e8d8aad	0.27644864
28	0xbfd270de	-1.6440694
29	0xbd317675	-0.04332586
30	0x3f6dd8a9	0.9290872
31	0x3ece4899	0.40289763
32	0xbf9a756a	-1.2067082
33	0xbdd296e9	-0.1028269
34	0xbe592404	-0.21205145
35	0x3cfd3c60	0.030912578
36	0x3f6ba00b	0.9204108
37	0xc003e1ce	-2.060657
38	0x3eee2d2e	0.46518844
39	0xbdea3d22	-0.114374414
40	0x3fb23335	1.3921877
41	0xbfec4098	-1.8457212
42	0x3ecb36e6	0.39690322
43	0x3fd39e54	1.6532693
44	0x3d9d696c	0.07686123
45	0xbf025c6c	-0.50922275
46	0x3fb418e5	1.4070097
47	0x3b853672	0.0040653283
48	0x3d913a19	0.070911594
49	0x3cb195b1	0.021677824
50	0xbc6bda0e	-0.01439525
51	0x3d03ae3d	0.03214859
52	0x3de2b2ea	0.110692814
53	0x3d7bfdd6	0.061521374
54	0x3e8f55a0	0.27995014
55	0x3db99b92	0.09062876
56	0x3e168410	0.14698815
57	0x3d8fa82e	0.070144996
58	0x3d539d84	0.05166389
59	0x3ca0bf71	0.019622536
60	0xbec6b9bd	-0.38813582
61	0x3e818d2a	0.25303012
62	0x3ea0cb8c	0.31405294
63	0x3f110845	0.56653243
64	0x3e537e5a	0.20653668
65	0x3e45c1da	0.1931223
66	0xbe553509	-0.20821013
67	0x3e88f93e	0.26752657
68	0xbdb4f818	-0.08836383
69	0xbdb633d3	-0.088966034
70	0xbdace09e	-0.0844128
71	0x3e4575f0	0.19283271
72	0x3b3ecb76	0.0029112971
73	0xbd2ef7f2	-0.042716928
74	0x3f267332	0.65019524
75	0x3d92c587	0.071665816
76	0xbe0d5abd	-0.13804145
77	0x3e1d3b73	0.1535471
78	0xbd667484	-0.05626346
79	0x3cb2cf08	0.021827236
80	0x3c6e52f1	0.014546142
81	0x3d2d7a53	0.042352986
82	0xbcccb874	-0.024990298
83	0xbda1600b	-0.07879647
84	0x3e688dd6	0.22710356
85	0x3df6c648	0.12049538
86	0x3e5b6f87	0.21429263
87	0xbec5ef77	-0.3865926
88	0x3dccbb3b	0.09996649
89	0xbcba40ff	-0.02273607
90	0x3e624b1f	0.22098969
91	0x3d5f6772	0.054542013
92	0xbd9b0622	-0.07569529
93	0xba884ea7	-0.0010399417
94	0x3d327fa6	0.043578766
95	0x3e41d8fc	0.18930429
96	0x3d9baf26	0.07601766
97	0x3dbe12b7	0.09280913
98	0xbbd80dc0	-0.006593436
99	0x3dbd7028	0.09249908
100	0x3ce59904	0.028027065
101	0x3d1e5fa8	0.038665444
102	0xbd3ea941	-0.04654813
103	0xbcc4d6ef	-0.02402827
104	0x3de566e4	0.112012655
105	0xbe170743	-0.14748864
106	0x3d54b8c5	0.051934022
107	0xbe858c07	-0.26083395
108	0xbd8970cf	-0.0671097
109	0x3d84d38d	0.064856626
110	0x3d938b6c	0.07204327
111	0x3e2e9b5f	0.17051457
112	0x3bb7c769	0.0056084883
113	0x3c5a57a7	0.013326562
114	0x3d6699b9	0.056298945
115	0xbd70f9e3	-0.05883206
116	0xbccf3e6c	-0.02529832
117	0x3c2fbe94	0.01072659
118	0x3d9e5e6d	0.07732854
119	0xbd3afd67	-0.04565182
120	0xbafdd7b8	-0.0019366657
121	0xbde925aa	-0.11384137
122	0xbd57b090	-0.052658617
123	0xbe90d2ef	-0.2828593
124	0xbc62f006	-0.013851171
125	0xbceeb4c2	-0.029138926
126	0x3db4efa7	0.088347726
127	0x3b848ba5	0.0040449672
128	0x3e0e01d1	0.1386788
129	0xbd187465	-0.037220377
130	0x3f35b0c3	0.7097284
131	0xbd92d9fc	-0.071704835
132	0x3d96731d	0.07346175
133	0x3db4ac53	0.08821931
134	0xbe8e6ef4	-0.27819026
135	0x3df5a90a	0.11995132
136	0x3e09c944	0.13455683
137	0x3d4bd694	0.049765185
138	0x3d0dde6f	0.034635957
139	0xbdd1abab	-0.10237821
140	0x3df0e556	0.11762492
141	0x3f9b7fe6	1.2148407
142	0x3d003b0e	0.03130632
143	0x3d418249	0.04724339
144	0x3c6a8c4f	0.014315679
145	0x3e66ef1f	0.22552155
146	0x3e0708a4	0.1318689
147	0x3b9cf63c	0.0047900956
148	0x3cd0b62b	0.02547749
149	0xbe296eeb	-0.16546218
150	0x3dca53ef	0.0987929
151	0x3e4b4c3c	0.198533
152	0xbdddc82d	-0.10829196
153	0x3e0ec4b2	0.13942221
154	0x3e44a873	0.19204883
155	0xbedcd8ba	-0.431341
156	0xbf076873	-0.5289375
157	0x3e0f1b87	0.13975345
158	0xbe58bc73	-0.21165638
159	0x3dd4f697	0.10398596
160	0xbd718f67	-0.05897465
161	0x3ba53ca7	0.0050426307
162	0xbe23d1fa	-0.15998068
163	0xbe8811f3	-0.26576194
164	0x3db39b49	0.08769853
165	0x3e2d7674	0.16939718
166	0x3ee28d75	0.44248548
167	0xbd0a5a8d	-0.033777762
168	0xbe32df69	-0.17468037
169	0x3f306086	0.68897283
170	0x3eb024a4	0.34402955
171	0xbea1921e	-0.3155679
172	0x3bfaf289	0.007658307
173	0x3ed8dbb8	0.42355132
174	0x3ea0071e	0.3125543
175	0x3d27a608	0.040929824
176	0x3e5780c5	0.21045215
177	0xbd4435e0	-0.04790294
178	0xbe8bca26	-0.27302665
179	0x3d0ec8a5	0.03485932
180	0xbe21468c	-0.15749568
181	0xbe0ae518	-0.13563955
182	0x3eb50219	0.35353163
183	0xbd8a2cf0	-0.067468524
184	0x3e5d1550	0.21590161
185	0x3ea008eb	0.31256804
186	0xbd6776b7	-0.0565097
187	0x3e4f38ad	0.20236464
188	0xbf00584e	-0.5013474
189	0xbecb7689	-0.39738873
190	0x3e51d4ee	0.20491382
191	0x3d8c04db	0.068368636
192	0xbef38451	-0.47561887
193	0x3ea72b60	0.3265028
194	0x3e88b840	0.26703072
195	0x3fc57bdf	1.5428427
196	0xbdf7f6f6	-0.12107651
197	0x3e7a63ed	0.24452181
198	0x3c1f7699	0.009732866
199	0xbe013b88	-0.12620366
200	0xbe83207d	-0.25610724
201	0xbee740c4	-0.451666
202	0x3b1d28ba	0.0023980574
203	0x3e1e0f26	0.15435466
204	0x3e4fa725	0.20278604
205	0x3edc69ca	0.4304946
206	0xbf23c612	-0.63974106
207	0x3ecbbaf1	0.39791062
208	0xbeb98ebe	-0.36241716
209	0x3d874c68	0.0660637
210	0x3e935183	0.28773126
211	0x3ef0d912	0.47040612
212	0xbeaedcab	-0.3415273
213	0x3d48b3ae	0.04899948
214	0xbe4d766d	-0.20064707
215	0xbdf25061	-0.11831737
216	0x3e023141	0.12714101
217	0x3d5b08f2	0.053475328
218	0x3ed16424	0.40896714
219	0x3d25571d	0.04036628
220	0x3e1c3ca4	0.15257508
221	0xbdb661b3	-0.089053534
222	0x3f188136	0.5957216
223	0xbd911fc4	-0.07086137
224	0x3d829e95	0.06377903
225	0xb9a362db	-0.00031163436
226	0x3e06e0ad	0.13171645
227	0x3de1163d	0.1099057
228	0x3eb18116	0.34668797
229	0x3e650b3f	0.22367571
230	0x3e16f68b	0.14742486
231	0xbe6435f0	-0.222862
232	0xbe537fd0	-0.20654225
233	0xbe9ce6b9	-0.30644777
234	0xbedf853d	-0.4365634
235	0x3d278647	0.04089954
236	0x3e78eff9	0.24310292
237	0x3ddeec29	0.10884888
238	0x3e1d338a	0.15351692
239	0xbd6c1958	-0.057641357
240	0xbcd3cc05	-0.02585412
241	0xbe6b7428	-0.22993529
242	0xbdd792d1	-0.1052605
243	0xbecdcbcd	-0.4019455
244	0x4081110e	4.033332
245	0x3fc4f1e4	1.5386319
246	0x3f789a34	0.97110295
247	0xbf8352e9	-1.0259677
248	0x40352ee1	2.8309863
249	0xbf34464d	-0.7041977
250	0xc0244bca	-2.5671258
251	0xbfa7bba7	-1.3104142
252	0xbfcfee45	-1.6244589
253	0xc00a8fa5	-2.1650174
254	0x3e24c61f	0.16091202
255	0x3e7cfc93	0.24705724

feats.0.smfa.lde.conv_0.1.bias f4 [48]
0	0xbeb643d2	-0.35598618
1	0xbd3a5d75	-0.045499284
2	0xbf9c7c22	-1.2225382
3	0xbebf90b7	-0.37415096
4	0x3e94585b	0.2897366
5	0x3d9e9567	0.0774334
6	0x3d423c9e	0.04742109
7	0xbf0a07d1	-0.53918177
8	0xbf43e1da	-0.765165
9	0xbf036f2d	-0.51341516
10	0xc088214b	-4.254064
11	0xbedce243	-0.43141374
12	0x3f40d6fa	0.7532803
13	0xbe03026e	-0.12793896
14	0xbe7405ae	-0.23830292
15	0x3eacc905	0.33747116
16	0xbf4eca68	-0.807776
17	0x3f42a7c8	0.76037264
18	0xbf3434ff	-0.70393366
19	0x3c9c5b73	0.019086575
20	0xbe81414d	-0.25245133
21	0x3dea2064	0.11431959
22	0xbe3fd0bd	-0.18731971
23	0xbeb8374e	-0.35979694
24	0xbf0dcfab	-0.55395
25	0xbe35a99b	-0.1774048
26	0x3cb505ac	0.022097431
27	0x3ebc0984	0.3672601
28	0xbf67675f	-0.90392107
29	0xbfd98005	-1.6992193
30	0x3e1673a8	0.14692557
31	0xbed50e41	-0.41612437
32	0x3eb096b3	0.34489974
33	0xc0426aa4	-3.0377588
34	0xbf217d58	-0.63081884
35	0xbb9fdc86	-0.0048785834
36	0xbe4530be	-0.19256875
37	0x3ce92692	0.028460775
38	0xbf08645a	-0.53278124
39	0x3e2ca7a6	0.16860828
40	0x3d2cfced	0.042233396
41	0x3eb52274	0.35377848
42	0x3dde8c1b	0.10866567
43	0xbecdee92	-0.40221077
44	0xbce5cf75	-0.028053025
45	0x3eb5f536	0.35538644
46	0x3dfeeb06	0.12447171
47	0xbe86c881	-0.26324847
