model_zoo/team29_R2Net.pth (torch, 869557 bytes, 5 tensors)

conv_1.weight f4 [48, 3, 3, 3]
00000000: 903c dcbc 2b8d dfbc 9626 91bd 4a91 8d3d
00000010: a6b4 4dbc 5c27 a0bd 2293 413c 4e76 3d3e
00000020: 70ef 1bbc a2cf b9bd 4f78 2d3c c319 d7bc
00000030: a262 c43d 72aa c83d 7674 a13d beee ef3d
00000040: ad45 e4bd 1328 c5bb 9787 073e 874c 383d
00000050: 76ff 323d b9f6 f5bd 8a69 15be 1864 88bd
00000060: c9e2 8fbd 6342 13bd ffc5 1dbb b459 2fbe
00000070: 36cd 43be 1eb6 6fbc 7331 013e df6b 913d
00000080: 0717 8f3d fbaa 553d d57f be3d 69b7 35bd
00000090: f133 133e c3cf 013d 9e01 883c 962d c03b
000000a0: f6a8 f73c 0510 443d a1f8 16be 872c aabd
000000b0: 539d bf3b fe92 b03c b6ec f43d 7ed4 033d
000000c0: 462f 06be 1b5f a1bd 04fc 0dbe 7c73 f33d
000000d0: 4271 1cbd e7d9 5b3d ca1f a1bd 31ff 9e3d
000000e0: a5bf fdbc 80f1 9bbd a7ce bc3e 9390 383e
000000f0: 2abd 19be d9b5 28be 3ad8 1b3c e109 cb3d
00000100: 3b67 babb bb3e b53d b7af ca3d 1396 24be
00000110: df54 25be 6d4b 343e c5a3 2a3e f505 ca3b
00000120: 8258 8cbd 0a20 603d a765 babd 695b abbb
00000130: a918 abbe 70ff e23d 7abf 80bc 95a4 dbbd
00000140: d036 09bd b592 2b3c bf11 083d e90e 64bd
00000150: 19e9 453e 65d0 0cbe dee6 d6bc 9ac6 da3d
00000160: 776e 16be 95aa ba3c 3b03 95bc 6aa4 9c3d
00000170: 47a9 fb3d 6152 46be e603 cdbd 5710 3b3e
00000180: 9d7e 0bbe 96f3 033e e1d9 80bd cb75 a5bc
00000190: a5a3 04be db4e 46bd d490 6a3d 14d8 5a3e
000001a0: 51e7 32be 5c95 493c d5c4 8d3c 13e3 983d
000001b0: fb36 a43c 173f 60bd 56bf 6a3d 11b7 e6ba
000001c0: ceec e13d cd39 16be badc bf3d e553 d0bd
000001d0: ce0d bd3c ae12 c5bc 5f28 bfbd cb9f a73d
000001e0: 9425 d43d 95b5 763c f28a 9bbd 5fe8 bdbd
000001f0: e0c1 163e 5ff5 02bc 3c9f 70bd 0581 d03d
00000200: 8e38 99bd bb74 8dbc 9c28 89bd c5f6 c03d
00000210: 2a3b f2bc 018d ddbb 3f1d b33b 090f 00bd
00000220: 4473 e33d fb04 eb3b cb9b 5bbd 6d82 a4be
00000230: 1ccd 86bc e517 143e aa8d 533e d0e6 35bc
00000240: 4799 523d 3cab 6dbc ceb7 0e3e 5041 71bd
00000250: 3ea5 0d3e 3b8d cbbd 395b 25be e404 6cbc
00000260: 3d53 12bd a1af 40bd 39fd 40bd 67a3 09be
00000270: 8642 b13d e503 5e3e e493 f03d 7a11 2a3d
00000280: 1fc0 36be 8f6f 0fbd 0ac6 98bd 81db 213d
00000290: df9c 71bd 7a51 503d 96da c43d ec3c b83a
000002a0: 1a47 80bd 27a3 1f3d 49f3 02bd 1b85 a43d
000002b0: bed1 403d f08a 36bd 2afc 473d e260 5dbe
000002c0: 1a90 ed3d ae78 2dbd b6d3 7a3d b9bf 8dbd
000002d0: 21d2 01bd b435 d0bd f4fc e83d 0e34 67bb
000002e0: 304d 6dbc d504 7cbd eee3 3c3d bbee a5bb
000002f0: 75bc a03d 84e5 e33d 3d9e 103e 9e45 993d
00000300: 3df2 38be 3417 05bd 4273 063e e83d fcbd
00000310: 5492 663a 896e ae3c 450a 1abe 1eb4 cbbd
00000320: 1b3d 5dbe 80cd 9e3d 873f 123e 094e 5d3d
00000330: 3360 ce3c af85 abbd b013 5a3d 3ccd 9abc
00000340: 1584 98bc 0fd7 0b3e 423b 543e a54e 35be
00000350: 0b22 54be 6564 723d f207 9a3d 8380 87ba
00000360: fa9c 6b3d 1c4a afbc b10e 08be a75f 55bd
00000370: 0f8a e33d 6db4 3ebc a489 1ebd 3147 4fbc
00000380: 60a3 73bd 247d 0bbe 78e5 7c3d 0322 b03c
00000390: 2d53 d93d 8d7f 343e 4c3f 78bd 31a5 d7bd
000003a0: 6659 e13c d01e 813d 6f9f 953d 4e84 8f3d
000003b0: 7751 223d 7501 d4bc ae66 54bd e8f0 673d
000003c0: 92eb 06be 604b 473d 9ad4 453d c48e 813d
000003d0: 90d2 b1bd 1669 eb3d 5cd3 e83d 3de2 0ebe
000003e0: 0169 a7bd ea59 4b3d ea56 88bd 2d6d 72bb
000003f0: e59f 493d 1bc7 333d 8ae8 ecbd 55bb da3c
-0.026884347 -0.027288994 -0.07087438 0.06912477 -0.012555277 -0.07820007 0.011814864 0.18502161
-0.009517536 -0.09072806 0.010587766 -0.026257401 0.09589125 0.09798135 0.07883541 0.11715458
-0.11146102 -0.00601674 0.13235317 0.044994857 0.043700658 -0.12009949 -0.14591041 -0.06659716
-0.07025678 -0.035951983 -0.0024074314 -0.17124063 -0.1912125 -0.014630822 0.1261652 0.07100653
0.06986814 0.052165013 0.09301726 -0.044364367 0.14375283 0.031692278 0.016602334 0.0058648093
0.030231934 0.04786684 -0.14743282 -0.08309274 0.005847612 0.021554466 0.119592115 0.03218507
-0.13103971 -0.07879468 -0.13865668 0.11887261 -0.03819395 0.053674605 -0.078673914 0.07763518
-0.030975172 -0.07614422 0.36876413 0.180239 -0.15013567 -0.1647562 0.009512002 0.099139936
-0.0056885756 0.088498555 0.09896796 -0.16072874 -0.16145657 0.17606898 0.16664036 0.006165261
-0.06852819 0.054718055 -0.0910142 -0.005229403 -0.33417252 0.11083877 -0.015716303 -0.10724751
-0.03349954 0.010471989 0.03322005 -0.055678282 0.19327201 -0.13751371 -0.026233133 0.106824115
-0.14690576 0.022786418 -0.018190017 0.07648547 0.122881465 -0.19367363 -0.10010509 0.18267952
-0.13622518 0.1288589 -0.06291557 -0.02019777 -0.1295305 -0.048415046 0.057267025 0.2137149
-0.17471053 0.012303676 0.01730577 0.07465186 0.020045748 -0.054747667 0.05731138 -0.0017602165
0.11031495 -0.14670487 0.09368272 -0.101722516 0.023077872 -0.024056759 -0.09333872 0.08184775
0.1035873 0.015057941 -0.07594861 -0.09272837 0.14722395 -0.007993071 -0.058745608 0.101808585
-0.0748149 -0.017267575 -0.06697199 0.094220676 -0.029569227 -0.0067611937 0.005466133 -0.03126434
0.111059695 0.0071722246 -0.053615373 -0.32130757 -0.016455226 0.1446224 0.2065951 -0.011102393
0.051415708 -0.0145061575 0.13937303 -0.058900177 0.13832566 -0.09939047 -0.1614808 -0.014405463
-0.035723913 -0.047042493 -0.047116492 -0.1344124 0.086552665 0.21681173 0.11746958 0.041520573
-0.17846726 -0.0350185 -0.07459648 0.039515976 -0.058987495 0.050858952 0.096120045 0.0014056242
-0.062635615 0.038973954 -0.031970296 0.080332 0.047075026 -0.044566095 0.048824467 -0.21618989
0.11599751 -0.042351417 0.06123706 -0.06921334 -0.031694535 -0.10166493 0.11376372 -0.003527883
-0.014483735 -0.061528046 0.04611581 -0.0050638593 0.07848445 0.11127761 0.14122863 0.074839815
-0.18061157 -0.03249283 0.13129905 -0.12316495 0.00087956083 0.021292942 -0.1504298 -0.09946464
-0.21605341 0.0775404 0.14282046 0.0540295 0.025192356 -0.083751075 0.05324143 -0.018896692
-0.01861767 0.13656257 0.2072573 -0.17705782 -0.20716111 0.059177775 0.07521047 -0.0010337982
0.05752275 -0.021397643 -0.13286854 -0.052093174 0.11110317 -0.011639697 -0.038705483 -0.012651251
-0.05948198 -0.13621956 0.061742276 0.021500593 0.10611568 0.17626782 -0.06060724 -0.10529555
0.027508449 0.06304705 0.073058 0.07007657 0.039628472 -0.025879601 -0.051855735 0.05662623
-0.131758 0.048655868 0.048298456 0.063260585 -0.0868274 0.11494653 0.113684386 -0.1395349
-0.08174325 0.049646296 -0.066572025 -0.0036991343 0.049224753 0.043891054 -0.11567791 0.026700655

block_1.esa.conv2.weight f4 [16, 16, 3, 3]
00000000: bfab 7f3d 2b77 4d3d 7bb4 a03d 1a19 6a3d
00000010: ba4e c5bd 0972 8fbc eb6e 31bd 5c5a b2be
00000020: a8c8 4cbd ac62 093d f814 8dbc 392c 7a3c
00000030: 8f0d 33bc fb4d bb3c 3c9a 193d e12d fc3d
00000040: ee51 40bf 6e0f 1f3d 627c 493c 0df7 86bd
00000050: 8e49 863d 0ad1 95bc 14a9 6abe f011 6b3d
00000060: 6647 f53c 1469 c63d d25a 963d be37 92bb
00000070: 634e 513d 45c7 37bc 3ce5 18be 26aa 12be
00000080: 3c71 bebd 2214 fcbc d22a b63d 6f34 163d
00000090: efbd cc3d 22a2 233d 87f6 9ebc 348e 80bd
000000a0: 6012 97bc 51c2 98bd 44e3 743d 3e20 44be
000000b0: 4406 543d 6701 8cbd 5d1f 9f3d a77e c2bc
000000c0: 98e4 21bd 8da7 8e3b 4deb 963d d168 1c3e
000000d0: a49a c2bd acb1 973d 73fc 093d f053 1ebd
000000e0: c1e5 c63d 648e d3bd 9944 823c c340 923c
000000f0: 65a3 a63d ac9a b03e 8e10 66be 6707 aa3b
00000100: b266 993d a6b8 41bd a257 14bd 67e9 2d3e
00000110: 8c68 a4bd ff24 333b 295f 0e3e d85a 81bd
00000120: 92e7 4dbd d820 b73b 2517 3fbd fefa 8c3c
00000130: 2aa0 9c3d b8ae 8f3c e37e 7e3d f910 2abe
00000140: ce19 cb3d 2577 29bc 38ba d9bc 0b6c 3b3b
00000150: 802d a83d b6e5 893d 19b7 8c3d 6f67 80bd
00000160: 748e 9f3c 84a7 47bd d15f 143d b87b b3bd
00000170: 04ce 13bd 0277 3d3c 1210 953c 70e5 903d
00000180: 0f63 acbd 23f3 af3e ef32 37be d384 edbc
00000190: 6b54 51bc 7116 debc 74d8 32bd 08a4 90bc
000001a0: ca7a e3bb 5b09 d43c eab4 873e e509 69be
000001b0: c23b 173d 8e51 e23c b4bd 933d aaba 353c
000001c0: e717 bdbd b687 dc3c 3627 41bc 5b0d bb3e
000001d0: a2c3 c13d e375 ab3c 515a 643c 72ce 8e3d
000001e0: e897 03bd 8428 433d c278 02bd 17c8 883c
000001f0: 80f7 af3d d25e bdbd c126 053e 073d b23d
00000200: 38f6 863d 620c ab3d 2341 91bc b04c f43c
00000210: 16e7 033e c89d 79be 6c3d b538 bcfc 76bd
00000220: 4a16 343d 1fad 90bd e8e3 003e 147c 403d
00000230: 07e8 5c3d 8e4d 86bd f0b2 bfbd 5ac7 35be
00000240: 89b0 d4bd 82d0 10bd 3524 71bd 28f1 11bd
00000250: 351d 253c 1dc4 2ebd f586 6dbd 7b3e 2cbd
00000260: 1b0d 423c 254d d63b 9db8 a63c 204d b93d
00000270: baff 00bd a8bb 8dbe e9d7 f7bd 022a 013e
00000280: 9024 d1bd f599 893d fcf9 3bbc 8cad 5a3d
00000290: 9485 f4bc b386 993c 51f5 88bd 910a e8bd
000002a0: b28c 89bd a06e 913d 82cd debd 86fa 4f3b
000002b0: 0378 5cbd aa31 ef3c 7ade 1abb f735 a63c
000002c0: 9bb9 13bb 91fe c0ba b276 fabd 6172 bd3b
000002d0: dbba 073e 6d00 8c3d 9aad 493d c93e 99bd
000002e0: 90c4 9bbd 1362 19be 5d1f 043e 13e2 12be
000002f0: 26c4 313e 2059 ca3d 87de 643c c4bc 023e
00000300: 931f dfbd 6c2b 92be 5a65 eabd 55a3 253d
00000310: 5f97 b0bd 6447 c43d df38 edbd e1f9 8b3d
00000320: 3ab3 febd 80d2 9f3d e43e 963e 9e90 f73d
00000330: 425c 233f eecb 5ebf 73c5 da3d d8e1 973d
00000340: 08f1 97bd 78d1 7c3d e934 623e ad2c 68be
00000350: abf4 12be 876d 2ebd 3343 38be 18ed 443e
00000360: a9e9 43bc c079 e6bc 5e87 88bd d30f b83d
00000370: 6f91 83bb 770e e23c 1e95 34be ef62 d23e
00000380: 1a85 68bc 24a2 203c 141c 36bc e9d2 0f3e
00000390: 898c 833e 0d25 3abe 0f3f 0b3e 376a adbd
000003a0: ff61 063e 12dd e93d d86c debc d52c 45bd
000003b0: c752 febc 3009 c9bd f1e0 86bc 5271 25be
000003c0: 4668 28bd 3eae a43e b545 d6bd 540a e83c
000003d0: d932 fabd dbf5 903d 00a6 84ba c7ce 28bd
000003e0: 561a ea3c 848a d43e de03 b0be f1a9 cf3d
000003f0: 139f 5bbc 0fa9 0bbd 29dc 51bc 87b2 e9bd
0.06241965 0.050162476 0.07846924 0.057152845 -0.096341565 -0.01751043 -0.04331867 -0.34834564
-0.04999605 0.033541366 -0.017221913 0.015269333 -0.010928526 0.022864332 0.037500605 0.12313438
-0.75125015 0.038833074 0.012297722 -0.0659009 0.06556998 -0.018288154 -0.2291606 0.057390153
0.029941272 0.09688011 0.07341541 -0.0044622114 0.051100146 -0.011216943 -0.14931196 -0.14322719
-0.092989415 -0.030771319 0.08894886 0.0366711 0.099971645 0.039949544 -0.019404663 -0.06277123
-0.01844138 -0.07458938 0.05978705 -0.19152924 0.051763788 -0.06836205 0.07769654 -0.023742033
-0.039524645 0.0043534697 0.07369099 0.1527436 -0.095021516 0.07406935 0.03368802 -0.038654268
0.09711791 -0.10329893 0.01590185 0.017853146 0.08136634 0.34493005 -0.22467253 0.0051888707
0.07490291 -0.047295235 -0.036216386 0.16983567 -0.08027753 0.0027335284 0.13903488 -0.06316155
-0.05026967 0.005588632 -0.04665293 0.017209526 0.07647736 0.017539367 0.062132727 -0.16608037
0.09917031 -0.010343348 -0.026578054 0.0028598334 0.082118034 0.06733267 0.068708606 -0.062697284
0.019477107 -0.04874374 0.03622419 -0.08763832 -0.036085144 0.011564018 0.01819614 0.07075012
-0.084173314 0.34365186 -0.17890523 -0.028994 -0.0127764745 -0.02711031 -0.043663457 -0.017656341
-0.006942128 0.025883367 0.26505214 -0.2275768 0.036922224 0.027626779 0.072139174 0.011091867
-0.09233075 0.02692018 -0.011789134 0.36533627 0.09461142 0.020930236 0.013937549 0.0697297
-0.03212729 0.04764606 -0.031853445 0.016696973 0.08592129 -0.09246601 0.13003065 0.08703046
0.06589931 0.08351971 -0.017731255 0.029821724 0.12881121 -0.24376595 8.642193e-05 -0.06029962
0.04396657 -0.0706427 0.1258694 0.04699333 0.053932216 -0.06557761 -0.093603015 -0.17751828
-0.10385234 -0.0353551 -0.05887242 -0.035630375 0.010077764 -0.042667497 -0.057990033 -0.042051774
0.011843945 0.006539958 0.020351702 0.090479136 -0.03149388 -0.27682233 -0.121017285 0.12613681
-0.10212052 0.06718818 -0.011473175 0.053388163 -0.029848851 0.018740987 -0.066874154 -0.113301404
-0.067162886 0.07101178 -0.10879041 0.0031735017 -0.05382539 0.029198486 -0.0023631142 0.020289404
-0.002254105 -0.0014724304 -0.122296706 0.0057814573 0.13254873 0.06836019 0.049237825 -0.074826784
-0.07605851 -0.14978819 0.12902589 -0.14344053 0.17359981 0.098802805 0.01396907 0.12767321
-0.10894694 -0.28548753 -0.114451125 0.04043897 -0.08622622 0.09583929 -0.11583113 0.0683477
-0.124365285 0.078038216 0.29344857 0.120881304 0.6381265 -0.8702992 0.10682192 0.07416123
-0.0741902 0.061723202 0.22090496 -0.22673292 -0.14351146 -0.042584922 -0.17994384 0.19231069
-0.011957564 -0.028134227 -0.06666444 0.08987393 -0.00401514 0.027594788 -0.17635009 0.41091105
-0.01419189 0.009804282 -0.011115093 0.140453 0.25693157 -0.18178196 0.13598274 -0.084675245
0.1312332 0.11419119 -0.02715151 -0.04813846 -0.03104533 -0.098162055 -0.016464682 -0.1615651
-0.041115068 0.32164186 -0.10462514 0.028325237 -0.1221673 0.07078143 -0.0010120273 -0.041212823
0.028577011 0.4151193 -0.3437795 0.101398356 -0.0134046255 -0.034096774 -0.012808838 -0.114110045

block_2.esa.conv2.weight f4 [16, 16, 3, 3]
00000000: d415 123e 1ca6 953e 33e1 1dbb 5fea 003e
00000010: cb59 19be e664 7f3e b15a 183e 8e66 443d
00000020: 9b84 763d bdb6 053e 8698 48bc 5e6d 873e
00000030: aaf3 49be 5bc7 efbc d49c b33c 4751 083e
00000040: 862b 9e3e f063 203e 0457 24bd 77dd 5c3d
00000050: 760a 4ebd 45da 30be 9183 9dbd b785 863e
00000060: 02f7 45bd 39a4 ca3d 247d dabd 0bf5 afbe
00000070: e27c e03e 3467 0abf 111c 943d 544f 813e
00000080: 3911 ac3d e60f d1bd 0c73 8dbe 3523 19be
00000090: 3c9c a7bc 5d96 db3c 4ea2 9c3d b925 033e
000000a0: 9ca1 833d 7867 6fbd 4ef2 9cbc f1f6 083c
000000b0: ddad d4bd 005e c7bd 0733 d43d bdc3 3ebe
000000c0: 1548 dd3d 8ba8 223e ccb4 993d f166 12bc
000000d0: 47b3 043d 7b2a f3bd fe5a 063e 28c6 ab3d
000000e0: fc4a cbbc 6434 f23d 537b d03c a0e2 1bbe
000000f0: c7d3 7abe 7908 0f3e 4977 dfbd 6d52 103e
00000100: cb1d 2a3e 09aa 2f3e 8dbc 4d3e 9b8e 13be
00000110: 08f1 dfbd 8f54 e23d 5d8b b43c 5a6f 2abd
00000120: f8ae 223e 68f0 1bbe acfa 293e d60f 32be
00000130: 9091 e6bd 07f1 37be cb71 b4bd 6d0c e03d
00000140: e486 343e 1543 2dbe 5dbf 99be 01a9 16be
00000150: adfc e13d 002e 1b3e c571 25be 5f32 9fbe
00000160: 531f 30be 77d2 83be d46a 16be 0deb 03bb
00000170: 7070 b73d 4982 223c 2084 a73c 4802 2cbe
00000180: 690c d8bd 1bee e1bc d1a3 57be f756 96bd
00000190: 100c 2c3d eb28 06bd b6d7 153e 0f46 293e
000001a0: 2b9c 35be 0387 863c 590e 92bd 93e5 793e
000001b0: dcd3 a73d 0bae 07be 2b06 c63e c9a3 b4bd
000001c0: 0a3a 01be 2fd8 883c cdfb e93d 4017 663e
000001d0: 1114 9e3e b227 403d 4531 2d3e d9f1 b43d
000001e0: 2266 9e3d 53c4 fabd 49f6 83bd ca56 243e
000001f0: 977d 513b 6b4a 37be 120b a4bb 7ff0 c7bd
00000200: 2e18 21be ada3 623d 6bc9 81bc cac4 cb3d
00000210: 1881 243c 3266 c3bd 3cd8 4ebd 5266 ba3c
00000220: b05d 9a3d cc5c 273e d604 163e 964a 183c
00000230: dc60 44be 146f a3bc 430a a1bd 0eca 0cbd
00000240: 477c 27be 1824 3abe 431d 2a3e 2c0b 2dbd
00000250: f43c eb3e fca9 e03d 8489 803e 0391 db3d
00000260: 77be 9d3c 633b b33d 744a 853d ffa1 ddbd
00000270: 242a eabd bdca 3fbd ceba a73d f729 82bb
00000280: 2aaa 113e 2802 0f3e cbb0 36be 386f b2be
00000290: dc76 df3d 3114 bebe d912 163e bc4f f93e
000002a0: 19b0 893b 7117 c43e 4a01 efbd 068f 03bd
000002b0: 1693 cdbd f345 ac3d b1c8 df3a 2368 e8bd
000002c0: 9d1b a73d 075b 7dbc 4071 de3b 6b40 6b3c
000002d0: 56a6 5fbe 01d5 f43c 091f 7f3d 90e6 523d
000002e0: 0da1 393e 4e34 2f3e dba2 3e3d c301 cb3d
000002f0: 7b1f 97bd 8748 b3bc 9cff c03d 4e15 c13d
00000300: 3045 f83d 35b5 123e 982c 063d 3022 913d
00000310: 7f14 a93d 9c96 8bbc 6901 7bbe 99ce 83be
00000320: 168e 063e 28c6 34bd 66b1 873e 00cf 3e3e
00000330: d8a5 c53d 18ad 323e b819 8a3d bfaa 7dbd
00000340: f41f 3d3e 0d23 0fbe 511e bc3e 9377 983d
00000350: 771d 94bd cd9d 3b3d ddeb a6bd bb7a 183e
00000360: 7a63 603c d95c c03d 4d82 99bd 321e c93d
00000370: 61e7 d9ba be6b 1a3d 938e 983b ca0c 943c
00000380: 3f55 c93d 53f3 45bc 8cfc 1cbd 5696 923d
00000390: 427c 62bc 8119 5fbc 9257 17be c512 c7bd
000003a0: f0bc 4ebe 96e2 45bd d84c 0fbe f2ce 6ebe
000003b0: bef1 02bd 691d 14be be7b 23be 0055 d53e
000003c0: ff21 debd 174c 443e 6fee 21be 433c d83d
000003d0: e131 babc 8766 21be e5ef a03d 01ed 39bd
000003e0: 3741 d63d 8fea 62be 69c9 013e 5a5f e3bd
000003f0: 4d47 91bb 7876 20bd b598 483e 5533 4bbe
0.1426614 0.29228294 -0.0024090528 0.12589405 -0.1497566 0.24940833 0.14878346 0.047949366
0.060185056 0.1305799 -0.012243396 0.26450628 -0.19721857 -0.029269865 0.021925367 0.13312255
0.3089258 0.15663123 -0.040122047 0.053922143 -0.050302945 -0.17270763 -0.0769111 0.2627389
-0.048331268 0.09894604 -0.106684 -0.3436664 0.43845278 -0.54063725 0.07231916 0.25255835
0.084017225 -0.102081105 -0.27626836 -0.14954837 -0.02046024 0.026805097 0.07648145 0.12807359
0.06427309 -0.058448285 -0.019158509 0.008359657 -0.10384724 -0.09734726 0.10361295 -0.18629356
0.10804764 0.15884607 0.075051874 -0.008935676 0.032397535 -0.11873337 0.13120648 0.08387405
-0.024816029 0.11826399 0.02544943 -0.1522317 -0.24494849 0.13968076 -0.10911424 0.14093943
0.16612928 0.17154707 0.20091458 -0.14409868 -0.10934645 0.110512845 0.02203911 -0.0416101
0.15887058 -0.15228426 0.1659953 -0.17388853 -0.112582326 -0.17963038 -0.08810767 0.1093987
0.17629582 -0.16920121 -0.3002881 -0.14712907 0.11034522 0.15154266 -0.16156681 -0.31093118
-0.17199449 -0.2574651 -0.14689189 -0.0020129115 0.089569926 0.009918758 0.020448744 -0.16797745
-0.10549242 -0.027579358 -0.21058585 -0.07340806 0.04200369 -0.032753866 0.14633068 0.16530631
-0.17735355 0.0164218 -0.07131643 0.24403982 0.08194706 -0.13249986 0.3867658 -0.08820302
-0.12619796 0.016704647 0.1142498 0.22469807 0.30874684 0.046912856 0.16913326 0.08835191
0.07734324 -0.12244477 -0.064434595 0.16048732 0.0031965727 -0.17899482 -0.0050062025 -0.09762668
-0.1573188 0.055331875 -0.015843114 0.09949644 0.010040544 -0.095409766 -0.050499186 0.022753868
0.07537401 0.16343993 0.14650282 0.009295126 -0.19177574 -0.019950427 -0.078632854 -0.034372382
-0.16356002 -0.18177831 0.16612725 -0.042246982 0.4594494 0.10969922 0.25104916 0.10721018
0.01925586 0.087515615 0.065083414 -0.10821914 -0.11433819 -0.046824206 0.08189927 -0.0039722878
0.14225069 0.13965666 -0.17840879 -0.34850478 0.109113425 -0.3712478 0.14655627 0.48693645
0.0042019007 0.38299134 -0.11670168 -0.03211882 -0.1003782 0.08411779 0.001707336 -0.113479875
0.08159564 -0.015463597 0.006788403 0.01435862 -0.21840796 0.029886724 0.062285457 0.051489413
0.18127842 0.17109796 0.04654203 0.099124454 -0.07379051 -0.02188517 0.094237536 0.09427892
0.121225715 0.14326937 0.03275737 0.07086599 0.082558624 -0.01703959 -0.24512257 -0.2574356
0.13140139 -0.04413429 0.26502532 0.18633652 0.09650773 0.17448843 0.06743187 -0.061930414
0.1846922 -0.13978215 0.3674188 0.07444682 -0.072321825 0.045804787 -0.08150456 0.14890568
0.013695592 0.09392709 -0.07495556 0.098202124 -0.0016624742 0.037700407 0.004655668 0.018072505
0.098307125 -0.012081939 -0.038326785 0.071575806 -0.013823571 -0.01361692 -0.14779499 -0.09720377
-0.20189261 -0.048311792 -0.13994157 -0.23321131 -0.031968825 -0.14464344 -0.15965173 0.41666412
-0.10846328 0.19169651 -0.15813611 0.10558369 -0.022728862 -0.15761767 0.07858256 -0.04539204
0.104616575 -0.2215979 0.12674488 -0.11102171 -0.0044335485 -0.03917548 0.19589503 -0.198438

block_3.esa.conv2.weight f4 [16, 16, 3, 3]
00000000: 9acb b6bd a0b6 5bbe a39c 383d 97a1 a4bd
00000010: 22aa 20bd 48c6 aebd 4dc7 6e3e 625c cabb
00000020: 9ecf 013e dcf4 1fbd cf5f 9c3c 67d4 743d
00000030: 001c 93bd 4061 a83d 6878 dd3d 4cab a23d
00000040: 7132 c5bc 9967 ca3d 4536 5c3c 79f5 7fbd
00000050: 353f 9abd 6a12 31bd 43af 13be b81f eebd
00000060: 5beb fdbc f470 26bd b241 87bc e837 4d3d
00000070: 584c 403d c72e fdbc 625b a5bd 8d69 d53d
00000080: 3df7 a73c cf4b e3bc 522a f63c 5cef 61bd
00000090: 7ff2 f13d 3bbe e43c 5a9d 933d 184b 0e3c
000000a0: 5ed9 76bc caf1 30bc bf8a 413e d926 433c
000000b0: c2f4 ab3d ce98 a33d 3cea bc3d d53c 933d
000000c0: 80eb a6bd 99ec b83e 08c8 523d 6fc2 913d
000000d0: 81b8 b8bd b774 873d e160 013d 0fde b83b
000000e0: 8d10 babb 61ca acbd 4aad 813d e1c2 5fbd
000000f0: f616 a23a 8289 09be eb16 17bc 161e 1a3c
00000100: fbfc 733d fee5 febd 0a31 dc3b 7e36 6cbe
00000110: 3624 88bd 0417 e43d 0285 063d 8280 b0bc
00000120: f2d2 c83d 26f2 9b3e be6d a93d 6ae3 ae3c
00000130: 393b f23d c1cf b63d fe56 84bd 7a24 183d
00000140: 6573 f33d b813 71be 2d2b 45bd 8a3e ddbc
00000150: 9810 02be 5420 99be a279 36bd 7bfa 00be
00000160: be6c 0b3d d394 c5bc 68e9 dabb 817f 61be
00000170: 29eb 453b f5d7 93be c2c3 0abe a6dc 30be
00000180: a6e6 3e3e cbe0 93be 4f08 8c3c eac8 58bd
00000190: 9a7e 323d 0702 353e 8ced 33be 1f9a e9be
000001a0: 8459 8ebd f8d0 283d cbfa 97bd 1d25 b9bc
000001b0: a69a 24bd 6a75 f1bd 3558 cdbd 40e0 3abe
000001c0: d8d5 1ebe f7df a0bd bb53 09be a5f3 1abe
000001d0: 2373 ecbc 8d6f 393e 66bc 173e d565 4abd
000001e0: ffa7 093e 843c 28be 715d a7bd 9a2e 8dbc
000001f0: 6b4c 71bc 27bd 7fbe 15b3 813d 9b18 3abe
00000200: 46aa 80bc fafc 1a3d a1b6 ccbc d7c5 26be
00000210: bd8e fc3d 8bbc d53d 5908 22bd c636 003e
00000220: d8cd 98bd 126a 0cbd 706c 523c 1937 8b3e
00000230: 4e49 5c3c 3a36 273c 7d95 9ebd a070 183e
00000240: bae9 053d 9465 b5bd 2a2f 3e3c bf57 873d
00000250: 9708 c93e d4c9 80bd ccec 3d3c 2dea afbc
00000260: 347c 8b3a f3ee 7c39 4038 16be eb15 7cbc
00000270: e8bc 40be b275 e43e c0c1 84be b13a 633c
00000280: 1261 f8bd 86f9 313e 7caf dc3b 2389 2b3b
00000290: 7562 a63d d1ed eebb 5c30 e43d 4424 fcbd
000002a0: 453c 993d 1a58 8bbd 19ee c63d 1cb4 3dbd
000002b0: ccb1 8e3d c002 b53c 21f8 d2b9 6a5d 8cbc
000002c0: 88a9 d23c ce84 5bbd a013 d3bd 6102 17bd
000002d0: b68d b4bd 4579 8e3d 65f4 9b3d 8492 88bb
000002e0: 2af8 9ebe a6bd 79be 75cd d0bc 624f 1cbd
000002f0: b090 f93b ad4c ef3c 12e3 80be 6ae0 fe3d
00000300: caf3 cdbd 0a4f 30be 1792 013e 7564 983d
00000310: c173 34be 5bce c9bd 84b5 b3ba 5b9c 2fbd
00000320: bff1 773d 1af3 90bc 12e6 963d d3c3 b93b
00000330: bf31 943c 96f5 0d3d e023 d73d 64cd d83c
00000340: a0d2 4cbe 566f 2d3e 26a8 cdbd e30e 423e
00000350: 3228 54be 55b4 953c 6b4c 9bbd 635b fa3c
00000360: 55ec 81bd 28fd c03d 7239 dbbc e2c4 bcbb
00000370: 7a68 94be 7f49 0e3e 5ca8 06bd 6dd2 893d
00000380: 4c9d f2bd 4729 2dbe 2f3e eebc 92a0 ac3d
00000390: ca17 57bd 332e 15be 7389 faba 92bd c93c
000003a0: e2e7 07bc 6792 b83c c330 94bd 752e 94bd
000003b0: f7db 8a3d 0278 bdbd eb71 0f3e 2cee ecbd
000003c0: 1f5f 8cbb ae8a 86be 870f 98bc 40d5 043d
000003d0: ca3d 51bd 719a 113d fcb3 fdbd cb11 333d
000003e0: 738f 0bbe c2e6 023d 16cb 8dbe 7679 e23c
000003f0: 9452 31bd d0a0 d3bd 2199 93bd ad82 b73c
-0.08925553 -0.21456385 0.045071255 -0.08038633 -0.03922475 -0.08533913 0.23318215 -0.0061755637
0.12676856 -0.039051875 0.019088654 0.059772875 -0.07183075 0.08221674 0.10813981 0.079428285
-0.024071904 0.09883041 0.013440673 -0.06248996 -0.07531587 -0.04323045 -0.14422326 -0.116271436
-0.030996015 -0.040635064 -0.016510818 0.050102144 0.046947807 -0.030906094 -0.080740705 0.10420523
0.020503635 -0.02774611 0.030049477 -0.05515991 0.118138306 0.02792274 0.07207747 0.008684896
-0.015066473 -0.0107998345 0.18900584 0.0119111175 0.08396293 0.079881296 0.09224364 0.07189337
-0.08150387 0.3611801 0.051460296 0.071171634 -0.09019566 0.066140585 0.03158653 0.005641706
-0.0056782425 -0.08437038 0.063318804 -0.05462921 0.0012366462 -0.13431361 -0.009221773 0.009406587
0.059567433 -0.12446211 0.006719713 -0.23067662 -0.06647532 0.111372024 0.03284169 -0.021545652
0.098058596 0.30458182 0.08272885 0.021348674 0.11827702 0.08926345 -0.06461905 0.03714416
0.11887244 -0.23542678 -0.04813688 -0.02700736 -0.12701643 -0.29907477 -0.04454959 -0.1259555
0.03403925 -0.024118816 -0.006680656 -0.22021295 0.003019998 -0.288757 -0.13551238 -0.1727167
0.18642673 -0.2888244 0.017093806 -0.05292598 0.043577768 0.17676555 -0.17571086 -0.45625398
-0.069506675 0.041214913 -0.07420882 -0.022600705 -0.040186547 -0.11789973 -0.1002659 -0.18249607
-0.15511262 -0.07855218 -0.13410847 -0.15132006 -0.028863495 0.1810896 0.14817962 -0.04941352
0.13442992 -0.16429335 -0.081721194 -0.017234135 -0.014727692 -0.249745 0.06332985 -0.18173449
-0.015706193 0.037838914 -0.024989428 -0.16286407 0.12331913 0.10436352 -0.039558742 0.12520894
-0.074611366 -0.034280844 0.012843236 0.27190474 0.013445212 0.0102058 -0.077433564 0.14886713
0.032693602 -0.08857265 0.0116079245 0.06608533 0.39264366 -0.06288496 0.011592101 -0.021473968
0.0010641874 0.00024121608 -0.14669895 -0.015386085 -0.18822062 0.44621044 -0.2592907 0.013868974
-0.1212789 0.17380342 0.0067347866 0.002617427 0.08124248 -0.0072915335 0.11142036 -0.123116046
0.074821986 -0.068039134 0.09713382 -0.046314344 0.06967506 0.022096038 -0.00040239192 -0.017134387
0.025715604 -0.05359345 -0.103064775 -0.036867503 -0.08816092 0.06956724 0.07614974 -0.0041678566
-0.3104871 -0.24388751 -0.025488595 -0.038161643 0.007616125 0.029211367 -0.2517324 0.12445147
-0.10056265 -0.17217651 0.12653385 0.07441036 -0.17622282 -0.09853812 -0.0013710712 -0.04287372
0.06053328 -0.017694045 0.07368101 0.005669096 0.018090127 0.034658037 0.105048895 0.026465125
-0.20002222 0.16937003 -0.100418374 0.18950991 -0.20718458 0.018274466 -0.07582935 0.030561155
-0.06343905 0.09423286 -0.02676079 -0.005760775 -0.2898596 0.13895224 -0.032875404 0.06729589
-0.11846408 -0.16910277 -0.029082386 0.08429064 -0.05251292 -0.14568405 -0.0019114449 0.024626527
-0.008295031 0.022530748 -0.07235863 -0.072354235 0.06780236 -0.09251405 0.140083 -0.11568865
-0.0042838003 -0.2627768 -0.018562092 0.032429934 -0.051084317 0.035547677 -0.12387845 0.04371814
-0.1362894 0.03195835 -0.27694005 0.027645808 -0.043291643 -0.10333407 -0.072069414 0.022401178

block_4.esa.conv2.weight f4 [16, 16, 3, 3]
00000000: 7126 41bc f595 dcbb 0685 a23b b65d 10bc
00000010: 424e 843d 3733 eb3a f23e 86bd 7a46 8dbd
00000020: 086e 03bc f69a fc3c 3aab e6bd ca2d 46bd
00000030: a06d 013d 8999 9c3d 61f5 18be 158c 78bd
00000040: 1a0a 663d c3f4 08be 4bd4 3fbc fc7e 8abd
00000050: de8d b83d 9b45 7f3d b4f5 13bd 2839 fdbb
00000060: 8671 6a3b b062 c93c 9d3e d9bc 1b99 87bc
00000070: 8bb4 9a3d 4c89 62bc 4277 d4bc f7f4 013e
00000080: 3d72 88bd 628f 95bc aa20 103e bf79 98bc
00000090: 4b90 0d3d ebee 9a3a 5277 c93d ae34 a5bd
000000a0: d467 45be 7a3a 88be b8d1 eebc da44 573e
000000b0: f8cc 013d f1b8 45bd 5915 93bc 6575 aabc
000000c0: 396f aebd c942 ed3d a81a de3d 024f d93b
000000d0: 9f11 2abe c2a0 d5bc d412 d3bc b666 a4bb
000000e0: 6240 0bbc f19b 9b3c b475 c5bd 9f80 80bc
000000f0: 428a 66bc 6714 a8bc 8a35 6dbd ec9f f43d
00000100: d272 babd 4e05 3f3d dbc6 b8bd ee19 8bbe
00000110: d512 6ebe de1c b0bd 51db 563e 10c0 fabb
00000120: a477 013c 267f 47bd 2491 86bd 33ca 11bd
00000130: a731 abbb 8e3a 65bd 825d b6bc 3ff4 d23c
00000140: 7318 0cbd 7e9f 943c 17c5 f4bc 530f 1dbd
00000150: 5396 5c3d 463c 27bd 2ee2 54be 1aa4 b8bc
00000160: dc87 0dba e2aa 3bbe affa 4a3c 825a 8d3c
00000170: 06ef d43d da8a b2bd 737b c5bd bb90 aa3d
00000180: 28d3 ce3c 764f 593d d50b 0f3e bdcf 033d
00000190: 15dc 2bbd af57 c3bd 6a25 8a3c c39e f83c
000001a0: 22fd 04be 78d2 1fbd 358e 57ba 4b1c 58bd
000001b0: b0dc aebb 0014 74bd 6912 06bd 717e 2fbd
000001c0: 91b6 d53d 95aa 5e3d db0a e9ba ae0f 19bd
000001d0: e626 1fbc bf21 07bb 9888 343e 01b1 b63d
000001e0: 2335 e93d 8bcd 5ebb 261a d63d 56c3 20bd
000001f0: 126c 4e3d 792c bb3d 624c b5bb e89f ab3d
00000200: b128 fc3d e398 3c3c e144 eebd e662 50bc
00000210: 7672 733d d02c 823d 4472 0e3e 37eb 553d
00000220: 35dc 2e3c 60a6 143d 98de 943c 3a8c dd3d
00000230: 4cb9 9d3d a078 bd3d 8015 a63d 0aa9 383d
00000240: e6a9 013e f4de f0bd d893 dbbd 2394 d73b
00000250: b079 5b3e c226 43bd 68b2 00be 1e42 143d
00000260: 83dc 21be c450 423d 7c1d 82be 3b72 dcbb
00000270: 6a9f 85bd 4c9c a9bd 89c4 813e 92f7 d23d
00000280: 1b5f 2dbd 3322 8bbe 3af6 2dbd 237d 193d
00000290: bf73 023d 1c11 d23d 6f24 923d e591 79bd
000002a0: 65fd 0f3c 2c65 e7bc 7f67 dabd 0e2c 0e3e
000002b0: c3b4 20bd 71bf 853d 6663 913d 639c 84bd
000002c0: 4ec4 813d 3f37 653d 6c00 dabd db08 3cbd
000002d0: 4e44 5abc 9ea5 45bc 920c 563e 4ae5 0abe
000002e0: 09d9 babe 604f 103d 4b61 363e 75aa d43d
000002f0: b583 a6bd cd38 6f3e 6539 503e ca52 85bd
00000300: 5f19 3f3e 5df3 413e 1592 c4bc 9883 07be
00000310: 34c7 05bd 0071 ad3c 8c53 cbbd ea23 41bc
00000320: a86d 323d f859 fe3c 0976 f3b8 6604 493e
00000330: 16d4 92bd 7f53 ddbd 273b 90bc 2cb7 11be
00000340: af18 9ebe 35ab e3bd 6929 97bc f4ee 27be
00000350: dd2c 103e f287 b33e 68b2 8c3e dd4b 8dbe
00000360: 1c48 ed3c 913b 9dbd d9d4 003e 09f4 33bd
00000370: 2c30 97bd cf6c 4bbd 6bf2 4d3e bf58 513c
00000380: a30a 933c 6d65 f4bd f604 90be 3a8c 73bd
00000390: a6bf 01be d4fe 2dbe 6bde ea3d faa5 d3bc
000003a0: 19ad b3bd 55e0 173d a0d0 94bd bdb9 a5bd
000003b0: a898 6b3d e0eb b7bd ce14 0abe c727 0ebd
000003c0: 1c4a ae3d 7bee 9abc eda5 21be 0071 083e
000003d0: 8fb5 74bd 06e6 1d3d f03b 523e 155a a2bd
000003e0: 3759 773e e5e4 46be f590 f1bc ff35 a7bd
000003f0: fcf8 db3c 6746 a0bc 2ec7 c6bc 8432 4ebe
-0.01178895 -0.0067317435 0.0049597053 -0.008811405 0.06460239 0.001794434 -0.065549746 -0.06898208
-0.008021839 0.03083561 -0.112631276 -0.04838351 0.031598687 0.07646472 -0.14937355 -0.060680468
0.056161977 -0.13374619 -0.011708329 -0.067625016 0.09011434 0.06232224 -0.036122993 -0.007727761
0.0035773232 0.02458319 -0.026519114 -0.016552499 0.07553967 -0.013826679 -0.025935773 0.12691103
-0.06662414 -0.018256847 0.1407496 -0.01861274 0.034561437 0.0011820471 0.09837212 -0.080666885
-0.19277889 -0.26607114 -0.029152736 0.21022359 0.031689614 -0.048272077 -0.017954515 -0.020807931
-0.08517308 0.11585004 0.10844928 0.006631733 -0.16608284 -0.026077632 -0.025765814 -0.005017127
-0.008499237 0.018995257 -0.09641591 -0.015686331 -0.014071049 -0.020517541 -0.057912387 0.11944565
-0.091039315 0.04663592 -0.09022304 -0.2716822 -0.23249371 -0.08599256 0.209821 -0.00765229
0.00790206 -0.048705243 -0.06570652 -0.035593223 -0.005224425 -0.055964045 -0.022261385 0.025751231
-0.034203004 0.018142458 -0.029879136 -0.038344692 0.053854298 -0.040828966 -0.20789406 -0.022539187
-0.0005398968 -0.18326905 0.012388869 0.017255072 0.103971526 -0.0871789 -0.09642687 0.083283864
0.025247172 0.053054295 0.13969357 0.032180537 -0.041957933 -0.09538209 0.016863544 0.030349141
-0.12987188 -0.039019078 -0.00082227896 -0.052761357 -0.0053363666 -0.059589386 -0.0327324 -0.042845193
0.104352124 0.0543619 -0.0017779724 -0.03736847 -0.009713864 -0.002061948 0.17630231 0.089204796
0.11387088 -0.0033997025 0.10454206 -0.039248787 0.050396033 0.09139342 -0.005532787 0.08380109
0.12312449 0.01151106 -0.11634231 -0.012718892 0.05943533 0.063562036 0.13910776 0.05222627
0.010672619 0.03629148 0.018172547 0.10817762 0.07701358 0.09251523 0.081095695 0.045083083
0.12662467 -0.11761275 -0.10721558 0.0065789386 0.21433139 -0.047644384 -0.12568057 0.036195867
-0.15806775 0.047440305 -0.2541312 -0.0067274845 -0.065245464 -0.082817644 0.25345257 0.103011265
-0.042327028 -0.2717453 -0.042471148 0.037472855 0.031848665 0.102571696 0.071358554 -0.06093015
0.008788441 -0.028246485 -0.106642716 0.13883993 -0.039234888 0.06530655 0.07099037 -0.06475141
0.0633627 0.05596089 -0.10644612 -0.045906883 -0.013321949 -0.012063412 0.20903233 -0.1356403
-0.3649371 0.035231948 0.17810552 0.103840746 -0.0813059 0.23361512 0.20334394 -0.065099314
0.18662022 0.18940492 -0.023995439 -0.13233793 -0.032660678 0.021172047 -0.09928045 -0.011788348
0.043561608 0.03104876 -0.00011609129 0.19630584 -0.071693584 -0.10806941 -0.017606331 -0.14230031
-0.30878207 -0.111166395 -0.018452363 -0.16399747 0.14079614 0.35064656 0.27479863 -0.27596942
0.028965048 -0.07677377 0.12581195 -0.043933902 -0.07382235 -0.049664315 0.20112006 0.012777506
0.017949408 -0.11933408 -0.28128785 -0.059459902 -0.12670764 -0.1699174 0.11468204 -0.02583598
-0.0877325 0.037079174 -0.072663546 -0.080920674 0.05751863 -0.089805365 -0.13484499 -0.034705903
0.08510229 -0.018912544 -0.15785952 0.13324356 -0.05974346 0.038549446 0.20530677 -0.07927338
0.24155127 -0.19423254 -0.029488066 -0.08164596 0.026852123 -0.01956482 -0.024264898 -0.20136458
