model_zoo/team21_slimrlfn.pth (torch, 862005 bytes, 102 tensors)

conv_1.weight f4 [30, 3, 3, 3]
-0.046222594 -0.02210441 -0.029778605 -0.026446845 0.021366999 -0.010336045 0.03422097 0.026395576
0.055113047 0.053533662 -0.037910074 -0.051342644 0.05874643 0.24984077 -0.10122086 0.0037667884
-0.10998826 -0.061119143 -0.036304314 0.1655435 0.039812017 0.23631851 -0.35018593 0.06673914
-0.03007762 -0.09678533 -0.002749385 0.014567114 0.053761747 0.03725834 0.008170464 0.10892163
-0.03876608 -0.08367109 -0.08292413 -0.031697787 -0.023023365 -0.13770644 0.023742165 0.041182693
-0.029865306 0.091514766 0.048085444 0.010726228 -0.01790502 0.012293051 0.044010933 -0.028284222
-0.071898766 0.024100786 -0.091968715 0.00419161 0.051528893 0.06037755 0.05291035 0.059987053
0.0491483 0.07870972 -0.19615267 0.07650679 0.013560658 -0.08034717 0.025223287 0.020561954
0.07414924 0.07020562 -0.034055796 -0.18715249 -0.024269711 -0.0066461 0.10686963 -0.034536462
0.06510934 0.0711657 -0.002636595 0.13485624 -0.42510533 0.014050941 0.01895205 0.013831789
0.0711833 0.038885713 0.014063537 -0.10318956 0.017515007 0.31775278 -0.038167506 -0.04662235
-0.06609092 -0.14827305 -0.017707815 0.029179376 -0.076149106 0.049091183 -0.11958346 0.063234545
-0.06992906 -0.04717199 0.18143494 -0.009526175 0.13742371 -0.010771091 -0.023139227 -0.33528954
0.10411198 0.06750497 0.0962879 -0.0146778785 0.035315905 -0.029779531 -0.016367678 -0.20972666
0.229598 -0.06193118 0.023467975 -0.027535817 0.07481866 -0.0080988165 0.1564142 0.0393654
-0.0278535 -0.3399959 0.044596046 0.05058417 0.12782452 -0.06467661 -0.013396721 -0.14332463
0.0100187175 0.18291527 0.15896857 -0.0139698135 -0.03552199 -0.11471709 -0.030743092 0.112383164
-0.047602724 -0.0012864474 0.055756014 -0.21904211 -0.04203738 0.0789572 0.03663744 0.018674303
-0.05810643 -0.018366404 0.03491116 -0.14259529 0.4111549 -0.07234272 -0.017798966 -0.1005117
-0.026491156 -0.02845581 -0.0017754115 -0.0039128233 0.012605517 -0.11247631 0.08713751 -0.028080303
0.075313024 0.0018164192 -0.055810783 0.06501787 0.035829205 0.0011538892 0.27601084 -0.05081586
-0.10241611 -0.111200966 -0.050203115 0.04388239 0.012849482 0.011615461 -0.009330149 -0.19277497
0.022203024 0.05287014 -0.015606032 0.04688298 -0.054210726 -0.028906813 0.003951704 0.01670516
-0.04601313 0.025087982 0.017315013 0.10940056 -0.028975716 0.040312435 0.30432314 0.09814693
-0.063600406 -0.47510794 0.036811013 -0.07356348 0.15460719 -0.037723005 -0.032623217 -0.20414472
-0.094562665 0.11210219 -0.071142785 0.15641181 0.012541009 -0.0024135273 0.12508999 -0.039009344
-0.10699692 -0.029524578 0.03871061 0.38601467 -0.10215121 0.058412887 -0.07417439 -0.12524524
0.02567432 -0.041045282 0.07122309 0.18079354 -0.14335975 -0.046026263 -0.039327256 -0.026195237
-0.039874475 0.033343982 0.09969042 -0.009266134 0.09116818 -0.08318085 -0.027749192 -0.036301922
-0.010335531 0.027896117 -0.098655686 -0.12986872 0.010709101 -0.036343623 0.10655943 0.036895618
0.028986149 0.117863186 -0.061878916 0.024817452 0.064302824 -0.027773662 0.0518903 0.06725213
-0.15097103 0.035804525 -0.049569286 -0.008559672 0.005483315 -0.12121973 0.00931842 -0.018018765
00000000: e753 3dbd 4f14 b5bc 43f2 f3bc 0ea7 d8bc
00000010: d809 af3c 8458 29bc 4a2b 0c3d 893b d83c
00000020: 38be 613d 1d46 5b3d 9847 1bbd aa4c 52bd
00000030: 19a0 703d 42d6 7f3e e24c cfbd 39dc 763b
00000040: 8641 e1bd 1158 7abd d5b3 14bd 3c84 293e
00000050: ed11 233d 7bfd 713e 924b b3be 88ae 883d
00000060: 5765 f6bc 6337 c6bd 072f 34bb e8aa 6e3c
00000070: 4735 5c3d 339c 183d 69dd 053c 4e12 df3d
00000080: 2ec9 1ebd c05b abbd 20d4 a9bd 8ad5 01bd
00000090: 7f9b bcbc eb02 0dbe ee7e c23c 2faf 283d
000000a0: 16a8 f4bc 186c bb3d 3ef5 443d 10bd 2f3c
000000b0: 8cad 92bc cb68 493c cf44 343d 50b4 e7bc
000000c0: a93f 93bd 036f c53c 185a bcbd c659 893b
000000d0: f60f 533d 734e 773d 86b8 583d fcb4 753d
000000e0: ba4f 493d 9032 a13d 3fdc 48be 98af 9c3d
000000f0: 862d 5e3c 0f8d a4bd 11a1 ce3c 8b71 a83c
00000100: 8fdb 973d f7c7 8f3d 177e 0bbd e7a4 3fbe
00000110: 46d1 c6bc 87c7 d9bb 77de da3d 1b76 0dbd
00000120: 0c58 853d 53bf 913d b9ca 2cbb c117 0a3e
00000130: 68a7 d9be eb35 663c 5441 9b3c ba9e 623c
00000140: 8dc8 913d a046 1f3d c06a 663c 0c55 d3bd
00000150: a27b 8f3c 7eb0 a23e 8855 1cbd 14f7 3ebd
00000160: ad5a 87bd e4d4 17be fb0f 91bc 9609 ef3c
00000170: 10f4 9bbd d613 493d 2ce8 f4bd 1d81 813d
00000180: f836 8fbd 6b37 41bd 15ca 393e ad13 1cbc
00000190: cdb8 0c3e 3b79 30bc 7a8e bdbc 12ab abbe
000001a0: a938 d53d 0c40 8a3d 9732 c53d 7c7b 70bc
000001b0: 69a7 103d 34f4 f3bc 8215 86bc 96c2 56be
000001c0: bd1b 6b3e 8dab 7dbd e93f c03c cb92 e1bc
000001d0: 873a 993d e6b0 04bc 0b2b 203e 9d3d 213d
000001e0: 062d e4bc f113 aebe 58aa 363d 5931 4f3d
000001f0: 6ee4 023e 2c75 84bd ec7d 5bbc b1c3 12be
00000200: 8c25 243c 244e 3b3e a8c8 223e a5e1 64bc
00000210: 827f 11bd cbf0 eabd f0d8 fbbc 2529 e63d
00000220: 13fb 42bd 039e a8ba 6b60 643d 934c 60be
00000230: 632f 2cbd 50b4 a13d 2411 163d dafa 983c
00000240: 0201 6ebd 2475 96bc 01ff 0e3d 8004 12be
00000250: e582 d23e 6c28 94bd 23cf 91bc 14d9 cdbd
00000260: fb03 d9bc 291c e9bc edb4 e8ba 2437 80bb
00000270: 5f87 4e3c fb59 e6bd 2775 b23d aa08 e6bc
00000280: b73d 9a3d ea14 ee3a d999 64bd 1728 853d
00000290: a5c1 123d 193e 973a 4b51 8d3e 4b24 50bd
000002a0: 8abf d1bd 55bd e3bd c8a1 4dbd 05be 333d
000002b0: a286 523c c64e 3e3c 7bdd 18bc cd66 45be
000002c0: 1ee3 b53c 5c8e 583d 71b0 7fbc 5e08 403d
000002d0: 110c 5ebd fbcd ecbc 4c7d 813b 42d9 883c
000002e0: 4478 3cbd 5085 cd3c 37d8 8d3c 670d e03d
000002f0: 7b5e edbc a71e 253d 3ed0 9b3e 4201 c93d
00000300: ee40 82bd 5941 f3be 25c7 163d 73a8 96bd
00000310: 5951 1e3e 7083 1abd ec9f 05bd 500b 51be
00000320: 12aa c1bd d595 e53d 4fb3 91bd 6b2a 203e
00000330: ce78 4d3c 452c 1ebb 9717 003e 43c8 1fbd
00000340: 3421 dbbd 87dd f1bc 048f 1e3d b7a3 c53e
00000350: a734 d1bd 5a42 6f3d bee8 97bd 4a40 00be
00000360: f452 d23c 191f 28bd 69dd 913d f121 393e
00000370: e6cc 12be 0986 3cbd 9e15 21bd 6597 d6bc
00000380: 6b53 23bd b393 083d 7e2a cc3d fcd0 17bc
00000390: 62b6 ba3d b95a aabd 4652 e3bc 53b1 14bd
000003a0: 5c56 29bc 6686 e43c fe0b cabd 4efc 04be
000003b0: 3a75 2f3c 0ddd 14bd d53b da3d dc1f 173d
000003c0: 5c74 ed3c 4162 f13d bf74 7dbd f84d cb3c
000003d0: 33b1 833d 9785 e3bc ec8a 543d 7cbb 893d
000003e0: 2698 1abe c4a7 123d 2a09 4bbd de3d 0cbc
000003f0: 61ad b33b 0d42 f8bd 49ac 183c 179c 93bc

conv_1.bias f4 [30]
0.061988804 -0.15603939 0.80079406 0.6471993 -0.35036808 -0.43801022 -0.17652771 0.8577261
-0.049570583 -0.8306425 -0.70026696 -0.42340118 -0.012534031 -0.7928316 -0.9540324 -0.23020539
1.2193973 -0.71830815 -0.4618481 -0.09624587 -0.39831182 -0.27838033 -0.48004526 -0.39661056
0.09935458 -0.28084826 -0.36611363 0.17711912 0.8947989 -0.16209215
00000000: f9e7 7d3d cac8 1fbe d700 4d3f daae 253f
00000010: 7263 b3be e042 e0be aec3 34be f093 5b3f
00000020: 860a 4bbd fda4 54bf b244 33bf 0ac8 d8be
00000030: 895b 4dbc 03f7 4abf 783b 74bf f6ba 6bbe
00000040: 3615 9c3f 0be3 37bf 5b77 ecbe 8e1c c5bd
00000050: 87ef cbbe de87 8ebe 7ec8 f5be 8a10 cbbe
00000060: 6a7a cb3d 58cb 8fbe 3f73 bbbe b75e 353e
00000070: 8a11 653f 7cfb 25be

block_list.0.c1_r.weight f4 [30, 30, 3, 3]
-0.0024388768 0.16239673 -0.029281883 -0.03137274 0.7981946 0.022426918 0.032911867 -0.63689876
0.029609477 0.021421986 -0.0026828349 -0.043092787 0.10527092 0.07855232 -0.036986142 -0.11128888
-0.17545743 0.10943398 0.004252102 0.009547304 0.041110538 -0.14520252 -0.29432845 -0.15712197
0.060196362 0.092300445 0.10115069 -0.013568368 -0.005615011 -0.002358077 0.09465254 0.4775462
0.053870365 -0.13742384 -0.08517725 -0.02156759 -0.020228118 -0.0729638 0.078880355 0.18922545
-0.17814052 -0.056882825 -0.10517991 0.27257362 -0.15571873 0.004523415 0.047520816 -0.074155085
0.13411169 -0.19921742 0.21302989 -0.14674786 -0.10895201 0.08204099 -0.051578075 0.040449373
-0.045076285 0.09182131 0.38209963 -0.10768847 -0.12029286 0.16076529 0.19889486 0.024975356
-0.038708676 0.001134567 -0.0525224 -0.1035256 0.025015743 -0.009254755 0.08357608 -0.05709738
-0.013019847 0.015826672 0.02497324 0.03326637 -0.51573664 0.06857376 0.16708368 0.13834547
-0.06923209 -0.090231694 0.12358098 0.019505884 -0.01061487 -0.9481207 -0.0453448 0.0069318637
0.038660616 0.10168951 -0.061762128 -0.036340117 0.092570856 0.12779853 -0.100834556 -0.19415717
0.10611722 0.22122349 0.097963326 -0.0200544 0.030678568 0.076705135 -0.20080554 0.09936579
0.10023386 0.24844137 0.19744863 -0.09107535 -0.019748705 0.029698787 0.016631272 -0.029671714
1.3389242 -0.023549179 0.0516171 -0.016738322 -0.0051863175 0.09169883 -0.0893144 -0.0034753382
0.01946555 -0.03861904 0.14559957 -0.115433395 0.4735155 0.108725384 0.007413145 0.06235041
-0.06191486 -0.07275765 -0.12324991 0.15054049 0.083507374 -0.20012887 -0.07797734 0.026869446
0.071862824 -0.03651549 0.013970603 0.1631614 0.04151972 -0.07023087 -0.2309071 0.05411057
0.028061196 -0.118174024 0.045216795 -0.046185456 -0.30555952 -0.06448046 -0.0018767193 0.006125048
0.048842177 0.010117119 0.008895377 -0.058915757 -0.11266634 0.23059763 0.11511382 0.04232552
0.1411294 0.010374615 -0.06839357 -0.0020681843 0.0068055457 -0.0058188215 0.6946161 -0.017476134
0.07026361 0.53014153 0.08454124 0.10515629 -0.022953715 -0.047147855 -0.025962858 -0.8883575
0.061761793 -0.116458565 -0.16083528 0.045440607 0.060279332 -0.043197677 -0.033655006 0.020915035
0.467946 0.086234614 -0.12562488 0.04827442 -0.03212098 -0.02664109 0.046584472 0.032051582
-0.04704881 -0.71025705 -0.03175538 0.07835855 -0.03883774 -0.043944772 -0.07061033 0.10237245
0.03020283 -0.012984658 -0.04586272 0.0048015937 0.09772072 -0.22931418 -0.08128549 0.040399037
-0.048951108 0.0997343 -0.24907872 0.012099043 -0.029465877 0.11395527 0.039498255 0.009137655
0.031649977 -0.028345235 -0.03884291 0.0024560057 -0.62919956 0.08616482 -0.22076261 0.14338002
-0.03420536 0.00029413402 0.07175566 0.01867335 0.040257826 -0.26723146 0.08742836 0.13320282
-0.05989957 0.053672343 -0.023617234 0.006565023 0.04301654 -0.07015869 -0.361114 -0.06036685
0.08756823 0.051820595 -0.0070527904 -0.043907188 0.013342312 -0.005765089 -0.07779633 0.16547087
-0.11908507 0.093440495 -0.2125286 0.19593997 -0.030172212 0.07183396 -0.028114833 -0.06616017
00000000: 90d5 1fbb 544b 263e 8fe0 efbc b480 00bd
00000010: 7b56 4c3f a8b8 b73c 98ce 063d cc0b 23bf
00000020: 938f f23c 297d af3c 80d2 2fbb 1082 30bd
00000030: 4898 d73d 0ae0 a03d c87e 17bd 6deb e3bd
00000040: 1dab 33be ec1e e03d 3855 8b3b 4c6c 1c3c
00000050: 8663 283d f8af 14be 38b2 96be 95e4 20be
00000060: 7690 763d 0408 bd3d 1828 cf3d dc4d 5ebc
00000070: 20fe b7bb f889 1abb 31d9 c13d ef80 f43e
00000080: 2ca7 5c3d d6b8 0cbe 6971 aebd 84ae b0bc
00000090: 70b5 a5bc 0b6e 95bd 068c a13d 51c4 413e
000000a0: 786a 36be f7fd 68bd 9168 d7bd c58e 8b3e
000000b0: bb74 1fbe 2839 943b 30a5 423d 9fde 97bd
000000c0: 9354 093e a7ff 4bbe 8224 5a3e 1245 16be
000000d0: 3b22 dfbd 1b05 a83d 8843 53bd 3eae 253d
000000e0: e9a1 38bd d00c bc3d 90a2 c33e c68b dcbd
000000f0: 1a5c f6bd a89f 243e 18ab 4b3e 1e99 cc3c
00000100: fd8c 1ebd c0b5 943a ba21 57bd 3b05 d4bd
00000110: d1ed cc3c 42a1 17bc f029 ab3d f1de 69bd
00000120: 3251 55bc f0a6 813c ae94 cc3c 5142 083d
00000130: 5107 04bf 6670 8c3d fc17 2b3e 6faa 0d3e
00000140: 8ec9 8dbd 65cb b8bd 0618 fd3d ceca 9f3c
00000150: fee9 2dbc 0ab8 72bf 78bb 39bd b024 e33b
00000160: 985a 1e3d 9742 d03d 49fa 7cbd 60d9 14bd
00000170: ca95 bd3d 9edd 023e 5982 cebd 23d1 46be
00000180: fc53 d93d 6988 623e ffa0 c83d 2049 a4bc
00000190: 9f51 fb3c 9517 9d3d f89f 4dbe 4b80 cb3d
000001a0: 6947 cd3d 6a67 7e3e f92f 4a3e b785 babd
000001b0: 09c8 a1bc df4a f33c 4e3e 883c 1812 f3bc
000001c0: de61 ab3f 35ea c0bc 746c 533d ce1e 89bc
000001d0: fcf1 a9bb 99cc bb3d 78ea b6bd 80c2 63bb
000001e0: 3876 9f3c 002f 1ebd 0e18 153e 5868 ecbd
000001f0: a070 f23e 6aab de3d f8e9 f23b 2563 7f3d
00000200: 709a 7dbd f601 95bd 736a fcbd 4927 1a3e
00000210: ea05 ab3d 95ee 4cbe 95b2 9fbd 501d dc3c
00000220: d12c 933d 4491 15bd f5e4 643c c813 273e
00000230: 9510 2a3d 34d5 8fbd e972 6cbe 0ca3 5d3d
00000240: 98e0 e53c 3905 f2bd 3f35 393d f62c 3dbd
00000250: 4c72 9cbe 550e 84bd 40fc f5ba a0b4 c83b
00000260: bc0e 483d 46c2 253c eabd 113c a651 71bd
00000270: 9cbd e6bd c921 6c3e cbc0 eb3d 865d 2d3d
00000280: 3a84 103e 4afa 293c ee11 8cbd 608a 07bb
00000290: 0e01 df3b d0ab bebb 5cd2 313f 1c2a 8fbc
000002a0: 5ee6 8f3d 5bb7 073f f523 ad3d 2e5c d73d
000002b0: 6e09 bcbc 1c1e 41bd 0fb0 d4bc 666b 63bf
000002c0: eff9 7c3d d481 eebd 01b2 24be ee1f 3a3d
000002d0: 76e7 763d 0cf0 30bd d5d9 09bd 0256 ab3c
000002e0: 9e96 ef3e c69b b03d cfa3 00be 66bb 453d
000002f0: 4a91 03bd 6a3e dabc 5ccf 3e3d 8548 033d
00000300: 41b6 40bd 68d3 35bf ee11 02bd 737a a03d
00000310: 5214 1fbd 6fff 33bd 269c 90bd a6a8 d13d
00000320: ed6b f73c 9abd 54bc 8cda 3bbd b056 9d3b
00000330: cd21 c83d 56d1 6abe 0279 a6bd 7679 253d
00000340: f580 48bd 7f41 cc3d 7e0e 7fbe 103b 463c
00000350: 6c62 f1bc 6161 e93d ecc8 213d 1ab6 153c
00000360: 68a3 013d 4434 e8bc be19 1fbd f0f4 203b
00000370: 3913 21bf 2e77 b03d 980f 62be 36d2 123e
00000380: eb1a 0cbd 0036 9a39 a2f4 923d daf8 983c
00000390: 64e5 243d 90d2 88be a40d b33d 5266 083e
000003a0: 4059 75bd 88d7 5b3d ee78 c1bc 681f d73b
000003b0: 1d32 303d 5caf 8fbd efe3 b8be 3b43 77bd
000003c0: f956 b33d d541 543d 181b e7bb 06d8 33bd
000003d0: b699 5a3c 12e9 bcbb af53 9fbd 3271 293e
000003e0: e0e2 f3bd bb5d bf3d 19a1 59be 7da4 483e
000003f0: b72b f7bc af1d 933d 1451 e6bc fc7e 87bd

block_list.0.c1_r.bias f4 [30]
3.036543 5.4105287 1.6354111 1.5107043 -0.45583284 3.113785 0.6937934 -33.187943
-14.2467985 15.6076 20.731615 10.846706 0.724505 1.9176883 4.697913 -1.5430772
4.6604013 8.831955 2.4712863 8.271302 8.443958 9.896904 13.317724 2.7856946
22.197445 2.5654776 -6.033389 4.729886 2.619473 19.570965
00000000: b856 4240 0d23 ad40 2755 d13f c25e c13f
00000010: ec62 e9be 4148 4740 729c 313f 74c0 04c2
00000020: e3f2 63c1 bbb8 7941 59da a541 1c8c 2d41
00000030: 2979 393f cf76 f53f 4e55 9640 8e83 c5bf
00000040: 0222 9540 b04f 0d41 8e29 1e40 4157 0441
00000050: 741a 0741 b859 1e41 6615 5541 d248 3240
00000060: 5e94 b141 c930 2440 8611 c1c0 3a5b 9740
00000070: 72a5 2740 5691 9c41

block_list.0.c2_r.weight f4 [30, 30, 3, 3]
-0.1074478 0.66501266 -0.18874924 0.20173112 -0.7004845 0.24805164 -0.24981692 -0.04662527
0.19059044 0.03610904 -0.082190536 0.017336207 -0.018188905 0.043974712 0.017722385 -0.005832109
-0.016417418 0.020381285 0.45111054 0.057177722 0.0057042986 -0.2235719 -0.2874076 0.24029875
0.009124763 -0.034553453 0.07001865 -0.11129237 0.28234273 0.24389866 0.20705605 -0.01785189
-0.71989346 0.03215944 -0.09018695 0.15338808 0.032259367 -0.013723288 0.025458422 -0.03176654
-0.08494502 0.024451988 -0.031679608 -0.07143 0.020359648 -0.02626431 0.01031754 0.00034014136
-0.06818932 -0.41052464 -0.086483575 -0.0009804349 0.033451702 0.0032369727 -0.048381362 0.22070369
-0.25366044 -0.018509395 -0.32594338 0.043801397 0.031144662 0.2794015 -0.24775495 0.2110003
-1.5391033 0.07708558 -0.88273036 1.1695082 -0.08600573 0.40286624 -0.50146115 -0.39580792
0.02723843 0.022271868 0.011846965 0.06416114 -0.07457148 -0.01970015 -0.074118175 -0.025142407
0.0032972908 -0.024359185 -0.015065736 -0.029716745 -0.03443291 0.13535799 0.0021692663 0.009040743
0.0019524023 -0.038639527 -0.047745533 0.14124094 -0.14712448 0.160826 -0.78765655 0.5978179
-0.035399534 0.16143742 -0.17680034 0.03391904 0.064098686 -0.012367167 0.06395031 -0.6728648
0.08882907 0.022887478 -0.023276057 0.015162064 -0.008113422 -0.030787092 0.019469846 0.011306569
0.021558557 0.007714171 -0.015353477 -0.011632698 0.015509254 0.02244985 -0.061104458 -0.01940441
-0.07439983 0.2092428 -0.053273097 0.013181924 -0.025101993 -0.036385857 -0.0073213074 0.03750108
0.05542318 -0.16917434 0.1326685 0.0018365011 -0.04146216 -0.0394834 0.0018276218 -0.02593321
0.018499885 0.048534438 0.016984146 -0.016385943 0.078341916 0.009421267 0.027564706 -0.07716506
0.031666026 0.011853928 -7.435493e-05 -0.10167789 0.06435284 -0.039858688 0.028474107 -0.01776766
0.010196855 -0.018362153 0.026410628 -0.027401658 0.12906241 -0.13613686 0.0072913393 -0.028667368
0.025147293 -0.018988283 0.1486365 0.02281878 -0.016019017 0.030926993 0.1796207 0.013126575
0.0065462664 0.0015729209 -0.014254354 -0.69256854 0.32628158 -0.09011302 0.87922776 0.1664716
-0.0037463643 -0.34972742 0.7090163 0.0710761 0.0038195732 0.005774196 0.0015831525 0.07974683
-0.084251575 0.02739425 -0.0019482546 0.004070282 -0.0015192989 -0.021378491 0.02016404 -0.014881461
0.025723726 0.07929982 -0.007861672 -0.010925504 0.042045597 -0.006537024 -0.040408496 0.0036250502
0.009990269 0.17707756 -0.09822125 0.050529495 -0.099453695 -0.27251628 0.032854512 0.0239693
-0.026799237 -0.02722283 0.014378315 -0.0033239126 0.035240203 0.023381997 0.019373538 0.013836471
0.027024597 0.0026986003 -0.024128832 -0.18726759 0.49834913 -0.10170066 0.107828826 -0.07995954
-0.0070661297 -0.016808135 -0.040712178 0.0078035896 -0.019156849 0.025899656 -0.01812104 0.0022239964
-0.0962825 -0.01603311 0.09481824 -0.08175938 0.02846251 0.15174362 0.14260207 -0.04352261
-0.040327333 -0.0124387015 0.008851211 0.0043083318 0.033606414 0.001136072 -0.05105456 -0.041035436
-0.01826327 0.052855127 0.023001334 0.0044506304 0.009848472 -0.033227533 0.008787425 -0.020077948
00000000: 980d dcbd 453e 2a3f 7b47 41be 9a92 4e3e
00000010: f452 33bf 4001 7e3e 02d0 7fbe 24fa 3ebd
00000020: 242a 433e 13e7 133d 8353 a8bd a904 8e3c
00000030: e600 95bc d41e 343d 892e 913c 471b bfbb
00000040: d27d 86bc a7f6 a63c f6f7 e63e 3033 6a3d
00000050: 20eb ba3b 08f0 64be 1727 93be e010 763e
00000060: 0880 153c ec87 0dbd f065 8f3d 41ed e3bd
00000070: 3a8f 903e 92c0 793e 8006 543e 203e 92bc
00000080: f04a 38bf 9eb9 033d f0b3 b8bd c411 1d3e
00000090: 6622 043d a4d7 60bc 2e8e d03c a21d 02bd
000000a0: a8f7 adbd 894f c83c 7ac2 01bd e449 92bd
000000b0: 47c9 a63c 4028 d7bc e60a 293c 0055 b239
000000c0: d8a6 8bbd 4930 d2be 4d1e b1bd f081 80ba
000000d0: a704 093d 6423 543b 892b 46bd 2600 623e
000000e0: c8df 81be 04a1 97bc 0de2 a6be 1869 333d
000000f0: 1723 ff3c b70d 8f3e 79b3 7dbe 7610 583e
00000100: 5601 c5bf 0bdf 9d3d 9efa 61bf 72b2 953f
00000110: c623 b0bd 7c44 ce3e c25f 00bf 56a7 cabe
00000120: 2123 df3c 7e73 b63c c619 423c ea66 833d
00000130: efb8 98bd 3562 a1bc 45cb 97bd 73f7 cdbc
00000140: 5c17 583b ea8c c7bc 47d6 76bc 8870 f3bc
00000150: 8609 0dbd 499b 0a3e 402a 0e3b a01f 143c
00000160: c0e7 ff3a 7b44 1ebd d290 43bd 77a1 103e
00000170: cda7 16be 92af 243e dca3 49bf 980a 193f
00000180: 1aff 10bd da4f 253e 260b 35be b1ee 0a3d
00000190: 2c46 833d a89f 4abc 61f8 823d de40 2cbf
000001a0: 04ec b53d 857e bb3c 6ead bebc 4e6a 783c
000001b0: 29ee 04bc 3635 fcbc 3a7f 9f3c 303f 393c
000001c0: 929b b03c 28c7 fc3b 268d 7bbc 1297 3ebc
000001d0: 871a 7e3c bfe8 b73c ab48 7abd fff5 9ebc
000001e0: f05e 98bd bf43 563e e434 5abd fff8 573c
000001f0: b2a2 cdbc 5609 15bd 94e7 efbb bc9a 193d
00000200: 6b03 633d 0a3c 2dbe 40da 073e c0b6 f03a
00000210: 3ad4 29bd 58b9 21bd d08c ef3a e271 d4bc
00000220: 128d 973c 0ccc 463d 5622 8b3c d03b 86bc
00000230: ba71 a03d a85b 1a3c 61cf e13c b708 9ebd
00000240: 3cb4 013d fa36 423c 00ef 9bb8 7f3c d0bd
00000250: 6ccb 833d dd42 23bd 8842 e93c 7c8d 91bc
00000260: b610 273c 3a6c 96bc 1a5b d83c 7179 e0bc
00000270: f028 043e 7667 0bbe 30ec ee3b d4d7 eabc
00000280: b201 ce3c 518d 9bbc 2b34 183e 73ee ba3c
00000290: 503a 83bc 9b5a fd3c 7dee 373e d910 573c
000002a0: 1082 d63b 782a ce3a 188b 69bc 2c4c 31bf
000002b0: 610e a73e 2d8d b8bd 1215 613f 8877 2a3e
000002c0: 9085 75bb 790f b3be 1882 353f 5990 913d
000002d0: ce51 7a3b 7735 bd3b c881 cf3a 4e52 a33d
000002e0: 178c acbd e869 e03c 945c ffba 0060 853b
000002f0: 3623 c7ba f221 afbc 0f2f a53c 5fd1 73bc
00000300: 90ba d23c f267 a23d 3ece 00bc e300 33bc
00000310: 0138 2c3d 8834 d6bb 6183 25bd 4092 6d3b
00000320: 3aae 233c d253 353e 3928 c9bd 04f8 4e3d
00000330: 61ae cbbd 4187 8bbe 7492 063d 445b c43c
00000340: 138a dbbc 6a02 dfbc 0693 6b3c 00d6 59bb
00000350: 0858 103d 9a8b bf3c 41b5 9e3c 5eb2 623c
00000360: b062 dd3c 00db 303b d4a9 c5bc 13c3 3fbe
00000370: 9e27 ff3e 7048 d0bd 5cd5 dc3d d4c1 a3bd
00000380: fe8a e7bb 37b1 89bc d0c1 26bd 41b5 ff3b
00000390: d3ee 9cbc 842b d43c 9372 94bc 78c0 113b
000003a0: c22f c5bd de57 83bc 1130 c23d 7671 a7bd
000003b0: 362a e93c ae62 1b3e 4706 123e c444 32bd
000003c0: 462e 25bd b2cb 4bbc ab04 113c e82c 8d3b
000003d0: e1a6 093d 40e8 943a 961e 51bd c614 28bd
000003e0: da9c 95bc 9e7e 583d 4b6d bc3c 98d6 913b
000003f0: 7c5b 213c 9819 08bd 22f9 0f3c 827a a4bc

block_list.0.c2_r.bias f4 [30]
2.513995 18.32594 26.2888 21.265743 -1.4788212 28.315403 0.37279558 10.636957
3.1023874 1.387716 4.275229 12.653646 -7.5173454 17.642094 34.500725 -5.2052946
-19.698744 34.562973 21.604343 23.359362 17.272339 11.477103 1.9849441 -10.830882
19.170185 26.617971 -0.95141876 3.8586726 21.103497 10.935974
00000000: 4be5 2040 869b 9241 764f d241 3e20 aa41
00000010: 034a bdbf f285 e241 10df be3e fa30 2a41
00000020: 848d 4640 aea0 b13f adce 8840 5675 4a41
00000030: 188e f0c0 0223 8d41 be00 0a42 c691 a6c0
00000040: 0797 9dc1 7c40 0a42 b2d5 ac41 f9df ba41
00000050: c02d 8a41 37a2 3741 a612 fe3f 4b4b 2dc1
00000060: 8a5c 9941 9bf1 d441 2e90 73bf 7ef4 7640
00000070: f6d3 a841 c0f9 2e41

block_list.0.c3_r.weight f4 [30, 30, 3, 3]
-0.0054109828 0.001972802 0.012637125 0.034330793 0.1733169 0.116643265 -0.0013869777 0.029062644
0.022809023 -0.01778874 0.032918233 -0.010133811 -0.050655507 0.012230249 -0.032253042 0.015588941
-0.01899942 0.006081877 0.007188661 0.0087619815 -0.014871674 -0.04472039 0.0056976005 -0.034042116
-0.011095498 -0.008015001 -0.0031224356 0.024389157 -0.044542853 0.049387418 0.03468349 -0.08934811
0.037374683 -0.007002903 -0.023346122 0.013734219 0.06870713 0.13893771 -0.049365588 -0.15241718
0.03773243 0.0797874 0.017813701 0.056079492 -0.02106954 0.03187449 0.010927824 -0.015064107
-0.031159677 0.13987373 -0.11355907 0.056599773 0.020916322 -0.0142072495 0.009398649 0.012974797
0.034505814 -0.00727262 0.00024162978 0.032144327 0.04760599 0.04616948 -0.051841833 0.03298712
0.04170654 0.07018614 -0.15025039 0.2368965 -0.21455835 -0.11528877 0.07395465 0.06916501
-0.021287492 -0.010621188 -0.015840843 -0.028604116 -0.03270991 -0.03335268 -0.03586505 -0.0059562027
-0.013400275 0.048390917 -0.07431136 -0.011449212 0.010663105 -0.14532222 0.052085996 -0.02784596
-0.016349422 0.016572936 0.2018354 -0.05133716 0.83018255 0.092467956 0.082794264 -0.049979165
0.0034688134 -0.018027134 0.10212803 0.031781036 -0.0670192 -0.021638513 0.054405786 0.085527234
-0.020980489 -0.008882597 -0.07864997 -0.00840502 -0.0241081 -0.00016033184 0.008545529 0.0011996515
-0.002073221 0.012224244 0.0054822103 0.04251342 -0.012191875 -0.015722925 0.04212727 0.01685075
-0.066284284 0.037448518 -0.00047405623 -0.03658656 0.018912883 0.022388034 -0.017759833 -0.014564931
-0.008041771 0.010896793 -0.08224011 0.011888029 0.00059271604 -0.0118056405 0.009480861 -0.020709049
-0.03844188 0.035245284 0.061502956 -0.008868709 0.0060257763 -0.00863038 -0.021168564 0.00464754
0.018225677 0.044524606 -0.012010593 -0.01745399 0.0003666943 -0.05866928 0.03614234 0.06745118
-0.059034348 0.0056353956 0.017558906 -0.006302758 -0.07071805 -0.0654418 0.060334444 0.0041363975
-0.0056542186 -0.007913387 0.0050811768 0.027797358 -0.015650885 -0.06531903 0.18936989 -0.038765233
-0.010065656 0.026292255 -0.015936565 0.03938058 0.08146076 0.0060353586 -0.00064422097 -0.44056296
0.05612771 -0.032016657 0.022488702 0.017890975 0.012686608 -0.082352914 0.008679338 0.2975366
0.059270114 0.026246723 -0.008584771 -0.08875582 0.05699841 0.021287907 -0.075089104 -0.0071551166
-0.016627636 0.030828543 0.061363317 0.038490523 -0.052471355 0.035353716 -0.04282799 0.030012783
0.015242327 -0.08703886 -0.07327845 0.0041079 -0.025272338 -0.035261124 -0.01237555 0.0046664346
0.31290022 0.0008404162 0.21876079 0.5313638 0.07863873 0.10817868 0.21338832 -0.025268327
0.0044076904 -0.02638401 0.012256969 0.021628462 0.04415126 0.027050663 -0.005750483 -0.014757814
-0.01358445 0.02697614 0.0057206415 0.013799968 -0.011266423 -0.059142005 -0.06985603 0.0293709
0.030177113 0.057720482 -0.051819034 -0.08075771 -0.0046155667 -0.15835921 0.1366847 -0.035277992
-0.0935503 -0.06855777 -0.029997868 -0.025557335 -0.03149531 -0.010898069 -0.13547182 0.10535605
-0.025173772 0.027591653 0.08059174 -0.021529645 -0.008871911 -0.110379994 0.05385748 -0.12229624
00000000: 9d4e b1bb 204a 013b f20b 4f3c 729e 0c3d
00000010: fc79 313e aae2 ee3d 40cb b5ba c814 ee3c
00000020: fdd9 ba3c b1b9 91bc 45d5 063d 4908 26bc
00000030: 267c 4fbd 6261 483c c41b 04bd c268 7f3c
00000040: aca4 9bbc 7b4a c73b dc8e eb3b 6a8e 0f3c
00000050: 52a8 73bc ba2c 37bd f0b2 ba3b bf6f 0bbd
00000060: e4c9 35bc 5a51 03bc c7a1 4cbb c5cb c73c
00000070: 9172 36bd 764a 4a3d 4610 0e3d 24fc b6bd
00000080: 3216 193d 9c78 e5bb 5e40 bfbc 7d05 613c
00000090: 53b6 8c3d b045 0e3e 9233 4abd 4013 1cbe
000000a0: 528d 1a3d 9467 a33d 0aee 913c 9cb3 653d
000000b0: 079a acbc d38e 023d 9e0a 333c 72cf 76bc
000000c0: 9442 ffbc 0f3b 0f3e a891 e8bd 2ad5 673d
000000d0: b558 ab3c 86c5 68bc cbfc 193c 3e94 543c
000000e0: f855 0d3d 294f eebb 005e 7d39 c5a9 033d
000000f0: 80fe 423d 351c 3d3d 1a58 54bd 811d 073d
00000100: 7ad4 2a3d c0bd 8f3d 3ddb 19be ff94 723e
00000110: 2fb5 5bbe 851c ecbd 8975 973d 62a6 8d3d
00000120: 1b63 aebc 7e04 2ebc a8c4 81bc 2e53 eabc
00000130: d4fa 05bd d29c 08bd 3be7 12bd 402c c3bb
00000140: d48c 5bbc 8e35 463d 8e30 98bd 7a95 3bbc
00000150: 4eb4 2e3c 59cf 14be 2058 553d 361d e4bc
00000160: 39ef 85bc f7c3 873c f0ad 4e3e ea46 52bd
00000170: d886 543f d75f bd3d 0a90 a93d f4b6 4cbd
00000180: 0855 633b a4ad 93bc 8028 d13d d52c 023d
00000190: 5d41 89bd 4043 b1bc 9ad8 5e3d e728 af3d
000001a0: 46df abbc 5088 11bc 3c13 a1bd 36b5 09bc
000001b0: 5a7e c5bc c01e 28b9 8c02 0c3c a03d 9d3a
000001c0: e0de 07bb 3248 483c 1da4 b33b 8d22 2e3d
000001d0: 6ec0 47bc 5dcd 80bc a58d 2c3d 960a 8a3c
000001e0: 0ec0 87bd 9e63 193d c08a f8b9 cadb 15bd
000001f0: 31ef 9a3c 1c67 b73c 127d 91bc c0a1 6ebc
00000200: a2c1 03bc 7688 323c 816d a8bd 02c6 423c
00000210: 8060 1b3a 726c 41bc 9d55 1b3c 06a6 a9bc
00000220: 3c75 1dbd 5c5d 103d 86ea 7b3d 104e 11bc
00000230: e073 c53b 7066 0dbc b269 adbc 644a 983b
00000240: 044e 953c 6f5f 363d 14c8 44bc acfb 8ebc
00000250: e040 c039 334f 70bd fe09 143d d823 8a3d
00000260: 00ce 71bd 20a9 b83b b2d7 8f3c 5e87 cebb
00000270: a0d4 90bd 5a06 86bd 4021 773d 9e8a 873b
00000280: 0647 b9bb 27a7 01bc 0080 a63b 49b7 e33c
00000290: 4936 80bc fcc5 85bd 2eea 413e 4bc8 1ebd
000002a0: 6cea 24bc db62 d73c 668d 82bc 884d 213d
000002b0: e6d4 a63d 42c4 c53b f0e0 28ba 7891 e1be
000002c0: 2be6 653d e623 03bd 3a3a b83c 1890 923c
000002d0: 7edb 4f3c a5a8 a8bd c833 0e3c b856 983e
000002e0: 38c5 723d 5e03 d73c 24a7 0cbc 9dc5 b5bd
000002f0: 2a77 693d fa63 ae3c 51c8 99bd 7875 eabb
00000300: ae36 88bc 248c fc3c 1a58 7b3d 3da8 1d3d
00000310: 34ec 56bd 0fcf 103d 676c 2fbd 5edd f53c
00000320: f4ba 793c 6e41 b2bd 0313 96bd 909b 863b
00000330: ef07 cfbc f86d 10bd d2c2 4abc e4e8 983b
00000340: 7534 a03e 604f 5c3a d402 603e 7507 083f
00000350: 580d a13d c98c dd3d 7882 5a3e 86ff cebc
00000360: 636e 903b 4823 d8bc 74d1 483c 2c2e b13c
00000370: f4d7 343d 5a99 dd3c 8c6e bcbb c2ca 71bc
00000380: 5091 5ebc 11fd dc3c 3874 bb3b 4319 623c
00000390: ce96 38bc e33e 72bd ae10 8fbd 3e9b f03c
000003a0: fe35 f73c 506c 6c3d 3240 54bd 4c64 a5bd
000003b0: 2e3e 97bb eb28 22be 13f7 0b3e a87f 10bd
000003c0: 4d97 bfbd 0468 8cbd 17be f5bc 9e5d d1bc
000003d0: 3a01 01bd d08d 32bc 20b9 0abe eac4 d73d
000003e0: 3a39 cebc e407 e23c 480d a53d f05e b0bc
000003f0: 7e5b 11bc e80e e2bd a999 5c3d 7376 fabd

block_list.0.c3_r.bias f4 [30]
-9.055048 -5.0376024 -51.313297 5.562483 17.881678 -27.540335 16.607101 4.6835947
-5.3700085 -5.0697055 -8.959033 21.37252 73.30281 12.184559 10.747076 -84.139915
-20.706474 23.71909 -69.19223 3.526438 7.0221515 -24.407143 0.9799067 7.818491
1.7615309 -106.970085 16.41617 -108.05113 -46.397194 8.314122
00000000: 7ae1 10c1 0a34 a1c0 d140 4dc2 dcff b140
00000010: ad0d 8f41 9b52 dcc1 58db 8441 02e0 9540
00000020: 1cd7 abc0 073b a2c0 3358 0fc1 ecfa aa41
00000030: 0a9b 9242 f4f3 4241 06f4 2b41 a347 a8c2
00000040: dca6 a5c1 b2c0 bd41 6c62 8ac2 29b1 6140
00000050: 77b5 e040 d441 c3c1 2adb 7a3f 1431 fa40
00000060: d879 e13f aff0 d5c2 5154 8341 2e1a d8c2
00000070: ba96 39c2 a506 0541

block_list.0.c5.weight f4 [30, 30, 1, 1]
0.016780278 0.057084266 0.13132875 0.17569372 0.014584515 0.18675978 -0.0045326953 0.017505491
0.07995295 -0.0006491982 0.15782443 -0.024032922 -0.041909773 -0.011274341 0.056104753 0.024799766
0.008809246 0.009609387 -0.033444334 0.01134781 0.01632417 -0.09018062 -0.12653536 -0.042993948
0.08055713 -0.04186559 0.00042034968 -0.15463343 0.08384361 -0.006734322 0.0137217045 -0.027914282
0.02398636 -0.012856645 5.7537367e-05 0.0109291235 -0.03606636 0.048199765 -0.018684281 0.007498483
-0.083258964 0.029748367 -0.003596604 -0.006225827 0.06126215 -0.10907282 0.07328416 0.02783774
-0.018889213 -0.016864343 0.0076490766 -0.012282646 -0.020267485 -0.05657802 0.016233223 0.08198922
0.013614488 -0.09983513 0.016656568 -0.006960238 -0.008969417 0.0014211299 -0.19959722 -0.041817624
-0.05054803 0.061034586 -0.0081436075 0.102068946 0.008430426 -0.07809502 -0.0020888224 -0.04913711
0.041860927 -0.023679925 0.0014584812 -0.06283465 -0.11633993 -0.042628497 -0.0739948 0.0063686115
-0.17542714 0.08605794 0.12846337 0.01977795 0.15750594 0.14048886 0.002883554 -0.099785276
-0.22416131 0.010586321 -0.053205304 -0.0016338655 -0.05247417 0.31947994 0.062211663 -0.066892244
0.023546997 0.009649203 0.15780427 -0.037586056 -0.06446485 -0.09639633 -0.0041726697 -0.12254939
0.24784312 0.027281493 -0.120436355 -0.15536071 -0.13276565 0.05390862 -0.15985955 -0.013252626
0.03853565 0.24958915 -0.302313 -0.08116514 0.13371328 -0.034737997 -0.20542823 0.023463374
0.028849315 -0.020544099 -0.01886101 -0.024134358 0.05371042 0.104257986 0.011469539 -0.0038217
0.057101585 0.004916965 0.052343797 0.03491928 -0.002953934 -0.08478159 -0.08748933 0.15925871
0.010705582 0.025138237 -0.007327706 0.033578623 -0.008567186 -0.015479856 -0.0071248887 -0.008832234
-0.0032207344 0.069388986 -0.00786607 -0.01750805 -0.031098355 -0.023619508 -0.027076265 -0.11711164
-0.18904318 0.098616555 -0.07656524 -0.16035964 0.22757386 -0.061768543 0.078789674 -0.0002904477
-0.059750445 0.0063851746 0.08668831 -0.045773074 0.06261317 0.105083056 -0.103286564 -0.05858855
-0.27315807 0.074912176 -0.026146675 -0.041088197 -0.30375323 0.039059434 -0.035291787 -0.26055527
0.0969806 0.13783427 0.0027186694 -0.0079768505 -0.011798993 0.006718792 -0.017630601 -0.05917783
-0.1922517 -0.0052085468 0.0055851014 -0.08800562 0.048956085 0.2094011 -0.081000865 -0.31030127
-0.007115576 -0.06750098 0.079968326 0.15685631 0.09735462 0.24591076 0.12830207 -0.048764117
0.04553984 -0.06415607 -0.07965596 0.09637508 0.121387176 0.23961763 0.013319704 -0.14434038
-0.018616533 0.061867893 -0.07468818 -0.12048203 0.20715061 -0.06670109 -0.20593536 0.55685025
0.10684603 0.19907093 -0.03675931 -0.0336593 0.038390968 0.039459944 0.045688365 0.10807927
-0.10606723 -0.007968879 0.31128323 0.004766091 -0.0413134 -0.0126601355 0.0045936815 0.122451685
0.12507781 0.3031156 -0.09317636 -0.016659593 -0.18453397 -0.451641 -0.1782098 -0.10016108
-0.0050755036 0.0026864065 0.00020975228 -0.009144164 0.003181938 0.012937939 -0.035074193 0.004345136
0.007626916 0.017526535 0.004027194 0.012814997 0.023085564 0.006136658 -0.08872241 -0.054487906
00000000: cb76 893c 31d1 693d 0b7b 063e 0ee9 333e
00000010: e4f3 6e3c f53d 3f3e 0187 94bb ad67 8f3c
00000020: 5fbe a33d f42e 2aba ba9c 213e b1e0 c4bc
00000030: 95a9 2bbd 03b8 38bc 19ce 653d e128 cb3c
00000040: a854 103c b170 1d3c edfc 08bd 2aec 393c
00000050: 44ba 853c 9eb0 b8bd 7c92 01be 6c1a 30bd
00000060: 23fb a43d 417b 2bbd 6162 dc39 3a58 1ebe
00000070: 33b6 ab3d 96ab dcbb 00d1 603c 7eac e4bc
00000080: 0b7f c43c ada4 52bc 4754 7138 1110 333c
00000090: 52ba 13bd 1e6d 453d c70f 99bc d6b5 f53b
000000a0: ad83 aabd d9b2 f33c 01b5 6bbb 0602 ccbb
000000b0: 05ee 7a3d 9261 dfbd 0116 963d f90b e43c
000000c0: 8dbd 9abc 1727 8abc 1ba5 fa3b 273d 49bc
000000d0: ff07 a6bc 5bbe 67bd 89fb 843c f7e9 a73d
000000e0: 4d0f 5f3c 5c76 ccbd 5b73 883c b512 e4bb
000000f0: 76f4 12bc 3545 ba3a 3763 4cbe f548 2bbd
00000100: 730b 4fbd 67ff 793d c46c 05bc 8609 d13d
00000110: c51f 0a3c 48f0 9fbd a0e4 08bb ff43 49bd
00000120: 5d76 2b3d 67fc c1bc 822a bf3a 74af 80bd
00000130: a143 eebd 389b 2ebd 968a 97bd c9af d03b
00000140: 2ca3 33be 253f b03d e78b 033e 5e05 a23c
00000150: 3d49 213e 50dc 0f3e 02fa 3c3b 395c ccbd
00000160: 8b8a 65be 4072 2d3c ceed 59bd 6e27 d6ba
00000170: 28ef 56bd e092 a33e a8d1 7e3d cdfe 88bd
00000180: a2e5 c03c b117 1e3c 7197 213e d6f3 19bd
00000190: 2606 84bd 706b c5bd e4ba 88bb 2dfb fabd
000001a0: 96ca 7d3e 707d df3c 56a7 f6bd e116 1fbe
000001b0: b8f3 07be 49cf 5c3d 39b2 23be 8b21 59bc
000001c0: 8fd7 1d3d 4c94 7f3e c5c8 9abe e939 a6bd
000001d0: 22ec 083e 6e49 0ebd c75b 52be 4336 c03c
000001e0: 6655 ec3c 194c a8bc 6882 9abc 6bb5 c5bc
000001f0: 75ff 5b3d 3685 d53d bcea 3b3c 7d75 7abb
00000200: 5ae3 693d 7e1e a13b 7366 563d 8507 0f3d
00000210: ca96 41bb f8a1 adbd 9b2d b3bd b714 233e
00000220: 7766 2f3c b4ee cd3c 411d f0bb bd89 093d
00000230: 625d 0cbc 399f 7dbc e677 e9bb 13b5 10bc
00000240: f512 53bb d01b 8e3d b0e0 00bc 0b6d 8fbc
00000250: fac1 febc b37d c1bc 0bcf ddbc 3ad8 efbd
00000260: 8994 41be 7af7 c93d 3dce 9cbd 5135 24be
00000270: 1f09 693e 0301 7dbd 7b5c a13d 3b47 98b9
00000280: e2bc 74bd ba3a d13b a489 b13d 8c7c 3bbd
00000290: 553b 803d c935 d73d e887 d3bd 8cfa 6fbd
000002a0: 60db 8bbe 8e6b 993d 8d31 d6bc 194c 28bd
000002b0: 8b85 9bbe c9fc 1f3d 1f8e 10bd 8067 85be
000002c0: c49d c63d 6d24 0d3e b42b 323b 56b1 02bc
000002d0: 9050 41bc 5029 dc3b 0d6e 90bc 7464 72bd
000002e0: a1dd 44be 75ac aabb 3a03 b73b 4a3c b4bd
000002f0: 2d86 483d 3e6d 563e c8e3 a5bd cfdf 9ebe
00000300: c729 e9bb f43d 8abd 6fc6 a33d f19e 203e
00000310: dc61 c73d 08d0 7b3e 9e61 033e e2bc 47bd
00000320: fc87 3a3d 4264 83bd aa22 a3bd 4c60 c53d
00000330: d799 f83d 535e 753e e33a 5a3c f7cd 13be
00000340: b381 98bc 3069 7d3d 1ef6 98bd 48bf f6bd
00000350: 4a1f 543e 959a 88bd b8e0 52be bd8d 0e3f
00000360: 17d2 da3d 40d9 4b3e ee90 16bd 56de 09bd
00000370: d93f 1d3d c0a0 213d b923 3b3d aa58 dd3d
00000380: c739 d9bd e78f 02bc 8460 9f3e de2c 9c3b
00000390: 3d38 29bd 756c 4fbc 9886 963b f3c7 fa3d
000003a0: 6614 003e f831 9b3e 3fd3 bebd b379 88bc
000003b0: 79f6 3cbe 7d3d e7be a17c 36be 4121 cdbd
000003c0: 6950 a6bb 6c0e 303b f3f0 5b39 67d1 15bc
000003d0: 1088 503b a6f9 533c f5a9 0fbd a561 8e3b
000003e0: 35eb f93b cf93 8f3c 8df6 833b fef5 513c
000003f0: f01d bd3c 0516 c93b 18b4 b5bd b62e 5fbd

block_list.0.c5.bias f4 [30]
1.4359667 3.9227633 -1.115425 -0.24944426 -2.7073824 2.1489687 -0.35224402 0.85590774
-4.0782304 1.1466876 2.4133298 -1.2458555 -0.08032153 1.7080284 -0.53597677 2.4880853
-0.6517899 0.81624377 -2.9622955 1.3777372 -1.196297 -3.2744484 -1.7523758 -0.4546015
-2.7462192 -1.8723462 0.6720603 -0.56241566 1.3527929 0.4546604
00000000: c2cd b73f 8e0e 7b40 3fc6 8ebf 516e 7fbe
00000010: c145 2dc0 b488 0940 5459 b4be c51c 5b3f
00000020: dd80 82c0 a9c6 923f ff73 1a40 3178 9fbf
00000030: 9d7f a4bd ada0 da3f c635 09bf ca3c 1f40
00000040: b4db 26bf 5af5 503f 4096 3dc0 b159 b03f
00000050: 4320 99bf 9090 51c0 da4d e0bf 87c1 e8be
00000060: 0ec2 2fc0 0aa9 efbf 250c 2c3f 79fa 0fbf
00000070: 5128 ad3f 3fc9 e83e

block_list.0.esa.conv1.weight f4 [16, 30, 1, 1]
-0.04585044 0.24039057 0.01360956 0.07353084 0.006793197 -0.04260486 -0.005202732 -0.070443064
0.12370659 0.041499518 0.07753265 0.026140882 -0.008476082 -0.032279372 0.04073931 0.07209624
9.718129e-05 -0.15457147 -0.0073215966 0.011455682 -0.043621134 0.10939265 -0.097677745 -0.17745076
0.029769782 0.005560719 -0.029984359 -0.012395165 0.08263472 -0.010809529 -0.0020895815 -0.101523556
-0.016088428 0.010501472 0.020730326 0.018021146 0.004278965 0.02953787 0.023863412 -0.00886762
-0.15673792 -0.029332828 0.036114104 -0.019335946 0.04091343 0.10991491 -0.027785646 -0.010262536
0.08634385 0.03958309 -0.03097408 -0.02183366 0.024782388 0.04521586 -0.052257665 0.067185245
0.06396612 0.05835938 -0.006040304 -0.022405898 -0.12199012 -0.13563621 -0.01665698 0.03255508
-0.20333102 -0.040253054 -0.0046498855 -0.03062132 -0.004789743 0.08848928 0.017672107 -0.041769203
-0.022553412 0.04319679 0.055861738 -0.17702574 -0.03910017 0.03055221 -0.07473415 0.021749465
-0.053558793 -0.0970016 -0.011087535 0.021047233 0.047031675 -0.0738571 0.14650044 -0.066391155
-0.20247805 -0.012416583 0.07538261 0.03520965 -0.0040042307 -0.09232607 0.026519947 -0.053614724
-0.019649284 0.10745301 0.043185033 -0.013060294 -0.045453116 -0.10159852 -0.027411701 -0.16599609
0.034101028 0.019321857 0.02516226 -0.09047277 -0.057635497 0.10705911 0.085095905 -0.1422783
-0.13370936 0.06862568 -0.031203423 -0.035918042 -0.034430265 -0.082416825 0.07232398 -0.0004152108
-0.0691443 0.19643484 0.007579641 0.011167733 0.025680888 0.045905516 0.0065974896 -0.04686973
0.20692569 0.03552945 -0.022268847 0.015927734 -0.0047689923 -0.027571097 0.03506237 0.17107011
0.027361166 -0.11126522 -0.024079487 -0.07838124 0.0042083357 0.11220404 0.0052308985 0.04622059
-0.06448331 -0.15706949 -0.051356807 0.012680492 0.15495494 -0.04454539 -0.05958714 0.24381694
0.009543588 -0.05397122 -0.08042418 -0.019170877 0.0150465695 -0.028225396 0.17951249 0.100117154
0.053715646 0.04115077 -0.024363806 -0.009811367 0.020308228 -0.03733157 0.01590892 0.040017765
-0.15304217 0.12124432 0.027202634 0.103336535 0.1413233 -0.023433005 -0.05431052 0.29928476
0.066471145 0.00037695767 -0.17219844 0.037414484 -0.15716936 0.0986108 -0.03399446 0.050046973
0.05276856 -0.052700337 -0.0067695403 0.048168086 0.05092107 -0.100755066 -0.048784506 0.020495033
0.030634884 0.07742181 -0.11189121 0.12272677 -0.020034036 -0.0123212505 -0.07482225 -0.11296509
-0.004664983 -0.031368747 -0.118278146 0.15141569 -0.03196716 -0.11548562 -0.08344545 -0.012605245
-0.005241906 -0.0071335034 0.079233445 -0.009493993 0.007909585 -0.03010562 -0.10839907 0.048617743
0.020170614 -0.028594663 -0.09914037 0.0031784563 -0.09190505 0.045826543 0.0031380148 -0.11200498
0.044740252 -0.082710706 0.032350507 0.10166861 0.05470996 -0.19575301 0.03126852 -0.069429606
-0.11284271 0.11172522 0.0064413496 -0.19796433 -0.11528057 0.07744733 0.06118934 -0.0149653
-0.06809146 0.20966414 0.007725968 0.11381372 0.09793126 -0.027987871 0.012033592 -0.11391921
-0.14179032 0.08092639 0.16669378 0.08760692 -0.069140315 -0.05660428 0.10825681 0.2552084
00000000: accd 3bbd f228 763e a2fa 5e3c 5697 963d
00000010: 7799 de3b 6f82 2ebd ae7b aabb 7444 90bd
00000020: e159 fd3d 66fb 293d 70c9 9e3d 6725 d63c
00000030: 44df 0abc 6037 04bd 43de 263d 32a7 933d
00000040: cfcd cb38 fc47 1ebe 01ea efbb 9db0 3b3c
00000050: 13ac 32bd 4109 e03d 450b c8bd a7b5 35be
00000060: c2df f33c b136 b63b c2a1 f5bc 1715 4bbc
00000070: 643c a93d 731a 31bc 5cf1 08bb 95eb cfbd
00000080: e1cb 83bc 5e0e 2c3c a5d2 a93c 15a1 933c
00000090: 8f36 8c3b 67f9 f13c 347d c33c 7e49 11bc
000000a0: e87f 20be 664b f0bc 62ec 133d 6b66 9ebc
000000b0: d794 273d 111b e13d b99e e3bc 3224 28bc
000000c0: 0bd5 b03d e121 223d 5bbd fdbc 81dc b2bc
000000d0: 6f04 cb3c 4434 393d 220c 56bd 6b98 893d
000000e0: ab00 833d 3f0a 6f3d beed c5bb 938c b7bc
000000f0: f5d5 f9bd 38e4 0abe 3874 88bc 7a58 053d
00000100: 0236 50be 63e0 24bd 115e 98bb 90d9 fabc
00000110: 47f3 9cbb de39 b53d 18c5 903c 2f16 2bbd
00000120: efc1 b8bc 1eef 303d 47cf 643d 3c46 35be
00000130: 8027 20bd a148 fa3c 380e 99bd ef2b b23c
00000140: 7760 5bbd c6a8 c6bd 7ea8 35bc 3f6b ac3c
00000150: 49a4 403d 6442 97bd 3604 163e 16f8 87bd
00000160: 6856 4fbe ec6e 4bbc 3362 9a3d fe37 103d
00000170: ec35 83bb 7315 bdbd 5c40 d93c 1d9b 5bbd
00000180: 89f7 a0bc 5310 dc3d cae2 303d d8fa 55bc
00000190: 0c2d 3abd e312 d0bd 818e e0bc e1fa 29be
000001a0: 85ad 0b3d df48 9e3c 1521 ce3c ca49 b9bd
000001b0: 3313 6cbd cf41 db3d c346 ae3d 67b1 11be
000001c0: 1beb 08be 9f8b 8c3d 529e ffbc cc1e 13bd
000001d0: c006 0dbd 27ca a8bd 981e 943d a6b0 d9b9
000001e0: 879b 8dbd 3726 493e a35e f83b def8 363c
000001f0: ba60 d23c 6c07 3c3d c12f d83b 79fa 3fbd
00000200: 54e4 533e 5487 113d 286d b6bc e17a 823c
00000210: 3545 9cbb c8dc e1bc 8f9d 0f3d 012d 2f3e
00000220: 8624 e03c 05df e3bd 5842 c5bc 5886 a0bd
00000230: 14e6 893b 3bcb e53d f567 ab3b cd51 3d3d
00000240: d30f 84bd d3d6 20be 845b 52bd d7c1 4f3c
00000250: 82ac 1e3e 3a75 36bd a511 74bd 26ab 793e
00000260: b65c 1c3c ed10 5dbd 6fb5 a4bd 3e0c 9dbc
00000270: e385 763c f238 e7bc 1fd2 373e 390a cd3d
00000280: f004 5c3d b68d 283d 9b96 c7bc dbbf 20bc
00000290: 715d a63c fde8 18bd 6c53 823c abe9 233d
000002a0: 16b7 1cbe f14e f83d 0fd8 de3c 1ba2 d33d
000002b0: 0eb7 103e 93f6 bfbc b574 5ebd da3b 993e
000002c0: 0622 883d 67a2 c539 ca54 30be ee3f 193d
000002d0: 01f1 20be 76f4 c93d c63d 0bbd 0efe 4c3d
000002e0: d823 583d 4fdc 57bd 05d3 ddbb e64b 453d
000002f0: 9d92 503d ac58 cebd 43d2 47bd 33e5 a73c
00000300: 02f6 fa3c 538f 9e3d 3827 e5bd 2c58 fb3d
00000310: 6b1e a4bc 12df 49bc 683c 99bd 3e5a e7bd
00000320: b7dc 98bb 847c 00bd d03b f2bd b70c 1b3e
00000330: ffef 02bd ba83 ecbd 73e5 aabd 3b86 4ebc
00000340: 4bc4 abbb 2ac0 e9bb 2545 a23d b18c 1bbc
00000350: 3497 013c 10a0 f6bc 5500 debd 6623 473d
00000360: d83c a53c 5b3f eabc 1b0a cbbd a64d 503b
00000370: b738 bcbd 9db4 3b3d 27a7 4d3b de62 e5bd
00000380: 8e41 373d 3b64 a9bd f781 043d a237 d03d
00000390: 8d17 603d 7a73 48be 6b13 003d 1c31 8ebd
000003a0: 141a e7bd 31d0 e43d f511 d33b 29b7 4abe
000003b0: 3818 ecbd b59c 9e3d aca1 7a3d 0531 75bc
000003c0: 8973 8bbd 32b2 563e 1e2a fd3b 2b17 e93d
000003d0: 2f90 c83d d246 e5bc 8b28 453c 7a4e e9bd
000003e0: 7b31 11be bcbc a53d c6b1 2a3e 426b b33d
000003f0: 7099 8dbd e4d9 67bd bfb5 dd3d adaa 823e

block_list.0.esa.conv1.bias f4 [16]
-0.59616435 -1.8389075 -1.537094 -0.81911594 -0.08633813 -1.6286043 3.8418791 -3.3184373
0.32654676 -0.73184615 2.1568067 -3.4996831 1.4612317 -2.8349788 -1.3256116 0.020608367
00000000: 3a9e 18bf 5261 ebbf 7fbf c4bf 95b1 51bf
00000010: 0cd2 b0bd 1b76 d0bf 59e1 7540 4761 54c0
00000020: 2331 a73e 455a 3bbf 1f09 0a40 cffa 5fc0
00000030: a409 bb3f 4b70 35c0 a4ad a9bf e1d2 a83c

block_list.0.esa.conv2.weight f4 [16, 16, 3, 3]
-0.0689533 0.0336034 -0.02873294 0.005683729 -0.4015975 0.0041942596 -0.09841309 -0.33233184
-0.14551358 -0.07810545 0.10328548 -0.05282436 -0.20546259 -0.20411311 0.0448251 -0.0017713606
-0.2041681 0.18903899 0.057645734 0.1961751 0.19606356 -0.024046205 -0.21754341 0.05354292
0.17511895 0.054723807 0.29314113 0.03163492 0.1988362 0.013133541 0.083652355 -0.013143237
0.20455447 -0.019486636 -0.051104188 0.18868007 -0.07550941 -0.0988127 0.06022099 -0.06329455
-0.28066462 0.24565776 -0.08046368 -0.35164362 0.23381655 0.07718581 0.04569817 0.11840388
-0.070659585 -0.055016264 0.036926344 0.20138963 0.11676228 -0.017117284 -0.04276116 0.2871003
-0.0843498 -0.078318715 -0.1894017 -0.043892626 -0.012991898 0.01780536 -0.0823168 -0.050554466
0.035449542 -0.042371854 0.0015779317 -0.38053977 0.16406687 -0.049064104 -0.34274223 0.028331526
0.09888349 0.049322445 0.07641402 0.010091589 -0.34306693 -0.11437776 -0.012861059 -0.021299206
0.0526676 0.030247645 -0.10865277 0.08445016 -0.12554902 -0.46862173 -0.023792498 0.016440434
-0.27629 -0.075780354 0.022377806 0.13342772 0.13334355 0.02870976 -0.21290602 0.09454831
-0.048790216 -0.10815779 0.11497668 -0.090639256 0.069644846 0.021780018 0.010181082 0.33672097
-0.010700173 -0.035758693 -0.027778385 -0.0004899225 0.17408563 0.16812228 -0.0035570988 0.43310896
0.20801398 0.20722681 0.44881785 0.33442983 0.28801575 0.119616546 0.022283327 0.06304777
-0.11821588 -0.36403018 -0.05854866 0.011959728 -0.067710735 0.262923 -0.09421986 -0.03785757
-0.010107243 -0.27400553 -0.67322254 0.021816457 -0.17037602 -0.47947365 0.046577446 -0.024409771
-0.071799904 0.05978208 -0.026373902 -0.46187794 -0.18670039 0.060354054 -0.01449765 -0.2174648
-0.13355772 -0.15127726 -0.40660468 -0.0059522945 0.3571076 -0.39909875 -0.3423474 0.013749476
-1.2273083 0.10661624 0.13443963 0.090138085 0.12407704 -0.21367115 0.11024908 0.1086883
0.13764949 -0.34177992 0.20276223 0.032208167 -0.061286334 -0.08528712 -0.014445573 -0.23982665
0.036140226 0.14994532 -0.006562055 0.06936873 0.028104909 0.08606738 0.06082433 0.10074676
0.28060663 0.13924122 0.15329607 -0.27009594 0.24124105 -0.25088495 0.24881814 -0.41373026
-0.23712294 0.11659675 0.20672762 0.09210497 0.05701827 0.0028676684 0.22612607 -0.18466726
0.13706116 -0.06887475 -0.46958962 -0.03359252 -0.002674658 -0.033923093 0.12153796 0.032697752
-0.037074648 0.018795608 0.028172016 0.15435828 0.19001609 0.038148526 -0.06670219 -0.13078663
0.19984338 0.03497091 0.15633473 -0.28912115 -0.605785 0.047544505 -0.19346292 1.2803273
-0.15279339 -0.061362132 -0.11459911 -0.040817946 0.0101507325 0.11848108 -0.10189552 -0.14630719
-0.53065014 -0.14338273 0.01730274 -0.14768156 0.119091995 0.3641681 0.0003180096 -0.1516087
-0.114659056 -0.17953289 -0.016664097 0.02201367 -0.008845924 0.0491029 -0.058709096 -0.1364767
-0.06872087 -0.1670186 0.77602667 -0.07392136 -0.059401833 -0.12406053 -0.11116463 0.37870526
0.12199552 0.08579801 -0.115932345 0.2087573 -0.029941164 0.08550805 0.08868022 0.0071294075
00000000: 6337 8dbd b8a3 093d 5861 ebbc 933e ba3b
00000010: 309e cdbe 0070 893b cd8c c9bd 6627 aabe
00000020: 8301 15be c0f5 9fbd 5687 d33d 5b5e 58bd
00000030: c964 52be 0703 51be 869a 373d 002d e8ba
00000040: 7111 51be 7093 413e ef1d 6c3d 20e2 483e
00000050: e3c4 483e 8cfc c4bc b3c3 5ebe d24f 5b3d
00000060: 6252 333e 1226 603d 9816 963e 9e93 013d
00000070: b89b 4b3e 102e 573c ed51 ab3d bb56 57bc
00000080: ba76 513e 70a2 9fbc a052 51bd 5935 413e
00000090: ada4 9abd 505e cabd 49aa 763d 93a0 81bd
000000a0: 46b3 8fbe b58d 7b3e 24ca a4bd a20a b4be
000000b0: 9b6d 6f3e 9813 9e3d 012e 3b3d bc7d f23d
000000c0: f9b5 90bd bc58 61bd 1440 173d 1539 4e3e
000000d0: 1021 ef3d 8c39 8cbc 5326 2fbd cffe 923e
000000e0: 97bf acbd 9065 a0bd 85f2 41be c1c8 33bd
000000f0: f8db 54bc 8cdc 913c b695 a8bd 3312 4fbd
00000100: 8a33 113d 1c8e 2dbd 9ad2 ce3a 1cd6 c2be
00000110: 2501 283e 71f7 48bd e97b afbe 8417 e83c
00000120: 6d83 ca3d 5506 4a3d f47e 9c3d 3157 253c
00000130: 78a6 afbe e33e eabd 31b7 52bc ac7b aebc
00000140: fbb9 573d e9c9 f73c 5885 debd 35f4 ac3d
00000150: ec8f 00be 30ef efbe 7ce8 c2bc 17ae 863c
00000160: e275 8dbe bb32 9bbd a951 b73c 47a1 083e
00000170: 368b 083e bb30 eb3c 0904 5abe 8ba2 c13d
00000180: 40d8 47bd d581 ddbd e578 eb3d 13a1 b9bd
00000190: f5a1 8e3d 026c b23c 8ece 263c b166 ac3e
000001a0: c74f 2fbc b577 12bd 7f8f e3bc 246e 00ba
000001b0: 8143 323e 3f28 2c3e 371e 69bb 75c0 dd3e
000001c0: 9e01 553e 4433 543e 74cb e53e 633a ab3e
000001d0: cd76 933e 85f9 f43d 868b b63c 301f 813d
000001e0: 2b1b f2bd 2a62 babe b8d0 6fbd bcf2 433c
000001f0: edab 8abd d89d 863e 58f6 c0bd 8a10 1bbd
00000200: da98 25bc 744a 8cbe 5058 2cbf 6db8 b23c
00000210: 0d77 2ebe 927d f5be fec7 3e3d 00f7 c7bc
00000220: d40b 93bd 0ede 743d 150e d8bc 447b ecbe
00000230: 632e 3fbe d035 773d 8d87 6dbc 18af 5ebe
00000240: 5bc3 08be 6de8 1abe 7d2e d0be 770b c3bb
00000250: cfd6 b63e ac56 ccbe 2948 afbe 7b45 613c
00000260: 7018 9dbf 9e59 da3d 8baa 093e 519a b83d
00000270: 1a1c fe3d 9ccc 5abe 45ca e13d f997 de3d
00000280: fdf3 0c3e c7fd aebe e7a0 4f3e b6ec 033d
00000290: 6107 7bbd 03ab aebd 20ad 6cbc 1e95 75be
000002a0: c607 143d 448b 193e 8206 d7bb 3111 8e3d
000002b0: 443c e63c 1844 b03d ef22 793d 5154 ce3d
000002c0: acab 8f3e 4095 0e3e a5f9 1c3e 044a 8abe
000002d0: e507 773e fe73 80be 2fca 7e3e 74d4 d3be
000002e0: 5bd0 72be 47ca ee3d 68b0 533e 88a1 bc3d
000002f0: fd8b 693d 7eef 3b3b 988d 673e 6a19 3dbe
00000300: c359 0c3e 340e 8dbd 0d6e f0be 4f98 09bd
00000310: 5149 2fbb f1f2 0abd e5e8 f83d 14ee 053d
00000320: 96db 17bd 3ff9 993c 00c9 e63c 1910 1e3e
00000330: 9493 423e a141 1c3d 289b 88bd eeec 05be
00000340: bea3 4c3e a83d 0f3d 3616 203e b007 94be
00000350: ba14 1bbf 07be 423d 251b 46be c4e1 a33f
00000360: df75 1cbe dc56 7bbd f0b2 eabd b830 27bd
00000370: 424f 263c 35a6 f23d 99ae d0bd 8dd1 15be
00000380: b0d8 07bf ecd2 12be 7abe 8d3c d639 17be
00000390: 81e6 f33d 3e74 ba3e 87ba a639 503f 1bbe
000003a0: 5ed2 eabd 78d7 37be 2583 88bc 0356 b43c
000003b0: 7fee 10bc 1f20 493d f378 70bd 8cc0 0bbe
000003c0: 87bd 8cbd ed06 2bbe afa9 463f 1564 97bd
000003d0: 564f 73bd 7213 febd 48aa e3bd a8e5 c13e
000003e0: cad8 f93d deb6 af3d f06d edbd 79c4 553e
000003f0: 2c47 f5bc d81e af3d fa9d b53d ce9d e93b

block_list.0.esa.conv2.bias f4 [16]
-0.024849085 -0.51464826 -0.39300308 0.22043341 0.20458949 1.4548472 -0.059658036 -0.0017562538
-0.4980932 -1.11829 -0.4081724 -0.86178285 -1.5350866 0.42227995 -0.4991359 0.3328184
00000000: 4f90 cbbc fdbf 03bf b337 c9be 4cb9 613e
00000010: e87f 513e 6f38 ba3f fc5b 74bd 1932 e6ba
00000020: 1206 ffbe 2024 8fbf f9fb d0be cd9d 5cbf
00000030: b87d c4bf 1435 d83e be8e ffbe 2c67 aa3e
