model_zoo/team21_slimrlfn_prune.pth (torch, 819749 bytes, 102 tensors)

conv_1.weight f4 [30, 3, 3, 3]
000000 d6 69 59 bd d9 43 bc bc 01 18 ef bc 23 5e 05 bd
       -0.05307945 -0.022981571 -0.02918625 -0.03256048
000010 63 d7 94 3c 89 4f b9 bc ed ba 03 3d 05 b1 13 3d
       0.01816911 -0.022620933 0.03216069 0.03605749
000020 2d 8c 4f 3d 4b bb 4d 3d 53 c7 0f bd 66 fd 27 bd
       0.05067079 0.050227445 -0.0351022 -0.041013144
000030 8b 6f 8a 3d dd ec 7f 3e 8a e3 bf bd 8e a2 0b 3b
       0.067595564 0.249927 -0.093695715 0.0021306607
000040 08 85 f3 bd d9 36 61 bd 7f 0c 03 bd fe 8e 1e 3e
       -0.11890608 -0.054983947 -0.03199434 0.15484235
000050 d8 d7 19 3d 97 5f 75 3e 2e 52 b6 be 0e ef 98 3d
       0.03755936 0.23962246 -0.35609573 0.07467471
000060 94 5d ec bc d8 10 ae bd 35 d1 1a bc 1e ba 9e 3c
       -0.028853215 -0.084993064 -0.009449293 0.019375857
000070 c8 f7 51 3d 13 39 4c 3d f0 60 9e 3b e5 57 da 3d
       0.051261693 0.049859118 0.004833333 0.10661296
000080 77 4a 10 bd e5 1c a9 bd 4d bb 9d bd cf a5 03 bd
       -0.035227265 -0.08257464 -0.077017404 -0.03214055
000090 4f 49 86 bc 35 99 19 be d2 1d b0 3c b1 fd 14 3d
       -0.016392378 -0.1499985 0.021498594 0.03637475
0000a0 a7 84 1d bd 3d 6c 8e 3d fa f0 74 3d 19 f4 6f 3c
       -0.038456585 0.069542386 0.059800126 0.0146456
0000b0 09 bc 02 bc 37 e6 b5 3c cf eb 17 3d 74 15 20 bd
       -0.007979401 0.022204502 0.03709012 -0.03908296
0000c0 be 86 88 bd 4d 09 c5 3c b7 c3 cc bd f1 7d 53 3c
       -0.06666325 0.024052287 -0.09998267 0.012908445
0000d0 dc 8f 6a 3d ab ad 75 3d 94 6f 2e 3d 98 3b 8c 3d
       0.0572661 0.059980076 0.042586878 0.06847304
0000e0 b4 b1 2d 3d c4 bc a7 3d c5 3a 48 be 8a 44 a8 3d
       0.0424058 0.08190301 -0.19553669 0.08216198
0000f0 04 5c 84 3c dc 28 93 bd 17 66 dd 3c 0a ec a9 3c
       0.016157158 -0.07185528 0.02702622 0.020742435
000100 50 0a b8 3d 0c 76 8d 3d b8 27 08 bd d9 ea 43 be
       0.08986342 0.06907281 -0.033241004 -0.19132556
000110 18 a8 cd bc 39 52 c2 ba ab ba da 3d 93 4a ff bc
       -0.025104567 -0.001482553 0.10680135 -0.03116349
000120 8c 26 76 3d 14 4f ab 3d 59 bb db bb d8 aa 05 3e
       0.060095355 0.08364692 -0.006705683 0.13053453
000130 b8 26 e0 be 6f 9b 5c 3c ad bf 5e 3c bb 3e 25 3c
       -0.4377954 0.013464793 0.013595504 0.010085757
000140 02 d4 98 3d 83 ec 0c 3d a6 c6 be 3b 73 db d1 bd
       0.07462312 0.034405243 0.0058220206 -0.10246935
000150 51 77 e5 3b 3d 95 ac 3e a1 21 32 bd 08 9a 4c bd
       0.007002749 0.3370761 -0.043489102 -0.049951583
000160 9d 03 82 bd 74 45 10 be bc df 75 bc 65 e7 dc 3c
       -0.063483454 -0.14088994 -0.015006956 0.026965806
000170 99 13 a3 bd 29 a7 72 3d 4c 4e 06 be ce a3 95 3d
       -0.07962722 0.059241448 -0.13115805 0.07306634
000180 61 52 9a bd 36 91 36 bd 46 6a 33 3e 93 3e af bb
       -0.07535244 -0.044572078 0.17521009 -0.0053480356
000190 12 30 05 3e da 46 de 3b 6c 2e 9a bc da 10 af be
       0.13006619 0.0067833485 -0.018820964 -0.34192544
0001a0 fb cf bd 3d 3d 7c 90 3d 3f 8b d2 3d 54 f8 91 bc
       0.09268185 0.070549466 0.10280465 -0.017818607
0001b0 62 29 08 3d b2 e3 0c bd 81 19 b4 bc 5b cb 5e be
       0.03324259 -0.034396835 -0.021984817 -0.21757261
0001c0 30 54 75 3e 11 7f 8c bd ad a4 52 3c 6a f5 d8 bc
       0.23957896 -0.068601735 0.012856645 -0.02648421
0001d0 03 29 9d 3d 04 ca 1b bc e1 75 1b 3e 32 54 3a 3d
       0.07673838 -0.0095086135 0.15181686 0.04549045
0001e0 ba bf 86 bc f2 8b b4 be d7 ee 4c 3d 49 c6 66 3d
       -0.016448844 -0.3526302 0.050032463 0.056341443
0001f0 b4 5c f6 3d a4 6c 50 bd f2 9b 56 bc 73 ab 16 be
       0.120294005 -0.050884858 -0.013098704 -0.1471384
000200 60 25 c9 3b 9c 3c 3b 3e 9f 57 2c 3e 87 c6 1f bc
       0.0061384887 0.1828484 0.168303 -0.009751922
000210 66 33 e0 bc ac 11 d9 bd 9b 79 17 bd 22 1c ed 3d
       -0.027368259 -0.10599074 -0.036981206 0.115776315
000220 cb d4 34 bd 1c d0 8f 3b 11 34 7f 3d 98 57 69 be
       -0.044148248 0.0043888222 0.062305514 -0.2278732
000230 d6 65 1b bd 89 25 97 3d 30 25 0f 3d 1c 10 1d 3c
       -0.037938915 0.07380206 0.034947574 0.00958636
000240 c7 eb 7f bd 92 e5 04 bd f9 a5 08 3d 83 cb 22 be
       -0.062480714 -0.032445498 0.03336141 -0.15897946
000250 9c 07 d7 3e b3 ce 8c bd 8b 35 a3 bc b3 15 d2 bd
       0.41997993 -0.06875362 -0.019922992 -0.10258045
000260 d4 06 a0 bc f2 c4 06 bd bc bb 0e bc e0 0e 25 bc
       -0.019534506 -0.032902665 -0.008711752 -0.010074347
000270 6b 40 82 3c 5b 86 da bd 68 14 bf 3d 40 ff c7 bc
       0.015899858 -0.106701575 0.09330064 -0.024413705
000280 61 3b b8 3d fd a1 48 3c 52 23 39 bd ed 91 66 3d
       0.08995701 0.012245652 -0.0451997 0.05629151
000290 83 62 02 3d 96 6d 28 3c d2 fc 92 3e 51 04 8d bd
       0.03183223 0.010280034 0.28708512 -0.06885589
0002a0 9c 5d b1 bd 5f 01 d6 bd d6 e8 48 bd 72 fe 29 3d
       -0.08660433 -0.1044948 -0.049050175 0.041502424
0002b0 a9 de 74 3b cb a9 49 3b 95 8c 9e bc 94 1b 53 be
       0.003736416 0.003077137 -0.019354144 -0.20615989
0002c0 f7 9b fa 3c 58 40 72 3d c7 45 7a bb 01 67 4a 3d
       0.030591948 0.059143394 -0.0038188563 0.04941464
0002d0 1f b0 32 bd ad fe cc bc 5a 58 8c 3b ce 62 19 3c
       -0.043624993 -0.025023783 0.0042829933 0.009361936
0002e0 ed 80 61 bd c1 75 ed 3c 6b 9c 53 3c c6 2f d6 3d
       -0.055054594 0.028986814 0.012915711 0.10458331
0002f0 37 ea fa bc 35 a1 3a 3d f4 64 9e 3e 45 f4 b7 3d
       -0.03062926 0.045563895 0.30936396 0.089821376
000300 40 2c 4e bd 37 9d f8 be f5 3a 3e 3d b5 c7 91 bd
       -0.05033517 -0.48557445 0.046442945 -0.07118169
000310 5c 0e 12 3e 86 ee 1a bd 36 7f 10 bd 41 17 57 be
       0.1426329 -0.03782513 -0.035277568 -0.21004964
000320 70 19 b5 bd 79 95 e5 3d 84 76 93 bd 17 51 1f 3e
       -0.088427424 0.1121015 -0.072003394 0.15558277
000330 d2 e3 56 3c 5d 13 64 3b bf 12 03 3e de 6f 33 bd
       0.01311584 0.003480158 0.1280012 -0.043807857
000340 09 67 e4 bd 17 c8 fd bc ef a8 fe 3c 74 88 ce 3e
       -0.11152465 -0.0309792 0.031086413 0.4033848
000350 01 e0 dd bd 8b b3 4c 3d ab 19 92 bd 3a 4e f7 bd
       -0.10833741 0.049975913 -0.07133802 -0.120754674
000360 cd 27 93 3c 0d 85 01 bd 8a 7b 91 3d 9e 0c 37 3e
       0.017963314 -0.031621028 0.07103641 0.17875907
000370 07 2a 13 be 8a a9 31 bd 1d 20 14 bd 7d 12 08 bd
       -0.14371501 -0.043374576 -0.036163438 -0.033220757
000380 46 a1 55 bd 79 74 e7 3c 62 5c f2 3d ee 48 ee bb
       -0.052155755 0.02825378 0.11834027 -0.0072718775
000390 b3 c4 a1 3d 85 fa b5 bd 38 e9 a6 bc 8f d2 f4 bc
       0.078988455 -0.088856734 -0.02037488 -0.029885558
0003a0 cb d3 72 bc e7 09 24 3d df 13 d6 bd 4d 05 ef bd
       -0.014821003 0.040048506 -0.10453009 -0.11670933
0003b0 ac 1f c3 3b db 1c 79 bd cc de f5 3d fc bf 1f 3d
       0.0059547033 -0.060818534 0.12005386 0.03900145
0003c0 83 ee b7 3c eb 52 07 3e 4a be 88 bd b3 ae 72 3c
       0.022452598 0.13215224 -0.0667692 0.014812159
0003d0 79 16 66 3d 36 be eb bc 67 e5 8d 3d 53 35 86 3d
       0.056173775 -0.028777223 0.06928521 0.065531395
0003e0 57 3e 21 be 6d 62 2e 3d c7 de 75 bd 86 fc 3e bc
       -0.15746437 0.042574335 -0.06002691 -0.011656886
0003f0 41 8f 89 3b c3 9a d9 bd 64 63 54 bb 6f d3 58 bc
       0.0041979854 -0.106252216 -0.0032407874 -0.013234003

conv_1.bias f4 [30]
000000 7e 6f 20 3e cf 3e 35 be b4 0b 4f 3f 98 e1 25 3f
       0.15667531 -0.17699741 0.8087723 0.64797354
000010 ed 1b cd be 46 bb e2 be 58 15 68 be e7 fa 86 3f
       -0.40060368 -0.44283503 -0.22664392 1.0545319
000020 28 ed 41 bd 9f 57 70 bf 84 8a 36 bf b5 51 08 bf
       -0.04734531 -0.938837 -0.7130511 -0.53249675
000030 fc 22 12 bd 0b c4 86 bf db 83 a4 bf 93 b9 50 be
       -0.035677895 -1.0528578 -1.2852739 -0.20383291
000040 f5 1e a5 3f 3c 65 67 bf c3 da dc be fd bc f2 bd
       1.2900072 -0.90388846 -0.43135652 -0.11852453
000050 b0 c8 da be 8f 63 96 be 5a d8 07 bf 57 87 ef be
       -0.42731237 -0.29372832 -0.530645 -0.46782944
000060 75 cd 43 3d 54 68 46 be b6 09 e6 be 62 76 a1 3d
       0.04780336 -0.19375736 -0.44929284 0.07883908
000070 41 b4 73 3f b6 25 0c be
       0.9519692 -0.1368626

block_list.0.c1_r.weight f4 [28, 30, 3, 3]
000000 f9 22 33 bc 85 a7 0b 3e 26 56 d1 bc 06 68 1b bd
       -0.010933631 0.13638122 -0.025553774 -0.037941
000010 2e 20 4b 3f fb 25 f5 3b 94 57 ae 3c 41 68 27 bf
       0.7934598 0.0074813343 0.021281995 -0.65393454
000020 51 88 ad 3c 2c 0a f4 3b 38 bf c6 3c 8c 04 ca bc
       0.021183165 0.0074475016 0.024261102 -0.024660371
000030 ac 15 f6 3d 47 6b b2 3d 6f 0a 66 ba 0e 6e 81 bd
       0.12015852 0.08711868 -0.00087753584 -0.063198194
000040 a1 61 40 be 35 95 93 3d d6 c0 b8 b8 89 f0 b1 3b
       -0.18787242 0.07206193 -8.809722e-05 0.0054302854
000050 8e 61 df 3c 5b 4e 18 be b8 cc 92 be 82 d3 30 be
       0.027268197 -0.1487364 -0.28671813 -0.17268184
000060 a4 28 a6 3d ec 08 0b 3e 75 12 d5 3d 3e 36 1e bd
       0.0811322 0.13577622 0.10403911 -0.038625948
000070 89 17 02 bd 47 83 4f 3c 5f 38 90 3d ad b5 f4 3e
       -0.031760726 0.012665576 0.07042002 0.47794858
000080 56 f9 24 3d c9 56 2a be d9 1f c2 bd 1c f9 d7 bc
       0.040276848 -0.16634668 -0.09478731 -0.026363902
000090 ba b9 4c bc 79 e9 8f bd 9b 15 77 3d cf 32 36 3e
       -0.012495453 -0.07026953 0.06032334 0.1779282
0000a0 7f 77 44 be 6c 11 90 bd 43 f3 dd bd 6a 73 61 3e
       -0.19186209 -0.07034573 -0.10837414 0.22016683
0000b0 8b 24 41 be ed c9 1b 3b dc 72 77 3d dc 89 77 bd
       -0.18861596 0.002377148 0.060412273 -0.060434207
0000c0 9f 35 0d 3e 35 ba 66 be b8 60 4d 3e 56 d1 14 be
       0.13789986 -0.2253197 0.20056427 -0.1453298
0000d0 ff 4a e7 bd 3d 34 63 3d c1 25 75 bd 65 75 80 3c
       -0.11293601 0.05546974 -0.059850458 0.015680978
0000e0 62 1e 71 bd 0b 8b b8 3d 39 f9 b8 3e 78 6a 01 be
       -0.058866866 0.09010895 0.36127642 -0.12638271
0000f0 30 d5 09 be 85 b6 11 3e 7d ac 5e 3e 6e 52 88 3c
       -0.13460231 0.14229782 0.21745487 0.016640868
000100 c5 8e 19 bd 25 d5 2a bc ec a2 49 bd 1d b2 bc bd
       -0.03748967 -0.010426794 -0.04922764 -0.0921366
000110 55 20 03 3d d5 9b d1 bc ed 4b af 3d c0 1a ae bd
       0.032013256 -0.025587002 0.085594036 -0.08501196
000120 73 8b ae bb 85 41 4f 3d eb 26 46 3d 8f 85 ac 3d
       -0.0053266822 0.050599594 0.04837696 0.08423912
000130 b8 70 f5 be d0 b9 ad 3d 28 5b 46 3e 38 d7 41 3e
       -0.4793756 0.084827065 0.19370711 0.18929756
000140 ad f4 55 bd 59 3f 8c bd 5c 73 1f 3e 0e dc 41 3d
       -0.052235294 -0.0684802 0.1557135 0.047329
000150 ff 07 ac 3c 30 62 6d bf 6a af 04 bd ef fe 11 3d
       0.020999907 -0.9272795 -0.03239385 0.035643514
000160 be 6a 98 3d fd 97 03 3e 26 8f 75 bd 17 7f f0 bc
       0.074422345 0.12850948 -0.05995097 -0.029357476
000170 f0 43 b1 3d 9b 77 e3 3d 74 72 f9 bd 81 36 56 be
       0.08655536 0.11106797 -0.12180033 -0.20919229
000180 7b dd f3 3d ed b2 7a 3e 49 57 d4 3d f1 3f 07 bd
       0.119074784 0.24482317 0.10368211 -0.033019964
000190 68 f8 5f 3c 95 68 a7 3d 13 a5 62 be b6 4e e3 3d
       0.0136700645 0.08174244 -0.22133283 0.11098997
0001a0 3a 88 b0 3d b9 d2 7a 3e e0 81 45 3e c5 2b c9 bd
       0.08619733 0.24494447 0.19287825 -0.098228015
0001b0 16 56 d6 3b f9 02 63 3d c7 18 15 3d de 16 b0 b9
       0.006541024 0.055422757 0.036400583 -0.00033586373
0001c0 22 9b b0 3f 3d 58 24 bc e2 19 db 3d ad 87 9d 3d
       1.3797343 -0.010030803 0.10698296 0.07691894
0001d0 e7 ea 81 3c e3 2f b0 3d bf bf b9 bd f7 b3 7a bc
       0.01585908 0.08602884 -0.09069776 -0.015301696
0001e0 4e 3e 43 ba a5 94 5e bd d2 fc fd 3d 11 c0 d0 bd
       -0.0007447944 -0.054340977 0.12401737 -0.10192884
0001f0 f8 95 02 3f 69 7e dc 3d 66 24 32 3c f1 88 95 3d
       0.51010084 0.10766298 0.010872936 0.0730151
000200 a9 92 94 bd e7 23 a3 bd 18 ca 1c be 66 27 0f 3e
       -0.07254536 -0.07965832 -0.15311468 0.13979873
000210 51 03 df 3d 14 81 61 be cf e7 8a bd 7b 1a db 3b
       0.108893044 -0.22021896 -0.06782495 0.0066865063
000220 8e 1a 90 3d 69 23 00 bd fe 51 71 bc 8f 0b 2c 3e
       0.07036315 -0.03128377 -0.014729021 0.16801284
000230 4b 7d 82 3d bc 01 78 bd 68 bd 6b be 2c aa ae 3d
       0.06371554 -0.06054853 -0.23021472 0.085285515
000240 8d ca e3 3c 52 99 e2 bd fe 4c 20 3d b5 f8 5f bd
       0.027806545 -0.110644 0.039135925 -0.054680545
000250 aa bb a4 be 45 fe b5 bd 44 3e b9 3c e6 68 d8 3c
       -0.32174426 -0.08886389 0.022612698 0.026417207
000260 73 d2 17 3d b9 8c 4b 3b 46 bd fb bb ce f4 6f bd
       0.037065934 0.003105922 -0.0076824753 -0.058583073
000270 e1 d2 07 be 4b 99 6e 3e 3a 0d ba 3d 8a 28 2f 3c
       -0.13264038 0.23300664 0.09084554 0.010690818
000280 df 4c 20 3e 74 8f d9 3c 53 e4 9c bd e1 da ba bb
       0.15654324 0.026557662 -0.07660737 -0.005702362
000290 af d9 9b 3c 37 c7 74 bb 28 a9 34 3f d4 41 13 bc
       0.019024698 -0.0037350187 0.7057061 -0.008987863
0002a0 ed 8c 88 3d f3 1b 04 3f e2 af b5 3d 53 7c fa 3d
       0.066675045 0.5160515 0.088714376 0.12230744
0002b0 da ba 1c 3c 88 2f 1d bd 77 43 dd bb 25 2a 62 bf
       0.009566033 -0.038375407 -0.006752427 -0.8834556
0002c0 bc 50 ab 3d 6a 2e 9e bd bf 24 37 be bd 0e b2 3c
       0.08365008 -0.077236965 -0.17885111 0.021735543
0002d0 59 d8 a4 3d b7 38 eb bc e4 02 05 bd 42 40 da 3c
       0.080490775 -0.028713567 -0.03247346 0.026641969
0002e0 b0 2d f7 3e 3c 36 ba 3d 10 a5 fa bd f3 8a 41 3d
       0.48277044 0.09092376 -0.122385144 0.047251653
0002f0 98 f9 07 3a 8a 92 40 bd 16 bb ff 3c 1e d1 c5 3c
       0.00051870337 -0.04701475 0.03121714 0.024147566
000300 8e c1 95 bd 22 31 3c bf d3 d8 fc bc b6 d6 e0 3c
       -0.07312308 -0.7351247 -0.030865109 0.027446132
000310 39 92 d8 bd 26 b3 8c bd 85 5d 97 bd a1 80 da 3d
       -0.10574765 -0.06870107 -0.07390884 0.10669065
000320 9b 50 14 3d ba a9 af bc 50 f8 82 bd 73 cf 07 3c
       0.036209684 -0.021443237 -0.06395018 0.008289206
000330 d3 20 80 3d 4e 48 90 be bd ff b2 bd 92 db 77 3d
       0.06256261 -0.28180164 -0.087401845 0.060512133
000340 b1 bd 30 bd 5f 1f a7 3d cd 22 76 be d8 30 ed 3c
       -0.043149654 0.081602804 -0.24036713 0.028953955
000350 9c 12 87 bc 75 e3 bf 3d e1 b4 97 3d 39 f6 f6 3c
       -0.016488366 0.09369556 0.07407547 0.030146705
000360 c0 f3 f0 3c b0 b4 01 bd 74 c6 20 bd 26 43 02 bb
       0.029413104 -0.031666458 -0.03925176 -0.001987645
000370 42 2f 23 bf a2 6f c3 3d 77 f5 6e be 45 93 21 3e
       -0.63743985 0.09542777 -0.23335825 0.15778835
000380 64 d5 14 bd a6 14 be 39 b4 3e c0 3d 4e 92 a8 3c
       -0.036336318 0.00036255008 0.0938696 0.020577576
000390 53 57 83 3d 2c ce 7c be 62 2d 03 3e 22 5d 0f 3e
       0.0641314 -0.24688023 0.12810281 0.14000371
0003a0 33 dc 9e bd 97 ff 8b 3d 63 9f af bc 72 4b 4d 3d
       -0.077568434 0.06835859 -0.021438306 0.05012078
0003b0 46 d7 96 3d 45 22 60 bd 77 de a1 be 56 13 29 bd
       0.07365279 -0.054720182 -0.3161504 -0.041278206
0003c0 f6 e1 fd 3d 94 1a 56 3d 93 d4 67 bd d6 bf 13 bd
       0.12396614 0.05227144 -0.05659921 -0.03607162
0003d0 88 9b 98 3c cc 23 85 3c 95 ca 98 bd 89 ae 19 3e
       0.01862885 0.01625242 -0.074605145 0.15007986
0003e0 1d f0 0c be b2 52 bd 3d 23 8e 5e be 09 80 67 3e
       -0.13763471 0.092442885 -0.21733908 0.22607435
0003f0 fb f0 de bc 69 9f a3 3d fb 34 25 bd d8 5c 97 bd
       -0.027214518 0.079893894 -0.04033373 -0.073907554

block_list.0.c1_r.bias f4 [28]
000000 01 51 42 40 8f 03 af 40 a2 43 d3 3f af eb c0 3f
       3.036194 5.4691844 1.6505015 1.5071925
000010 78 50 08 bf 4a 02 46 40 90 4c 32 3f a8 c5 04 c2
       -0.53247786 3.0938897 0.69648075 -33.193024
000020 e8 ca 65 c1 fd bc 7c 41 77 7a a9 41 79 07 30 41
       -14.362038 15.79614 21.184797 11.001824
000030 4a f7 2f 3f 10 36 0c 40 2d 8d 92 40 8b 63 cf bf
       0.6873671 2.1907997 4.5797334 -1.6202253
000040 10 25 97 40 92 3c 0d 41 4b da 1d 40 8a 91 04 41
       4.723274 8.827288 2.4664485 8.285532
000050 88 11 0a 41 08 24 1f 41 50 48 5a 41 21 cc 2a 40
       8.62928 9.946297 13.642654 2.668709
000060 c9 59 bf c0 cb f5 95 40 7e bc 24 40 b3 a8 9d 41
       -5.97971 4.686254 2.5740047 19.707373

block_list.0.c2_r.weight f4 [28, 28, 3, 3]
000000 29 22 cf bd 86 70 32 3f 9e af 40 be 8c 6a 4c 3e
       -0.101139374 0.6970295 -0.18816993 0.1996252
000010 54 b6 31 bf 30 9a 7e 3e 50 10 85 be 0c b3 1d bd
       -0.69418836 0.24863505 -0.25989008 -0.03850083
000020 0c 02 30 3e 71 23 ed 3c 15 f3 8c bd 46 33 ec 3b
       0.17188281 0.028947564 -0.06882302 0.0072082607
000030 a3 38 51 bc 67 ed 7e 3d dd bf 70 3b 25 26 1a 3b
       -0.012769851 0.062238123 0.0036735453 0.002352127
000040 06 41 ae bc e7 ff 67 3c 1f e2 e4 3e ca 95 a3 3d
       -0.02127124 0.014160133 0.44703767 0.07987554
000050 60 f7 94 ba bc 91 8d be 6f 56 86 be 2f 9d 57 3e
       -0.0011365227 -0.2765025 -0.2623782 0.21056055
000060 9f 8d 3c bd 4a 1c 8d bd 46 4c 9d 3c 8e 60 b6 bd
       -0.046033498 -0.06890161 0.01920141 -0.08905135
000070 ce c4 9f 3e 71 e5 85 3e 1a 4c 6c 3e 3c ca 73 3c
       0.31204838 0.26151612 0.23075905 0.014879759
000080 9b 81 2b bf 88 d1 5f 3d 0f f9 7c bd f0 85 2e 3e
       -0.6699464 0.054643184 -0.06176096 0.1704328
000090 a9 02 95 3c a7 d8 2b bc 1a 90 3d 3c 5f c4 87 bd
       0.018189745 -0.010488666 0.011570001 -0.06629252
0000a0 c1 76 21 bd 95 5f c8 3c 0c 15 f2 bc 52 23 8b bd
       -0.039419893 0.02445964 -0.029551052 -0.06793846
0000b0 b9 ed ac 3c c2 fc 03 bd ab a6 2d bb e7 98 2d 3c
       0.021109449 -0.03222347 -0.0026497047 0.010595537
0000c0 77 b7 09 bd ed a2 b1 be 8f b0 92 bd fd db e9 3a
       -0.03362223 -0.34694615 -0.07162582 0.0017842051
0000d0 f7 dd 9b 3c 69 62 26 3b b8 ca 07 be d5 5e 93 3d
       0.01902674 0.0025388247 -0.13260925 0.07195822
0000e0 11 a0 82 be 29 a6 93 3c 10 ba b9 be e6 4d 2d 3e
       -0.25512746 0.018023567 -0.36274767 0.16924247
0000f0 a2 2e 24 3c 5c 1d 71 3e a1 66 3e be d1 fd 48 3e
       0.010020884 0.23546356 -0.18593837 0.19628073
000100 28 04 c6 bf ed c8 63 3d fc 14 6f bf f1 26 94 3f
       -1.5470018 0.05561154 -0.93391395 1.1574384
000110 b8 bd ff bd b3 95 ba 3e ae dc 09 bf f8 3a e4 be
       -0.12487358 0.36442336 -0.53852355 -0.4457624
000120 97 4b 04 3d 8e 58 9e 3d 33 cc 53 bd 87 42 23 bb
       0.03229865 0.07731734 -0.05170841 -0.002491148
000130 45 44 ef ba 59 61 7a bb 39 12 37 bd 9e 40 53 bd
       -0.0018254599 -0.0038204996 -0.044695113 -0.051575296
000140 16 06 05 bc 52 8e 25 bc 73 37 26 bc 52 f7 5d bc
       -0.008119127 -0.010104733 -0.010145056 -0.013547735
000150 fd 3b f5 bc e4 ad 1f 3e 30 89 f9 bb 43 e2 8f 3c
       -0.029935831 0.15593678 -0.007615231 0.017563945
000160 72 11 24 3c 79 47 07 bd 89 3a a7 3b f5 0d 1a 3e
       0.010013925 -0.033027146 0.0051034135 0.15044387
000170 12 2d 0e be 46 2c ee 3d bc a2 45 bf 99 50 20 3f
       -0.1388438 0.11629538 -0.7720144 0.6262298
000180 33 07 53 bc da 01 2e 3e c4 82 21 be bd 91 0c 3d
       -0.012880134 0.16992894 -0.1577254 0.034318674
000190 e9 19 64 3d 99 72 b1 3b 9a 69 7e 3d 98 c8 37 bf
       0.055688772 0.0054152724 0.06211243 -0.71790457
0001a0 eb ab e1 3d 08 74 9c 3c 52 a4 10 3d df 26 fc 3c
       0.11019119 0.019098297 0.035312958 0.030780254
0001b0 36 19 da 3c 2b 6f 9c bd 70 f1 ff 3c 5b 92 49 3b
       0.02662335 -0.07638391 0.031243056 0.00307574
0001c0 f1 39 45 3d f7 c3 07 bc 0a 1c 2d bb d3 23 b8 bc
       0.04815096 -0.008286468 -0.0026414418 -0.02247802
0001d0 c0 91 7a 3c df dc f0 3c ea 2b 84 bd 04 e6 10 bd
       0.015293539 0.029402195 -0.064536884 -0.03537561
0001e0 6d c8 b5 bd 8b c5 97 3e 10 10 8c bd d4 c7 f3 3c
       -0.08876119 0.296429 -0.06839001 0.029758371
0001f0 36 72 31 bd d6 3a 25 bd 8f 46 cc 3c 18 43 df 3c
       -0.04332181 -0.040339313 0.024935989 0.027253672
000200 c5 4e 5f 3d bb 03 14 be 62 fe 13 3e 4c 02 a7 ba
       0.05451848 -0.14454548 0.14452508 -0.0012741773
000210 5d c8 85 bc ab 87 3f bd 0e 9b 42 3b ed c9 a3 bc
       -0.016330892 -0.046760242 0.002969447 -0.019993747
000220 a7 7a f8 bc d5 4b 6f 3d b5 86 a4 3c 6a f4 73 bc
       -0.030331923 0.05842193 0.020083765 -0.014889816
000230 29 71 f4 3d 35 d2 af 3c 5c 4c 03 3c 3c aa 87 bd
       0.11935646 0.02146254 0.008013811 -0.066242665
000240 7a 57 df 3c de 9a 29 3b a7 94 af 3b 59 51 99 bd
       0.027263392 0.0025879662 0.005358297 -0.07486219
000250 4d b2 7b 3d d7 a8 03 bd 0c 20 9a 3c be 6d 4e bb
       0.061449338 -0.03214344 0.01881411 -0.0031498517
000260 95 85 91 3c 38 d9 00 bd ec 53 00 3c 68 a4 d4 bc
       0.017763892 -0.031457156 0.0078325085 -0.025957301
000270 8b 95 07 3e 14 98 05 be 6f 76 2d 3c 4e 48 4b bd
       0.1324064 -0.13046294 0.010587319 -0.049629502
000280 43 29 78 ba f8 12 42 bc a0 6d 10 3e 95 ec 28 3d
       -0.00094665977 -0.011845343 0.14104319 0.041241247
000290 86 33 8f bc 19 97 88 3d 39 a8 dc 3d 38 48 07 3d
       -0.017480623 0.066694446 0.107742734 0.033027858
0002a0 9d 03 12 3c 99 a0 c3 3c 51 00 d5 bc 9f 9f 2b bf
       0.008911994 0.02388029 -0.026001127 -0.6704044
0002b0 41 e1 ae 3e 4c dd 5e bc fa b2 67 3f d4 8a 3c 3e
       0.3415623 -0.013602566 0.9050747 0.18412334
0002c0 8f ce 0c 3e 47 7c ae be 5a 9a 38 3f 4b 36 05 3e
       0.13750671 -0.3407919 0.7211052 0.13008992
0002d0 39 3b c0 3a 89 64 ac 3b 04 71 15 bb 25 86 de 3d
       0.0014666087 0.005261008 -0.0022802958 0.1086543
0002e0 cd 6f 98 bd 45 76 21 3c ad 76 2e bc 27 ca bb 3b
       -0.07443199 0.009854858 -0.010648412 0.0057308855
0002f0 ae 92 99 bb e6 cd cd bc 30 a7 e4 3b bb 5b cd bc
       -0.004686675 -0.025122594 0.006977938 -0.025068155
000300 d2 04 34 3d f6 7c b8 3d 4d 72 37 bc e6 dd be bb
       0.04394991 0.090082094 -0.011196685 -0.005824792
000310 85 fa 45 3d ca 33 c4 bb fa a8 11 bd c3 2a ee bb
       0.048334617 -0.005987619 -0.03556154 -0.007268281
000320 65 f6 9d 3b ee 52 da 3d 94 48 05 bd 1e b5 d9 3c
       0.0048206323 0.10660349 -0.03253992 0.026575621
000330 ce 93 eb bd 73 02 10 be 7e 02 6f 3c d1 8d d7 bb
       -0.11502801 -0.14063434 0.0145879965 -0.006578185
000340 69 ee 17 bd c8 b1 f9 3b 97 26 40 bd c3 6d 6e 3d
       -0.0370926 0.00762007 -0.046911802 0.058210146
000350 9f f8 02 bd 45 f6 21 bc 7f e6 b4 bd cc f8 cd ba
       -0.031975385 -0.009885375 -0.08833026 -0.0015714406
000360 79 25 cc 3d fa 62 f9 bc 6a de df 3c 79 51 fe 3d
       0.09968085 -0.030442704 0.027327735 0.124178834
000370 8e 0a 01 3e 79 0b 75 bd a2 44 8f bd 53 22 34 3c
       0.12601683 -0.059825394 -0.069955125 0.010994512
000380 92 cd 90 3d d6 89 e1 3c 8c 44 09 3d 78 dc e3 3b
       0.070704594 0.027531546 0.033512637 0.006953772
000390 b6 e6 99 bd 7d 1f 57 bd f8 ff 22 bc 9f af d3 3c
       -0.07514708 -0.052520264 -0.009948723 0.025840579
0003a0 2d 02 b2 3c 9d 2c 74 3c a6 7a 24 3c 02 3d c8 bc
       0.021729553 0.014903215 0.010039007 -0.024443153
0003b0 4a 6e e5 3b 7c 1d 3e bc 88 4d b8 bc c1 87 b5 bb
       0.007001673 -0.011603709 -0.022497907 -0.005539865
0003c0 e8 96 1c 3b 22 8d 02 bc 36 19 d2 3a af 22 37 bd
       0.0023893658 -0.007968219 0.0016029242 -0.04471081
0003d0 25 c8 6b bb 0d f1 2c 3c 55 8a 67 bd 0a 7d 17 3e
       -0.003597745 0.010555518 -0.056528408 0.14793792
0003e0 c7 24 3a bd 54 02 89 3e 6e d1 20 be e6 23 c1 bd
       -0.04544523 0.2675959 -0.15704891 -0.09430675
0003f0 b1 e5 d9 3d bd d5 a0 be a1 d8 a9 3e 56 4b 03 be
       0.10639513 -0.3141307 0.33173087 -0.12821707

block_list.0.c2_r.bias f4 [28]
000000 64 87 26 40 8c de 92 41 09 c7 d1 41 cf 84 aa 41
       2.6020136 18.358665 26.222185 21.314848
000010 f9 cc b1 bf f5 01 e3 41 60 bc 40 3e ab 0d 2d 41
       -1.3890678 28.375956 0.1882186 10.815837
000020 66 ff 47 40 1d 49 bf 3f 68 aa 81 40 71 51 4a 41
       3.1249633 1.4944187 4.0520515 12.644883
000030 4f 3f f0 c0 ac 2d 8d 41 84 60 0a 42 0d 14 a6 c0
       -7.507728 17.6473 34.594254 -5.1899476
000040 1a 9f 98 c1 ab 69 09 42 ec ab ac 41 a2 3e bb 41
       -19.077686 34.35319 21.583946 23.405582
000050 b3 64 8a 41 3f f6 39 41 d9 5f 99 41 8a a3 d4 41
       17.29917 11.622619 19.1718 26.579853
000060 1d 9b 43 bf 83 bd 6e 40 7e d5 a8 41 86 37 30 41
       -0.7640856 3.7303169 21.104244 11.013556

block_list.0.c3_r.weight f4 [30, 28, 3, 3]
000000 1d a7 a1 bc b5 95 80 bd 6e a8 88 bc dd d1 c7 bc
       -0.019733006 -0.06278554 -0.016681876 -0.024392063
000010 0b 41 64 39 16 be d4 bc e6 6e f1 3b f8 d7 4f bd
       0.00021768005 -0.025969546 0.0073679565 -0.050743073
000020 3d 92 56 bc e0 2d 62 3c d0 92 9c 3d 79 98 4e bc
       -0.013096389 0.013804883 0.0764519 -0.0126095945
000030 ee 29 1a bd dc 20 85 3c 01 06 56 bd 49 24 36 bb
       -0.037637644 0.01625102 -0.05225182 -0.0027792624
000040 9a 60 8f ba bf fd b7 bb a4 a7 fe bc df b5 c1 3b
       -0.0010938824 -0.0056149657 -0.031085797 0.0059115733
000050 7e c3 9d 3c 4a 42 8d bd 4b 4a 3d bd 4d 07 f4 3c
       0.019258257 -0.06897409 -0.04621343 0.029788638
000060 3b 60 3f bc e3 58 89 bc d1 b8 4e 3c 9b b5 2b 3b
       -0.011680658 -0.016766017 0.012617306 0.0026200775
000070 45 b4 96 bc e2 f5 d7 3c c1 7e 61 3c d5 8e 0d 3d
       -0.018396506 0.026362363 0.013763131 0.034560043
000080 e8 d1 8c 3c d8 66 99 bc d0 9c c1 bc e2 ac 9e 3c
       0.017189935 -0.018725798 -0.023634344 0.019369546
000090 5d 7b 5b 3c 25 c1 8e 3e 3b 5a 38 bd c5 d8 0e be
       0.013396111 0.27881733 -0.045007925 -0.13949879
0000a0 11 91 bc 3e b4 54 21 3d 27 2a 72 3d 62 07 82 3e
       0.36829427 0.03938742 0.05912223 0.25396258
0000b0 cb cd 28 bd bf 82 c9 3c d0 73 6f bd e4 e6 09 3d
       -0.041211884 0.024598477 -0.058460057 0.03366746
0000c0 2d 2c 9c bd cd 70 e4 3d 0c 8b 0f bc 2e 98 65 3d
       -0.07625613 0.111543275 -0.008761179 0.056053333
0000d0 55 c0 84 3c 6a db 77 bc 33 ca f8 3c 4e 4e 9e bc
       0.016204992 -0.015127996 0.030369854 -0.019324448
0000e0 6c 78 c5 ba ad 3d 0e 3d c7 24 78 bb 23 6c 7a 3d
       -0.0015065796 0.034726787 -0.0037863718 0.061138283
0000f0 e0 45 25 3d e7 55 71 3d d3 32 06 3d 82 97 49 3d
       0.04034984 0.058919813 0.032763314 0.049216755
000100 a2 10 75 3d 53 fe 49 3d 7a 7d 8f be 0f db 3f 3e
       0.059830315 0.049314808 -0.2802542 0.18735908
000110 0b de 5d be 8e 97 d4 bc 55 a8 8c 3d 46 aa dc 3c
       -0.21666734 -0.025951173 0.06868044 0.026936661
000120 00 a8 b5 bc 8e e2 ab bd f8 8b ab bc 37 11 82 bb
       -0.022174835 -0.08392821 -0.020940766 -0.0039693373
000130 00 30 d8 bd 43 c9 14 bd cd 6f 94 3b 27 d0 af bd
       -0.1055603 -0.03632475 0.0045299293 -0.08584624
000140 f4 9e a4 bd 98 d4 cc 3d 7c fb 91 3d 61 4d 0b bd
       -0.080381304 0.100014865 0.07128045 -0.03400934
000150 03 3d 4d 3d 84 22 03 bc 0e f5 1b 3d fc 0a a7 bc
       0.050107013 -0.008003835 0.0380755 -0.02039098
000160 1f bf 10 3d 80 31 22 bc 81 23 c6 3e 42 65 4a 3e
       0.035338517 -0.009899497 0.38698962 0.1976519
000170 9c e6 7e 3f 8e fd 18 3e c3 d4 43 3d 5d b5 1b be
       0.9957063 0.14940473 0.047810327 -0.15205903
000180 ae af 7b 3d 0a 22 f0 bb eb 37 10 bc e2 df 4e 3c
       0.061446838 -0.0073282765 -0.008802394 0.01262662
000190 87 ce 0c 3d e1 01 df bc be f0 69 3c 2c 40 0f be
       0.034376647 -0.027222576 0.014278589 -0.13989323
0001a0 14 83 d3 ba e3 9b 8c 3a 4a ab e3 3c 68 fa d8 bc
       -0.0016137087 0.001072761 0.027791638 -0.02648659
0001b0 65 eb c9 3a fd 3f 36 3d 37 88 65 3b fb 88 3e bd
       0.0015405236 0.044494618 0.0035023817 -0.046517354
0001c0 55 5f 6b 3d 0a de 45 bc 4a b9 32 bd ad 5f 55 3d
       0.057463963 -0.012076864 -0.043633737 0.052093197
0001d0 aa 77 62 bd c1 e4 58 bd 53 5a 91 bc dc a1 3b 3d
       -0.0552899 -0.05295253 -0.017743265 0.045808658
0001e0 48 75 71 bd d9 90 2e 3c 7c a1 43 3c ce 4c 4e bd
       -0.05894974 0.010654652 0.011940356 -0.050366215
0001f0 9b 46 63 bc 09 06 4f 3d 58 a9 d2 bb cb 60 4f bc
       -0.013871814 0.050542865 -0.0064288788 -0.012657355
000200 8f 5f bd bc 44 f4 b3 3b 29 fd 1d bd 15 2e c1 bc
       -0.023116855 0.005491765 -0.03857151 -0.023581544
000210 86 27 db 3b 83 59 22 bc 74 49 c1 3c 65 75 d3 bc
       0.006688061 -0.009909037 0.023594595 -0.025812814
000220 1f 54 5d ba 75 18 82 3c 75 d1 55 3d db b5 bd 3d
       -0.0008443016 0.015880803 0.052201707 0.09263202
000230 5c ed 43 bd ec e8 28 3d 2e 14 c2 3c 6b d6 88 bc
       -0.047833785 0.041237757 0.023691263 -0.016703805
000240 aa a7 0c bd ef 3d 53 3d ff 10 95 bc d3 68 7d bd
       -0.034339584 0.051572736 -0.018196581 -0.061867546
000250 ed 10 17 3d be ce e9 bc c8 49 35 bb 50 21 0a 3d
       0.036881376 -0.028540965 -0.0027662385 0.033723176
000260 9c 34 27 bd 10 01 77 bd c7 44 5d 3d 8f e9 23 bd
       -0.040821657 -0.060303748 0.05402067 -0.04001766
000270 d0 df 65 bd 73 38 8a bc c2 6f f9 bc f9 3f 48 bd
       -0.056121647 -0.01687262 -0.030448798 -0.048889134
000280 8c d8 3d 3c 1d d9 18 bd 2f 4e 66 bb 73 0c 1a bc
       0.011587273 -0.03731643 -0.0035141816 -0.009402382
000290 19 f8 bd bc c4 44 62 bd 6a 31 df 3c 1e 93 48 bd
       -0.023189591 -0.05524136 0.027245242 -0.048968427
0002a0 e8 0b f7 3a 30 60 00 bc f8 9a 08 bd c3 fc 36 bc
       0.0018848153 -0.007835433 -0.033350915 -0.0111686615
0002b0 03 eb 09 3e 3d 8c 39 bd ec f5 83 3d 90 9f 49 bf
       0.13468556 -0.045299757 0.0644339 -0.787591
0002c0 5f 8b 6a 3d 2f 59 70 bd 93 4d 83 bb cc e1 b8 bc
       0.05726182 -0.058678802 -0.0040070503 -0.022568606
0002d0 5c 37 7a 3c 40 57 fb bd 48 56 1b 3d dc e5 2a 3e
       0.015271988 -0.12272501 0.03792408 0.16689247
0002e0 14 74 70 bd 40 ed 56 3d b7 8b c7 3c e0 19 c9 bd
       -0.05870445 0.052472353 0.024358613 -0.098193884
0002f0 79 07 4e 3d 29 91 1e 3d d8 d6 2c bd f5 a7 09 3d
       0.050300095 0.038712654 -0.04219708 0.033607442
000300 ae c5 95 3a f4 08 06 3d bb fb 12 3d 93 39 20 3d
       0.0011426711 0.032723382 0.0358846 0.039117407
000310 67 2d 03 bd b8 69 e1 3c 51 57 b9 bc 77 aa 75 3c
       -0.03202572 0.027516231 -0.022624644 0.014994255
000320 34 64 40 3c 81 fc d1 bc 6b 7f 09 3d 77 fc a8 3c
       0.01174264 -0.025633099 0.03356878 0.020628197
000330 c4 29 90 bc e5 12 39 bb ed 99 02 bb a6 bb c0 bc
       -0.01759804 -0.0028240022 -0.0019928173 -0.023526978
000340 d1 f8 8c bd f7 87 15 bc 1f 48 f6 3c 1e 49 bc bd
       -0.068833955 -0.009126655 0.030063687 -0.091936335
000350 11 f6 a7 bd 52 e5 4f bd 01 df 8a bd 11 e6 70 3d
       -0.0820123 -0.050755806 -0.06780816 0.05881316
000360 2a 8a de 3c df 78 18 3e 2c dc 21 3d 7c 02 86 3d
       0.027165491 0.14889859 0.039516613 0.065434426
000370 0c 0d e5 3e ce 9e b8 3c a0 fd 2e 3c d0 be db 3d
       0.44736516 0.022536661 0.010680586 0.10729754
000380 d4 a0 3d bd e9 9e 13 bd bc d3 a7 3c ef c2 95 b9
       -0.046295956 -0.03604022 0.020486705 -0.00028564731
000390 1d ab 2e be a7 27 a8 bc d4 ff 96 bc 8e ab ce 3d
       -0.17057462 -0.02052672 -0.018432535 0.10091315
0003a0 06 7b 04 be 30 50 d7 3a ae 37 83 3d ac 54 af bd
       -0.12937555 0.0016427096 0.064071044 -0.08561072
0003b0 33 e6 00 3e 4b b2 c1 bd 44 94 28 3d b2 00 fa bc
       0.12587814 -0.09457835 0.041157022 -0.03051791
0003c0 5c 55 21 3d cf ec b4 3a ba a0 f9 3c e9 83 91 3d
       0.039388046 0.0013803485 0.030472148 0.07105238
0003d0 2a d0 19 3d 30 1f 1c 3d 38 ac 9c 3c b8 30 d3 3d
       0.037552036 0.03811568 0.019125089 0.10312027
0003e0 13 f7 1c 3d a2 39 bb 3c 07 55 f5 bb d0 29 20 3d
       0.038321566 0.02285463 -0.0074869427 0.039102376
0003f0 9c 34 8d bc f0 93 c6 bb e1 04 61 3d a4 4d e0 bc
       -0.017237 -0.006060116 0.054936294 -0.027380772

block_list.0.c3_r.bias f4 [30]
000000 f0 2b 13 c1 a6 0f a1 c0 47 74 4d c2 e2 71 af 40
       -9.198227 -5.03316 -51.363552 5.4826517
000010 63 4d 8f 41 ec fb dc c1 b8 3f 85 41 ed 96 94 40
       17.912786 -27.623009 16.656113 4.6434236
000020 c1 df a8 c0 a1 e0 a4 c0 04 bc 10 c1 c4 87 aa 41
       -5.2773137 -5.1524205 -9.045902 21.316292
000030 2c af 92 42 8f e3 43 41 0b f0 2c 41 cb 48 a8 c2
       73.34213 12.243056 10.808604 -84.14217
000040 2b 8d a5 c1 2b e0 bd 41 cb b8 8a c2 4f df 61 40
       -20.69393 23.734457 -69.36092 3.5292547
000050 54 a8 de 40 cd 0a c4 c1 34 b1 81 3f 6c ee fb 40
       6.958048 -24.505274 1.0132203 7.872854
000060 31 4c e5 3f b7 f6 d5 c2 d5 0e 84 41 f7 19 d8 c2
       1.7913877 -106.981865 16.507242 -108.05071
000070 af a5 39 c2 d3 0c 04 41
       -46.4118 8.253131

block_list.0.c5.weight f4 [30, 30, 1, 1]
000000 a1 a4 33 3d 18 0e 80 3d 4d 64 fb 3d e8 3f 05 3e
       0.043858174 0.06252688 0.1227499 0.1301266
000010 fc ab 0e 3c d3 28 2b 3e ec ed 78 39 f7 f7 5e 3c
       0.008707996 0.16714792 0.00023739756 0.013608924
000020 94 60 96 3d 4e 20 df 3b 68 10 f9 3d 7f 5c 52 bc
       0.073426396 0.006809271 0.12161332 -0.012839436
000030 a8 58 42 bd a5 18 af bc 92 57 34 3d df e3 17 3a
       -0.04744783 -0.021374056 0.044028826 0.00057941483
000040 5b f7 51 3c ab 32 fb 3b 49 8c 5e bd 36 a8 eb 3b
       0.012815322 0.007665952 -0.054333005 0.007191683
000050 df 28 32 3c 46 08 b4 bd bc b0 ea bd d7 5a 17 bd
       0.010874002 -0.087906405 -0.11459491 -0.036951866
000060 73 0f 93 3d 75 80 2e bd c3 bb 13 bc 84 ac 13 be
       0.07180681 -0.042602975 -0.009016934 -0.14421278
000070 e4 ac a7 3d b6 31 77 bc 73 55 95 3c c3 9b 02 bc
       0.08187273 -0.015087536 0.018229222 -0.007971707
000080 a7 28 0a 3c e6 45 e3 bc 80 1f 0a 3c 0c 14 ee 3b
       0.008432544 -0.027743291 0.008430362 0.0072655734
000090 42 8c 11 bd a4 67 3b 3d d2 2e 0a bc 5b 07 69 3c
       -0.03553415 0.045753136 -0.008434014 0.014222945
0000a0 08 2d 63 bd 4d b5 e9 3c 3a 21 1d bc 3f b8 cf bb
       -0.055462867 0.028528834 -0.009590441 -0.0063391025
0000b0 69 2c 86 3d d3 a8 a4 bd 01 2a 82 3d ef da c0 3c
       0.06551439 -0.08040013 0.06355668 0.023541896
0000c0 1d 3d 19 bd 1e fe 6d bc 22 b0 7a 3a 9c d8 56 bc
       -0.037411798 -0.014525918 0.0009562989 -0.013113167
0000d0 05 84 ec bc ad 57 54 bd 3d 99 8c 3b 87 7a 8c 3d
       -0.028871546 -0.051841427 0.0042907284 0.06859308
0000e0 01 e1 c5 3c 73 4e be bd 4b 1a 56 3c 3c ee 5e bc
       0.024155142 -0.09292307 0.013067792 -0.013606604
0000f0 90 b8 e8 bb 4d 65 8f 3a 8d 18 65 be 90 40 6f bd
       -0.0071020797 0.0010940224 -0.22372647 -0.05841118
000100 79 ed 1d bd 38 40 b0 3d 27 66 21 bc 27 12 e5 3d
       -0.03855655 0.08605999 -0.009851015 0.11185103
000110 86 a9 be 3b b0 0d 9f bd 0a e2 d8 ba 58 f8 38 bd
       0.0058185486 -0.077662826 -0.0016546857 -0.045158714
000120 89 ff 33 3d 48 ee ce bc 5a 67 d3 3b 69 e8 5b bd
       0.04394487 -0.025260106 0.0064515295 -0.05368844
000130 63 17 f6 bd f6 a1 44 bd c7 e8 6a bd db e3 07 ba
       -0.120161794 -0.04800602 -0.0573509 -0.00051837944
000140 29 f3 40 be 91 a0 cd 3d a5 90 13 3e 54 a7 3d 3c
       -0.18842758 0.10040391 0.14410646 0.011575539
000150 8a 6a 27 3e 68 02 23 3e b6 13 f5 3b cf c6 e8 bd
       0.16349235 0.15918887 0.0074791564 -0.11366045
000160 de b7 7e be 7d 6d 7e 3c 0f 0c 0f bd 11 b0 be 3c
       -0.24874827 0.015529034 -0.03492361 0.023277314
000170 b1 d3 1c bd f1 47 ad 3e d2 c3 b1 3d dd 2b ea bc
       -0.038287822 0.3384395 0.08679928 -0.028585369
000180 40 b4 10 3d aa 41 cd 3b ce 82 29 3e 43 ce 5c bd
       0.03532815 0.0062639313 0.16553804 -0.053907644
000190 5d 23 69 bc ff 26 cc bd 99 50 05 3c 35 e2 03 be
       -0.014229623 -0.099683754 0.008136892 -0.1287926
0001a0 57 bf 79 3e 70 3e 8c 3d 97 ac 35 be ba db 0a be
       0.24389397 0.068478465 -0.17741619 -0.13560382
0001b0 1d 59 10 be e4 31 45 3d ae ec 30 be 76 89 07 3d
       -0.14096494 0.048143283 -0.17277786 0.033090077
0001c0 3d bd 4c 3d 3a 06 75 3e b3 25 95 be 13 eb dd bd
       0.04998516 0.23928156 -0.29130325 -0.108358525
0001d0 4f d2 d0 3d 0e 1b 48 bd bf df 29 be 7d 01 3b bc
       0.10196363 -0.048853926 -0.16589259 -0.011413929
0001e0 9a e3 43 3d 71 88 01 bd 17 00 ba bb 7e 5b ed bc
       0.04782448 -0.03162426 -0.0056762802 -0.028974291
0001f0 6a 9a 1d 3d 5d 44 83 3d 2d 32 6f 3a 4a 41 55 bc
       0.03847734 0.06409524 0.0009124603 -0.013016054
000200 fa f4 a1 3d c6 48 3c 3c 77 ac 0d 3d 52 68 09 3d
       0.07908054 0.01149196 0.034588303 0.033546753
000210 6b c6 2c bb df eb a3 bd 96 b0 8c bd f9 40 07 3e
       -0.0026363384 -0.08003973 -0.068696186 0.13208379
000220 e9 a0 6b bb 21 66 aa 3c 56 b4 5c 3c cd f8 5d 3d
       -0.0035954064 0.020800652 0.01347073 0.054192353
000230 9e 7b 30 bc e4 a3 6f bc 1f cd 4a bb 3c 72 2f bc
       -0.01077166 -0.014626477 -0.0030945016 -0.010708388
000240 be 18 0b bb 35 72 93 3d 11 6d 68 bc 3a 52 4f bd
       -0.0021224464 0.07199518 -0.01418616 -0.050615527
000250 ad 78 f2 bc 01 b6 74 bc a3 cd 95 ba aa e3 c5 bd
       -0.029598558 -0.014935971 -0.0011429082 -0.09662564
000260 07 64 54 be b8 21 fa 3d 68 86 90 bd ab d5 e8 bd
       -0.20741282 0.122134626 -0.07056886 -0.11368879
000270 4c 04 84 3e e1 92 ae bd fa 80 49 3d c9 1f c0 3b
       0.25784528 -0.08524109 0.049195267 0.005863164
000280 84 eb 88 bb d9 17 6f bc 1a 07 ac 3d 73 a0 9d bd
       -0.0041784663 -0.014593088 0.08399792 -0.07696619
000290 c5 2e 88 3d 87 5d 03 3e 47 38 04 be 14 15 81 bd
       0.066495456 0.12828647 -0.12912093 -0.063028485
0002a0 f8 59 a9 be 3c ab e7 3d 81 47 20 bd a8 c9 73 bd
       -0.33076453 0.11311957 -0.03913069 -0.059518486
0002b0 71 73 9b be 30 c1 93 bb 17 10 6e bd 38 c4 41 be
       -0.30361512 -0.0045091137 -0.058120813 -0.18922508
0002c0 c2 8f 9e 3d 6c 7b f1 3d ea 16 7b bc f0 48 de bc
       0.077422634 0.11791119 -0.015325287 -0.027134389
0002d0 7f 98 81 3c 61 42 e8 3b 0f af 6c bc 8d 8a 19 bd
       0.015819786 0.007087991 -0.014446034 -0.037485648
0002e0 dc 79 40 be 46 53 f5 3c 52 cb ec bb 04 f3 ee bd
       -0.18796486 0.029946934 -0.007226386 -0.11667445
0002f0 a6 7a 99 3d 65 28 77 3e ba c2 ab bd ef ed 96 be
       0.074940965 0.24136503 -0.083867505 -0.29478404
000300 c1 4b 81 bc a1 cf 60 bd f2 9c 9b 3d 2d 81 5c 3e
       -0.015783193 -0.05488551 0.07598294 0.21533652
000310 0e 03 c2 3d 6c f7 64 3e 85 49 fa 3d fe ea 0b bd
       0.09473239 0.22360009 0.12221054 -0.034159653
000320 d7 55 20 3d c3 af 7b bd 80 ab d0 bd 43 20 fc 3d
       0.039144363 -0.061446916 -0.10188961 0.12310841
000330 79 fe b9 3d 19 94 87 3e 3c e4 08 3d fc 39 54 be
       0.0908174 0.26480177 0.033420786 -0.20725244
000340 a6 f5 0c 3c 6e a8 46 3d 84 3f f8 bd db 41 f8 bd
       0.008603489 0.04850047 -0.1212149 -0.12121936
000350 d8 77 4e 3e 06 4e 44 bd 9b 97 4f be 87 ba 07 3f
       0.20162904 -0.04792597 -0.20272677 0.53018993
000360 1f 6f c9 3d 65 5f 41 3e 6f 23 99 bd fc ad 68 bd
       0.09835648 0.18884046 -0.074774615 -0.05680655
000370 9c 35 bf bb b1 4c f5 3c 37 ad 4d 3d 32 b0 06 3e
       -0.005835248 0.029943796 0.05021402 0.1315315
000380 1d 70 0a be c8 e0 53 bd 98 d7 93 3e a6 62 c5 3a
       -0.1351933 -0.05172804 0.28875422 0.0015059307
000390 b2 e4 54 bd 55 57 87 3c 34 ab 12 bc 77 43 e7 3d
       -0.051975913 0.016521135 -0.008951951 0.11292165
0003a0 2c 2e 08 3e 31 ed b3 3e 6d d4 99 bd d3 e7 ee bc
       0.13298863 0.351419 -0.0751122 -0.029163277
0003b0 0f b0 3b be d4 98 d4 be 0a a1 28 be b1 46 a7 bd
       -0.1832888 -0.4152285 -0.16467682 -0.0816778
0003c0 fe 13 df bc a5 6d 61 bc 93 d1 04 bb 0f 71 f6 3b
       -0.027231213 -0.013759051 -0.0020266518 0.007520802
0003d0 23 01 3b bb 94 90 44 bc 5d c9 ad bc 73 da cc bb
       -0.0028534613 -0.011997361 -0.021214182 -0.006251627
0003e0 08 76 d2 3b d3 92 90 3b 41 c5 84 3b c3 45 6f 3b
       0.006422762 0.004412034 0.004051835 0.0036510087
0003f0 40 45 c2 3c 4f d1 52 3c 4b 56 9d bd 0b 21 41 bd
       0.023714662 0.012867286 -0.07682475 -0.047150653

block_list.0.c5.bias f4 [30]
000000 a7 28 c1 3f 99 b8 7e 40 01 c9 8a bf 3f 34 66 be
       1.5090531 3.980017 -1.0842592 -0.22480868
000010 2e 19 36 c0 f6 de 07 40 16 6b c0 be 40 6b 5a 3f
       -2.8452868 2.1229835 -0.375817 0.853199
000020 92 92 83 c0 29 3f 9a 3f 2f 23 1a 40 cc 78 9c bf
       -4.111642 1.2050525 2.4083974 -1.2224364
000030 84 59 7a bd d2 06 d2 3f 54 f8 08 bf 2b e3 24 40
       -0.061120525 1.6408331 -0.5350392 2.5763652
000040 2a 78 17 bf 7b 44 54 3f 86 68 37 c0 2d e7 af 3f
       -0.5916773 0.8291699 -2.8657546 1.3742424
000050 34 5d 9a bf ef 81 53 c0 84 0a de bf 2a d0 d6 be
       -1.2059693 -3.3048055 -1.7346959 -0.41955692
000060 d8 88 31 c0 4e 3f fa bf 96 3f 2f 3f 3c c5 e9 be
       -2.7739773 -1.9550569 0.684564 -0.4565829
000070 9d fd af 3f 63 13 02 3f
       1.3749272 0.5081083

block_list.0.esa.conv1.weight f4 [16, 30, 1, 1]
000000 bb 3a 0d bd e6 85 6a 3e e5 13 87 3c 5b d9 9c 3d
       -0.034479838 0.2290264 0.016488979 0.07658645
000010 d8 08 ad 3b 93 e4 3e bd f7 16 46 bc fe 66 91 bd
       0.0052805953 -0.046604704 -0.012090436 -0.07099722
000020 94 79 fc 3d 85 67 44 3d 9c bb 8e 3d 81 5f ca 3c
       0.12327877 0.047950286 0.069693774 0.024703743
000030 b4 0d eb 3b 32 0d f3 bc cf cb 0b 3d 19 30 88 3d
       0.0071732644 -0.029669378 0.034129914 0.06649799
000040 a9 28 37 bc 9d 4d 10 be 70 be 50 bc 38 5c 6c 3c
       -0.011179128 -0.14092107 -0.012740716 0.014426284
000050 6e 56 60 bd 65 69 a7 3d 34 36 d5 bd 99 d7 47 be
       -0.054769926 0.08174399 -0.10410729 -0.19515838
000060 f0 3a 13 3d e3 dc 0a 3c ae 68 ba bc 9c a2 14 3b
       0.03594488 0.008475515 -0.022754993 0.002267993
000070 bc c7 65 3d d7 8e 8f bc 32 2b f5 3b 28 a7 d7 bd
       0.056098685 -0.017524166 0.007481956 -0.105299294
000080 9c 5d 31 bc 85 39 73 3c 3a 16 64 3c 37 5f b0 3b
       -0.010825541 0.014845257 0.013921315 0.0053824442
000090 66 13 2d 3c 5e fa b1 3c 56 ba 2e 3c d4 3c 95 bc
       0.010563707 0.02172583 0.010664543 -0.018217482
0000a0 7d 72 1a be 24 40 d0 bc 13 63 2b 3d ff a1 20 bd
       -0.15082736 -0.02542121 0.04184253 -0.03921699
0000b0 44 3d f5 3c da 2e a4 3d a5 0e 9d bc 1c b3 99 bc
       0.02993644 0.08016749 -0.019172022 -0.018762164
0000c0 50 93 c1 3d 39 d5 d7 3c f5 88 bf bc 00 08 f6 bb
       0.09451926 0.02634679 -0.023380736 -0.007508278
0000d0 cd a6 bd 3c 21 32 88 3d 63 e1 5d bd 9a 2c a4 3d
       0.023150826 0.06650186 -0.054170024 0.080163196
0000e0 4c 2a a6 3d 23 a9 4e 3d 8e d0 25 3c e4 62 80 bc
       0.08113536 0.05045427 0.010120524 -0.015672155
0000f0 df 16 00 be 72 25 27 be 30 d2 be bc ef f2 de 3c
       -0.12508725 -0.16322878 -0.023293585 0.02721545
000100 5e 3c 36 be 60 a0 1b bd ac 26 23 bc b4 12 06 bd
       -0.17796466 -0.037994742 -0.009957951 -0.03273268
000110 22 73 a9 3c 25 eb b9 3d d5 c7 c4 3c 10 71 4a bd
       0.020684782 0.090780534 0.024021069 -0.04942423
000120 cb b4 05 bd d0 80 63 3d 90 d9 95 3d 63 f9 35 be
       -0.03264312 0.055542767 0.073168874 -0.17770915
000130 f5 88 46 bd 15 a3 e1 3c 30 c3 99 bd 09 50 14 bb
       -0.048470456 0.027543584 -0.07507932 -0.0022630712
000140 ab cf 82 bd 66 29 b2 bd 1c 9c 04 bc 97 0d 9d bc
       -0.06387266 -0.086993024 -0.00809386 -0.01917152
000150 28 02 85 3d 88 9d 81 bd 30 13 03 3e b7 43 9a bd
       0.06494552 -0.06328875 0.12800288 -0.07532447
000160 78 7d 37 be 02 9b e4 bb c6 96 b3 3d fd 5a cc 3c
       -0.17918956 -0.006976486 0.08768992 0.02494573
000170 74 25 bf bb 2e 77 a2 bd ee 8a a1 3d e7 ef 81 bc
       -0.005833322 -0.07932888 0.07887827 -0.015861465
000180 c3 f0 2d bc bd e8 b4 3d 57 3f 3b 3d e4 7f 03 bc
       -0.010616484 0.08833454 0.045714702 -0.008026097
000190 4c 74 60 bd 82 96 dc bd 68 c9 05 bd 86 d0 2b be
       -0.05479841 -0.107708946 -0.03266278 -0.16778764
0001a0 03 03 da 3c af 27 7c 3c ea 25 ca 3c 72 69 94 bd
       0.026612764 0.015390321 0.024676282 -0.072466746
0001b0 a8 93 95 bd d3 bb 9a 3d ed e0 8f 3d 92 5c e9 bd
       -0.07303554 0.07555356 0.07025323 -0.113946095
0001c0 dc b0 e9 bd e6 7d b9 3d 1d b1 30 bd 72 23 30 bd
       -0.114106864 0.09057216 -0.04313766 -0.043002553
0001d0 bd 45 d9 bc e5 1c b1 bd 0e 16 9a 3d 31 db f9 ba
       -0.026522512 -0.08648089 0.07523738 -0.0019062517
0001e0 8b 46 80 bd 7c 8e 33 3e a9 49 b0 3c 16 2a 52 3c
       -0.06263455 0.17534822 0.021519499 0.012827417
0001f0 98 1d a3 bb 39 fa 4b 3d f5 22 2f bb b3 5b 54 bd
       -0.004977893 0.049799178 -0.0026723717 -0.051845264
000200 6a 0a 45 3e 3c 84 16 3d 10 d6 4f bc 34 6e dc 3c
       0.19242254 0.036747202 -0.012685314 0.026908018
000210 34 71 61 3c 16 a6 fb bc b4 7a a7 3c 53 c9 3b 3e
       0.0137599 -0.030718844 0.020444252 0.18338518
000220 18 38 17 3d 2b ea a5 bd be 64 12 bd 61 c9 63 bd
       0.03691873 -0.081013046 -0.035740606 -0.05561197
000230 6b 31 48 3c e0 53 d4 3d 20 c7 c8 3b 55 c9 5b 3d
       0.012218813 0.103675604 0.006127253 0.053658802
000240 4c 26 44 bd 46 0d 23 be b3 3f 0b bd 81 b2 06 3d
       -0.047888085 -0.15923032 -0.033996295 0.03288508
000250 c2 5c 1a 3e e4 99 28 bd 5a a3 b1 bd 0c 1d 8a 3e
       0.15074447 -0.041162387 -0.08673735 0.26975286
000260 06 b7 0a 3c a6 43 41 bd 06 cc b5 bd ca 21 02 bc
       0.008466488 -0.047183655 -0.08876805 -0.007942626
000270 11 2a f6 3b 06 31 bc bc 4f a2 3a 3e 3e 04 c0 3d
       0.007512339 -0.022972595 0.18225978 0.09375809
000280 c3 4c 2d 3d 0b a3 26 3d 20 e6 26 bd ed fe 07 bc
       0.042309534 0.040682834 -0.040746808 -0.008300525
000290 c3 14 b4 3c e5 80 38 bd 09 6e 82 3c 8e 80 83 3d
       0.021982556 -0.0450448 0.01592161 0.06421004
0002a0 bd c8 31 be 80 09 e4 3d 7e 0a a5 3c ae 21 de 3d
       -0.17361732 0.111346245 0.020146605 0.10846268
0002b0 a2 1f 24 3e 32 c5 af bb fc b7 a0 bc 25 ee 99 3e
       0.16027692 -0.0053640837 -0.01961898 0.30064502
0002c0 99 72 b7 3d f9 16 3d bc 46 41 23 be f2 8e db 3c
       0.08957405 -0.011541122 -0.15942869 0.02680156
0002d0 c1 6b fb bd 64 c3 aa 3d e0 51 de bc ad 69 33 3d
       -0.12276412 0.08338049 -0.02713865 0.043801952
0002e0 d8 0a 5e 3d 0a 1f 65 bd c6 62 2a bb d9 1f 3d 3d
       0.05420956 -0.055937804 -0.0025998815 0.04617295
0002f0 34 e8 1e 3d 09 4b d5 bd 86 93 5c bd 43 28 a3 3c
       0.038795665 -0.104147024 -0.053851627 0.01991666
000300 5a 1f 0c 3d db 16 bd 3d 42 38 eb bd 0c 4a 09 3e
       0.034209587 0.09232875 -0.1148534 0.13407153
000310 9c 6d 85 bc 81 4e 1c bd 3d 6f ae bd b6 e5 fd bd
       -0.016287617 -0.038160805 -0.08517311 -0.123973295
000320 d1 62 04 3b b1 88 4d bd 63 83 0b be 16 8f 10 3e
       0.00202005 -0.050179187 -0.13624339 0.14117083
000330 f4 f8 71 bd 25 08 08 be f6 04 c8 bd ac 2c 31 37
       -0.05907531 -0.13284357 -0.09766571 1.0560423e-05
000340 90 2d 24 bc b9 32 84 3c dc b0 90 3d e1 e0 c8 bc
       -0.010020629 0.016137468 0.07064983 -0.024521293
000350 a4 6d 51 3c e1 41 07 bd 0b d1 da bd 65 ec 11 3d
       0.012782488 -0.03302181 -0.10684403 0.035625834
000360 40 ce 42 3c ad 3b e6 bc f3 c4 ad bd c6 42 d1 3c
       0.011889994 -0.028104628 -0.08484831 0.025544535
000370 97 6f b4 bd 80 f5 0b 3d cc 03 18 3c eb eb f1 bd
       -0.088103466 0.034169674 0.009278249 -0.11812576
000380 1a 2a 4e 3d 9e 2e ab bd 4e 30 22 3d 13 d4 ac 3d
       0.05033312 -0.08358501 0.03959685 0.084388874
000390 ca 9b 0c 3d f4 1f 37 be 88 a9 1b 3d 36 b7 af bd
       0.03432826 -0.17883283 0.038003474 -0.085798666
0003a0 aa 81 ad bd 65 be ed 3d 56 07 50 ba fa 9c 4b be
       -0.08471997 0.116085805 -0.00079356635 -0.198841
0003b0 3a dd e1 bd 16 80 76 3d 9b b7 57 3d 1a 05 f1 bc
       -0.11028524 0.060180746 0.052665334 -0.029421378
0003c0 00 2e 4a bd 04 f3 51 3e cc 58 4e 3c b9 e9 cc 3d
       -0.049360275 0.2050286 0.012594413 0.100055166
0003d0 6f de 04 3e c4 07 d4 bc 55 0e 55 b9 48 a3 eb bd
       0.12975477 -0.02588261 -0.00020318602 -0.11505753
0003e0 1f 14 2d be 5d 70 e1 3d 87 89 2d 3e 06 4e a9 3d
       -0.16902207 0.1100776 0.16946994 0.08266835
0003f0 3e 20 bc bd 9f 39 29 bd 00 c4 0a 3e 8e f4 87 3e
       -0.09185837 -0.041314717 0.1355133 0.26553768

block_list.0.esa.conv1.bias f4 [16]
000000 93 a1 15 bf 51 ee ee bf d2 13 c8 bf e7 64 60 bf
       -0.5844967 -1.8666478 -1.5631049 -0.87653965
000010 4e d4 cb bd 5a 33 d9 bf e0 93 76 40 31 60 57 c0
       -0.09952603 -1.6968796 3.8527756 -3.365246
000020 45 cc ab 3e 85 04 3a bf 98 e7 0a 40 bf 4a 61 c0
       0.33554283 -0.72663146 2.1703854 -3.5201871
000030 3f fe b5 3f b9 68 36 c0 89 58 af bf 48 cf c2 3b
       1.4218215 -2.8501418 -1.3698894 0.00594512
