model_zoo/team41_harn.pth (torch, 407105 bytes, 484 tensors)

conv_shallow.weight f4 [20, 3, 3, 3]
00000000: 5961 e93c 22da 4b3d accf 293d ae63 efbb
00000010: c10b 9abe 4d52 8c3d 724e 993c 88b7 583d
00000020: c637 153d 17f9 933b c3ef ca3d 9fff 57bb
00000030: 02a4 c13c 1bfc 86be 5e9d 083e 6ff9 443b
00000040: de39 e03d 3f76 2a3b 28f5 063a b446 ebbc
00000050: 4227 bbbc 5f77 1bbd a211 a4bc dd2d 253d
00000060: 7c2e 39bc 4a40 ed3c f4c3 b0bc 648c e7bc
00000070: 08d4 37bc b15e 90bc e8ff a8bd 9114 9f3e
00000080: ec74 e7bc ff1a 06bd 9aaa 8bbd e42e cbbc
00000090: a8b7 453c 872a 8f3d 38c6 86ba 3c73 053d
000000a0: 85cf efbd 1700 663d 2082 2e3c 0c0c b4bc
000000b0: ce96 a33c a7e3 363c dce8 15bd e9bc 163d
000000c0: aae7 9bbd 7896 afbb 7878 aebb 261b 1b3c
000000d0: 1b7b bfbc c4eb e23c 4075 7db9 fc79 3f3d
000000e0: 6a7b 22bc 89ca cf3a f6ec a1be 68d7 ea3d
000000f0: 496e c13c 29d8 ae3d c537 66bc 7602 d1bb
00000100: 3895 91bd 6ef7 9b3b 84ed 69bd 3696 cb3e
00000110: e7a2 0cbe fa05 f7bc 1afa dabd 8c19 1a3c
00000120: 6bfc ec3c 94eb a0bd dd4e da3c d957 61bd
00000130: 6a1f 273e c3a0 96bd 1da0 4b3d 814f 7abd
00000140: 38c4 f43c 5111 a03b 544d 143d 1e41 b8bb
00000150: e12e 9a3c 525d a7bd fe1b e73c 421d 2cbc
00000160: c58e b6bc c82b 54bc 0603 1ebc d252 8d3d
00000170: 4afd cfbb eddf 0d3d d674 a53d aa70 37bd
00000180: e86e c53b f79d ddbd a585 c43b 7cb4 393c
00000190: a2d8 e43c d528 6f3a 785f ef3c a88c a0bd
000001a0: 0bec 6e3c ad8c 2c3a 417f d1bc 131f ea3b
000001b0: f5f6 87bc ba19 033c 395d 9aba 01c0 78bd
000001c0: e5d5 1f3e 0d64 5bbd 8f86 bcbc 1439 61bd
000001d0: cc0f 55bb d6a1 1b3c f27f 80bd 510e 1a3c
000001e0: 8adb 1dbd 6dc3 653d 86ca b8bc 175e 353c
000001f0: ff79 0fbd 180a 6abb dc67 13bc d203 823c
00000200: 2d56 f1bc e922 093d ea61 4eba 2427 f93c
00000210: 65f6 9739 f56c 4b3d 75c3 48bc c12f 8abb
00000220: 3858 8b3d afa4 35bc 39ec 9e3d ad40 283f
00000230: 9188 bd3d c778 5aba aec8 c83d 4f5f 8bbc
00000240: 50de efbb 61f1 01be b4b6 ea3c f183 25be
00000250: 54e2 28bf 34b9 2ebe 8c45 49bc 40e6 e3bd
00000260: 4084 393c e7c8 183c 3b33 893d 2e07 5abc
00000270: 4989 bc3d 850f f33c 92ca ae3d b63a 6c3c
00000280: 4240 0b3d 0a41 0f3a 8ff5 db39 ea5c b83d
00000290: f9c2 a9bb ecca 123e 0fa2 12bf fa3a ce3d
000002a0: 4910 e13b d7d6 2b3e 93cf ca3b 5056 913c
000002b0: 2845 14be 5e0a ef3c f992 42be 180a 523f
000002c0: 5c27 37be 4c4a 81bb d02b 81be b77b adbc
000002d0: 93d7 49bc 18ee bb3d 8073 48bc 0da4 d33c
000002e0: 8c4c b0be effe f03d faf7 68bc 7fba bc3d
000002f0: 2963 703c 09c2 893c f9db 1e3c 57a4 b63a
00000300: 57fb 07bc 291f 6e3d ee91 83bd d90b 083c
00000310: 1d4c 52bd 8f75 15bc 861b 953b 2be4 8a3d
00000320: a6a3 2fbc 8849 14bd 6c2b 44bd 802e 8bbc
00000330: a9e9 73bc 8462 d13a 2285 bcbb 44dd b1bc
00000340: b87d d63d a95c 613c e9af 673d a936 2bbe
00000350: eec6 5a3d 5d63 01bc 6f03 043d 0c85 52ba
00000360: d045 23bd f00b 87b9 ec75 30bd 5719 693c
00000370: 3683 17bc 93d9 363d fa32 cdbb 3d8e bb3d
00000380: 86b5 1ebd 82e1 d33c 53ba 5b3d 0562 cd3c
00000390: 2363 153d 3c62 ffbd 9290 3cbd 2abe cebb
000003a0: 2d19 543d 6cd7 8f3c d178 6e3c 56d9 703c
000003b0: ca0e 123d 3eef d73c 137d 8abe e6ac 253d
000003c0: 3fee 2e3d 29d5 8a3d 9c75 183d 9fe2 5f3b
000003d0: 06e7 373d 232a b83c 9ac4 6a3d 568d 26be
000003e0: 0a2e 74bc c06f 863a c423 df3b 7b34 113d
000003f0: f9bd 02ba 45c1 b7bd 7da7 6cbd 729e a9bd
0.028488802 0.049768575 0.041457817 -0.007305584 -0.30087093 0.06851635 0.018714163 0.052909404
0.036430143 0.004515778 0.09909012 -0.0032958759 0.023637775 -0.26364216 0.13341281 0.00300559
0.10948537 0.0026010422 0.00051482255 -0.028720237 -0.022845868 -0.037955638 -0.02002794 0.04032694
-0.011302587 0.02896132 -0.021577813 -0.028265186 -0.011219986 -0.017623277 -0.08251935 0.31070378
-0.028253995 -0.03274059 -0.06819649 -0.024802633 0.012067713 0.06990533 -0.0010282462 0.0325806
-0.11709503 0.05615243 0.010651141 -0.0219784 0.01996937 0.011162675 -0.036599025 0.036801253
-0.07612546 -0.0053585134 -0.0053244196 0.009466922 -0.023374131 0.027700312 -0.00024171639 0.046747193
-0.0099171195 0.0015853207 -0.316261 0.11466867 0.023612158 0.08537323 -0.014051382 -0.006378467
-0.07108539 0.0047597205 -0.05711128 0.3976304 -0.13734017 -0.030154217 -0.10692234 0.009405505
0.028928956 -0.07857433 0.026648933 -0.05501542 0.16320577 -0.073548816 0.049713243 -0.061110977
0.02987872 0.004884877 0.03620656 -0.005622997 0.018821182 -0.08172096 0.02821159 -0.0105050225
-0.022284875 -0.012949891 -0.0096442755 0.06900562 -0.006347333 0.03463738 0.08078925 -0.04478518
0.006025184 -0.10821145 0.005997377 0.011334535 0.02793533 0.0009123211 0.029220328 -0.07839328
0.014582644 0.00065822416 -0.025573375 0.0071448176 -0.01659725 0.008001739 -0.001177705 -0.060729984
0.15608938 -0.053562213 -0.023013381 -0.054986075 -0.0032510636 0.009499034 -0.06274404 0.009402827
-0.038539447 0.056094576 -0.022557508 0.011069796 -0.035028454 -0.0035711583 -0.00899693 0.015870962
-0.029460037 0.03348056 -0.00078728667 0.030414172 0.00028984543 0.049664456 -0.012253632 -0.0042171185
0.06803936 -0.011086627 0.077599 0.6572369 0.092545636 -0.0008334037 0.098039016 -0.01701322
-0.007320203 -0.12689735 0.028651573 -0.16163613 -0.6597035 -0.17062837 -0.012284648 -0.11127901
0.011323035 0.009325243 0.066992246 -0.013307376 0.092058726 0.029670486 0.08534731 0.014418295
0.033996828 0.00054647087 0.0004195389 0.09002097 -0.0051807133 0.14335221 -0.5727853 0.10069843
0.0068683964 0.16781174 0.0061892956 0.017741352 -0.14479506 0.029179748 -0.19001378 0.8204665
-0.17886108 -0.0039456245 -0.2522874 -0.021177156 -0.012319463 0.09176272 -0.012234569 0.025835061
-0.344334 0.11767375 -0.0142192785 0.09215259 0.014672079 0.016816156 0.009696 0.0013934475
-0.00829967 0.058135185 -0.06424318 0.008303606 -0.05134212 -0.009122266 0.0045504 0.06781801
-0.010720169 -0.036202937 -0.047892973 -0.016989946 -0.014887252 0.0015974795 -0.0057531754 -0.021711953
0.10473198 0.013755002 0.056564245 -0.1672007 0.05341237 -0.007897225 0.032229837 -0.000803069
-0.0398615 -0.000257581 -0.04308121 0.014227233 -0.009247592 0.04464109 -0.0062621804 0.09157989
-0.038747333 0.025864366 0.05364449 0.025071153 0.036471497 -0.124699086 -0.04603631 -0.0063092904
0.051781822 0.017558776 0.014555172 0.014700254 0.035658635 0.026359197 -0.2704855 0.040448092
0.042707678 0.06778938 0.037221536 0.0034162176 0.044898055 0.02248103 0.0573164 -0.16264853
-0.014903555 0.0010256693 0.0068096835 0.03545044 -0.00049874146 -0.0897241 -0.057776917 -0.08282174

conv_shallow.bias f4 [20]
00000000: a0c4 5ebc b49f 93bd 27cf e53c d525 603c
00000010: 5bdd d0bb 0327 163e 3866 563b 1b30 86bd
00000020: 8dcf e23c 93be 833d 6a95 babd a245 cabd
00000030: 3d7d 223e 0b6e 02be 1f86 14bd 2681 2abc
00000040: 88b4 1b3c fecb 29bd 5085 84bd 39bc 2cbd
-0.013596684 -0.07208195 0.02805288 0.013680895 -0.006374044 0.1466332 0.0032714736 -0.06552144
0.027686859 0.064328335 -0.0911053 -0.09876563 0.15868087 -0.1273729 -0.03626072 -0.010406768
0.009503491 -0.041454308 -0.0647074 -0.04217169

conv_before_upsample.0.conv1.weight f4 [20, 20, 1, 1]
00000000: f027 0c3e ee49 6b3d cf36 ae3d e894 b8bc
00000010: c3f0 7a3e c391 0e3e e085 2fba 9e29 da3d
00000020: ff20 45bd 3556 833c 1779 1dbd 5e3e 51bd
00000030: 8a61 01be 1a20 fa3c 292c edbd 9ced 19bd
00000040: 2cbd edbd efcd c13d 9634 8dbd cf79 593d
00000050: 7221 6bbe 6f4e 1a3d fb63 053d 4996 883c
00000060: d131 833d b03b ca3d d9ac 973d e109 b2bd
00000070: 04f8 94bd 8e7b 763d eaf0 7fbe ae14 143d
00000080: 20de 02bb 781e 663e 235a 6e3d c6d8 01bd
00000090: 3297 4a3e 54f6 a93e 8327 ed3c 394a 14be
000000a0: a604 863e 06ab 6e3c 62e9 d2bc 8f10 1abd
000000b0: ec22 7cbd e9e1 03be e3ab 38bd edbe 933d
000000c0: aad6 073e 2f3c a3bc e524 513e 9c6c 3e3e
000000d0: 3631 94bb f10b 2cbe 550a 9f3d 06ab f53b
000000e0: 8b1f 4bbe a727 67be ce11 b2bc a940 143e
000000f0: 84d8 92be f41d 263d ca20 ffbc e3f8 8f3d
00000100: 661b 843e 031f 15bd 0716 3c3d 71e3 c2be
00000110: 5935 b7bc b2bb 8abd 2520 c1bd 365f 1b3d
00000120: b475 16bd 671e de3d ca38 4cbe 6dea 8d3d
00000130: 54b2 2a3e 2703 873e e317 363b ca68 6cbe
00000140: 6bc1 923e 23cf 903d a728 b13c 36ad 96bd
00000150: 126d 9fbd 1bb0 f8bd 3f8d 3ebc e29c 953d
00000160: abd9 d03d 5a1a b5bc ba4a 623e d6bb cdbd
00000170: 6761 a5bb 9199 1abd 83ad 3d3e 33cc e73b
00000180: 471e 06be c1bb 73be 19a9 4fbd ada0 323e
00000190: ab4e 8dbe 4b6d 97bd 45c5 2fbb 2442 873d
000001a0: db4c fe3c 2f5e ba3d 79d0 b63d bf2a 79bd
000001b0: a4e2 05bd 3010 163d 99e3 f7bc 58d4 c63c
000001c0: 0cc8 fe3c 45d6 a73e 1dce 4fbe 5b1a 2cbc
000001d0: c98f 0b3e 503e 973e 32e2 abbc d4c9 d2bd
000001e0: 2372 cb3d 2c07 acbc 4ec6 acbc 120d 0a3a
000001f0: 8f17 84b9 8616 42bd 7447 47bd 511f 473d
00000200: b7ce ee3c bc10 3e3b bab9 013e 7146 4cbc
00000210: e92a e23b 3a6a 01be 8f7b 303e 333c 81bb
00000220: 8fc5 babd 44ba d13c 231a d5bc 3637 803d
00000230: 290d e6bc 8115 58bd 2de6 9d3d d902 cb3d
00000240: 8a0d 033d af5c 763d c60b b73d 9bf0 b13d
00000250: b997 c53c 24a5 ab3b 3c23 8cbd c87f 9ebb
00000260: 04ec aebd 1d54 e63d 1993 063d 66a8 4f3d
00000270: 891f 353e f44c 853d cf47 243e a7b8 023d
00000280: 1154 aebe 6741 b8bd 526f 16bd f2b9 ec3d
00000290: 44ed c93d d7aa 403d efa6 db3d a66b 3ebe
000002a0: 7754 943d b24a 483d b2d5 85be 8189 f13a
000002b0: 3160 b2bd e819 833e 6996 16be 1154 dd3c
000002c0: f149 a43d 8474 853e 5ff6 673d c8cd 2ebe
000002d0: 3125 d13d 9bdd a6bc 2e3f e6bd a04f 403d
000002e0: 07e7 aebb cebf 87bc a738 e8bd d9ee 003d
000002f0: 00d7 2fbd 5919 dc3c f200 b33c 260b 9b3c
00000300: 0235 e63d 67d9 82bd ae1e 1f3e 3b14 6e3d
00000310: 7725 8dbc 08cc 36be d503 15be f999 503e
00000320: f400 adbe fae8 c4bd 9962 1b3e 2a74 57bd
00000330: 2137 963d ddd9 133e 48cc df3d d8a2 bbbd
00000340: 6ed1 4fbd a9ca 18be f759 45be 4249 163d
00000350: f688 243e fc51 793e 470c 32be 066f ba3b
00000360: a41a 05bd 6efe 933e 6dac ff3d e774 7bbe
00000370: 41e7 dd3e 4775 eebe dfa1 fb3d 09f6 19be
00000380: 5a34 3cbd 7ab8 083e f347 73be 0b76 b6be
00000390: 87dc e43d e55e 0ebe 7270 f9be 5c56 b4bd
000003a0: 52a4 143f 2a35 433e 7425 c9be 31d0 c83e
000003b0: 4bab 643d 94fb 113f f342 c63d bc40 933e
000003c0: 9f0e 143f aadc d7be effc 843d e0b8 0fbf
000003d0: 97b3 ddbd 680a cfbe 29cb 6abe e7ea debe
000003e0: 624b 9e3e 9438 193e ceab 96be ed20 37be
000003f0: 43c7 433e f3e4 18be 4a54 d2be 46cf d63e
0.1368711 0.05744355 0.08506548 -0.022531942 0.24505906 0.13922791 -0.0006695669 0.10652469
-0.04812717 0.016032318 -0.03844556 -0.05108487 -0.12634864 0.030532885 -0.115806885 -0.037580118
-0.11608347 0.09463107 -0.068947956 0.05309468 -0.22961977 0.037672456 0.032566052 0.016673224
0.06405986 0.09874666 0.07406015 -0.086932905 -0.07273868 0.060176425 -0.24994245 0.036152534
-0.0019968823 0.2247256 0.05819143 -0.031700872 0.19784239 0.33195746 0.028949505 -0.14481439
0.2617542 0.014567142 -0.025746051 -0.037613448 -0.06155674 -0.12879147 -0.0450858 0.072141506
0.13265482 -0.019926159 0.2042423 0.18596119 -0.004522468 -0.1680143 0.077656426 0.007497194
-0.19836251 -0.2257372 -0.021737006 0.14477791 -0.28680813 0.04055591 -0.031143565 0.07029893
0.25802153 -0.03640653 0.045919444 -0.3806415 -0.022364305 -0.06774081 -0.09429959 0.037932597
-0.036733344 0.108456425 -0.19943538 0.06929479 0.1666959 0.26369593 0.0027785234 -0.23086849
0.2866319 0.07070758 0.02162583 -0.07357256 -0.077844754 -0.121429645 -0.011630355 0.07305314
0.10197767 -0.022107292 0.22098818 -0.100455925 -0.0050470117 -0.03774411 0.1852322 0.007073903
-0.13097487 -0.23802091 -0.050698373 0.17444105 -0.2759908 -0.07393893 -0.0026820463 0.06604412
0.031042507 0.09099995 0.08926482 -0.06083178 -0.032686844 0.03663653 -0.030259894 0.024271175
0.03110125 0.32780662 -0.2029347 -0.0105043305 0.13629068 0.29539728 -0.020981882 -0.10292402
0.09933879 -0.020999514 -0.021090653 0.000526623 -0.00025194554 -0.04738476 -0.048652127 0.04861385
0.029151304 0.0029001674 0.12668505 -0.012467966 0.006902088 -0.12638178 0.17234634 -0.003943944
-0.091197126 0.025601514 -0.02601344 0.06260531 -0.028082447 -0.052754883 0.07709918 0.099126525
0.031995334 0.060146984 0.089377925 0.0868847 0.024120199 0.005238192 -0.06842658 -0.00483701
-0.0854111 0.11246512 0.032855127 0.050697707 0.17687811 0.06508818 0.16043018 0.03191438
-0.34048513 -0.089968495 -0.036727257 0.11558904 0.09859708 0.047037926 0.107251994 -0.18595752
0.07242673 0.04889936 -0.261396 0.001842782 -0.08709753 0.25605702 -0.14705814 0.027017625
0.08021916 0.26065457 0.056631442 -0.17070687 0.10212172 -0.020369342 -0.11242519 0.046950936
-0.005337599 -0.016570952 -0.113389306 0.031477783 -0.04292965 0.026867555 0.021851037 0.018926214
0.11240579 -0.063891225 0.15539047 0.058124762 -0.017229779 -0.17851269 -0.14552243 0.20371236
-0.3378979 -0.09614749 0.15174331 -0.052601017 0.07334734 0.14438577 0.109276354 -0.09161919
-0.050736837 -0.14921059 -0.192726 0.036690958 0.16067871 0.24347681 -0.17387496 0.0056895046
-0.03249611 0.28905052 0.124840595 -0.24556313 0.43340495 -0.4657385 0.12286734 -0.15035261
-0.045948364 0.13351622 -0.23757915 -0.35636935 0.11174875 -0.13903387 -0.487186 -0.08805534
0.5806323 0.19063249 -0.39286387 0.39221337 0.05582742 0.570245 0.09680738 0.28760326
0.5783481 -0.4216054 0.06493556 -0.5614147 -0.1082527 -0.40437627 -0.22929062 -0.4353859
0.30916888 0.14962989 -0.29427952 -0.17883654 0.19118981 -0.14931087 -0.41079932 0.41955012

conv_before_upsample.0.conv1.bias f4 [20]
00000000: f5b3 69bc 13da f1bc ec7a 963b 4b7d 61bd
00000010: d768 c5bb 8cb2 9e3c 8c0d 863c 9ce3 85bd
00000020: fbce fdbd c475 943a b310 e0bc 02f5 4a3d
00000030: 81de 423d 678d 873c 85cd 25be 08c9 94bd
00000040: 7fd0 ff3d c191 2d3f 5a9e 29bc facf ffbd
-0.0142640965 -0.029522931 0.00459229 -0.05505113 -0.006024461 0.019372247 0.016363882 -0.06537554
-0.12392994 0.0011326601 -0.027351713 0.049550064 0.047575478 0.016546918 -0.1619168 -0.07264906
0.12490939 0.6780053 -0.010352695 -0.1249084

conv_before_upsample.0.conv2_1.weight f4 [5, 1, 3, 3]
00000000: 689e bbb9 867d 7cb9 83fa 1aba 1605 8738
00000010: 7d27 4ebb 0e2c 05ba 6775 e13b b159 cd3d
00000020: f6fb e6bb a1f7 463a 1ab3 0a3c da0d 42bb
00000030: ba26 67bb ca70 a7be 5fe3 023c 9bcd 503b
00000040: 7c0c c33b 2f88 48bb ec0c 2cba 4a2e 1dba
00000050: eac2 5239 e4ed 993b 3ddf a13e c5d5 d6bb
00000060: 6c2c 45bb c12f 80bc 033d cd3b 71a9 24ba
00000070: 9920 1a3b 4708 9d3a 098c ee3b 433b 9ebe
00000080: 37fa 8ebb 2da8 f73a cfb2 863b cecd 8cba
00000090: 03cd 643a 2d1d 18bc 936d 493b bef5 9bba
000000a0: ae70 a93e 2004 2d3b 6a70 4bbb 6bf7 b5bb
000000b0: 2592 323b
-0.0003578544 -0.00024079354 -0.0005911963 6.438249e-05 -0.0031456642 -0.0005080112 0.0068804505 0.10026873
-0.007049079 0.000759 0.008465553 -0.0029610307 -0.0035270886 -0.3270324 0.00798878 0.0031860832
0.005952416 -0.003059875 -0.0006563205 -0.00059959723 0.00020099772 0.004697548 0.3161563 -0.006556245
-0.0030086292 -0.01564777 0.0062633767 -0.0006281352 0.0023517965 0.0011980616 0.007279877 -0.30904588
-0.004363324 0.0018894725 0.004110671 -0.0010742487 0.0008728059 -0.0092843 0.0030735477 -0.0011898798
0.3309378 0.0026400164 -0.0031042346 -0.005553176 0.0027247753

conv_before_upsample.0.conv2_1.bias f4 [5]
00000000: 3c99 65bb 9f46 a33d c493 1b3d bf0c ce3d
00000010: 35c1 933d
-0.0035033962 0.07972454 0.037982717 0.10061025 0.07214586

conv_before_upsample.0.conv2_2.weight f4 [5, 1, 5, 3]
00000000: 993f 193a a4d7 3fba 0a44 01ba ba91 94ba
00000010: c141 b33b d422 d0ba aa9a db3b 2183 abbe
00000020: bfdd a13a dde8 1c3b 100b 923a 7a31 a038
00000030: c8d9 483a 739c 79ba 8d31 d439 6f9c b53a
00000040: 55e2 aa39 2a24 60ba 66f8 b7b9 2b56 ab3b
00000050: b85b 0a3a 43d9 8ebc 861e dd3e 6154 773b
00000060: d056 df3a 7e45 60bc 6929 a23b 1f9c a8ba
00000070: 2b48 4b3b da4c 03ba 4bcf 2f3b b6ed 613d
00000080: 2c6b 44ba cdf7 6fbc 4f54 d1bd e683 70bc
00000090: 5418 00bd a288 d23d dcf1 97bc df48 36bc
000000a0: ccb1 c83c 6d8c 06bc 5119 f339 d1ec 213b
000000b0: 048e b638 e609 873a 9efc a7ba 7f36 ad3a
000000c0: 140d 8e39 6d5c 563c 8d47 bbbb e2a3 353c
000000d0: b3e6 d0be 7697 523b a702 443b d9c6 663c
000000e0: d74d 9abb aec8 5839 e1b1 dbba 3653 52b9
000000f0: 399e c1ba 8095 b73a f1bc 2139 73da a23a
00000100: 6396 8cbb 9a65 0a3b 15bc 09bc a471 c53e
00000110: afc1 83bb 774d 773a edf8 c6bb e716 7c3b
00000120: 06bc bdba c61f 173b 8beb fab9
0.00058459636 -0.0007318205 -0.0004931098 -0.0011334934 0.005470485 -0.001587952 0.006701787 -0.3349848
0.0012349411 0.0023942508 0.0011142213 7.63861e-05 0.00076618465 -0.0009521909 0.0004047271 0.0013855825
0.00032593557 -0.0008550311 -0.0003508955 0.005228778 0.00052779494 -0.017437583 0.4318735 0.0037739503
0.0017039422 -0.013688443 0.004948784 -0.001286391 0.0031018357 -0.0005008705 0.0026826437 0.05515834
-0.00074927765 -0.014646483 -0.10221159 -0.014679885 -0.0312732 0.10279967 -0.018547945 -0.011125772
0.024498843 -0.008212191 0.00046367434 0.0024707804 8.704889e-05 0.0010302633 -0.0012816375 0.0013215094
0.00027094095 0.013083559 -0.0057153166 0.011086436 -0.4080101 0.0032133735 0.0029908807 0.014085495
-0.0047089863 0.00020674124 -0.0016761386 -0.00020058159 -0.0014771885 0.0014006346 0.00015424543 0.0012424722
-0.0042903884 0.0021117688 -0.008406659 0.38563263 -0.0040208916 0.00094338454 -0.0060721547 0.00384658
-0.0014475591 0.002305971 -0.0004785921

conv_before_upsample.0.conv2_2.bias f4 [5]
00000000: ca5b c33d 3f77 273d 95c3 1b3c 7a7f 7f3d
00000010: bc8b 313d
0.09538992 0.040885206 0.00950708 0.06237743 0.04334615

conv_before_upsample.0.conv2_3.weight f4 [5, 1, 3, 5]
00000000: 40af da39 cef8 eb3a 856f 783b 84fe 52bb
00000010: 7228 1e3a 6937 18bb 0a65 533c 0b0a c8be
00000020: 48e6 9b3b 8a17 1bbb b8cc ff3a 9d35 2e3a
00000030: af1d 2b3c 1287 9dbb dd8f 203a 8e1e b23b
00000040: 3a7e 52bc 6056 91bc e515 b23b 25a7 ac3a
00000050: 92de a03b cb01 bdbb f56b 0cbf 232a 76bc
00000060: 7dca af3a fb4b 9a3b 4c5f 33bb 4bb2 5f3b
00000070: 9813 2a3b c764 9239 b39d 103c 8fae 64bc
00000080: 3083 81bc 61c8 fe3b 1c13 86b9 ee85 cb3b
00000090: 56b3 15bc 234e 03bf 4df0 cbbb a553 93ba
000000a0: fa24 e43a 76fd 6f3a 9629 883b 273b b7b9
000000b0: f441 133b 487e 943b b87b 783b 2227 903b
000000c0: 6ce9 afbc fd63 4cbc 3a16 bb3b 6f5e 1fbd
000000d0: 3e5c 11be 63d3 93be 2b18 883d d50a 163a
000000e0: b4ec 98bc f964 603b 8aab e7bc 53b1 24bc
000000f0: 480d 7dba d070 4db9 0139 83bc e8ac ed3a
00000100: 77b5 edba dd0f 9b3b 3621 9739 fccb 473e
00000110: a23d 743c cc4a 813b 437b 5db9 aa4f 1c3a
00000120: 15ac 1dbc ac1c 9f3b 7428 75ba
0.00041710772 0.0018003227 0.0037908268 -0.003219516 0.00060332485 -0.0023226386 0.012902508 -0.39070162
0.0047576763 -0.0023665153 0.0019515967 0.0006645562 0.010444089 -0.0048073614 0.0006124953 0.0054357713
-0.012847478 -0.017741382 0.005434739 0.0013172372 0.004909345 -0.005768036 -0.5485223 -0.015024695
0.0013411787 0.0047087646 -0.0027370034 0.003413337 0.002595162 0.00027922375 0.008826661 -0.013957634
-0.015809625 0.007775352 -0.0002557271 0.006211034 -0.009136995 -0.512911 -0.0062237144 -0.0011240138
0.0017406039 0.0009154895 0.004155348 -0.00034948552 0.002246973 0.0045316555 0.003791554 0.0043991962
-0.021473609 -0.012475011 0.0057094367 -0.03890842 -0.14195344 -0.28872213 0.06645235 0.000572366
-0.018667556 0.0034239872 -0.028280038 -0.010052043 -0.0009653163 -0.0001959235 -0.016018393 0.0018133195
-0.0018135746 0.0047321157 0.00028825708 0.19511408 0.0149072725 0.003945684 -0.00021122121 0.00059627986
-0.009623547 0.004855713 -0.0009352036

conv_before_upsample.0.conv2_3.bias f4 [5]
00000000: f0b1 983d 3697 dcbe 13ec dfbe f0a6 e2bc
00000010: e932 8b3c
0.07455814 -0.43084115 -0.43734798 -0.027667493 0.01699205

conv_before_upsample.0.conv2_4.0.weight f4 [5, 1, 3, 3]
00000000: fd93 a1bb 31c1 653c 89f1 c33c 9b89 b1bb
00000010: 38ed 9dba c26c bfbe de0e dcb9 f7ef 33bb
00000020: 15f7 193d c88f 6cbc c169 e5bc 8433 64bc
00000030: f06e 35bc b0c5 023e 7e5c 0fbd 2826 a5bc
00000040: 0b00 e5bc 4ff6 013c 483f f63b 92ee 85bc
00000050: a40a 56ba fecd 06bd 0f9a 9f3d c222 aabc
00000060: 8e60 26bb 2de7 90be 5d60 b0bc 7ac8 183c
00000070: 95b1 733b b157 95bc 9a6d a63c 402c e8be
00000080: fe90 183c 7b1b a1bc d263 be3a e163 7a3c
00000090: 157e c43c b9a1 1c3c 3500 09bd b836 db3c
000000a0: 8449 a4be a79c de3c 9c3c 1dbd 1008 09bc
000000b0: 21fa 003d
-0.0049309717 0.014023111 0.023918884 -0.005418015 -0.0012048846 -0.37387663 -0.00041972747 -0.0027456263
0.03758915 -0.014438577 -0.028004529 -0.013928298 -0.011073813 0.12770724 -0.035000317 -0.020159796
-0.027954122 0.00793226 0.007514868 -0.01634911 -0.0008165038 -0.032911293 0.07793056 -0.020768527
-0.002538714 -0.28301373 -0.021530325 0.009325141 0.0037184705 -0.018230291 0.020315934 -0.4534626
0.009311913 -0.019666424 0.0014525598 0.015282602 0.023985902 0.009560042 -0.033447463 0.02675949
-0.32087338 0.027174307 -0.03838788 -0.008363739 0.03148854

conv_before_upsample.0.conv2_4.0.bias f4 [5]
00000000: 8fb0 043d a53d 233c d444 533e 4dea 133c
00000010: 13c4 d63c
0.032394942 0.009963428 0.20631725 0.00902803 0.026216542

conv_before_upsample.0.conv2_4.1.weight f4 [5, 1, 3, 3]
00000000: be90 953c f564 a6b7 106f 0e3c 1932 ef3d
00000010: d398 01bd fc9f e83b b9e4 b03e 48dc 85bc
00000020: 7c40 493c 5eed 0f3b 984d bd3c 636a 823c
00000030: 507f 6c3c 8fec 36bd bc29 3d3d 94aa 6c3a
00000040: c36a 093d b871 023d e3b6 93bd bb44 0ebe
00000050: ed99 10bd 7ce3 323d 6194 463e a144 073d
00000060: 6f63 d839 140f d3bc 7f32 3abc b588 33bc
00000070: 9a52 893b c977 663c 9a13 b9bb 6745 c7be
00000080: 58bf 35bb 9422 a43c e89d f63b 04f4 8fbc
00000090: 1839 e1bc 9949 bd3b b579 c43c e955 9c3c
000000a0: f421 8bbe ab22 333c 77ff cd3c 394e d7bb
000000b0: 6e35 18bd
0.018257495 -1.9835754e-05 0.008693472 0.11679477 -0.031639885 0.0070991497 0.34549502 -0.01634039
0.012283441 0.002196155 0.023108289 0.01591987 0.014434651 -0.044659194 0.04618238 0.00090281037
0.03354908 0.031846732 -0.07212617 -0.13893406 -0.035303045 0.043673977 0.1939254 0.033024434
0.00041272814 -0.025764026 -0.011364578 -0.010957886 0.004190755 0.014066645 -0.0056480886 -0.38920137
-0.0027732458 0.02003602 0.007526148 -0.01757241 -0.027493045 0.005776596 0.023983816 0.019083934
-0.27174342 0.010933558 0.02514623 -0.006570604 -0.03716033

conv_before_upsample.0.conv2_4.1.bias f4 [5]
00000000: 51fd 09bd 39c0 3dba 19cf 3fbf e17a 853d
00000010: 5a67 4d3c
-0.033688847 -0.0007238421 -0.7492538 0.06517578 0.012536848

conv_before_upsample.0.conv1x1_2.weight f4 [20, 20, 1, 1]
00000000: d58d 003e 0648 babe 7f19 cdbe e4cc f7bd
00000010: e95e 84bd 7191 ce3d f2c9 8d3e fc64 10bf
00000020: f776 cb3d fe2e d33e d175 d6bb 7fb3 2a3b
00000030: 61d3 f0ba 8203 18be a92e 023f 69af 2dbd
00000040: b457 573e 5f9e 3c3d cf87 973d 1524 27bf
00000050: 115d e9be 576f cdbd 380a 403e dc0b efbd
00000060: 330f 29be 68b7 43be a000 a83e 5dfe 453f
00000070: e748 d9be c5a3 a93e dfaa 8bbd bee1 2abe
00000080: c35d 2a3e d008 24be b122 41bf ab7f bc3d
00000090: 0f5b 5dbe c4d4 56be 5028 a03e 544a 0640
000000a0: 48e1 ad3f c942 8abb b7ea bb3d eced 1cbe
000000b0: 3128 25bf 546b d3bd d9c8 9c3d a3b9 153f
000000c0: b5c6 a6bd 9821 19be 674a 253f e43c 8bbe
000000d0: 5c47 843e e852 c3bd 7685 83bf 6a30 c63d
000000e0: c764 073e ef0e 093e 5b77 d53e 9cc0 b5bf
000000f0: 911f 33bf 7a2f 58bf db12 763e b634 723e
00000100: a058 813e 5785 41be a60d 5b3f 8933 803e
00000110: 68e3 01be 09c3 9abe cb89 51be ef61 c13c
00000120: a4cb 9ebc fac7 4cbe dcd4 763d 263f 263e
00000130: a1c8 ec3c a505 cd3b 191b 693d b22a 41bf
00000140: 1add a140 41a3 0abf aa6c 4d3e 4d2a b53d
00000150: 82b2 603e f676 293e 63c9 ffbe cdd6 ae3c
00000160: 350b 4b3e 6f18 883d d342 83be a547 5d3d
00000170: 35a0 54bd c07b 09be 0987 d63d 3e04 0dbd
00000180: 52d9 c0bd 3975 0fbe 867e eb3e fa6e 463f
00000190: 81f1 aabd e5e4 9b3c d42c c0be 888c 2a3e
000001a0: cb03 96be 24b2 883d 81f2 3b3d f6d4 3bbe
000001b0: 951e 9abd 70af 43bd 3f48 7ebd df06 f13c
000001c0: 8430 f6bc 2dc6 0bbe 8b96 a6bd 448b 81bd
000001d0: 0507 68be 4685 55bc 197c 0e3f a7f2 47bd
000001e0: 6c03 4fbf c0af 02be 2c12 0f3c 7103 1bbe
000001f0: eb21 573e f7da 553d e861 ddbd c7c8 b1bd
00000200: ddca 7ebd 44ed 92bd 4407 183e 739d 6a3d
00000210: 8e70 5dbd e254 77bd bc2e 813e eca0 93bc
00000220: 5092 94bc d330 de3d 97fe 1f3e f8ea 0f3e
00000230: a7b3 e6bd 9128 45be a0fe 453f 21bc a4bc
00000240: 2f2a 6abf 0a32 013f a6e5 71be d5d9 243e
00000250: a56c 063e e0a4 823e a1a5 dabd 2cc5 703c
00000260: 3f1f 3dbc 058d 823e 0e67 f63e c87a 623c
00000270: cfeb 5dbe 628e 9ab9 285d 2abe 4cb6 0a3e
00000280: 28c8 973e a042 13bd 5e82 673d 25c3 83be
00000290: dd7f abbc b1f1 8b3e 1236 923d b7bb 42bd
000002a0: e3ea fb3d d336 c6be 696d 07bb 1bf8 05bd
000002b0: aa81 fd3c e431 093d 2d0c 6cbf 6a42 89bc
000002c0: ea96 8dbe c650 19be 9046 783e d484 403f
000002d0: fd4d 78be c724 c1bd d4ac 063f 3d9a 87be
000002e0: fe3f 263f 04fc 50be 7860 d7bd 004f 213d
000002f0: a0b3 253e c094 da3d f738 cf3d 1735 d9bc
00000300: ec47 ec3c a74c 373e ba4f 853e a5cb d53d
00000310: c2b9 8b3e a47a 1e3d 2bb2 60bf 2665 77bd
00000320: 6153 0ebf 298c bbbe c0e2 a13e 3367 a3bd
00000330: 6741 883e d8bb df3e 2529 273d e64d 663e
00000340: 5963 b3be 2604 623e 7714 f5be 9c47 bbbd
00000350: f09a c43d 117f 8fbd 5e61 17bf 4950 8dbd
00000360: 360b 4c3e 6da8 503e 3892 663d ea9a 5bbe
00000370: 99cc 23bf d84d 45be a0e6 dd3e 1e70 7bbd
00000380: d236 fa3e 5d39 ce3d e6cb 64bf dd9a f4be
00000390: 5e84 19bf 2fef 453e 1f25 8b3c 6151 103d
000003a0: 7c96 d2bc 00df 6ebd 2024 82be b7ee c7bc
000003b0: dcec f63d 37ac 41bd 6ed1 2c3f 272c 33bf
000003c0: 3514 093e 3ba0 f3b8 2e75 293d 15b4 0abe
000003d0: ea95 703d 4776 38bc ca11 213d e581 7f3e
000003e0: 8e3b 22bd ec74 603d 6cca 663d d797 9e3c
000003f0: 2a58 94bc f864 723c 184a 873d fcab 853c
0.12554105 -0.36383075 -0.40058514 -0.12099627 -0.06463415 0.100863345 0.27693135 -0.5640409
0.099348 0.4124679 -0.0065448065 0.002604693 -0.0018373543 -0.14845088 0.5085245 -0.042403612
0.2102955 0.046049472 0.0739895 -0.6528943 -0.45578817 -0.10031002 0.18753898 -0.11672184
-0.16509704 -0.19112933 0.32812977 0.7734125 -0.42438433 0.3313276 -0.068197004 -0.16687676
0.1663733 -0.16018987 -0.7544356 0.09204038 -0.21616767 -0.20979601 0.31280756 2.0982866
1.3584375 -0.004219387 0.09175628 -0.15325135 -0.6451445 -0.103232056 0.07655496 0.58486384
-0.08143369 -0.14954221 0.64566654 -0.27194893 0.25835693 -0.095372975 -1.0275104 0.09677203
0.13222037 0.13384603 0.41692623 -1.4199405 -0.6997004 -0.84447443 0.2403063 0.2365292
0.25262928 -0.18898521 0.855677 0.25039318 -0.12684405 -0.30226925 -0.2046272 0.023606269
-0.019384213 -0.1999816 0.060261592 0.16235027 0.028904261 0.0062567764 0.056910608 -0.7545577
5.05824 -0.54155356 0.20060983 0.08845959 0.21943095 0.16549286 -0.49958333 0.02134266
0.19828494 0.06645285 -0.2563692 0.054023404 -0.051910598 -0.13426113 0.10474975 -0.034427874
-0.094164506 -0.1400956 0.45994967 0.77513087 -0.083468445 0.019030044 -0.375342 0.16655171
-0.2929977 0.06674603 0.045885567 -0.18342957 -0.07525364 -0.047774732 -0.062080618 0.029422222
-0.03005243 -0.13649817 -0.081341825 -0.06325391 -0.22658928 -0.013032263 0.5565811 -0.048815396
-0.80864596 -0.12762356 0.00873236 -0.15138032 0.21009032 0.052210774 -0.1080969 -0.08680873
-0.062205184 -0.07174161 0.14846522 0.05727906 -0.05406242 -0.060383685 0.25230968 -0.01802107
-0.018136173 0.10849156 0.15624462 0.14054477 -0.11264735 -0.19253756 0.7734165 -0.020109238
-0.9147062 0.5046698 -0.2362276 0.16098721 0.13127382 0.25516415 -0.106761225 0.014695447
-0.011543094 0.25498214 0.481255 0.013823219 -0.21671985 -0.00029479252 -0.16637099 0.13546103
0.29644895 -0.03595221 0.056520812 -0.2573482 -0.020934993 0.27332833 0.07139219 -0.0475423
0.123006605 -0.38713703 -0.0020664579 -0.032707315 0.030945618 0.033494845 -0.9220608 -0.016755302
-0.276542 -0.14972219 0.24245667 0.7520268 -0.242485 -0.09430843 0.52607465 -0.26484862
0.64941394 -0.20408636 -0.10516447 0.03938198 0.16181803 0.10672903 0.10118287 -0.026514573
0.028842889 0.17900334 0.2603739 0.10439233 0.2729016 0.038691178 -0.8777186 -0.060399197
-0.55595976 -0.3663037 0.3161831 -0.07978668 0.26612398 0.43698 0.040810723 0.22490653
-0.35036734 0.22071895 -0.47867176 -0.09144518 0.095998645 -0.07006658 -0.59132946 -0.06900079
0.19926152 0.2037675 0.05629179 -0.21445814 -0.63984066 -0.19267976 0.43340015 -0.06138622
0.4886995 0.10069535 -0.89373624 -0.477744 -0.599676 0.19329523 0.016985474 0.03523386
-0.025706522 -0.058318138 -0.25418186 -0.02440582 0.12056896 -0.047283377 0.67507064 -0.69989246
0.13386615 -0.00011616988 0.041371517 -0.13545258 0.05873672 -0.011258668 0.039323606 0.24951895
-0.039607577 0.054799005 0.05634539 0.019359512 -0.018108446 0.014794581 0.06605929 0.01631736

conv_before_upsample.0.conv1x1_2.bias f4 [20]
00000000: c1eb d83c 8cd6 2c3d 6ded 87bc 655d d4bc
00000010: 4ad6 313b 5f8e 23be b37a be3c fb62 bf3d
00000020: 01ce 3dbd 09c1 1ebd 770b fb3d 93d4 dc3d
00000030: 7174 26be fa1f 133e efd8 283d 5fba 3c3b
00000040: a9e7 4dbd de31 3e3d e289 d8bb cb83 063d
0.026479604 0.042196795 -0.016592706 -0.02592344 0.0027135783 -0.15972279 0.023251867 0.09345051
-0.04633904 -0.03875831 0.12258046 0.10782733 -0.16255356 0.14367667 0.04122251 0.002879761
-0.050269756 0.046434276 -0.006608234 0.03284053

upsample.0.0.weight f4 [48, 20, 3, 3]
00000000: de38 4dbd 6d6e 10bd 4068 653c 79c3 1dbe
00000010: b4b5 5b3d ef75 af3c 4ffd 2e3c ce45 833d
00000020: c4b6 243b 362d 35bc 4f71 923e d926 1fbd
00000030: bc8a fbbd 2374 abbd fdff f0bd a2b5 83bc
00000040: ab01 acbd 8167 783a b6f7 8dbd 9473 f13c
00000050: b3d9 ffbc 261a 1abe a5c5 d03e d939 f83b
00000060: 3525 1d3c fad5 acba 7344 58bc 19f9 123d
00000070: 475e 453e 6d77 1bba e4c6 9bbd ec83 83be
00000080: f51c 0d3d c9d2 293d c9cf 9b3d 38c5 8a3b
00000090: 6fe5 123d 2099 b6bd 4c77 9fbb 56ef 44bd
000000a0: fa23 4bbe 4b24 143d fa29 eb3b bf44 b63c
000000b0: 2477 ec3b 9687 0e3e 73c3 43be 4507 36bc
000000c0: 4f25 b63b 06a9 6e3f 9a9c d2bd bc54 febc
000000d0: c7c0 e2bc 966f acbd 36fe 06be dd3f 7bbd
000000e0: e677 5b3c 5b61 8d3c 84fa aebd a290 613d
000000f0: 9225 0bba 7919 be3c 2700 8e3c 29fc 1b3d
00000100: 1f33 bcbc 0970 063d 7afd 303d 5ec3 18bf
00000110: 45d1 173d ddae 943c 140d 893d daf6 043c
00000120: 1ea1 08bd 4e4f 2b3e ba6a 0cbd 5620 d4bd
00000130: fc38 43be 7852 4439 4826 dc3c 2633 68bc
00000140: 1116 17bc f6c4 a9bd 491a 49bd e46c 2f3d
00000150: fb40 84be 727c 9fbe cbfe 713d 25f3 243d
00000160: dc6a e23c 09ef 29bc 2baf 88bb de02 72be
00000170: 8f30 703d 96d1 213e c903 5dbe 80b3 733d
00000180: 098d 10bc 5d86 4c3d a402 3b3c f574 063c
00000190: 08d3 793e 4708 49bc 1482 3bbd d97b f8be
000001a0: f4ed 693d 68b1 e73c 67f5 353d 60d6 763b
000001b0: 40d8 dc3d f7c6 893e 18af db3c 4e03 3e3e
000001c0: e40d 933e 16d5 023d bd80 133d 5953 0b3d
000001d0: 85a2 b9bc c219 3c3e 0f20 e0bd 4cdd 97bd
000001e0: 5ede 7cbd cc57 d73e 8140 66bd 7386 f1bc
000001f0: a10a 1d3c 3128 2bbd 0641 b7bc f8ee 7e3e
00000200: 3b00 6dbc ed02 273c 170d 46bc 1049 c63c
00000210: f164 46bc 404a 47bb 7dd3 ac3b 0b04 21be
00000220: 064f 263e 9833 7cbd a14f f53c ea0f e23e
00000230: 0ee8 03be 9c4f 83bd ca66 1dbe eb56 4b3a
00000240: 7ee4 903d 54e1 df3c 7f01 023d aaeb 783e
00000250: b3f6 29be 9b9e 11bd 5965 b93a 7639 09bd
00000260: e4e2 953c ea2b 4b3d bdcd a0be 7c5e 613d
00000270: 0700 023d 91ba 53be 1910 ee3d bf2c 103d
00000280: 9b21 0e3e 1848 d93b c30e cebd 36a6 a43e
00000290: 6bfa 24bd b0f2 f7be d207 c73e ae6d fa3d
000002a0: c050 203d 9874 823d 31df eabc ad3a 3e3d
000002b0: fa87 413e 7877 d73c 70ff 18be d516 8cbd
000002c0: 5c2b 933d 1dfa 2a3d 67e8 1d3e 26c3 f63b
000002d0: c23f 783d d10e 40be 45ee cf3c d9e9 063e
000002e0: b548 07bf 0a7c 8e3d 2d40 52bb b585 9b3d
000002f0: c417 b53b d022 24bb b025 803e 4992 53bd
00000300: 2e78 91bd 0383 c4be f91f 0bbe b006 ad3c
00000310: 394d e2bd bff4 9dbb be90 2cbc f326 6d3d
00000320: 0895 47bd 9a98 943d 15e3 4d3d 9e13 82ba
00000330: 9299 80bc 6fe7 ee3c de17 41bc 4393 9abc
00000340: c875 923e 0cb2 5d3b 00e9 9e3b 4a2e bfbe
00000350: a7f8 a13c f88d e33b 5ec8 e33d 10a0 1d3c
00000360: df67 c8bb a094 923d 8e0f 89bc 1cb4 14bd
00000370: c951 9bbd 051e 9e3b e292 2a3b f51b 283d
00000380: eef8 2a3c 29c6 b53d 11a6 66be b9da 123c
00000390: 6f04 d33d d678 2a3f 2d0e c9bc e265 d3bd
000003a0: 17e2 86bc 7954 bdbd cfad b1bd 8a54 3bbe
000003b0: b3ad 273d 8879 1f3d ddc1 28bd a956 7f3d
000003c0: 2064 423d 6a12 1b3d da35 fabb 7a2a a0bc
000003d0: 9ef5 76bd 6ee2 423d 2f64 3abd 9c22 80bf
000003e0: fec7 a43d c336 a23c 6a2c ad3d 0b0c 4b3c
000003f0: 3998 2f3c a19b db3d ba61 3c3c 1fe3 eb3d
-0.05010306 -0.03526156 0.014001906 -0.15406598 0.053640082 0.02141854 0.010680511 0.064097986
0.002513335 -0.011058142 0.28602073 -0.038855407 -0.12282321 -0.08371761 -0.11767576 -0.01607782
-0.08398756 0.00094758725 -0.06932013 0.029474057 -0.031231737 -0.15049037 0.4077579 0.0075752554
0.00959139 -0.0013186329 -0.013199913 0.03588209 0.19274245 -0.00059305766 -0.07606295 -0.25686586
0.034451444 0.041460786 0.07607991 0.004234936 0.035863336 -0.08915925 -0.004866516 -0.04807981
-0.19837943 0.036167424 0.007176635 0.022249578 0.007216351 0.1391891 -0.19117527 -0.011110132
0.0055586467 0.9322666 -0.10283776 -0.031046264 -0.027679814 -0.08419721 -0.13182911 -0.0613402
0.013395285 0.017258337 -0.08543876 0.055069573 -0.00053080276 0.023205506 0.017334057 0.038082276
-0.022973595 0.03282169 0.043210484 -0.59673107 0.03706481 0.018149788 0.066919476 0.008115495
-0.03335678 0.16729471 -0.03428147 -0.1035773 -0.19064707 0.00018722739 0.026873723 -0.014172351
-0.00922157 -0.082895204 -0.049097333 0.042828456 -0.25830826 -0.31149632 0.05908088 0.040270943
0.027638845 -0.010371932 -0.0041712723 -0.23633906 0.05864006 0.15802607 -0.21583475 0.059497356
-0.008822688 0.049932826 0.011414204 0.008206596 0.24396908 -0.01227004 -0.04577835 -0.48531988
0.057111695 0.028282836 0.044423487 0.0037664399 0.10783434 0.2690961 0.02681689 0.18555948
0.28721535 0.031941496 0.036011446 0.034015033 -0.022660503 0.18369201 -0.10943615 -0.07415256
-0.061735503 0.4205917 -0.05621386 -0.029483056 0.009585054 -0.041786376 -0.022369873 0.24895847
-0.014465387 0.010193569 -0.012088082 0.02420476 -0.012109027 -0.0030409247 0.005274235 -0.15724199
0.16241083 -0.06157264 0.029945197 0.44152766 -0.1288149 -0.06411669 -0.15371242 0.0007756787
0.070748314 0.027329125 0.031739708 0.24308649 -0.16598015 -0.03555165 0.0014144584 -0.033502065
0.018296666 0.049602427 -0.31406966 0.055021748 0.031738307 -0.20676638 0.11624164 0.035198923
0.13880007 0.0066309087 -0.10061409 0.3215806 -0.04027788 -0.48427343 0.38873154 0.12227951
0.03913951 0.06369895 -0.02867088 0.046442676 0.18899527 0.026302084 -0.14941192 -0.06840292
0.071860045 0.041742433 0.15420686 0.0075305877 0.06060768 -0.18755652 0.02538217 0.13175143
-0.5284532 0.06957252 -0.0032081709 0.07593862 0.0055265147 -0.0025045164 0.25028753 -0.05165318
-0.071030006 -0.38381204 -0.13586415 0.021121353 -0.11049885 -0.004820436 -0.010532556 0.057898473
-0.04872611 0.07255669 0.05026539 -0.0009924059 -0.015698228 0.02916309 -0.011785476 -0.018869048
0.28605485 0.0033828048 0.004849553 -0.37340003 0.019771887 0.006944414 0.111222014 0.009620681
-0.006115898 0.07157254 -0.01673105 -0.03630458 -0.07583959 0.004825356 0.002602749 0.041042287
0.010435326 0.08875687 -0.22524287 0.00896328 0.1030358 0.6659063 -0.024542892 -0.10322167
-0.01646523 -0.092446275 -0.086757295 -0.18293968 0.040937137 0.03893426 -0.041200507 0.062338505
0.047458768 0.037859358 -0.007635814 -0.019551504 -0.060292833 0.04757922 -0.0455057 -1.0010562
0.08045958 0.019801503 0.08455737 0.012393008 0.010717445 0.10723043 0.011497909 0.11517929

upsample.0.0.bias f4 [48]
00000000: a164 0f3c df23 0b3c 2a53 ca3b 76ef b33b
00000010: 6e8a ef3b 1de8 013b f98c 593b 664e f03b
00000020: 462b c43b df37 063a 516f a03b 4f4e 273c
00000030: 6cdf ea3b e9b2 cb3b a4bd db3b 20c8 003c
00000040: df44 023c 81d0 fb3b a047 cf3b 0700 b83b
00000050: 4bdb dc3b be47 c43a 77bf 7d3b ea5f 003c
00000060: 189d c63b 4235 2c3a 2d4f c43b 9563 383c
00000070: ef98 ef3b 10b3 d13b 9b5c fc3b 7e17 0f3c
00000080: 2964 b73b dd88 b03b dc5b a83b f783 953b
00000090: 46fb 9c3b a061 f838 2e0c 533b e83c de3b
000000a0: fae8 983b a297 6ab9 9ff8 b13b 7c72 263c
000000b0: 7c50 b13b 5cae 913b 320d d13b cc9f ef3b
0.008752019 0.008492439 0.0061744647 0.0054911925 0.0073102033 0.0019822188 0.0033195599 0.0073335646
0.005986604 0.000512002 0.0048960824 0.010211541 0.0071677472 0.006216396 0.0067059565 0.0078602135
0.00795099 0.0076847677 0.006325677 0.0056152376 0.006740009 0.0014974994 0.0038718858 0.007835368
0.0060612075 0.00065692153 0.005990884 0.011254211 0.0073119323 0.0063995197 0.007701469 0.008733628
0.005596657 0.005387409 0.0051379036 0.0045628506 0.0047906963 0.000118437456 0.0032203305 0.006782163
0.004666445 -0.00022372467 0.0054312493 0.010159131 0.005411206 0.004445834 0.006379747 0.0073127504

bsc_layer.0.c1_d.weight f4 [10, 20, 1, 1]
00000000: 6c38 d1be 298d 98bf d737 c4bd 9867 acbf
00000010: 51c0 1fbf 70ad 8ebc 975f 17be 6a10 94be
00000020: 7db3 753f 4c19 0dbe 1988 f03e 7f7a 9f3e
00000030: 9f7e 533d a2ab 52be a02c acbd f5ec 47bd
00000040: 6249 b93e f791 9bbf dd74 693f 4a29 abbd
00000050: b265 87be b3e4 bebe ff75 cfbe 42eb e5be
00000060: 6789 373f 5a44 113d 4a30 433e 28d5 b03e
00000070: cf98 15be 0272 b6be bfef f5be 1751 b4be
00000080: 5738 7abf 1418 493d c3f3 183f e5c0 893e
00000090: 99b9 52be dac6 733e f358 103e 1bde fc3e
000000a0: 672e 583d 9f96 c6be 32ea 18be 832a 243e
000000b0: 3455 b1be 0d01 c1bc 7d36 fcbd 2c18 7cbe
000000c0: 98b9 353e b30c cbbd e278 f0bd 954b b4be
000000d0: 28c0 1a3f b82f 973e 2124 01bf ede6 60be
000000e0: ff2f 213e ffb8 913d 7c1e 9fbe 17a2 8ebe
000000f0: a85c 003f c04e 0b3f 0600 9a3e 30d5 ae3e
00000100: b35a a83e f337 cc3e 6c15 03bf 1dd3 1c3f
00000110: 7502 3bbe 6cbb 21bf 4b1e 9e3e 2c05 813d
00000120: 2719 213e e86e 75be c3fa e43e c5d6 543f
00000130: f132 debe e257 d6bd f00e ed3c 5f24 523f
00000140: c2ba 2e3f 6b6c ecbe 7ac3 1b3e abca 04be
00000150: c69f 403f f9d1 c83d f59e 1b3f 153e 9b3e
00000160: 80ed 243f 98ba 803e 3317 e63d a6eb bebe
00000170: 4fb4 71bd 21bf 813e c3e4 433d cb06 22bf
00000180: 1d4b 7c3c 4d22 933f 6805 433e f6fd 223f
00000190: c7ec 68be 22e9 a53d 56aa 313e e091 553e
000001a0: 9c42 163d 1ca5 b2be e2c1 863e 9e83 45bd
000001b0: c45e cbbd 3b82 db3e 1622 8fbe 54ae b63d
000001c0: d7bb 15bf c798 8dbe 1cff 3dbf b401 c7bd
000001d0: 6a18 80bc 8eab ccbe 12c5 5e3e ef82 39be
000001e0: 5f47 913e 2e23 163f 059c 45bf b483 df3e
000001f0: e177 303f 8526 aabd cbc1 81bf c850 f0bd
00000200: 64c0 1a3f faad d0bc f310 bebe 5e40 2a3e
00000210: 5c39 26bc f4e9 ba3e f3f2 13bd 4f25 033e
00000220: 6c76 07bf b9ef 09bf fb9f 3e3e a6ff 0fbf
00000230: f8f4 2fbf 2067 333e 0cb8 f3bd ccc0 f8bd
00000240: 7495 de3e d456 da3d 4ab3 613e 59dd b2be
00000250: e9f9 76bf 176d 84bd 7d17 e43e eb99 c7be
00000260: 24e7 4f3e d5a5 8abd 8c23 593e 6cb9 363d
00000270: a327 8e3e 5804 80bd 1553 2ebf aefe 08bf
00000280: 82b7 fb3e 899c f83e bdc6 9ebe b71f f23c
00000290: 4147 b9bd c553 313d 7441 0f3f a520 47be
000002a0: 646e a2be 6cd7 813b ecee 553e 91a1 89bf
000002b0: 61ef 77bd 728a bbbb 071d b0be 4519 14be
000002c0: 8597 e43e 1d96 b63c 466f c6be 80cb 653f
000002d0: bba4 65bf 84df df3e 5e48 2c3e 9839 0f3f
000002e0: 7bdf 383f 61ba 3ebd df28 853d 0216 0bbe
000002f0: f209 80be c47a 1a3e 33b4 46be 49a4 ea3e
00000300: 458a c93d 6a49 f43d b2af 04be 33da 89bd
00000310: 0519 39be b4c3 b03f 3576 443e 6946 35bf
-0.4086336 -1.1918079 -0.09580963 -1.3469114 -0.62402827 -0.017416686 -0.14782558 -0.28918773
0.95977 -0.13779181 0.46978834 0.31148145 0.051634427 -0.20573285 -0.08406949 -0.048809964
0.361888 -1.215392 0.91193944 -0.08357485 -0.26444775 -0.3728386 -0.4051971 -0.4490605
0.71694034 0.035465576 0.1906139 0.34537625 -0.14609073 -0.35633856 -0.48034474 -0.35218117
-0.9774222 0.04909523 0.5974695 0.2690498 -0.20578612 0.23806325 0.14096431 0.49388203
0.052778628 -0.3878679 -0.14933088 0.16031842 -0.34635317 -0.023560071 -0.1231508 -0.24618596
0.1774658 -0.099145316 -0.117418066 -0.35213915 0.6044946 0.29528594 -0.50445753 -0.21963091
0.15740965 0.07115363 -0.31077945 -0.2785804 0.5014138 0.5441704 0.30078143 0.34147024
0.32881698 0.39886436 -0.5120456 0.61259633 -0.18262656 -0.6317661 0.30882487 0.062998146
0.15732251 -0.23968089 0.44722566 0.8314021 -0.4339824 -0.10465981 0.028937787 0.8208675
0.6825372 -0.46176466 0.15211287 -0.12967937 0.75243795 0.09805674 0.60789424 0.30320802
0.64424896 0.2514236 0.11234894 -0.3728916 -0.059009846 0.25341132 0.047825586 -0.63291615
0.015398768 1.1494843 0.19045031 0.63668764 -0.22746573 0.08101107 0.17350134 0.20856428
0.036684617 -0.34891593 0.26319796 -0.048221223 -0.099301845 0.42872795 -0.27955693 0.08919969
-0.58489746 -0.27655622 -0.7421739 -0.09717122 -0.015636642 -0.39974636 0.21754864 -0.18116353
0.28374764 0.5864743 -0.7719119 0.4365517 0.6893292 -0.08308128 -1.0137266 -0.11734158
0.60449815 -0.025473583 -0.37122306 0.16626117 -0.0101455115 0.36506617 -0.036120366 0.12807201
-0.5291507 -0.5388141 0.18615715 -0.56249464 -0.6873317 0.17519808 -0.119003385 -0.12146148
0.434734 0.106610924 0.2204105 -0.349345 -0.9647508 -0.0646612 0.4454917 -0.38984618
0.20303017 -0.06769911 0.21204966 0.044610426 0.27764615 -0.062508285 -0.68095523 -0.5351361
0.49163443 0.48556927 -0.31011 0.029556138 -0.09046794 0.04329278 0.5595925 -0.19446047
-0.31724846 0.003962448 0.20891923 -1.0752431 -0.060531024 -0.005723291 -0.34397146 -0.14462765
0.4464685 0.022288376 -0.3875677 0.8976364 -0.89704484 0.43725216 0.16824481 0.55947256
0.72216004 -0.046564464 0.06501936 -0.13582614 -0.25007588 0.15085894 -0.19404678 0.45828465
0.09840826 0.11928065 -0.12957647 -0.06731071 -0.1807595 1.3809724 0.19185717 -0.7081056

bsc_layer.0.c1_d.bias f4 [10]
00000000: ba39 babd 9fa8 21bd c061 39be 1901 873d
00000010: b45b 5f3d 3132 ccbd ce03 b6bb 2494 12bd
00000020: 7831 adbc 4bb3 8f3d
-0.09093042 -0.03946745 -0.18103695 0.06592006 0.054530814 -0.09970511 -0.005554653 -0.03578581
-0.021141753 0.07016619

bsc_layer.0.c1_r.conv1.weight f4 [20, 20, 1, 1]
00000000: bfed 313e 44c3 9c3e c8cf 0f3c 2eab c73e
00000010: c535 3ebf ba5e 5bbd bca6 19bf 7d23 013e
00000020: d4c2 013f ee19 773e e847 c6be 9c9b 773f
00000030: 2802 b13e 5a47 59be abe7 3f3f d409 0a3f
00000040: ac7c f0be cde3 a2bf bf36 963e 9fc6 80bf
00000050: bd89 8ebe 8a54 f6bf a1c1 42be 064a 26bd
00000060: bd26 ff3d 4a1e 8c3e 5903 153f d7eb 1fbe
00000070: 1a7a 83be c2cf ee3e 345b e53e 3581 0e3d
00000080: f9e7 193f e44e 523c 4ef1 923d 5608 8abe
00000090: ea8e ddbe 9822 54bf db66 e33d 7b1e 06bf
000000a0: de54 d43e 1e3f 173f 11ac babd 6628 edbe
000000b0: e1d5 123e d72e 5b3e c863 933e d0e6 f4be
000000c0: b0a7 323e ff78 bd3e 1ce0 10be 7ac1 483f
000000d0: a8fe df3e 81db e3be 54a3 f7be ab71 cbbb
000000e0: 2624 ff3e 379b 8d3e 45ae 0fbe c88a c1be
000000f0: 5f95 c53e bf8d c6bf 6ade 823d c9e2 0dbf
00000100: 0b12 833e 8907 263e d261 37be 463e 3b3f
00000110: 9188 8a3e fd24 d9be fb23 c2bf c3dd f3be
00000120: 6db9 43bd ae73 cf3e 8dd7 8a3f f13c 043f
00000130: 1309 b2bc 3887 0c3f a029 0bbf c5a7 4dbc
00000140: 1864 773e c627 1bbe 6bf7 003e 4771 d6bd
00000150: db94 9d3f 6d12 4ebe e717 36be f541 dd3d
00000160: 044c a53e 551e aebe 5920 bfbd 9ed0 5bbe
00000170: 325b 713f c8da 113e 1556 463c 0a01 13bd
00000180: 76aa 383c cfda 123f cebb bdbe 1cc3 22be
00000190: 057b 913d 22ee 98be 41d9 e33c 7e42 8dbe
000001a0: 8888 93be bee2 043f 010d 9abe 14e6 29be
000001b0: c974 c2be 765b bd3f 862f 2e3e 2f90 6c3e
000001c0: 0976 393e 1197 78be efb7 2bbe d9f9 f3bd
000001d0: 15e8 e8bd 2aa5 14bc b9ed 29bf 2dc0 343f
000001e0: 3c39 c63e dba8 ac3f 4356 d63b ea36 5dbf
000001f0: eda3 0a3f 0c00 6fbf d366 7ac0 c35a 473e
00000200: 7ee2 e6be 89be 3abe b994 a43f 469a f1be
00000210: 71b4 8bbe a108 cd3e e75e 70bf f7a5 d8bf
00000220: 3925 063f d676 2a3f f077 76bb 98c9 d03f
00000230: 7d5a 37be 64ec 393d 4ac7 8d3b 473b c2bd
00000240: d9ec 753e bb3c 403d 8308 f03c bac8 e4be
00000250: f07f cebe bd24 e0be 8f6b 6e3d 7552 163d
00000260: b647 e5bf d765 493f b16e afbc 1c6d a33e
00000270: 9edf 633e a6b8 a1bd b944 973e a517 973e
00000280: a853 b63e 3e4d 60bf e8a2 90be 4e54 fe3d
00000290: 51a1 003f 85d6 de3e a6a4 953d ef71 793e
000002a0: e0c3 f7bf f8ba 2e3e 83f9 59be 91a6 fcbe
000002b0: caf9 933d 2bc4 6d3f c42d 95bf 357f 2c3e
000002c0: 413e acbf edc1 cabd a0e8 3f3f 4086 36be
000002d0: 3069 68be 5cec 483e 0745 87be 58d8 933c
000002e0: 6570 a83f 189a 5f3f 1413 c3be cf30 4abe
000002f0: c269 a6bd 63e0 913d 76de cc3e b6e8 d7be
00000300: 042d d03e 82e8 2a40 0510 833e e5ca 363e
00000310: 6de1 203c 75e1 0a3f 947d 6bbe dfa0 283d
00000320: 5df8 b03d f44b 90be 5721 e0bd fd3c 9abe
00000330: 8e81 883f 1867 a8bf 0526 62be 7856 f3bc
00000340: 9b34 52bf 56ff 08be 2f18 acbf 2a3e f9bd
00000350: 500c 0fc0 18da 98bf 1b67 8bbe b235 023f
00000360: db64 59bd f6e4 193f 443f ff3e d3d8 3cbe
00000370: 33e3 1a3f fcba 6a3f b6a0 6dbe 86cd 03bf
00000380: 6650 743d 41e5 2d3e cb28 703f 42cc 2e3e
00000390: 1e47 23bf 0eb3 be3d 3088 d53d cc06 c83e
000003a0: bd9e 25bf 4512 e4be 4be9 473f 016b 2a3e
000003b0: b2dd a03d 158c 5b3e 120d ac3e 0330 7bbf
000003c0: ac3c 823e 6819 96be c048 583e 7983 c83e
000003d0: 13dd 443e 234c 88be d842 363e 936c b2be
000003e0: 2c9c 303f 0fdc 213f acc4 933d 9690 31be
000003f0: 4395 b93f 25fb 56bf 8352 0cbe d39a 86be
0.17375849 0.30617726 0.008777566 0.38997787 -0.74300796 -0.053557135 -0.6002004 0.12611194
0.5068791 0.24130985 -0.38726735 0.96721816 0.34571958 -0.21218625 0.7496287 0.53921247
-0.46970117 -1.2725769 0.29338643 -1.0060614 -0.2783946 -1.9244549 -0.19019176 -0.040597938
0.124585606 0.2736686 0.58208233 -0.1561731 -0.25679094 0.46642882 0.44796145 0.03479119
0.6011959 0.012836192 0.071749315 -0.26959485 -0.43273097 -0.82865286 0.111036025 -0.5239026
0.41471 0.59080684 -0.0911485 -0.46319884 0.14339401 0.21404587 0.28787065 -0.47832346
0.1744678 0.37006375 -0.14147991 0.7842022 0.43748975 -0.44503406 -0.48366797 -0.0062086186
0.49832267 0.27657482 -0.14031322 -0.37801194 0.38590524 -1.5512007 0.06390078 -0.5542417
0.25599703 0.16213812 -0.17908409 0.73141897 0.27057317 -0.42411032 -1.516723 -0.47630128
-0.047784258 0.40517944 1.0847031 0.5165549 -0.021732843 0.5489383 -0.5436039 -0.012552206
0.24159276 -0.15151891 0.12594382 -0.10470825 1.2311052 -0.20124216 -0.17782556 0.10803596
0.32284558 -0.34007517 -0.09332342 -0.214663 0.9427978 0.14243615 0.0121054845 -0.035889663
0.01127111 0.57365125 -0.37057346 -0.15894741 0.07103542 -0.2986918 0.027813556 -0.27589792
-0.28815103 0.5190848 -0.30088046 -0.16591674 -0.37979725 1.4793537 0.17010316 0.23101877
0.18111433 -0.24276377 -0.16769384 -0.11912889 -0.11372391 -0.009072581 -0.6637836 0.70605737
0.3871554 1.3489031 0.006541045 -0.8641192 0.5415638 -0.93359447 -3.912526 0.19468217
-0.45094675 -0.18236746 1.2857887 -0.47188014 -0.27286103 0.40045646 -0.9389481 -1.6925648
0.5240055 0.6658758 -0.003760811 1.6311522 -0.17905612 0.045391455 0.0043267356 -0.094839625
0.24016131 0.046932917 0.029300934 -0.44684392 -0.40331984 -0.4377803 0.058208045 0.03669973
-1.791251 0.7867102 -0.021415086 0.3191918 0.22253272 -0.07896547 0.2954462 0.29510227
0.356107 -0.8761786 -0.28249288 0.124184236 0.5024615 0.4352304 0.07306795 0.24359868
-1.9356651 0.1706351 -0.21286587 -0.4934583 0.07225378 0.92877454 -1.1654592 0.168454
-1.3456498 -0.0990027 0.7496433 -0.1782465 -0.22696376 0.19621414 -0.2641985 0.018047497
1.31593 0.87344503 -0.38100493 -0.19745182 -0.081256405 0.071228765 0.40013474 -0.42169732
0.40659344 2.6704412 0.2559816 0.17850836 0.009819371 0.5425027 -0.22997123 0.041169044
0.086411215 -0.28182948 -0.10943859 -0.30124655 1.0664537 -1.3156462 -0.22084816 -0.029704317
-0.8211152 -0.13378653 -1.344488 -0.1217006 -2.2351265 -1.1941557 -0.272271 0.5086318
-0.0530747 0.6011499 0.49852955 -0.18442087 0.6050293 0.91691566 -0.23205838 -0.5148548
0.059646986 0.16981985 0.93812245 0.17070106 -0.6378039 0.09311496 0.10426366 0.39067686
-0.6469534 -0.4454519 0.7809035 0.16642381 0.07854785 0.21440156 0.33603722 -0.98120135
0.25436914 -0.29316258 0.21121502 0.39162806 0.19224958 -0.26620588 0.17798936 -0.3484846
0.689883 0.6322641 0.072152466 -0.17340311 1.4498676 -0.83976966 -0.1370335 -0.26289997

bsc_layer.0.c1_r.conv1.bias f4 [20]
00000000: d82d 85bd 93ac b3be 3966 e0bd 4631 cebd
00000010: 899f 313e 47a3 1cbe a2e7 863e daa9 2d3e
00000020: 0d5e 17be d900 90bd de0a 0bbf 79ce 5a3e
00000030: ce09 1dbf 6db6 33bf b79e 85bf ef40 cb3e
00000040: d055 18bf 419b 133f 72d4 463e c484 c0bf
-0.065028846 -0.350926 -0.109569974 -0.10067992 0.17346014 -0.1529666 0.26348597 0.16959324
-0.14781971 -0.07031412 -0.54313457 0.21367826 -0.61343086 -0.70200235 -1.0439061 0.39697978
-0.5950594 0.57658774 0.19416979 -1.5040517

bsc_layer.0.c1_r.conv2_1.weight f4 [5, 1, 3, 3]
00000000: fbc1 b7bd 640e 9dbd 65ea fabd 5382 92be
00000010: 542f b43e cd36 81be 3fc2 c1bd 2cc9 7ebe
00000020: 8045 28bd 29cd 0d3d e6a2 f43c 3c9d 2cbc
00000030: 31fb 573d 08a2 833f a451 6a3b 5b0e 323d
00000040: c175 61bc abec c43b af22 ffbc 8a19 36be
00000050: c7bb 82bd 2916 0abe 05db 403d e73c 0ebe
00000060: f0dc 1dbd a13f 76be 09a1 94bd 647e 023e
00000070: 807a 39bf 036b 25bd 0308 d4bd 49ad 103f
00000080: 3732 19bf 464d 373e 99b5 22be bd2e e33d
00000090: e31d d6bc 1220 72bc ea4a 06bd f352 1fbd
000000a0: 2a13 a1bf 15b0 21bd 6951 c6bc 6926 67bd
000000b0: 1e66 dbbc
-0.08972546 -0.076687604 -0.122517385 -0.28615054 0.35192358 -0.25237122 -0.094608776 -0.24881428
-0.041081905 0.034619484 0.029862832 -0.0105355345 0.05272979 1.0283823 0.0035754228 0.04347072
-0.013760985 0.0060096583 -0.031144468 -0.1778318 -0.06383472 -0.13485016 0.047083873 -0.1389042
-0.03854078 -0.2404771 -0.072572775 0.12743527 -0.72452545 -0.040385257 -0.103530906 0.5651441
-0.59842247 0.17900571 -0.15889587 0.11092899 -0.026137298 -0.014778154 -0.032786287 -0.038897466
-1.2583973 -0.039474566 -0.024208741 -0.056433115 -0.026782092

bsc_layer.0.c1_r.conv2_1.bias f4 [5]
00000000: 06e9 07be c6ac 843e e251 b6be 1241 a23e
00000010: 2f10 303f
-0.13272485 0.25913066 -0.35609347 0.3169027 0.68774694
