model_zoo/team19_DIRN.pth (torch, 447007 bytes, 148 tensors)

conv_1.weight f4 [48, 3, 3, 3]
000000 e2 e6 41 3d 3e ae 44 3d d3 8d 80 bd 42 ea 64 3e
       0.047339328 0.048017733 -0.06277051 0.22354987
000010 84 a3 9e be 86 8c 08 3e d8 71 4d bd 30 3c b1 3d
       -0.30984128 0.13334855 -0.050157398 0.08654058
000020 42 36 bc 3b cf 06 ad 3c 63 08 97 3d 5a 1d c5 3c
       0.0057437727 0.02112141 0.073746465 0.024061847
000030 1f 59 f1 3d fd 8a 61 be bd b6 f3 bb d2 b2 ce 3c
       0.117845766 -0.22025676 -0.0074375556 0.025231753
000040 ef 50 43 3d af 02 03 bd ea 42 88 3d 7d 28 ea 3c
       0.047684606 -0.03198498 0.06653388 0.02858376
000050 d0 88 08 3d a2 8c 48 be 51 58 9f bd 96 b3 af bd
       0.0333336 -0.19584897 -0.07780517 -0.08579175
000060 ab 3c 46 3c 95 5e c2 3d f4 56 b0 3d a6 ca c5 3d
       0.012099425 0.09490696 0.08610335 0.09657793
000070 b2 f5 95 be eb 77 5d 3d 54 ae a3 bc 7b 03 d4 3e
       -0.29289013 0.05406944 -0.019980587 0.41408905
000080 92 f5 db 3d f9 81 96 bd f3 d2 88 be 56 48 69 bd
       0.10740198 -0.07349009 -0.2672344 -0.05695375
000090 ed 8c 40 3d 14 40 95 bd f2 77 82 bc b5 71 ff bd
       0.047009397 -0.072876126 -0.015926335 -0.1247286
0000a0 49 45 9d 3e 07 05 22 be 4a 1b b6 3d a2 12 08 bd
       0.30716923 -0.1582223 0.08891924 -0.033220895
0000b0 0e 0f a3 bc b4 e2 51 3d 68 99 a7 3d 5a 8a a3 3d
       -0.01990464 0.05124159 0.08183557 0.07985373
0000c0 6b ba c6 bb 61 b5 3e be 6c e3 25 be 1a f8 82 bd
       -0.006064703 -0.18623878 -0.16200036 -0.06394978
0000d0 d0 45 4f 3e ee ec cd 3c 97 bf d6 3d 38 5b 06 3e
       0.20241475 0.025137391 0.104857616 0.13120735
0000e0 98 74 a9 bd 3e a1 28 be 61 1b 0d 3e 87 4c 33 3d
       -0.082741916 -0.16467759 0.13779975 0.043774154
0000f0 46 a4 0b be 10 90 53 3d 31 4b 80 3d f2 06 42 3e
       -0.13636884 0.05165106 0.062643416 0.18947962
000100 d7 c1 b6 bd ae 6c 87 bc 2a ae a8 3c f8 c7 45 3d
       -0.08923691 -0.016531315 0.02059086 0.04828641
000110 11 1a ff bd a9 1c b9 bd 6a d6 b3 3d 7d 86 bf bc
       -0.12456144 -0.090386696 0.087811306 -0.023379559
000120 b2 0e 36 3d a1 57 25 bd 05 a4 81 39 2d 5f cf 3c
       0.04444761 -0.040366773 0.00024727 0.025313938
000130 a5 49 86 3d d6 37 67 3d d6 12 3f be 65 81 81 3d
       0.06557015 0.056449734 -0.18659529 0.06323508
000140 47 87 23 be 02 8a e7 bd da 16 5b bc b0 8c 9e bc
       -0.15969573 -0.1130562 -0.013372147 -0.019354194
000150 c6 41 0d 3e 50 e1 4e be 83 92 29 be 77 03 1a 3e
       0.13794622 -0.20203137 -0.16559796 0.15040384
000160 99 a7 3e bc 47 a1 fc 3d d9 4b 8b 3d 0a 9b 29 be
       -0.011636638 0.12335449 0.06801576 -0.16563049
000170 fb 73 50 3d 69 8a 80 3d 53 ac 37 be c6 35 ac bd
       0.050891858 0.062764 -0.1793683 -0.08408694
000180 a0 d9 7b 3d c3 6c 1a 3d 39 7c 78 bd 42 89 86 bd
       0.06148684 0.03770138 -0.060665343 -0.065691486
000190 ef 54 32 3e 9d b8 f2 bb 51 47 17 3e f9 a2 07 3e
       0.17415212 -0.0074072615 0.14773299 0.13245763
0001a0 5a 35 cd bd eb 96 0d be e5 41 58 3e de 84 01 3d
       -0.10019942 -0.13827102 0.21118887 0.031620853
0001b0 4e 35 b2 bc 4c 79 6d bd ed 68 1c 3d e4 1f 19 3d
       -0.021753933 -0.057977006 0.038186003 0.03738393
0001c0 27 e1 92 3e 0b 56 83 be bb 35 5a bc 63 83 b7 3d
       0.28687403 -0.25651583 -0.013318474 0.08960607
0001d0 69 04 75 bc 25 e0 ca 3d 12 81 9d bd 85 e3 cb bd
       -0.014954665 0.099060334 -0.07690634 -0.09955505
0001e0 05 f6 09 be b2 2b b0 3d de 8c 2a 3e 0d 5e c7 bd
       -0.13472755 0.08602084 0.16655299 -0.09734736
0001f0 53 a0 c4 3d eb 2b 23 be 40 53 f6 bd ab 77 54 3d
       0.09600892 -0.15934722 -0.120275974 0.051871937
000200 25 31 8b 3d 02 63 0b 3e a2 2f a7 be 6a 0f a1 3d
       0.06796483 0.13611987 -0.32653528 0.07864268
000210 17 38 56 3d c5 ac ad 3d fc b2 c8 3d 43 ab e2 3d
       0.052299585 0.08480219 0.097997636 0.11067822
000220 af f3 4a 3e fe 5e a9 3d 38 0e c1 bd 21 25 9c be
       0.1981952 0.082700714 -0.0942654 -0.30497077
000230 9d e3 65 bd 7f 30 2a 3d dc e9 cd bd 46 90 d0 3d
       -0.056125272 0.041550156 -0.10054371 0.10183768
000240 f6 44 1a 3d ec 9d b0 bd 34 a6 1f 3d e7 f3 a0 3c
       0.037663423 -0.08623871 0.038976863 0.019647552
000250 e4 ac 00 3e ed 04 ed 3d f8 b1 cd bd bd 9f 24 3e
       0.12565953 0.11573205 -0.100437105 0.1607656
000260 6f 06 93 bd 03 26 8e 3c 8d 28 7a be 52 fe 90 bd
       -0.071789615 0.01735211 -0.24429531 -0.07079758
000270 c6 56 5a bd bc e8 a3 bd f2 6a 57 3e e8 cf d1 bc
       -0.05330541 -0.08003375 0.2103689 -0.025611833
000280 8b fd 76 bd 21 91 ae 3d 69 0a 3d 3d c4 35 15 3e
       -0.06030039 0.08523775 0.046152506 0.14571291
000290 77 95 c0 bd de fc 37 3d f6 69 b6 bd 9d 61 34 bd
       -0.09403508 0.044918887 -0.08906929 -0.044038404
0002a0 91 e1 13 be d4 fe d1 bd 43 da 5e bd 85 80 bb 3d
       -0.14441516 -0.10253683 -0.05440737 0.091553725
0002b0 12 c0 86 3d 44 f0 3a 3d 85 a6 60 3e 11 34 6c 3e
       0.06579603 0.04563929 0.21938522 0.23066737
0002c0 5a 5f 17 3e 6c 6b 05 3d 1d 49 0e be 2c 78 1e 3e
       0.14782467 0.03257315 -0.13895078 0.1547553
0002d0 96 5e 6f bd 79 f3 31 bc be 38 1e be 63 41 33 bd
       -0.058439814 -0.010861271 -0.15451333 -0.04376353
0002e0 10 7a 45 be ba 18 36 3e 95 15 1a be 9f 5b 38 be
       -0.19284844 0.1778287 -0.15047295 -0.180037
0002f0 02 85 6d 3b 68 da 0d be 9e 36 ca 3d 46 82 9f bd
       0.003624261 -0.13852847 0.09873699 -0.077885196
000300 74 fb 99 bd cc fc 15 3d 71 1d 41 3e cc 51 4a be
       -0.07518664 0.03661804 0.18858887 -0.19757766
000310 70 f2 a3 3d 81 2d 57 3d 5d c7 51 3e 2e 0f 58 be
       0.08005226 0.05253363 0.20486207 -0.2109954
000320 1f b1 83 3d 47 07 53 be 04 46 4c 3e fd 21 f2 bd
       0.064302675 -0.20608245 0.19948584 -0.11822889
000330 12 78 5b 3d a8 9f 4a bd dd e3 08 bd f5 cc 19 bd
       0.053581305 -0.049468666 -0.033420432 -0.037548978
000340 cf 43 6b bc c9 63 f5 3c f5 11 ed 3c b8 7a 83 3d
       -0.014359429 0.029954808 0.028939227 0.06419891
000350 81 83 84 be b4 08 cc 3d 61 29 02 3e 44 42 a6 3d
       -0.2588158 0.099625975 0.12711097 0.08118108
000360 91 d8 b0 3d c4 7b e0 bd 0b e6 06 bd 88 f4 5b 3e
       0.08635057 -0.109611064 -0.03293423 0.2148
000370 55 81 34 be b7 f3 05 3e ef 72 91 bd 4d da 15 be
       -0.17627461 0.13081251 -0.07102 -0.14634056
000380 fd 3f be 3d d1 01 fd bd b7 b9 0c bd 6e dc b8 3d
       0.092895485 -0.12353862 -0.0343568 0.090264186
000390 12 b6 0f 3e 61 41 9c 3e 73 c5 c9 bd ce 19 1c be
       0.14034298 0.3051863 -0.098521136 -0.15244219
0003a0 55 79 d3 3d 01 b2 eb bd 2c 7f d9 bd 62 eb a3 3d
       0.103258766 -0.11508561 -0.10619959 0.0800388
0003b0 50 0f 59 bd e6 75 93 3d 06 0b 6c 3e b6 41 4e be
       -0.05299312 0.07200222 0.2305108 -0.20142254
0003c0 77 d9 e1 bd 0a 80 b7 bd a0 30 4f 3d 39 97 b2 bc
       -0.11027806 -0.089599684 0.05058348 -0.021800624
0003d0 98 aa c3 bd 6a 7a ba 3c 1e 92 ad bd a3 6a 28 be
       -0.095540226 0.02276345 -0.08475135 -0.16446929
0003e0 3f e6 ce bd a6 d7 04 3e 40 d3 4e 3e 4e 43 c6 bd
       -0.1010251 0.12972888 0.20197773 -0.09680806
0003f0 e9 a2 96 3c 1f 05 50 3d bc ff 23 bd 0d 5a db bd
       0.018388228 0.050786134 -0.04003881 -0.10710535

conv_1.bias f4 [48]
000000 c9 1b 1a be 54 51 ab 3c 95 31 99 3d 9c a8 63 bd
       -0.15049662 0.020912804 0.0748016 -0.05558072
000010 d1 66 42 bd 7e c4 44 3b ca 44 3d 3d 2c fa 54 3d
       -0.047461335 0.0030024345 0.04620818 0.051996395
000020 f8 6d 13 3c 6e 65 0d 3d 0f 45 86 bd cc b6 02 3d
       0.008998387 0.03452056 -0.06556141 0.03191261
000030 60 c8 b0 bc ef 27 c8 3d 65 4a ad bc b8 e3 9e bd
       -0.021579921 0.09773242 -0.021153638 -0.07758278
000040 1c 8c 93 3b ae 00 01 3d 77 1e 90 3c 48 79 13 3d
       0.0045027863 0.03149479 0.017592652 0.036004335
000050 a7 c4 6e 3d 89 53 5c 3d 25 20 6a bc e2 ad 22 be
       0.05829301 0.053790603 -0.01428989 -0.15886644
000060 67 80 b4 bd 8f 9f c2 3c c2 d3 65 bd 58 19 05 3e
       -0.08813553 0.023757724 -0.05611015 0.12997949
000070 cb 75 e3 bb 42 9e 08 3e cc 73 ed bd 80 55 ff bd
       -0.0069415323 0.1334162 -0.11594352 -0.1246748
000080 77 6e 4e 39 b3 9e ef bd 5c 99 34 bd 9f 66 df bb
       0.00019686842 -0.11700191 -0.044091567 -0.0068176533
000090 2e b3 cd bd 50 f8 d6 3d 94 c6 a8 bd fe c0 20 3e
       -0.100439414 0.104965806 -0.08241001 0.1569862
0000a0 7e f6 67 3d 82 38 5e bd e3 73 fd bd b8 57 1c 3b
       0.056631558 -0.05425311 -0.12375619 0.0023855995
0000b0 80 71 09 be a0 23 1d 3e 09 49 1d be 07 02 11 bd
       -0.13422203 0.15345621 -0.15359892 -0.035402324

block_1.c1_r.pw.weight f4 [48, 48, 1, 1]
000000 ba 79 86 be f8 d0 73 bd eb bd 22 bd de bf 8f 3d
       -0.26264745 -0.05952546 -0.0397319 0.07019018
000010 19 3e 64 3c e5 62 ad be a5 3e b9 3c bd 42 09 be
       0.013930821 -0.33864513 0.022612879 -0.13404365
000020 6e 18 72 3e ad 09 0e 3e b3 62 30 bd 7a 26 69 bc
       0.23642132 0.13870879 -0.043062877 -0.014230365
000030 3a 62 20 3c dc 1b d6 3e fc ea 77 3d bb e1 b3 3e
       0.009789044 0.4181813 0.060526833 0.35133156
000040 06 3a cb bd c2 bf fa 3d 04 15 fd bd d4 ab d4 3d
       -0.099231765 0.12243606 -0.12357524 0.10384336
000050 2f 27 bc 3d c3 89 5e be 0b d1 2b 3d b5 0c 1a 3e
       0.09187161 -0.2173224 0.041947406 0.1504391
000060 76 cd 01 be 16 ea 29 3e 5c 51 2e 3c 2c 8b 5d 3d
       -0.12676033 0.16593203 0.010639515 0.054087803
000070 90 4b 3c be ae 1b cf bc e4 87 10 bd e1 45 c1 3e
       -0.183882 -0.025281753 -0.035285845 0.37748626
000080 2d 49 13 3d 2a b3 c4 3d ea f6 38 be 5f 8e 4e 3e
       0.035958458 0.09604485 -0.1806294 0.20171498
000090 aa 32 db 3e b1 57 22 3e 57 3d 65 3d d6 b1 ce 3e
       0.4281209 0.15853764 0.0559667 0.40370053
0000a0 d7 12 9b bd 2c 8f 1f bf 9a 82 32 be 0e 50 57 3f
       -0.07571953 -0.6232784 -0.17432633 0.8410653
0000b0 b4 59 0f 3e 9f 13 8a be b3 b7 81 3c 79 9d 16 be
       0.13999063 -0.26968095 0.015834665 -0.14708509
0000c0 56 8b 3c 3d 3d d1 c5 3e a1 35 7a be 40 f8 01 bc
       0.04603132 0.386362 -0.2443452 -0.007932723
0000d0 a5 f7 e8 3d 5f bb 75 3e fd c8 ea 3d d8 c1 8d 3d
       0.113753594 0.23997258 0.11464117 0.069217384
0000e0 20 c8 2f bf e8 1b 98 bd 5a 4e ff bc 8f 76 a6 be
       -0.6866474 -0.07427198 -0.03116529 -0.32512328
0000f0 93 fe dd be 95 35 c9 be 9d 08 62 3d 0a a0 1c be
       -0.43358287 -0.39298692 0.055183996 -0.15295425
000100 96 6b 67 be 32 44 70 3d 9d 3d d5 3e 38 21 0a 3e
       -0.22599635 0.058658786 0.4164857 0.13489234
000110 55 0f 88 3c aa 70 04 be 79 68 3a be 82 73 92 3c
       0.016608873 -0.12933603 -0.18203916 0.017877344
000120 d3 df 12 be b8 48 03 3e 68 79 f2 3e 3c 6c 13 3e
       -0.14343195 0.12820709 0.4735825 0.14396757
000130 12 6f db 3d 3b a1 a8 bd aa 3b 7b 3e ca 36 26 3d
       0.10714544 -0.08233877 0.24534479 0.040579595
000140 39 4f b4 3c 63 1f 15 be 62 ab 23 3e 02 5c 9c 3d
       0.022010433 -0.14562754 0.15983346 0.076347366
000150 23 dc e8 bd e8 90 8d 3e a6 7d b1 bd d2 92 3b bd
       -0.11370113 0.27649617 -0.08666544 -0.045794316
000160 c0 51 24 3e 0b 73 0f bd eb ae a6 3e 25 19 8c 3e
       0.1604681 -0.035021823 0.32555327 0.27362934
000170 cb 7a 61 3e f5 c6 fe bd 85 78 bb 3d 9a 29 be be
       0.22019498 -0.12440292 0.09153847 -0.37141114
000180 4c 1d a4 3e 5c 40 06 3e b6 ac b6 3d 17 57 0b be
       0.32053602 0.13110489 0.08919661 -0.13607441
000190 21 27 63 be d1 0c 14 3d 0d 48 b5 bd ff 82 ad 3d
       -0.22182895 0.036145035 -0.08851633 0.08472251
0001a0 73 b1 e3 be 0a 4d a9 bd e8 2e af bd 71 a0 03 3e
       -0.4447132 -0.08266647 -0.085538685 0.12854172
0001b0 51 be f2 bc 72 d2 14 be 0f 4b 4c be 0c 95 7a be
       -0.029631766 -0.14533404 -0.19950508 -0.2447092
0001c0 cc 38 5f 3e d3 e9 2e be 79 cc 29 bd 6f 07 00 be
       0.2179901 -0.17081384 -0.041454766 -0.12502836
0001d0 10 d2 95 bd f6 59 58 bd 7c 07 a1 3d c7 09 2a 3e
       -0.07315457 -0.05282017 0.07862756 0.16605292
0001e0 32 dd 4e be 2f 61 fb bc d6 72 25 b9 21 47 3f be
       -0.20201567 -0.03068599 -0.00015778406 -0.18679477
0001f0 64 12 70 bd ee 4b ae 3c 56 cb d2 3d a8 61 75 bd
       -0.05861129 0.02127644 0.102926895 -0.059907585
000200 ee b7 64 3b 48 f1 86 bd e3 75 84 3d b0 6b 98 be
       0.003489967 -0.065889895 0.064677976 -0.2976966
000210 3f 79 92 3e e9 99 13 3e 5c f1 0d bd ad 62 69 3e
       0.28608128 0.14414181 -0.034654006 0.22791548
000220 6e 54 46 be e0 50 cc bd e3 61 94 3d 21 37 14 be
       -0.19368145 -0.09976363 0.07245233 -0.14474155
000230 c6 22 ec bc 8d ae 44 bc c3 1e ae be db c5 8e 3e
       -0.028825175 -0.012004507 -0.34007844 0.27885327
000240 c5 fc 88 bd 93 78 05 3e e2 47 26 bb 77 88 0b 3e
       -0.06688837 0.13034277 -0.0025372435 0.13626276
000250 5f 4d ae 3d df 60 57 3e 2f fb 24 3e 2b 63 47 3c
       0.08510851 0.21033047 0.16111444 0.01216964
000260 1e 8b f6 3c d9 b0 7e be 6f 0a 25 3d 9b 7c cb bd
       0.030095633 -0.2487215 0.040293153 -0.09935876
000270 10 37 2c 3c 94 18 bd bd 68 41 d6 3d 92 b4 45 be
       0.010511175 -0.092332035 0.10461694 -0.19307163
000280 14 16 31 bd 2b a1 61 bd b6 ca 7d bd 1c b3 0f 3e
       -0.043233946 -0.055085342 -0.0619609 0.14033169
000290 bd 83 5f 3e 04 e3 05 3e 2f 59 99 3c 3c 21 1b 3d
       0.21827598 0.13074881 0.018719284 0.03787349
0002a0 57 d6 e7 bd 80 6a 15 3e 6e 28 20 3e 31 9e 41 3e
       -0.11320179 0.14591408 0.15640423 0.18908001
0002b0 16 70 09 3e eb f2 04 3e 0e 60 87 3d 29 74 83 3d
       0.13421664 0.12983291 0.06610118 0.0641864
0002c0 b9 cf 1c bb 6e f0 67 3c db 12 6c bd 6d 1c f0 bb
       -0.0023927523 0.014156444 -0.05763517 -0.0073276074
0002d0 8b 73 89 be 70 9b 03 3d 18 69 26 3e bc 8a 15 3e
       -0.26845965 0.03213066 0.16251028 0.14603704
0002e0 d5 d6 0c 3e fb bb d7 bc 8b 8c 4e 3e 42 dc b5 3d
       0.13753827 -0.026334753 0.201708 0.088799015
0002f0 49 61 91 3c c3 0c 3b be 00 50 b0 3d f4 fe 38 3e
       0.017746584 -0.18266587 0.08609009 0.18066007
000300 20 94 ac be fe e1 94 3d ea 47 a5 3c da c4 e0 3d
       -0.3370676 0.07269667 0.020175893 0.109750465
000310 fd ab f1 bc 58 d8 a6 bd ff ee 94 3d e1 d1 4b be
       -0.029500956 -0.08146733 0.072721474 -0.19904281
000320 e7 4e 8d be 62 ec 23 3e dc 93 c8 be a0 aa aa be
       -0.2759926 0.16008142 -0.39175308 -0.33333302
000330 ef bd 34 bd ce 1c 21 3e 9e 7b 88 be 2c 46 00 3e
       -0.044126447 0.15733644 -0.26656812 0.12526768
000340 73 61 18 bd 92 71 80 bd 9e 4a c8 bb da 78 95 bd
       -0.03720231 -0.06271662 -0.0061124107 -0.07298441
000350 dc 9e bd bd ba 7b 20 bd ac df 9f 3d 10 1f 14 be
       -0.09258816 -0.039180495 0.07806334 -0.14464974
000360 d7 b0 fd 3d 8d 88 20 3e 1f 38 58 3c 59 18 05 be
       0.12387245 0.1567709 0.013196974 -0.12997569
000370 5d 28 11 be 80 bd 82 3e 9c 68 1a be 61 ff dc 3d
       -0.14175554 0.25535202 -0.15078968 0.10790897
000380 fe dc df bd 78 44 f4 bd 2a 26 33 bd 55 a7 a0 3d
       -0.10930823 -0.11927122 -0.043737568 0.07844416
000390 8b 0a 89 be 53 48 74 3a d4 80 c0 3d c1 97 5b 3e
       -0.26765856 0.00093186385 0.09399572 0.21444608
0003a0 f1 5c 5a 3e 85 3c ad 3e f4 19 5f bc 11 a7 3f 3e
       0.21324517 0.33835235 -0.013617028 0.18716075
0003b0 42 3e 91 3d 26 78 41 be 7a cf 93 bd 70 ab 8b be
       0.07091953 -0.18893489 -0.072173074 -0.27279234
0003c0 6a 93 82 3e 09 58 cf 3e 76 d3 23 bd d9 50 3b be
       0.25503093 0.40496853 -0.039996587 -0.1829256
0003d0 76 81 bb 3d a0 cd 6c 3e ef 59 d4 bd e0 cc 51 3d
       0.09155552 0.23125315 -0.10368716 0.051220775
0003e0 83 4e ec 3d cb 32 99 ba 61 33 67 3d aa d3 e2 3d
       0.115384124 -0.0011688111 0.056445483 0.11075528
0003f0 54 7b 09 3e 5e 90 f9 be de e2 c4 bd 18 c9 96 be
       0.13425952 -0.48742956 -0.09613584 -0.29450297

block_1.c1_r.dw.weight f4 [48, 1, 3, 3]
000000 74 55 aa be 96 c1 13 3f 2a 45 0f 3f ce f2 62 be
       -0.3326832 0.57717264 0.5596491 -0.22162935
000010 d3 17 11 be e4 49 70 be 28 e9 10 3e f8 3f 7b 3e
       -0.14169244 -0.23465687 0.14151442 0.24536121
000020 ce d2 c5 be c7 11 0e 3f db 73 33 3d 85 82 f0 3e
       -0.38637394 0.55495876 0.04381166 0.46974578
000030 c1 a4 0f bf 4f 88 f5 3e 2d 07 27 bf 7a 73 9a be
       -0.5611077 0.47955558 -0.65245324 -0.30166227
000040 0c 33 93 be be 5a fb 3e db bf bb be f9 c7 af 3e
       -0.28749883 0.49092668 -0.36669812 0.34332255
000050 ff 08 26 3e a6 f0 e3 be e7 31 0c be c8 0b 91 3e
       0.16214369 -0.44519538 -0.13690911 0.283293
000060 29 bc ba 3c e7 d9 38 be 13 e7 f6 3e ee 23 a1 3b
       0.0227948 -0.18051873 0.4822317 0.004917613
000070 01 38 37 bf f0 94 b2 bd 3d 4c c5 bc 80 07 e1 3e
       -0.7156983 -0.08719814 -0.024084205 0.43951035
000080 28 c6 e4 bd fb 16 c6 3e cd aa e3 bd 45 e5 cd be
       -0.11170608 0.38689408 -0.11116562 -0.4021398
000090 88 e2 ff bd d9 9b 3d 3f 90 58 a0 3e cb cd 66 be
       -0.12494379 0.7406593 0.31317568 -0.22539441
0000a0 8f d6 dd 3e d8 90 00 3d 1b de e1 be 21 bb 93 3e
       0.43327758 0.031388134 -0.44114766 0.28853706
0000b0 8a 15 0c be ad 9e bc 3e fa a0 16 3f 06 0e d6 3d
       -0.13680092 0.3683981 0.5883938 0.104518935
0000c0 86 f2 a3 3f d2 73 87 be a1 53 58 be 37 d0 4c 3f
       1.2808387 -0.2645555 -0.21125652 0.8000521
0000d0 f2 f7 e6 bd 3e 4a 43 3e 30 c9 0c 3f ad 51 3f 3f
       -0.112777606 0.1907129 0.5499449 0.74734
0000e0 73 6c b9 3e 2c d7 3d bd 0e 41 ab 3e 9d 48 20 be
       0.36215553 -0.046347782 0.3344807 -0.156527
0000f0 d9 ed bf 3e f7 9f 8a 3e cb f4 97 bd 3a 45 f1 3e
       0.3748615 0.27075168 -0.074197374 0.47123128
000100 6a 9c 00 3f 49 78 23 3f 34 5d c3 3d 11 8b 8d be
       0.5023867 0.63855416 0.095392615 -0.27645162
000110 5f ed 91 be 85 cf d8 3e 36 04 c2 be 7b ba df be
       -0.28501412 0.42345825 -0.37893838 -0.4369696
000120 fe 62 ab 3d a6 de 90 bf f3 c3 d0 be c0 56 98 3d
       0.08368491 -1.1317947 -0.40774497 0.07438421
000130 93 e3 15 3f bd db d5 be 01 73 9a be bc 2e 7f 3e
       0.58550376 -0.4176921 -0.30165866 0.24920171
000140 bb 3c 66 3e 59 dc 0e 3e 88 1c 54 bf 94 ff ae bc
       0.22484104 0.13951243 -0.82856035 -0.021362104
000150 95 da 29 bf 3a fb 3e bf 0f ff 9b 3e 52 c9 cd 3e
       -0.66349155 -0.7460209 0.30468032 0.40192658
000160 16 a3 3d 3d 9a 11 85 3d 45 b1 e1 be ae 92 a9 bf
       0.04629811 0.06497498 -0.44080558 -1.3247888
000170 7c b4 90 bd 16 e5 cd 3e 94 71 20 3f 33 38 58 bc
       -0.07065675 0.4021384 0.62673306 -0.013196993
000180 d0 62 f6 3e a5 2c 16 be dc 56 ac 3d e1 ad 10 3e
       0.48122263 -0.14665468 0.084150046 0.1412883
000190 1b ad 8b bf 48 66 09 3d 11 ee 1d be d3 9d d1 3e
       -1.0912203 0.03354481 -0.15422846 0.40940723
0001a0 54 97 9e 3e 23 aa 05 3e b2 70 bc be 04 aa fa be
       0.3097483 0.13053183 -0.3680473 -0.48957837
0001b0 45 02 37 3e e5 fb 43 be e6 47 1c be fa 08 c7 3e
       0.1787196 -0.19139059 -0.15261802 0.38874036
0001c0 6f c4 f8 3e b4 dd b3 3e c2 cc a0 3e a9 c1 d8 bd
       0.48587367 0.35130084 0.31406218 -0.10583813
0001d0 a6 ab 9a bd ca 79 b5 be e6 2d 4b bd 40 d2 2d 3e
       -0.075522706 -0.3544448 -0.04960432 0.16974735
0001e0 6d 17 ae 3d 39 d5 05 bf 53 d9 4f 3d 57 7d ee be
       0.08500562 -0.52278477 0.050744366 -0.46580002
0001f0 1d 5b 2c 3f f3 44 ae 3e 9f 18 ac be eb c6 40 3e
       0.6732653 0.3403698 -0.33612534 0.18825881
000200 26 81 21 be c8 2e dd be c9 e4 bb be 97 cc 1a 3d
       -0.15771922 -0.43199754 -0.36697987 0.03779277
000210 21 62 e4 3d bc 3e 99 be fc a0 7b be 25 a8 2e be
       0.11151529 -0.29930675 -0.2457313 -0.1705633
000220 1c 49 63 bd a5 c3 05 3f 48 5a 32 bf 49 55 52 3f
       -0.055489644 0.52251655 -0.6966901 0.82161385
000230 33 27 4d bd 39 86 c1 3e 2f 6b b7 be a8 79 6e be
       -0.05008621 0.37797716 -0.35823962 -0.23288596
000240 28 7e 08 3f 37 b8 ca be 17 fb 86 3e be 5f fe bd
       0.533175 -0.3959367 0.2636344 -0.12420605
000250 d8 3c f2 3e 92 fb a7 3e 3b 20 03 3f 4b 08 a9 bc
       0.47312045 0.3280912 0.51221055 -0.020633837
000260 d0 42 fa bd 00 09 f0 be 12 fb 3e 3e 73 77 0a 3c
       -0.12219775 -0.46881866 0.18650463 0.0084513305
000270 b1 db c8 be 6b 6f 88 be 56 78 f3 bc 38 55 80 be
       -0.3923011 -0.26647505 -0.029720467 -0.25065017
000280 7c c5 b2 be 66 68 83 3e 9d 7e 2f bf 4a 54 34 3f
       -0.34916294 0.25665587 -0.6855257 0.70441115
000290 ae ba 0b bc 85 56 40 bf 26 df cf 3e 70 8f 05 bf
       -0.008528395 -0.7513202 0.40599936 -0.52171993
0002a0 aa 66 ce 3e 12 55 78 be b5 32 36 3e ff 16 87 3e
       0.403127 -0.24251202 0.1779278 0.26384732
0002b0 98 b1 1d 3e 63 6f ca bd a5 9c c8 bd d1 2f a3 3c
       0.15399778 -0.098845266 -0.097955026 0.019920262
0002c0 9b e0 b0 be 3e 4c 53 bd 85 05 d0 be f3 df 8d 3b
       -0.3454636 -0.051586382 -0.4062921 0.0043296753
0002d0 bb 34 1c 3f 02 57 3a 3e 01 a1 ff bd ef 73 51 be
       0.6101796 0.18197253 -0.12481881 -0.20454381
0002e0 c8 54 29 3f fb cc fc 3d 86 50 18 be 78 a0 29 3e
       0.6614499 0.123437844 -0.14874467 0.1656512
0002f0 3f 17 bb 3d 3c 54 cb be ba 79 29 be 50 ed 99 be
       0.09135293 -0.39712703 -0.16550341 -0.30063868
000300 64 81 c4 be a8 9d 82 be 05 82 51 bd 25 61 8a be
       -0.38379967 -0.25510907 -0.051149387 -0.2702724
000310 48 d5 08 be aa 7e 77 be f7 a3 8c bd d3 46 35 be
       -0.1336261 -0.24169412 -0.06867211 -0.17702799
000320 cf f4 2f 3e 0c a8 8e bd 5d d3 db bd 5a 7a a9 be
       0.17183231 -0.06965646 -0.10733674 -0.3310116
000330 76 06 73 3c b7 93 a8 be ea 5e 84 be a6 d1 ac 3e
       0.014833083 -0.32925197 -0.25853664 0.337537
000340 f3 52 14 bf 8a 01 87 3e 90 d8 ee 3e ca 60 6b 3e
       -0.5793907 0.26368362 0.466496 0.22986141
000350 2d e1 ea 3e db 4f a3 3d 50 fd 44 3e 98 6f ca be
       0.4587492 0.079742156 0.19237256 -0.39538264
000360 c7 09 98 be 87 a9 92 be fb c4 22 3e d5 fd e0 3d
       -0.2969496 -0.28644964 0.15895455 0.109859146
000370 59 a0 5f 3c f8 fe c6 bb de 22 73 bd a6 29 70 3e
       0.01364907 -0.006072875 -0.059359424 0.23453388
000380 88 d5 88 bd 63 70 26 bd 4e 8d 39 bc ea b1 2b bf
       -0.06681353 -0.040634524 -0.011325194 -0.6706835
000390 73 18 72 bd c3 96 9d 3e bf c7 3e bf b4 94 b9 3e
       -0.059105348 0.30779085 -0.7452354 0.36246264
0003a0 6a 16 a3 3e a9 62 25 be f4 75 bd 3e d9 94 1e bf
       0.31853038 -0.16150917 0.37004054 -0.61945873
0003b0 2e 95 0c 3d 10 6d 39 be a7 fe a3 3f ba 43 09 bf
       0.034321956 -0.1810801 1.2812089 -0.5361897
0003c0 72 79 08 bf 1b 66 71 be 47 52 8e 3d cb af 57 be
       -0.5331031 -0.23574106 0.06949287 -0.21063153
0003d0 d0 2c 25 be ea bf 25 be e3 c0 a4 be 6c 13 a3 3d
       -0.16130376 -0.1618649 -0.3217841 0.07962689
0003e0 0e 00 7e bd 72 7e 10 3d 8f fa a0 3e 3f 3d 0b 3c
       -0.06201177 0.035276838 0.3144116 0.008498489
0003f0 fd 95 a0 3e f0 49 ee 3d c9 6c 9a bd f9 43 7c 3e
       0.31364432 0.11635196 -0.0754028 0.24635305

block_1.c1_r.dw.bias f4 [48]
000000 1e 91 1a 3d 58 1d 3a 3e b6 f2 6e be b9 9a 83 3e
       0.03773605 0.18175256 -0.23334774 0.25703982
000010 fe 5f f3 3d b0 65 2d 3e 35 e2 12 3e 55 6c 38 3e
       0.118835434 0.16933322 0.14344104 0.18010075
000020 91 da 7d 3d 8e fc 95 bd 5b f2 16 be ff 5c 2c be
       0.06197602 -0.073235616 -0.14740889 -0.1683235
000030 53 be 5f 3d 5a f8 03 3d 65 98 9b 3d af 85 0f be
       0.054624867 0.03221927 0.07597426 -0.1401584
000040 eb 78 24 3e e7 87 27 be 8e 86 73 be 33 55 84 3e
       0.16061752 -0.16360436 -0.23781797 0.25846252
000050 7b b1 c4 3d a9 76 85 3e 03 b5 bb 3d 38 6e 82 3e
       0.09604164 0.26067093 0.091653846 0.25474715
000060 ec c0 91 bd 5e 51 f5 bd 3e ff ce 3d 23 2a bf 3d
       -0.07116875 -0.1197841 0.10107277 0.09334209
000070 67 ad c6 bd 93 ef 6f bd 04 94 fd 3d be 98 77 3e
       -0.097010426 -0.058578085 0.12381747 0.2417936
000080 89 d7 5c be 26 6c 23 be 25 9c 03 3e 25 a2 53 3e
       -0.21566595 -0.15959224 0.12852533 0.20667322
000090 bb 75 2c bc 93 f6 d9 bc 60 c2 2a 3d cb 7e 8e 3e
       -0.010526116 -0.026606834 0.041689277 0.2783111
0000a0 d5 e5 2b be 33 35 2f 3d c3 fd 52 3e e5 a1 a4 3d
       -0.16786893 0.042775344 0.20604615 0.080386914
0000b0 8c b8 9c 3e dc 85 8e be 4f f8 20 3e d2 2a 9b bc
       0.30609548 -0.27836502 0.15719722 -0.018941317

block_1.c2_r.pw.weight f4 [48, 48, 1, 1]
000000 b2 36 a0 bd d2 2a 89 3e e1 61 02 3a ef cf 8a 3e
       -0.07822932 0.26790482 0.00049736915 0.27111766
000010 3d c8 4c 3b 33 1a e0 3d 33 cd 77 3d 60 65 66 3e
       0.003124728 0.10942497 0.060498428 0.22499609
000020 1a b1 24 3d 63 ad 05 3e 30 ac 55 3d b5 5e 80 be
       0.04020796 0.13054423 0.052166164 -0.25072256
000030 6d 0a 51 3d 36 14 eb bd 50 34 f3 3c 07 f7 4a be
       0.051035333 -0.11478464 0.02968803 -0.19820796
000040 4e 3e 3b be be 68 45 3d 18 ee be bd e9 3f 0a 3d
       -0.18285486 0.048195593 -0.093227565 0.033752356
000050 ef 02 98 3d ac d4 81 3c 87 6b 3a 3e c5 cd 93 3d
       0.074224345 0.01584848 0.18205081 0.07216982
000060 f3 80 42 be e9 b2 a9 bd 97 c4 34 be ae e4 d0 3d
       -0.18994503 -0.082860775 -0.17653118 0.10199867
000070 e3 80 7f 3e fc af 4f 3d 87 17 d4 bd b0 44 43 3e
       0.2495151 0.05070494 -0.1035605 0.19069171
000080 2c 4b 88 bd 03 e5 86 be 1e 4a 06 be 75 51 94 3e
       -0.06654963 -0.26346597 -0.13114211 0.28968397
000090 2b 9a 02 bd e6 0b 86 3e f1 9c b4 be b2 80 8b be
       -0.031885307 0.26180953 -0.35275987 -0.27246624
0000a0 01 fb 17 3e 04 89 87 be d0 ff 06 be 46 61 26 3e
       0.14841844 -0.26471722 -0.13183522 0.16248044
0000b0 ad 51 16 3e 0f 99 e2 bc dc e4 f1 3b 79 62 e6 bd
       0.14679594 -0.027660875 0.0073820185 -0.11249251
0000c0 e6 76 b8 bb 3e 07 0f 3e 22 54 29 be f2 26 20 3e
       -0.005629408 0.13967606 -0.16536 0.15639856
0000d0 b7 d4 c0 3d 7b 80 8b be 4f 74 1d 3e 7c 93 f1 3c
       0.09415572 -0.2724646 0.153764 0.029489271
0000e0 c4 53 63 be 9e 80 dc bc 9c 96 d3 bc 2a ef 5a 3e
       -0.22199923 -0.026916798 -0.025828652 0.21380296
0000f0 4a 42 34 be 30 36 bf 3c df f6 26 3e ae 16 10 3e
       -0.17603412 0.023341268 0.16305111 0.14071152
000100 df a6 03 3f d0 a3 cb bd 48 9f a1 3d 09 63 7e be
       0.514265 -0.09943354 0.078917086 -0.24842466
000110 57 ae a6 be 74 e5 37 be 3b ca 52 3e 89 50 3e 3e
       -0.32554886 -0.17958623 0.20584957 0.18585409
000120 6f 1a 5c 3d fe af 0b 3d 56 1a 25 be aa 5c 48 bc
       0.053736147 0.034103386 -0.16123328 -0.012229124
000130 9d 89 9f 39 85 09 a3 3e 3d 25 a8 3c cf 50 8a bd
       0.00030429373 0.318432 0.02052557 -0.06753694
000140 8c f6 3f bc f9 aa f3 3d 90 2c 26 be a0 86 0b 3e
       -0.011716496 0.11897845 -0.16227937 0.13625574
000150 66 58 c0 3d bd f7 ae bd 36 05 80 3c d0 46 98 3d
       0.09391861 -0.08543346 0.015627485 0.074353814
000160 78 83 99 3c 17 f9 cf 3c 26 ea 95 be 67 9c db bc
       0.018739447 0.02538733 -0.29280204 -0.026807977
000170 7b 43 b9 3d 3c b7 6b bd ce 7f 39 bf 54 c9 f5 3d
       0.09046074 -0.057547793 -0.7246064 0.12001291
000180 71 4a 74 be cd b7 99 3d c1 d9 3d bd ef de d7 bd
       -0.23856522 0.0750576 -0.046350244 -0.10540568
000190 6f bc 47 3e 1e 0e 7b 3d 1e 4c d6 3d d2 e2 1e be
       0.19505475 0.06129276 0.10463737 -0.15516213
0001a0 b8 e2 9b 3d e5 84 97 3e ef 76 ea bd 89 61 a3 3d
       0.076116025 0.29593578 -0.11448466 0.07977588
0001b0 a0 cb eb bd 69 15 17 3e ea 75 52 3d ea 2b b0 be
       -0.11513448 0.14754261 0.051381983 -0.34408504
0001c0 75 da 73 be 1f 7b 05 be 2a 45 8f bd 73 17 89 be
       -0.23813803 -0.13035248 -0.06995614 -0.26775703
0001d0 04 c1 0d bd 6b 16 8b bd 8b 00 af 3d bc 82 25 3e
       -0.034607902 -0.06791385 0.085450254 0.16163152
0001e0 ad 45 2b 3e 4d 02 18 be 38 ef aa 3d 87 e5 32 be
       0.16725798 -0.14844628 0.083464086 -0.1747037
0001f0 37 b9 d2 3b 31 91 9f bd bf 75 ff bc e3 ef fb 3c
       0.0064307707 -0.07791365 -0.031184075 0.030754035
000200 e1 54 aa bd ed 21 53 3d 0b e1 a6 3c f7 a8 c7 3d
       -0.083169706 0.051546026 0.02037098 0.09749024
000210 2c 4b bb bd cf 55 ea bd c0 b1 55 be d5 7a e4 bd
       -0.09145197 -0.11442148 -0.20868587 -0.11156241
000220 dd 87 56 bd b4 15 71 bd da 66 46 bd 4f 0e 41 bd
       -0.052375663 -0.05885859 -0.04843793 -0.047132786
000230 b3 2e ce 3d 80 8f 96 3d c2 a8 8b 3d ff d6 b2 3e
       0.10067501 0.07351589 0.068192974 0.34929654
000240 c7 f3 15 3d db 7c 96 bd ff e3 b7 3d eb e7 78 be
       0.036609437 -0.07348033 0.08979034 -0.2430722
000250 18 fa ea 3d 89 ca a9 be 4d 80 9f 3d 60 b7 61 3d
       0.11473483 -0.33162335 0.07788143 0.05510652
000260 48 0d 4c bd c5 cb a8 bd d1 81 08 3d 05 bc 18 3c
       -0.049817353 -0.08241991 0.033326928 0.009322171
000270 92 ca 7e be 42 05 d1 3d 82 6e e0 3d 02 81 28 3e
       -0.24881962 0.10206081 0.10958578 0.16455463
000280 8d f7 4a be fa 82 df bd 2a 34 46 3d 4d b7 2a be
       -0.19820996 -0.10913654 0.04838959 -0.16671486
000290 08 29 25 be af d7 10 3d 54 8f 8a 3d 86 dc 14 3e
       -0.16128933 0.035361942 0.06765619 0.14537248
0002a0 55 af 94 3d cb 50 16 3d 31 50 9f 3d dc 0d 23 be
       0.072600044 0.036698144 0.07778967 -0.15923256
0002b0 5d b8 b2 3d ac 91 25 3e 3d 8e c3 3d 4b 94 3e 3d
       0.08726571 0.1616885 0.09548614 0.046528142
0002c0 a9 9e 3b be 83 8d 75 3e b1 be 98 3d 37 f8 d1 bb
       -0.18322243 0.23979764 0.074582465 -0.0064077633
0002d0 fc 9c 28 be ea 2a 71 be f7 e1 99 3e 38 e7 18 3d
       -0.16466135 -0.23551527 0.3005521 0.037329882
0002e0 c0 5c 00 bc 07 f2 2e 3e 5b c1 a8 be 58 69 3f 3e
       -0.007834613 0.17084514 -0.3296002 0.18692529
0002f0 ec 74 96 bc 87 16 12 be e5 74 35 3b ce 42 8a bd
       -0.0183663 -0.14266406 0.0027688083 -0.06751023
000300 2d 76 23 be 5b 9f 2c be 48 25 32 ba 8e a1 ad 3d
       -0.15963049 -0.16857664 -0.00067957165 0.0847808
000310 3f 1c 9f bd 48 90 4e 3c 60 30 1f be 44 a7 0a 3e
       -0.077690594 0.0126076415 -0.15545797 0.1354037
000320 a2 7c aa bd ab 86 01 be 5f 57 ad bd f2 d4 3a bb
       -0.08324553 -0.12649028 -0.0846393 -0.0028508273
000330 36 90 e6 bd 09 ec 98 3c 38 ee 13 be 73 de 29 be
       -0.11257975 0.018667238 -0.14446342 -0.16588764
000340 51 9d 5c be 65 38 1a bd 61 25 82 3d 84 a7 31 be
       -0.21544386 -0.03765144 0.06354786 -0.17349058
000350 60 30 45 bc a1 03 8c bc 62 c7 fe bc 9b 2a 05 3e
       -0.012035459 -0.017091574 -0.031100933 0.13004534
000360 37 27 22 3d c9 0e 71 be 84 80 a2 bc 54 5e eb 3c
       0.03958818 -0.23540796 -0.019836672 0.028731503
000370 7d e9 cc 3d 31 ef c3 3d a8 8d 9c bc 13 37 7b bd
       0.10005472 0.095671065 -0.019110516 -0.06133182
000380 90 10 53 bc 28 29 47 bd 20 81 6d be ff 02 12 be
       -0.012882367 -0.048623234 -0.23193789 -0.14258955
000390 76 a0 f8 bd 4f 9c ca 3d fd 56 3b 3e 66 7d 5a 3e
       -0.121399805 0.09893095 0.18294902 0.21336898
0003a0 61 cd b1 bd 61 0c b8 bd ff 6e ba bc 4b f8 39 be
       -0.08681751 -0.08986736 -0.022758005 -0.18161123
0003b0 cb 5d ec 3d 73 11 29 3d 45 64 a5 be f7 bf 24 be
       0.11541327 0.041276406 -0.32303062 -0.16088854
0003c0 40 d3 38 3e f0 71 7b 3e 2f 16 6d 3e 3d 72 63 bd
       0.18049335 0.24555182 0.23152994 -0.055528868
0003d0 62 57 ba 3e 20 e1 b3 3e 2a 65 b6 3e 35 36 7e 3e
       0.36394793 0.35132694 0.35624057 0.24825366
0003e0 51 e0 39 3e 28 00 43 3e 7b 67 dd 3d 63 47 50 be
       0.18151976 0.19043028 0.10810753 -0.20339732
0003f0 cd 4e a1 3d a1 28 02 be 06 82 02 bc 76 55 07 bd
       0.07876358 -0.12710811 -0.00796557 -0.033040486

block_1.c2_r.dw.weight f4 [48, 1, 3, 3]
000000 25 0f 09 be 7f 2f a8 3e fc 28 39 be 0a e7 83 3e
       -0.13384683 0.32848737 -0.1808204 0.25762206
000010 73 6e 7b be f6 a4 cd 3d b3 9e 09 3e 89 15 e4 3e
       -0.24553852 0.100412294 0.13439445 0.4454768
000020 11 8e d8 3e 0a a0 73 3c b9 03 eb bd cb 0c ad be
       0.42295888 0.014869699 -0.114753194 -0.33798823
000030 a5 a2 8e bd 05 58 c2 3e 38 ea 62 3e ae 6b 4e 3e
       -0.06964616 0.3795778 0.2215966 0.20158264
000040 73 4f 26 be f4 2c ab be 63 eb 2c 3f 5f e2 4a bd
       -0.16241245 -0.33432734 0.6754667 -0.04953229
000050 4b ca aa bc 4e 6b 27 3f 7e a4 03 3f 50 59 5d 3e
       -0.020848414 0.6539811 0.5142287 0.21616101
000060 2d c1 3d 3e 87 eb 88 bd bc 7e 82 be 59 75 83 3d
       0.18530722 -0.06685548 -0.25487316 0.06418867
000070 af 6b ca bd 65 e0 25 3e 0d 3d 2f 3e e2 fa a3 be
       -0.0988382 0.16198881 0.17113133 -0.32027346
000080 f0 0d eb bd 25 b4 fd bd 74 3f ac be ff 6a ac be
       -0.11477268 -0.123878755 -0.3364216 -0.33675382
000090 d6 1c ba be 29 dd 9d be b1 94 92 be 37 ef 43 be
       -0.36350125 -0.30832794 -0.28629068 -0.19134222
0000a0 4c 98 27 3f 9a b4 81 3e 38 e6 09 bf 0d 07 b3 be
       0.6546676 0.253331 -0.5386691 -0.34966317
0000b0 0c 95 71 3d 96 d5 28 3d 01 0b 1d bf 61 81 14 bc
       0.058980033 0.041219316 -0.61344916 -0.009064049
0000c0 cb 9c 8a be 99 5c da 3e ba a0 9b be 87 4c 57 bd
       -0.2707275 0.4264877 -0.30396062 -0.052563217
0000d0 a2 10 63 3e b0 39 7d be b1 18 8a 3e ba 49 c4 3c
       0.22174314 -0.24729037 0.26971963 0.023960937
0000e0 2b 9d 79 3e 76 00 10 3c 60 af 32 bf 38 66 60 3e
       0.24376361 0.008789172 -0.6979885 0.21913993
0000f0 ab 43 15 bd c0 86 69 be 62 f5 ba bc 91 ac aa be
       -0.036441486 -0.2280531 -0.022822086 -0.33334783
000100 f6 3a d3 bd 98 a6 df 3c 59 9e 59 3e 31 01 90 be
       -0.1031398 0.027301118 0.21251811 -0.2812591
000110 93 7b b7 be 4c ef 8c be 43 dd 7c be a4 07 73 3d
       -0.35836467 -0.2752632 -0.2469378 0.05933346
000120 33 50 f3 bd b8 ce 90 3e 18 a8 0b be 59 b8 c3 bd
       -0.11880531 0.28282714 -0.13638341 -0.09556646
000130 7e f1 29 bf 47 a8 93 3e 4f b6 8e 3e 69 fe c3 be
       -0.6638411 0.28839323 0.27873465 -0.38280037
000140 87 1c 4f 3d e1 e0 ad 3e 68 2b 9f 3e 2e 2c 43 be
       0.050564315 0.3396063 0.31087804 -0.19059822
000150 24 bc 1b 3e b1 9d 0b 3c 14 64 e2 be 23 ca 7a be
       0.15208489 0.008521483 -0.4421698 -0.24491172
000160 ed fd 75 3e 92 ba b6 be f8 d3 d1 3d 27 da 94 be
       0.24022646 -0.35689217 0.10245508 -0.29072687
000170 c3 88 fd bc e0 19 9f bc dc c7 2f be 9c fa 67 be
       -0.030949002 -0.019421518 -0.17166084 -0.22654194
000180 72 40 c0 3c 18 39 93 be fe 99 16 3e c9 eb 1f 3e
       0.02346823 -0.28754497 0.14707181 0.15617289
000190 42 31 cc 3e 99 04 c3 bd b7 37 20 3e 47 44 c1 3e
       0.3988133 -0.09522361 0.15646254 0.37747404
0001a0 66 5d 54 3e b8 8b 85 be 8c 4a 1f be a8 aa 4d 3e
       0.20738754 -0.2608316 -0.15555781 0.20084631
0001b0 5d 97 c6 3b 24 38 fd be 54 f0 0b bb 86 59 91 be
       0.0060605244 -0.49456894 -0.0021352964 -0.28388613
0001c0 96 6d 87 be e7 89 a3 bd 09 12 49 3e 0a 03 e6 3d
       -0.26450795 -0.07985287 0.19635786 0.112310484
0001d0 ef f5 30 be 27 a3 57 bd d7 6c 8a bd d1 e1 c2 3e
       -0.17281316 -0.05264583 -0.06759041 0.3806291
0001e0 18 fa 9d 3e d7 74 d6 3e 2d 95 8e 3e d1 b7 0c be
       0.3085487 0.41886017 0.27848187 -0.13741995
0001f0 95 51 9d bd d9 2a 1d bd 65 ee dd 3e 5d 24 44 be
       -0.07681576 -0.03837094 0.43345943 -0.19154496
000200 e6 d5 2d 3e ff 3b 00 3f 24 8b fb 3e 92 3f d8 3d
       0.16976127 0.50091547 0.49129593 0.10559
000210 e2 34 8a be 31 7c 4d 3d 34 5d 69 be 63 0f 84 be
       -0.2699347 0.050167266 -0.2278946 -0.2579299
000220 02 27 02 3f 07 ab 91 be 38 6e 99 3e 26 2f fe 3e
       0.5084077 -0.28450796 0.29966903 0.49645346
000230 1f 8c 50 bd b7 c1 c9 3b f6 bf 70 3d 34 b3 96 be
       -0.05091488 0.006157126 0.05877682 -0.29433596
000240 6f 3b cd be 66 c3 82 3e 3b 98 9c 3d 34 b7 cd 3d
       -0.40084407 0.25539702 0.07646223 0.10044709
000250 a9 b3 01 3f f0 7f 8a 3e 27 7c 4a 3d 83 ac a2 be
       0.50664765 0.27050734 0.049434807 -0.3177224
000260 77 39 af 3e af 9f 3a be 3a 57 c8 bc 77 5f ba bd
       0.3422353 -0.18224977 -0.024455655 -0.0910024
000270 99 16 c9 3e 7c c3 99 bc a9 d0 98 be 6f 12 f3 3e
       0.39275053 -0.018769972 -0.29846695 0.47475
000280 48 c0 c9 3e e7 a6 ce be 24 52 61 3e 7c 79 32 be
       0.3940451 -0.4036171 0.2200399 -0.17429155
000290 4b d5 db be 04 17 3e 3f a5 cc fb 3e ae 70 46 3e
       -0.42936167 0.7425387 0.4917957 0.19378921
0002a0 03 bd 59 be a3 de 25 3d 22 eb 6d 3e cd b1 5e 3e
       -0.21263508 0.040495526 0.23234227 0.21747513
0002b0 f4 0c 31 bf 70 d7 3a 3e 5e 7c 6d 3d fa c9 c1 bd
       -0.6916039 0.18246245 0.057979934 -0.09462352
0002c0 a9 b2 ce be f5 a7 18 3e 6a 63 61 3c 3f 6f f4 3e
       -0.40370682 0.1490782 0.013756612 0.47741124
0002d0 72 43 69 3e 8f 10 94 3e a4 0c 6f be 10 71 a4 be
       0.22779635 0.28918883 -0.23344666 -0.3211751
0002e0 60 2d 22 3f 2d 0c cf 3d d8 cf b4 be b9 ea ad be
       0.63350487 0.10109744 -0.35314822 -0.33968142
0002f0 cb 36 6d 3e 91 4c d0 be 1c c7 5b bc 63 ac 50 be
       0.23165433 -0.40683416 -0.013414171 -0.2037826
000300 69 03 a4 bb f6 e2 10 3c 9b af cc bd fb 2f 04 bf
       -0.0050052893 0.008843174 -0.099944316 -0.5163571
000310 58 e2 39 3e 3b 24 84 be 6f 9f 22 bf 57 13 34 3e
       0.1815275 -0.25808892 -0.63524526 0.17585503
000320 4a 8f 81 3a 0c 6d e3 be dd 1e 06 be 88 53 9e 3e
       0.0009884622 -0.44419134 -0.13097711 0.30923104
000330 4f 44 0c bd f3 c5 6a 3e bf 4d 75 3e 29 9c 43 3e
       -0.03424483 0.22927074 0.23955439 0.19102539
000340 19 37 35 3e f1 22 87 be d2 dc 0b bf 0e a8 47 bc
       0.176968 -0.26393846 -0.5463382 -0.012186063
000350 3f 45 35 be f2 84 f3 bd 37 1d dc 3e bb 90 e7 be
       -0.17702197 -0.11890592 0.4299104 -0.45227608
000360 cc 6b f2 3e 39 d4 1e 3f 48 d8 98 3e 2d d3 28 3f
       0.47347867 0.62042576 0.2985251 0.6594723
000370 3c 5c b8 3e 6f 23 7e 3d e7 a9 37 be b5 77 6b be
       0.3600787 0.06204551 -0.17935906 -0.22994883
000380 d0 e6 0d 3f 9c 8e 26 3d f1 39 4a be a0 dc a0 be
       0.55430317 0.040663347 -0.19748665 -0.31418324
000390 8d 6a f1 bc cc d0 9b be 4c 6f c2 be 96 a4 e8 bd
       -0.029469753 -0.30432737 -0.37975538 -0.11359517
0003a0 11 6e 2a 3d d5 cd 9f be 8c 24 db 3e f3 ea 8a bd
       0.041608874 -0.31211725 0.4280132 -0.06783094
0003b0 08 d8 09 be 26 7b 11 3d 77 19 3d bf 99 d4 9e 3e
       -0.13461316 0.035517834 -0.7386698 0.31021574
0003c0 f5 9d 8e be 6f 84 11 3e 0d 15 84 be b5 4a 0b 3f
       -0.27854887 0.14210676 -0.2579731 0.5441087
0003d0 e9 b6 9c be 95 0a 1e be 8c 62 31 bd 58 7a c5 3d
       -0.306083 -0.15433724 -0.043306872 0.09642476
0003e0 fa fb f9 3c c5 2b 46 be 63 43 0a bf 58 05 d4 3e
       0.03051566 -0.19352634 -0.54009074 0.41410327
0003f0 4d fa f2 be 1c cc 09 3d 5e c1 a1 be 40 6f 8e 3e
       -0.4745659 0.03364192 -0.3159284 0.27819252

block_1.c2_r.dw.bias f4 [48]
000000 ad 35 67 be 01 4f 79 3b 44 eb 35 be 5b 96 80 3e
       -0.2257907 0.0038041475 -0.17765528 0.25114712
000010 a5 80 64 3e 87 ef 58 bd 7c b4 0f be 1a e2 07 be
       0.22314699 -0.052962806 -0.14033693 -0.13269845
000020 4b 25 e1 bd 86 d6 f3 bd 21 49 20 bd 4c 06 38 3e
       -0.10993441 -0.119061515 -0.03913224 0.17971152
000030 c4 2a 84 be 00 ef d0 3d af 23 86 be bb 61 0f be
       -0.25813878 0.10201836 -0.261991 -0.14002125
000040 22 55 29 be a6 27 0d 3e ce ae 4d 3d 5d f2 75 bd
       -0.16536382 0.13784656 0.050215535 -0.06004559
000050 73 81 6a be 80 68 00 be 75 37 a2 be 82 55 91 3d
       -0.22900943 -0.12539864 -0.31682935 0.070963874
000060 d4 c1 d1 3d 4c f7 64 3b 62 91 c2 3d 1f 26 d9 bd
       0.10242048 0.003493744 0.09500386 -0.10602974
000070 ce c4 df 3d b0 8f 33 be 8a c9 aa bd 7b ea 22 3e
       0.109262094 -0.17535281 -0.08339222 0.1590976
000080 7b 47 51 3e 4b 3f 84 3d e4 a4 63 bd 3b 66 2e bd
       0.20437424 0.06457385 -0.055577174 -0.042577963
000090 67 8f 65 be c0 56 36 bd 4c 10 93 bd d0 5b 03 3e
       -0.22417985 -0.044516325 -0.07180843 0.12827992
0000a0 80 89 5d be 92 4a 8c 3d c2 74 79 3d 52 5d 8e be
       -0.21634483 0.06850161 0.060902365 -0.27805573
0000b0 4e 3a 1c be 6e d5 0b 3e 25 4a db bc 71 54 35 3e
       -0.15256616 0.13655636 -0.026768753 0.17707993

block_1.c3_r.pw.weight f4 [48, 48, 1, 1]
000000 1d d3 00 3e cb 1e 4f 3b 30 54 cc 3d ed f3 05 3e
       0.12580533 0.0031604047 0.09976995 0.13081332
000010 55 dd 2c bd c2 71 0f bd 50 43 b0 3d 03 8b ad bd
       -0.042203266 -0.035020597 0.08606589 -0.0847378
000020 5e 44 8d bd ef 93 89 bc 83 3d 86 3d 8c f3 08 3d
       -0.06897806 -0.016794173 0.06554701 0.03343539
000030 99 d6 68 bd 37 7c a1 bc 56 d0 fe bd 9c 4a 06 3e
       -0.05684528 -0.01971255 -0.12442081 0.13114399
000040 15 68 06 bd 0c f6 33 3c 6c c1 d8 3d a0 03 ff bc
       -0.032814104 0.010983955 0.10583767 -0.031129658
000050 95 9a 72 3d 05 e1 38 bd c5 6c c7 3d 23 de f6 3d
       0.059229452 -0.04513647 0.09737543 0.12054088
000060 7b f1 9e 3d 59 79 0a 3e 6f 63 21 be 66 5c fc 3d
       0.077609025 0.13522853 -0.15760587 0.12322311
000070 9e f9 ec bd 28 dc 62 bd 4d 97 ad 3d b1 71 22 be
       -0.11571048 -0.05538574 0.08476124 -0.15863682
000080 94 4c 90 bc 6a e8 3e bd a4 38 dc 3d 1f de f6 bb
       -0.01761464 -0.046608366 0.10752991 -0.007533803
000090 e9 59 99 3c ef b1 10 3e dd c5 96 3d b8 02 ab bd
       0.01871963 0.14130376 0.07361958 -0.08350128
0000a0 45 57 06 3d e8 6e 35 be 60 80 1d 3e ee f2 81 3d
       0.03279807 -0.17718089 0.15381002 0.06345163
0000b0 88 06 e0 bc 06 a4 0e 3e 15 98 8d be f6 80 e8 3d
       -0.027346864 0.13929757 -0.27655092 0.11352722
0000c0 71 98 e8 bd 85 0f 20 bd 54 13 2a 3e b0 4e ff 3d
       -0.11357201 -0.0390773 0.16608936 0.1246618
0000d0 b2 a0 b4 3d e6 d8 bf bc cc 15 d3 3c 76 b3 d3 3d
       0.08819713 -0.023418855 0.02576723 0.10336964
0000e0 9a 9f 25 bc 10 58 5b 3e 0f d7 54 3e 7c 10 a4 3e
       -0.010108853 0.21420312 0.20785163 0.32043827
0000f0 f5 dc 14 bc 79 39 db 3b 76 d5 58 3d 13 87 49 3c
       -0.009085883 0.006690201 0.052937947 0.012300271
000100 65 da 41 3d 0a bd 0d 3d e2 22 0e be 46 f0 18 be
       0.047327418 0.03460411 -0.13880494 -0.14935407
000110 fd 2c 48 bd f0 61 29 bd e2 e6 58 3d cf b5 a7 be
       -0.04887103 -0.041353166 0.052954562 -0.32755896
000120 92 30 8b 3e 6b 22 1e bd c9 7c fa 3a d1 3e 98 bb
       0.27185494 -0.038607042 0.0019110675 -0.00464616
000130 4f b3 1d 3e 48 86 11 be 28 17 40 3e f1 74 9a 3d
       0.15400432 -0.1421138 0.18758833 0.07541836
000140 f6 9f 04 3e 9f 88 9c bd ce 4e ef bd ce ca 06 3e
       0.12951645 -0.07643246 -0.11684953 0.13163301
000150 d7 a1 b3 3d 06 dc 16 bf 17 8b ac bd 44 97 aa bd
       0.08771103 -0.5892948 -0.08424967 -0.08329633
000160 fd 99 bf bd bc 91 a1 3d cc e5 a3 bd 27 3f 36 bd
       -0.09355543 0.07889125 -0.08002815 -0.04449382
000170 19 a3 a3 3d 68 41 dc bd f2 6a ae bd 3c 17 51 3c
       0.07990093 -0.10754663 -0.08516492 0.012761887
000180 6b 33 73 bd c8 5e e7 39 b7 cb 63 3d 99 f8 0c be
       -0.059375208 0.0004413037 0.0556142 -0.13766707
000190 d4 f8 d9 bb 91 4a 98 3e 71 e0 76 3e 1d bc ad bd
       -0.006651977 0.2974439 0.24109055 -0.084831454
0001a0 02 24 0f be 07 f1 21 3c 6b a9 33 3d b1 0f a4 bd
       -0.1397858 0.009884126 0.04386274 -0.080108054
0001b0 df 81 f4 bd 4f 2b a6 3c 34 b0 17 3d 09 45 94 bd
       -0.119388334 0.020284323 0.037033275 -0.0723973
0001c0 69 4d 0a 3c 5b b2 ac bd fb 2b ae 3d 8a 48 03 3e
       0.008441308 -0.08432456 0.08504482 0.1282064
0001d0 20 ff 2d 3e 36 6a 98 3d 72 5f 87 3d 0c d6 22 bd
       0.16991854 0.07442133 0.066100016 -0.039754912
0001e0 34 e8 56 be d2 11 7e bc 8c 83 12 bd 36 f2 43 3e
       -0.20987016 -0.015507178 -0.035769984 0.19135365
0001f0 9f 6a 69 3d 51 08 d3 3e 3f 68 48 be b5 52 8b 3e
       0.056986447 0.41217282 -0.19571017 0.27211538
000200 a9 0c f0 bd 25 af 50 3e 6e 15 00 3e eb 1d fb 3d
       -0.11721165 0.20379312 0.12508175 0.12261566
000210 8f 47 81 3e 8f ee 36 3e d0 3f ef bc dc 52 ae bc
       0.25249907 0.1786444 -0.029205233 -0.021279745
000220 49 dd f2 bd 0b 54 87 be bd c8 5d 3e 6a b7 c0 3d
       -0.11858613 -0.26431307 0.21658607 0.094099835
000230 ae e1 aa 3c 13 21 6a 3e 07 c3 25 3e f3 46 1e 3e
       0.020859566 0.2286418 0.16187678 0.15456752
000240 98 b7 1e 3e d8 7a 3d 3e 74 49 44 be 99 56 1e 3d
       0.15499723 0.18503892 -0.19168645 0.038656805
000250 bd 9d d0 3d e2 ef 0a 3e 6d 5a 47 be b2 c5 03 be
       0.10186336 0.1356807 -0.19468088 -0.12868384
000260 f3 37 db 3d 4b 76 6c be 71 e5 3e bd 08 41 f9 3c
       0.10704031 -0.23092 -0.04660553 0.030426517
000270 fe b7 68 bb 26 2d d3 3d 24 ea 9b 3c 8d 69 48 3d
       -0.0035510059 0.10311346 0.019032545 0.048928786
000280 43 31 a0 bc 81 98 19 3d 04 34 7b bd 9d f9 08 3d
       -0.01955474 0.037498955 -0.061328903 0.033441175
000290 ec 99 2f 3e 63 58 b8 3d 92 bc 92 3e 36 2d 55 bd
       0.1714856 0.090012334 0.28659493 -0.05204507
0002a0 24 e8 98 bd 94 1a e8 3d 02 22 1d be ba 5a 85 bb
       -0.07466152 0.113331944 -0.15345004 -0.0040696533
0002b0 47 0a 9a 3d 3e 8f 1a be 33 e3 c2 3d 6c 51 eb bd
       0.075214915 -0.15093705 0.09515991 -0.11490139
0002c0 95 f4 0d 3e f8 12 36 bd ad 6b 6c bd 9d 6f 2d be
       0.13862832 -0.044451684 -0.057719875 -0.16937108
0002d0 bd 18 ae 3d cb 9f 1d be a6 16 4c be c2 c5 70 be
       0.08500812 -0.15392987 -0.19930515 -0.23512939
0002e0 cd d4 a7 3d fb 5f 49 be ee 98 9d bd 8a 78 0f 3e
       0.081948854 -0.1966552 -0.07695185 0.14010826
0002f0 e8 c8 d9 3d 0e 4d 68 bd a9 d3 a2 bc 02 16 22 be
       0.10634023 -0.05671411 -0.019876318 -0.15828708
000300 ca 97 43 bd 3c e9 34 be 7f e8 b0 be 4a 70 ec 3c
       -0.04775218 -0.17667097 -0.3455238 0.028862137
000310 c9 ca 94 bd fc ca 55 3a f5 a8 89 3d c8 3e 1d 3e
       -0.07265241 0.0008155552 0.06721679 0.1535598
000320 7d da 34 be f1 c6 8a be 49 22 96 3d 54 8c 1a be
       -0.17661472 -0.27104905 0.07330758 -0.15092593
000330 6f bd 29 3d c8 2e d0 bd 1c 65 ee 3d 7e c6 47 3e
       0.041440424 -0.10165173 0.11640379 0.19509313
000340 df 2b 36 3e 1e f7 b2 3e 4e fb 92 bc 12 d1 bb 3d
       0.17790173 0.3495416 -0.017942097 0.09170736
000350 ad ab 1f 3e 2b 5a 96 3d 31 49 d1 3d bc 65 84 be
       0.15592833 0.07341417 0.10219038 -0.25858867
000360 46 78 ee bd 69 64 f9 bd 43 2f 14 bd 39 c5 5c bd
       -0.11644034 -0.12177355 -0.036177885 -0.053899024
000370 f4 3d 25 be 98 3e 05 be 37 e4 e3 bd 33 9e b2 be
       -0.16136914 -0.13012159 -0.11127513 -0.3488632
000380 ed 8a 1d 3e 61 a7 ae bc f3 4b d4 3d c9 6c e3 bd
       0.15385027 -0.021320047 0.10366049 -0.111047335
000390 57 a1 9c be d0 8c 59 3e a1 24 35 be fd 37 90 3e
       -0.30591843 0.21245122 -0.17689754 0.28167716
0003a0 0b 76 c8 3d 72 c4 a0 be cc f2 f5 3c ef 68 04 be
       0.0978814 -0.31399876 0.030023001 -0.12930654
0003b0 73 d9 31 be ba 74 90 3c a4 17 88 3d a7 1b 10 3e
       -0.17368107 0.017633785 0.06645134 0.14073049
0003c0 0b fa e1 3d 81 fa 5c bd 27 a9 2c be c9 0c 77 3e
       0.1103402 -0.053949837 -0.16861401 0.24125971
0003d0 9e 3b ea 3d 6f ac fd bd 10 0f 05 bc 58 03 3f bc
       0.11437152 -0.12386405 -0.008121267 -0.011658512
0003e0 d9 af 33 3e 4f 52 d3 bd 19 f0 96 be c9 49 9b 3d
       0.1754755 -0.103184335 -0.29480055 0.07582433
0003f0 31 62 09 be 19 5d b1 3d 6f 66 ba 3d a4 ce fb bb
       -0.13416363 0.08660335 0.09101569 -0.0076845456
